#map = affine_map<(d0, d1) -> (d0, d1)>
#map1 = affine_map<(d0, d1) -> (d1, d0)>
#map2 = affine_map<(d0, d1, d2) -> (d1, d2)>
#map3 = affine_map<(d0, d1, d2) -> (d0, d1, d2)>
#map4 = affine_map<(d0, d1, d2, d3) -> (d0, d1, d2, d3)>
#map5 = affine_map<(d0, d1, d2, d3) -> (d0, d2, d1, d3)>
#map6 = affine_map<(d0, d1, d2, d3) -> (d0, d1, d3, d2)>
#map7 = affine_map<(d0, d1, d2, d3) -> ()>
#map8 = affine_map<(d0, d1, d2, d3) -> (d0, d1, d2, 0)>
#map9 = affine_map<(d0, d1, d2) -> (d2)>
module attributes {torch.debug_module_name = "SelfAttention"} {
  ml_program.global private mutable @global_seed(dense<0> : tensor<i64>) : tensor<i64>
  func.func @forward(%arg0: tensor<10x20x128xf32>) -> tensor<10x20x128xf32> {
    %cst = arith.constant dense<"…"> : tensor<128x128xf32>
    %cst_0 = arith.constant dense<"…"> : tensor<128xf32>
    %cst_1 = arith.constant dense<4.000000e+00> : tensor<f64>
    %cst_2 = arith.constant dense<"…"> : tensor<384x128xf32>
    %c0_i64 = arith.constant 0 : i64
    %cst_3 = arith.constant 0.000000e+00 : f32
    %cst_4 = arith.constant 0xFF800000 : f32
    %0 = tensor.empty() : tensor<128x384xf32>
    %1 = linalg.generic {indexing_maps = [#map, #map1], iterator_types = ["parallel", "parallel"]} ins(%cst_2 : tensor<384x128xf32>) outs(%0 : tensor<128x384xf32>) {
    ^bb0(%in: f32, %out: f32):
      linalg.yield %in : f32
    } -> tensor<128x384xf32>
    %2 = tensor.empty() : tensor<10x128x384xf32>
    %3 = linalg.generic {indexing_maps = [#map2, #map3], iterator_types = ["parallel", "parallel", "parallel"]} ins(%1 : tensor<128x384xf32>) outs(%2 : tensor<10x128x384xf32>) {
    ^bb0(%in: f32, %out: f32):
      linalg.yield %in : f32
    } -> tensor<10x128x384xf32>
    %4 = tensor.empty() : tensor<10x20x384xf32>
    %5 = linalg.fill ins(%cst_3 : f32) outs(%4 : tensor<10x20x384xf32>) -> tensor<10x20x384xf32>
    %6 = linalg.batch_matmul ins(%arg0, %3 : tensor<10x20x128xf32>, tensor<10x128x384xf32>) outs(%5 : tensor<10x20x384xf32>) -> tensor<10x20x384xf32>
    %extracted_slice = tensor.extract_slice %6[0, 0, 0] [10, 20, 128] [1, 1, 1] : tensor<10x20x384xf32> to tensor<10x20x128xf32>
    %extracted_slice_5 = tensor.extract_slice %6[0, 0, 128] [10, 20, 128] [1, 1, 1] : tensor<10x20x384xf32> to tensor<10x20x128xf32>
    %extracted_slice_6 = tensor.extract_slice %6[0, 0, 256] [10, 20, 128] [1, 1, 1] : tensor<10x20x384xf32> to tensor<10x20x128xf32>
    %collapsed = tensor.collapse_shape %extracted_slice [[0], [1, 2]] : tensor<10x20x128xf32> into tensor<10x2560xf32>
    %expanded = tensor.expand_shape %collapsed [[0], [1, 2, 3]] : tensor<10x2560xf32> into tensor<10x8x20x16xf32>
    %7 = tensor.empty() : tensor<10x20x8x16xf32>
    %8 = linalg.generic {indexing_maps = [#map4, #map5], iterator_types = ["parallel", "parallel", "parallel", "parallel"]} ins(%expanded : tensor<10x8x20x16xf32>) outs(%7 : tensor<10x20x8x16xf32>) {
    ^bb0(%in: f32, %out: f32):
      linalg.yield %in : f32
    } -> tensor<10x20x8x16xf32>
    %collapsed_7 = tensor.collapse_shape %extracted_slice_5 [[0], [1, 2]] : tensor<10x20x128xf32> into tensor<10x2560xf32>
    %expanded_8 = tensor.expand_shape %collapsed_7 [[0], [1, 2, 3]] : tensor<10x2560xf32> into tensor<10x8x20x16xf32>
    %9 = linalg.generic {indexing_maps = [#map4, #map5], iterator_types = ["parallel", "parallel", "parallel", "parallel"]} ins(%expanded_8 : tensor<10x8x20x16xf32>) outs(%7 : tensor<10x20x8x16xf32>) {
    ^bb0(%in: f32, %out: f32):
      linalg.yield %in : f32
    } -> tensor<10x20x8x16xf32>
    %collapsed_9 = tensor.collapse_shape %extracted_slice_6 [[0], [1, 2]] : tensor<10x20x128xf32> into tensor<10x2560xf32>
    %expanded_10 = tensor.expand_shape %collapsed_9 [[0], [1, 2, 3]] : tensor<10x2560xf32> into tensor<10x8x20x16xf32>
    %10 = linalg.generic {indexing_maps = [#map4, #map5], iterator_types = ["parallel", "parallel", "parallel", "parallel"]} ins(%expanded_10 : tensor<10x8x20x16xf32>) outs(%7 : tensor<10x20x8x16xf32>) {
    ^bb0(%in: f32, %out: f32):
      linalg.yield %in : f32
    } -> tensor<10x20x8x16xf32>
    %11 = tensor.empty() : tensor<10x20x16x8xf32>
    %12 = linalg.generic {indexing_maps = [#map4, #map6], iterator_types = ["parallel", "parallel", "parallel", "parallel"]} ins(%9 : tensor<10x20x8x16xf32>) outs(%11 : tensor<10x20x16x8xf32>) {
    ^bb0(%in: f32, %out: f32):
      linalg.yield %in : f32
    } -> tensor<10x20x16x8xf32>
    %collapsed_11 = tensor.collapse_shape %8 [[0, 1], [2], [3]] : tensor<10x20x8x16xf32> into tensor<200x8x16xf32>
    %collapsed_12 = tensor.collapse_shape %12 [[0, 1], [2], [3]] : tensor<10x20x16x8xf32> into tensor<200x16x8xf32>
    %13 = tensor.empty() : tensor<200x8x8xf32>
    %14 = linalg.fill ins(%cst_3 : f32) outs(%13 : tensor<200x8x8xf32>) -> tensor<200x8x8xf32>
    %15 = linalg.batch_matmul ins(%collapsed_11, %collapsed_12 : tensor<200x8x16xf32>, tensor<200x16x8xf32>) outs(%14 : tensor<200x8x8xf32>) -> tensor<200x8x8xf32>
    %expanded_13 = tensor.expand_shape %15 [[0, 1], [2], [3]] : tensor<200x8x8xf32> into tensor<10x20x8x8xf32>
    %16 = tensor.empty() : tensor<10x20x8x8xf32>
    %17 = linalg.generic {indexing_maps = [#map4, #map7, #map4], iterator_types = ["parallel", "parallel", "parallel", "parallel"]} ins(%expanded_13, %cst_1 : tensor<10x20x8x8xf32>, tensor<f64>) outs(%16 : tensor<10x20x8x8xf32>) {
    ^bb0(%in: f32, %in_19: f64, %out: f32):
      %41 = arith.truncf %in_19 : f64 to f32
      %42 = arith.divf %in, %41 : f32
      linalg.yield %42 : f32
    } -> tensor<10x20x8x8xf32>
    %18 = tensor.empty() : tensor<10x20x8x1xi64>
    %19 = linalg.fill ins(%c0_i64 : i64) outs(%18 : tensor<10x20x8x1xi64>) -> tensor<10x20x8x1xi64>
    %20 = tensor.empty() : tensor<10x20x8x1xf32>
    %21 = linalg.fill ins(%cst_4 : f32) outs(%20 : tensor<10x20x8x1xf32>) -> tensor<10x20x8x1xf32>
    %22:2 = linalg.generic {indexing_maps = [#map4, #map8, #map8], iterator_types = ["parallel", "parallel", "parallel", "reduction"]} ins(%17 : tensor<10x20x8x8xf32>) outs(%21, %19 : tensor<10x20x8x1xf32>, tensor<10x20x8x1xi64>) {
    ^bb0(%in: f32, %out: f32, %out_19: i64):
      %41 = linalg.index 3 : index
      %42 = arith.index_cast %41 : index to i64
      %43 = arith.maximumf %in, %out : f32
      %44 = arith.cmpf ogt, %in, %out : f32
      %45 = arith.select %44, %42, %out_19 : i64
      linalg.yield %43, %45 : f32, i64
    } -> (tensor<10x20x8x1xf32>, tensor<10x20x8x1xi64>)
    %23 = linalg.generic {indexing_maps = [#map4, #map8, #map4], iterator_types = ["parallel", "parallel", "parallel", "parallel"]} ins(%17, %22#0 : tensor<10x20x8x8xf32>, tensor<10x20x8x1xf32>) outs(%16 : tensor<10x20x8x8xf32>) {
    ^bb0(%in: f32, %in_19: f32, %out: f32):
      %41 = arith.subf %in, %in_19 : f32
      linalg.yield %41 : f32
    } -> tensor<10x20x8x8xf32>
    %24 = linalg.generic {indexing_maps = [#map4, #map4], iterator_types = ["parallel", "parallel", "parallel", "parallel"]} ins(%23 : tensor<10x20x8x8xf32>) outs(%16 : tensor<10x20x8x8xf32>) {
    ^bb0(%in: f32, %out: f32):
      %41 = math.exp %in : f32
      linalg.yield %41 : f32
    } -> tensor<10x20x8x8xf32>
    %25 = linalg.fill ins(%cst_3 : f32) outs(%20 : tensor<10x20x8x1xf32>) -> tensor<10x20x8x1xf32>
    %26 = linalg.generic {indexing_maps = [#map4, #map8], iterator_types = ["parallel", "parallel", "parallel", "reduction"]} ins(%24 : tensor<10x20x8x8xf32>) outs(%25 : tensor<10x20x8x1xf32>) {
    ^bb0(%in: f32, %out: f32):
      %41 = arith.addf %in, %out : f32
      linalg.yield %41 : f32
    } -> tensor<10x20x8x1xf32>
    %27 = linalg.generic {indexing_maps = [#map4, #map8, #map4], iterator_types = ["parallel", "parallel", "parallel", "parallel"]} ins(%24, %26 : tensor<10x20x8x8xf32>, tensor<10x20x8x1xf32>) outs(%16 : tensor<10x20x8x8xf32>) {
    ^bb0(%in: f32, %in_19: f32, %out: f32):
      %41 = arith.divf %in, %in_19 : f32
      linalg.yield %41 : f32
    } -> tensor<10x20x8x8xf32>
    %collapsed_14 = tensor.collapse_shape %27 [[0, 1], [2], [3]] : tensor<10x20x8x8xf32> into tensor<200x8x8xf32>
    %collapsed_15 = tensor.collapse_shape %10 [[0, 1], [2], [3]] : tensor<10x20x8x16xf32> into tensor<200x8x16xf32>
    %28 = tensor.empty() : tensor<200x8x16xf32>
    %29 = linalg.fill ins(%cst_3 : f32) outs(%28 : tensor<200x8x16xf32>) -> tensor<200x8x16xf32>
    %30 = linalg.batch_matmul ins(%collapsed_14, %collapsed_15 : tensor<200x8x8xf32>, tensor<200x8x16xf32>) outs(%29 : tensor<200x8x16xf32>) -> tensor<200x8x16xf32>
    %expanded_16 = tensor.expand_shape %30 [[0, 1], [2], [3]] : tensor<200x8x16xf32> into tensor<10x20x8x16xf32>
    %31 = tensor.empty() : tensor<10x8x20x16xf32>
    %32 = linalg.generic {indexing_maps = [#map4, #map5], iterator_types = ["parallel", "parallel", "parallel", "parallel"]} ins(%expanded_16 : tensor<10x20x8x16xf32>) outs(%31 : tensor<10x8x20x16xf32>) {
    ^bb0(%in: f32, %out: f32):
      linalg.yield %in : f32
    } -> tensor<10x8x20x16xf32>
    %collapsed_17 = tensor.collapse_shape %32 [[0], [1, 2, 3]] : tensor<10x8x20x16xf32> into tensor<10x2560xf32>
    %expanded_18 = tensor.expand_shape %collapsed_17 [[0], [1, 2]] : tensor<10x2560xf32> into tensor<10x20x128xf32>
    %33 = tensor.empty() : tensor<128x128xf32>
    %34 = linalg.generic {indexing_maps = [#map, #map1], iterator_types = ["parallel", "parallel"]} ins(%cst : tensor<128x128xf32>) outs(%33 : tensor<128x128xf32>) {
    ^bb0(%in: f32, %out: f32):
      linalg.yield %in : f32
    } -> tensor<128x128xf32>
    %35 = tensor.empty() : tensor<10x128x128xf32>
    %36 = linalg.generic {indexing_maps = [#map2, #map3], iterator_types = ["parallel", "parallel", "parallel"]} ins(%34 : tensor<128x128xf32>) outs(%35 : tensor<10x128x128xf32>) {
    ^bb0(%in: f32, %out: f32):
      linalg.yield %in : f32
    } -> tensor<10x128x128xf32>
    %37 = tensor.empty() : tensor<10x20x128xf32>
    %38 = linalg.fill ins(%cst_3 : f32) outs(%37 : tensor<10x20x128xf32>) -> tensor<10x20x128xf32>
    %39 = linalg.batch_matmul ins(%expanded_18, %36 : tensor<10x20x128xf32>, tensor<10x128x128xf32>) outs(%38 : tensor<10x20x128xf32>) -> tensor<10x20x128xf32>
    %40 = linalg.generic {indexing_maps = [#map3, #map9, #map3], iterator_types = ["parallel", "parallel", "parallel"]} ins(%39, %cst_0 : tensor<10x20x128xf32>, tensor<128xf32>) outs(%37 : tensor<10x20x128xf32>) {
    ^bb0(%in: f32, %in_19: f32, %out: f32):
      %41 = arith.addf %in, %in_19 : f32
      linalg.yield %41 : f32
    } -> tensor<10x20x128xf32>
    return %40 : tensor<10x20x128xf32>
  }
}

