#map = affine_map<(d0, d1) -> (0, d1)>
#map1 = affine_map<(d0, d1) -> (d0, d1)>
#map2 = affine_map<(d0, d1, d2) -> (d0, d1)>
#map3 = affine_map<(d0, d1, d2) -> (d0, d1, d2)>
#map4 = affine_map<(d0, d1, d2) -> (0, 0, d2)>
#map5 = affine_map<(d0, d1, d2) -> (0, d1, 0)>
#map6 = affine_map<(d0, d1, d2) -> (0, d1, d2)>
#map7 = affine_map<(d0, d1, d2) -> (0, 0, 0)>
#map8 = affine_map<(d0, d1) -> (d1)>
#map9 = affine_map<(d0, d1, d2, d3) -> (0, d1, d2, d3)>
#map10 = affine_map<(d0, d1, d2, d3) -> (0, 0, d2, d3)>
#map11 = affine_map<(d0, d1, d2, d3) -> (d0, d1, d2, d3)>
#map12 = affine_map<(d0, d1, d2, d3) -> (0, d1, d2, 0)>
module attributes {tfl.description = "TOCO Converted.", tfl.schema_version = 3 : i32} {
  func.func @main(%arg0: tensor<1x384xi32>, %arg1: tensor<1x384xi32>, %arg2: tensor<1x384xi32>) -> (tensor<1x384xf32>, tensor<1x384xf32>) attributes {tf.entry_function = {inputs = "input_ids,input_mask,segment_ids", outputs = "end_logits,start_logits"}} {
    %cst = arith.constant 3.40282347E+38 : f32
    %cst_0 = arith.constant 1.000000e+00 : f32
    %cst_1 = arith.constant -3.40282347E+38 : f32
    %c1 = arith.constant 1 : index
    %c0 = arith.constant 0 : index
    %cst_2 = arith.constant 0.000000e+00 : f32
    %cst_3 = arith.constant dense_resource<__elided__> : tensor<1x1x512xf32>
    %cst_4 = arith.constant dense_resource<__elided__> : tensor<1x1x512xf32>
    %cst_5 = arith.constant dense_resource<__elided__> : tensor<1x1x128xf32>
    %cst_6 = arith.constant dense_resource<__elided__> : tensor<1x1x128xf32>
    %cst_7 = arith.constant dense_resource<__elided__> : tensor<1x1x128xf32>
    %cst_8 = arith.constant dense_resource<__elided__> : tensor<1x1x128xf32>
    %cst_9 = arith.constant dense_resource<__elided__> : tensor<1x1x128xf32>
    %cst_10 = arith.constant dense_resource<__elided__> : tensor<1x1x128xf32>
    %cst_11 = arith.constant dense_resource<__elided__> : tensor<1x1x128xf32>
    %cst_12 = arith.constant dense_resource<__elided__> : tensor<1x1x128xf32>
    %cst_13 = arith.constant dense_resource<__elided__> : tensor<1x1x128xf32>
    %cst_14 = arith.constant dense_resource<__elided__> : tensor<1x1x128xf32>
    %cst_15 = arith.constant dense_resource<__elided__> : tensor<1x1x512xf32>
    %cst_16 = arith.constant dense_resource<__elided__> : tensor<1x1x512xf32>
    %cst_17 = arith.constant dense_resource<__elided__> : tensor<1x1x128xf32>
    %cst_18 = arith.constant dense_resource<__elided__> : tensor<1x1x128xf32>
    %cst_19 = arith.constant dense_resource<__elided__> : tensor<1x1x128xf32>
    %cst_20 = arith.constant dense_resource<__elided__> : tensor<1x1x128xf32>
    %cst_21 = arith.constant dense_resource<__elided__> : tensor<1x1x128xf32>
    %cst_22 = arith.constant dense_resource<__elided__> : tensor<1x1x128xf32>
    %cst_23 = arith.constant dense_resource<__elided__> : tensor<1x1x128xf32>
    %cst_24 = arith.constant dense_resource<__elided__> : tensor<1x1x128xf32>
    %cst_25 = arith.constant dense_resource<__elided__> : tensor<1x1x128xf32>
    %cst_26 = arith.constant dense_resource<__elided__> : tensor<1x1x128xf32>
    %cst_27 = arith.constant dense_resource<__elided__> : tensor<1x1x512xf32>
    %cst_28 = arith.constant dense_resource<__elided__> : tensor<1x1x512xf32>
    %cst_29 = arith.constant dense_resource<__elided__> : tensor<1x1x128xf32>
    %cst_30 = arith.constant dense_resource<__elided__> : tensor<1x1x128xf32>
    %cst_31 = arith.constant dense_resource<__elided__> : tensor<1x1x128xf32>
    %cst_32 = arith.constant dense_resource<__elided__> : tensor<1x1x128xf32>
    %cst_33 = arith.constant dense_resource<__elided__> : tensor<1x1x128xf32>
    %cst_34 = arith.constant dense_resource<__elided__> : tensor<1x1x128xf32>
    %cst_35 = arith.constant dense_resource<__elided__> : tensor<1x1x128xf32>
    %cst_36 = arith.constant dense_resource<__elided__> : tensor<1x1x128xf32>
    %cst_37 = arith.constant dense_resource<__elided__> : tensor<1x1x128xf32>
    %cst_38 = arith.constant dense_resource<__elided__> : tensor<1x1x128xf32>
    %cst_39 = arith.constant dense_resource<__elided__> : tensor<1x1x512xf32>
    %cst_40 = arith.constant dense_resource<__elided__> : tensor<1x1x512xf32>
    %cst_41 = arith.constant dense_resource<__elided__> : tensor<1x1x128xf32>
    %cst_42 = arith.constant dense_resource<__elided__> : tensor<1x1x128xf32>
    %cst_43 = arith.constant dense_resource<__elided__> : tensor<1x1x128xf32>
    %cst_44 = arith.constant dense_resource<__elided__> : tensor<1x1x128xf32>
    %cst_45 = arith.constant dense_resource<__elided__> : tensor<1x1x128xf32>
    %cst_46 = arith.constant dense_resource<__elided__> : tensor<1x1x128xf32>
    %cst_47 = arith.constant dense_resource<__elided__> : tensor<1x1x128xf32>
    %cst_48 = arith.constant dense_resource<__elided__> : tensor<1x1x128xf32>
    %cst_49 = arith.constant dense_resource<__elided__> : tensor<1x1x128xf32>
    %cst_50 = arith.constant dense_resource<__elided__> : tensor<1x1x128xf32>
    %cst_51 = arith.constant dense_resource<__elided__> : tensor<1x1x512xf32>
    %cst_52 = arith.constant dense_resource<__elided__> : tensor<1x1x512xf32>
    %cst_53 = arith.constant dense_resource<__elided__> : tensor<1x1x128xf32>
    %cst_54 = arith.constant dense_resource<__elided__> : tensor<1x1x128xf32>
    %cst_55 = arith.constant dense_resource<__elided__> : tensor<1x1x128xf32>
    %cst_56 = arith.constant dense_resource<__elided__> : tensor<1x1x128xf32>
    %cst_57 = arith.constant dense_resource<__elided__> : tensor<1x1x128xf32>
    %cst_58 = arith.constant dense_resource<__elided__> : tensor<1x1x128xf32>
    %cst_59 = arith.constant dense_resource<__elided__> : tensor<1x1x128xf32>
    %cst_60 = arith.constant dense_resource<__elided__> : tensor<1x1x128xf32>
    %cst_61 = arith.constant dense_resource<__elided__> : tensor<1x1x128xf32>
    %cst_62 = arith.constant dense_resource<__elided__> : tensor<1x1x128xf32>
    %cst_63 = arith.constant dense_resource<__elided__> : tensor<1x1x512xf32>
    %cst_64 = arith.constant dense_resource<__elided__> : tensor<1x1x512xf32>
    %cst_65 = arith.constant dense_resource<__elided__> : tensor<1x1x128xf32>
    %cst_66 = arith.constant dense_resource<__elided__> : tensor<1x1x128xf32>
    %cst_67 = arith.constant dense_resource<__elided__> : tensor<1x1x128xf32>
    %cst_68 = arith.constant dense_resource<__elided__> : tensor<1x1x128xf32>
    %cst_69 = arith.constant dense_resource<__elided__> : tensor<1x1x128xf32>
    %cst_70 = arith.constant dense_resource<__elided__> : tensor<1x1x128xf32>
    %cst_71 = arith.constant dense_resource<__elided__> : tensor<1x1x128xf32>
    %cst_72 = arith.constant dense_resource<__elided__> : tensor<1x1x128xf32>
    %cst_73 = arith.constant dense_resource<__elided__> : tensor<1x1x128xf32>
    %cst_74 = arith.constant dense_resource<__elided__> : tensor<1x1x128xf32>
    %cst_75 = arith.constant dense_resource<__elided__> : tensor<1x1x512xf32>
    %cst_76 = arith.constant dense_resource<__elided__> : tensor<1x1x512xf32>
    %cst_77 = arith.constant dense_resource<__elided__> : tensor<1x1x128xf32>
    %cst_78 = arith.constant dense_resource<__elided__> : tensor<1x1x128xf32>
    %cst_79 = arith.constant dense_resource<__elided__> : tensor<1x1x128xf32>
    %cst_80 = arith.constant dense_resource<__elided__> : tensor<1x1x128xf32>
    %cst_81 = arith.constant dense_resource<__elided__> : tensor<1x1x128xf32>
    %cst_82 = arith.constant dense_resource<__elided__> : tensor<1x1x128xf32>
    %cst_83 = arith.constant dense_resource<__elided__> : tensor<1x1x128xf32>
    %cst_84 = arith.constant dense_resource<__elided__> : tensor<1x1x128xf32>
    %cst_85 = arith.constant dense_resource<__elided__> : tensor<1x1x128xf32>
    %cst_86 = arith.constant dense_resource<__elided__> : tensor<1x1x128xf32>
    %cst_87 = arith.constant dense_resource<__elided__> : tensor<1x1x512xf32>
    %cst_88 = arith.constant dense_resource<__elided__> : tensor<1x1x512xf32>
    %cst_89 = arith.constant dense_resource<__elided__> : tensor<1x1x128xf32>
    %cst_90 = arith.constant dense_resource<__elided__> : tensor<1x1x128xf32>
    %cst_91 = arith.constant dense_resource<__elided__> : tensor<1x1x128xf32>
    %cst_92 = arith.constant dense_resource<__elided__> : tensor<1x1x128xf32>
    %cst_93 = arith.constant dense_resource<__elided__> : tensor<1x1x128xf32>
    %cst_94 = arith.constant dense_resource<__elided__> : tensor<1x1x128xf32>
    %cst_95 = arith.constant dense_resource<__elided__> : tensor<1x1x128xf32>
    %cst_96 = arith.constant dense_resource<__elided__> : tensor<1x1x128xf32>
    %cst_97 = arith.constant dense_resource<__elided__> : tensor<1x1x128xf32>
    %cst_98 = arith.constant dense_resource<__elided__> : tensor<1x1x128xf32>
    %cst_99 = arith.constant dense_resource<__elided__> : tensor<1x1x512xf32>
    %cst_100 = arith.constant dense_resource<__elided__> : tensor<1x1x512xf32>
    %cst_101 = arith.constant dense_resource<__elided__> : tensor<1x1x128xf32>
    %cst_102 = arith.constant dense_resource<__elided__> : tensor<1x1x128xf32>
    %cst_103 = arith.constant dense_resource<__elided__> : tensor<1x1x128xf32>
    %cst_104 = arith.constant dense_resource<__elided__> : tensor<1x1x128xf32>
    %cst_105 = arith.constant dense_resource<__elided__> : tensor<1x1x128xf32>
    %cst_106 = arith.constant dense_resource<__elided__> : tensor<1x1x128xf32>
    %cst_107 = arith.constant dense_resource<__elided__> : tensor<1x1x128xf32>
    %cst_108 = arith.constant dense_resource<__elided__> : tensor<1x1x128xf32>
    %cst_109 = arith.constant dense_resource<__elided__> : tensor<1x1x128xf32>
    %cst_110 = arith.constant dense_resource<__elided__> : tensor<1x1x128xf32>
    %cst_111 = arith.constant dense_resource<__elided__> : tensor<1x1x512xf32>
    %cst_112 = arith.constant dense_resource<__elided__> : tensor<1x1x512xf32>
    %cst_113 = arith.constant dense_resource<__elided__> : tensor<1x1x128xf32>
    %cst_114 = arith.constant dense_resource<__elided__> : tensor<1x1x128xf32>
    %cst_115 = arith.constant dense_resource<__elided__> : tensor<1x1x128xf32>
    %cst_116 = arith.constant dense_resource<__elided__> : tensor<1x1x128xf32>
    %cst_117 = arith.constant dense_resource<__elided__> : tensor<1x1x128xf32>
    %cst_118 = arith.constant dense_resource<__elided__> : tensor<1x1x128xf32>
    %cst_119 = arith.constant dense_resource<__elided__> : tensor<1x1x128xf32>
    %cst_120 = arith.constant dense_resource<__elided__> : tensor<1x1x128xf32>
    %cst_121 = arith.constant dense_resource<__elided__> : tensor<1x1x128xf32>
    %cst_122 = arith.constant dense_resource<__elided__> : tensor<1x1x128xf32>
    %cst_123 = arith.constant dense_resource<__elided__> : tensor<1x1x512xf32>
    %cst_124 = arith.constant dense_resource<__elided__> : tensor<1x1x512xf32>
    %cst_125 = arith.constant dense_resource<__elided__> : tensor<1x1x128xf32>
    %cst_126 = arith.constant dense_resource<__elided__> : tensor<1x1x128xf32>
    %cst_127 = arith.constant dense_resource<__elided__> : tensor<1x1x128xf32>
    %cst_128 = arith.constant dense_resource<__elided__> : tensor<1x1x128xf32>
    %cst_129 = arith.constant dense_resource<__elided__> : tensor<1x1x128xf32>
    %cst_130 = arith.constant dense_resource<__elided__> : tensor<1x1x128xf32>
    %cst_131 = arith.constant dense_resource<__elided__> : tensor<1x1x128xf32>
    %cst_132 = arith.constant dense_resource<__elided__> : tensor<1x1x128xf32>
    %cst_133 = arith.constant dense_resource<__elided__> : tensor<1x1x128xf32>
    %cst_134 = arith.constant dense_resource<__elided__> : tensor<1x1x128xf32>
    %cst_135 = arith.constant dense_resource<__elided__> : tensor<1x1x512xf32>
    %cst_136 = arith.constant dense_resource<__elided__> : tensor<1x1x512xf32>
    %cst_137 = arith.constant dense_resource<__elided__> : tensor<1x1x128xf32>
    %cst_138 = arith.constant dense_resource<__elided__> : tensor<1x1x128xf32>
    %cst_139 = arith.constant dense_resource<__elided__> : tensor<1x1x128xf32>
    %cst_140 = arith.constant dense_resource<__elided__> : tensor<1x1x128xf32>
    %cst_141 = arith.constant dense_resource<__elided__> : tensor<1x1x128xf32>
    %cst_142 = arith.constant dense_resource<__elided__> : tensor<1x1x128xf32>
    %cst_143 = arith.constant dense_resource<__elided__> : tensor<1x1x128xf32>
    %cst_144 = arith.constant dense_resource<__elided__> : tensor<1x1x128xf32>
    %cst_145 = arith.constant dense_resource<__elided__> : tensor<1x1x128xf32>
    %cst_146 = arith.constant dense_resource<__elided__> : tensor<1x1x128xf32>
    %cst_147 = arith.constant dense_resource<__elided__> : tensor<1x1x512xf32>
    %cst_148 = arith.constant dense_resource<__elided__> : tensor<1x1x512xf32>
    %cst_149 = arith.constant dense_resource<__elided__> : tensor<1x1x128xf32>
    %cst_150 = arith.constant dense_resource<__elided__> : tensor<1x1x128xf32>
    %cst_151 = arith.constant dense_resource<__elided__> : tensor<1x1x128xf32>
    %cst_152 = arith.constant dense_resource<__elided__> : tensor<1x1x128xf32>
    %cst_153 = arith.constant dense_resource<__elided__> : tensor<1x1x128xf32>
    %cst_154 = arith.constant dense_resource<__elided__> : tensor<1x1x128xf32>
    %cst_155 = arith.constant dense_resource<__elided__> : tensor<1x1x128xf32>
    %cst_156 = arith.constant dense_resource<__elided__> : tensor<1x1x128xf32>
    %cst_157 = arith.constant dense_resource<__elided__> : tensor<1x1x128xf32>
    %cst_158 = arith.constant dense_resource<__elided__> : tensor<1x1x128xf32>
    %cst_159 = arith.constant dense_resource<__elided__> : tensor<1x1x512xf32>
    %cst_160 = arith.constant dense_resource<__elided__> : tensor<1x1x512xf32>
    %cst_161 = arith.constant dense_resource<__elided__> : tensor<1x1x128xf32>
    %cst_162 = arith.constant dense_resource<__elided__> : tensor<1x1x128xf32>
    %cst_163 = arith.constant dense_resource<__elided__> : tensor<1x1x128xf32>
    %cst_164 = arith.constant dense_resource<__elided__> : tensor<1x1x128xf32>
    %cst_165 = arith.constant dense_resource<__elided__> : tensor<1x1x128xf32>
    %cst_166 = arith.constant dense_resource<__elided__> : tensor<1x1x128xf32>
    %cst_167 = arith.constant dense_resource<__elided__> : tensor<1x1x128xf32>
    %cst_168 = arith.constant dense_resource<__elided__> : tensor<1x1x128xf32>
    %cst_169 = arith.constant dense_resource<__elided__> : tensor<1x1x128xf32>
    %cst_170 = arith.constant dense_resource<__elided__> : tensor<1x1x128xf32>
    %cst_171 = arith.constant dense_resource<__elided__> : tensor<1x1x512xf32>
    %cst_172 = arith.constant dense_resource<__elided__> : tensor<1x1x512xf32>
    %cst_173 = arith.constant dense_resource<__elided__> : tensor<1x1x128xf32>
    %cst_174 = arith.constant dense_resource<__elided__> : tensor<1x1x128xf32>
    %cst_175 = arith.constant dense_resource<__elided__> : tensor<1x1x128xf32>
    %cst_176 = arith.constant dense_resource<__elided__> : tensor<1x1x128xf32>
    %cst_177 = arith.constant dense_resource<__elided__> : tensor<1x1x128xf32>
    %cst_178 = arith.constant dense_resource<__elided__> : tensor<1x1x128xf32>
    %cst_179 = arith.constant dense_resource<__elided__> : tensor<1x1x128xf32>
    %cst_180 = arith.constant dense_resource<__elided__> : tensor<1x1x128xf32>
    %cst_181 = arith.constant dense_resource<__elided__> : tensor<1x1x128xf32>
    %cst_182 = arith.constant dense_resource<__elided__> : tensor<1x1x128xf32>
    %cst_183 = arith.constant dense_resource<__elided__> : tensor<1x1x512xf32>
    %cst_184 = arith.constant dense_resource<__elided__> : tensor<1x1x512xf32>
    %cst_185 = arith.constant dense_resource<__elided__> : tensor<1x1x128xf32>
    %cst_186 = arith.constant dense_resource<__elided__> : tensor<1x1x128xf32>
    %cst_187 = arith.constant dense_resource<__elided__> : tensor<1x1x128xf32>
    %cst_188 = arith.constant dense_resource<__elided__> : tensor<1x1x128xf32>
    %cst_189 = arith.constant dense_resource<__elided__> : tensor<1x1x128xf32>
    %cst_190 = arith.constant dense_resource<__elided__> : tensor<1x1x128xf32>
    %cst_191 = arith.constant dense_resource<__elided__> : tensor<1x1x128xf32>
    %cst_192 = arith.constant dense_resource<__elided__> : tensor<1x1x128xf32>
    %cst_193 = arith.constant dense_resource<__elided__> : tensor<1x1x128xf32>
    %cst_194 = arith.constant dense_resource<__elided__> : tensor<1x1x128xf32>
    %cst_195 = arith.constant dense_resource<__elided__> : tensor<1x1x512xf32>
    %cst_196 = arith.constant dense_resource<__elided__> : tensor<1x1x512xf32>
    %cst_197 = arith.constant dense_resource<__elided__> : tensor<1x1x128xf32>
    %cst_198 = arith.constant dense_resource<__elided__> : tensor<1x1x128xf32>
    %cst_199 = arith.constant dense_resource<__elided__> : tensor<1x1x128xf32>
    %cst_200 = arith.constant dense_resource<__elided__> : tensor<1x1x128xf32>
    %cst_201 = arith.constant dense_resource<__elided__> : tensor<1x1x128xf32>
    %cst_202 = arith.constant dense_resource<__elided__> : tensor<1x1x128xf32>
    %cst_203 = arith.constant dense_resource<__elided__> : tensor<1x1x128xf32>
    %cst_204 = arith.constant dense_resource<__elided__> : tensor<1x1x128xf32>
    %cst_205 = arith.constant dense_resource<__elided__> : tensor<1x1x128xf32>
    %cst_206 = arith.constant dense_resource<__elided__> : tensor<1x1x128xf32>
    %cst_207 = arith.constant dense_resource<__elided__> : tensor<1x1x512xf32>
    %cst_208 = arith.constant dense_resource<__elided__> : tensor<1x1x512xf32>
    %cst_209 = arith.constant dense_resource<__elided__> : tensor<1x1x128xf32>
    %cst_210 = arith.constant dense_resource<__elided__> : tensor<1x1x128xf32>
    %cst_211 = arith.constant dense_resource<__elided__> : tensor<1x1x128xf32>
    %cst_212 = arith.constant dense_resource<__elided__> : tensor<1x1x128xf32>
    %cst_213 = arith.constant dense_resource<__elided__> : tensor<1x1x128xf32>
    %cst_214 = arith.constant dense_resource<__elided__> : tensor<1x1x128xf32>
    %cst_215 = arith.constant dense_resource<__elided__> : tensor<1x1x128xf32>
    %cst_216 = arith.constant dense_resource<__elided__> : tensor<1x1x128xf32>
    %cst_217 = arith.constant dense_resource<__elided__> : tensor<1x1x128xf32>
    %cst_218 = arith.constant dense_resource<__elided__> : tensor<1x1x128xf32>
    %cst_219 = arith.constant dense_resource<__elided__> : tensor<1x1x512xf32>
    %cst_220 = arith.constant dense_resource<__elided__> : tensor<1x1x512xf32>
    %cst_221 = arith.constant dense_resource<__elided__> : tensor<1x1x128xf32>
    %cst_222 = arith.constant dense_resource<__elided__> : tensor<1x1x128xf32>
    %cst_223 = arith.constant dense_resource<__elided__> : tensor<1x1x128xf32>
    %cst_224 = arith.constant dense_resource<__elided__> : tensor<1x1x128xf32>
    %cst_225 = arith.constant dense_resource<__elided__> : tensor<1x1x128xf32>
    %cst_226 = arith.constant dense_resource<__elided__> : tensor<1x1x128xf32>
    %cst_227 = arith.constant dense_resource<__elided__> : tensor<1x1x128xf32>
    %cst_228 = arith.constant dense_resource<__elided__> : tensor<1x1x128xf32>
    %cst_229 = arith.constant dense_resource<__elided__> : tensor<1x1x128xf32>
    %cst_230 = arith.constant dense_resource<__elided__> : tensor<1x1x128xf32>
    %cst_231 = arith.constant dense_resource<__elided__> : tensor<1x1x512xf32>
    %cst_232 = arith.constant dense_resource<__elided__> : tensor<1x1x512xf32>
    %cst_233 = arith.constant dense_resource<__elided__> : tensor<1x1x128xf32>
    %cst_234 = arith.constant dense_resource<__elided__> : tensor<1x1x128xf32>
    %cst_235 = arith.constant dense_resource<__elided__> : tensor<1x1x128xf32>
    %cst_236 = arith.constant dense_resource<__elided__> : tensor<1x1x128xf32>
    %cst_237 = arith.constant dense_resource<__elided__> : tensor<1x1x128xf32>
    %cst_238 = arith.constant dense_resource<__elided__> : tensor<1x1x128xf32>
    %cst_239 = arith.constant dense_resource<__elided__> : tensor<1x1x128xf32>
    %cst_240 = arith.constant dense_resource<__elided__> : tensor<1x1x128xf32>
    %cst_241 = arith.constant dense_resource<__elided__> : tensor<1x1x128xf32>
    %cst_242 = arith.constant dense_resource<__elided__> : tensor<1x1x128xf32>
    %cst_243 = arith.constant dense_resource<__elided__> : tensor<1x1x512xf32>
    %cst_244 = arith.constant dense_resource<__elided__> : tensor<1x1x512xf32>
    %cst_245 = arith.constant dense_resource<__elided__> : tensor<1x1x128xf32>
    %cst_246 = arith.constant dense_resource<__elided__> : tensor<1x1x128xf32>
    %cst_247 = arith.constant dense_resource<__elided__> : tensor<1x1x128xf32>
    %cst_248 = arith.constant dense_resource<__elided__> : tensor<1x1x128xf32>
    %cst_249 = arith.constant dense_resource<__elided__> : tensor<1x1x128xf32>
    %cst_250 = arith.constant dense_resource<__elided__> : tensor<1x1x128xf32>
    %cst_251 = arith.constant dense_resource<__elided__> : tensor<1x1x128xf32>
    %cst_252 = arith.constant dense_resource<__elided__> : tensor<1x1x128xf32>
    %cst_253 = arith.constant dense_resource<__elided__> : tensor<1x1x128xf32>
    %cst_254 = arith.constant dense_resource<__elided__> : tensor<1x1x128xf32>
    %cst_255 = arith.constant dense_resource<__elided__> : tensor<1x1x512xf32>
    %cst_256 = arith.constant dense_resource<__elided__> : tensor<1x1x512xf32>
    %cst_257 = arith.constant dense_resource<__elided__> : tensor<1x1x128xf32>
    %cst_258 = arith.constant dense_resource<__elided__> : tensor<1x1x128xf32>
    %cst_259 = arith.constant dense_resource<__elided__> : tensor<1x1x128xf32>
    %cst_260 = arith.constant dense_resource<__elided__> : tensor<1x1x128xf32>
    %cst_261 = arith.constant dense_resource<__elided__> : tensor<1x1x128xf32>
    %cst_262 = arith.constant dense_resource<__elided__> : tensor<1x1x128xf32>
    %cst_263 = arith.constant dense_resource<__elided__> : tensor<1x1x128xf32>
    %cst_264 = arith.constant dense_resource<__elided__> : tensor<1x1x128xf32>
    %cst_265 = arith.constant dense_resource<__elided__> : tensor<1x1x128xf32>
    %cst_266 = arith.constant dense_resource<__elided__> : tensor<1x1x128xf32>
    %cst_267 = arith.constant dense_resource<__elided__> : tensor<1x1x512xf32>
    %cst_268 = arith.constant dense_resource<__elided__> : tensor<1x1x512xf32>
    %cst_269 = arith.constant dense_resource<__elided__> : tensor<1x1x128xf32>
    %cst_270 = arith.constant dense_resource<__elided__> : tensor<1x1x128xf32>
    %cst_271 = arith.constant dense_resource<__elided__> : tensor<1x1x128xf32>
    %cst_272 = arith.constant dense_resource<__elided__> : tensor<1x1x128xf32>
    %cst_273 = arith.constant dense_resource<__elided__> : tensor<1x1x128xf32>
    %cst_274 = arith.constant dense_resource<__elided__> : tensor<1x1x128xf32>
    %cst_275 = arith.constant dense_resource<__elided__> : tensor<1x1x128xf32>
    %cst_276 = arith.constant dense_resource<__elided__> : tensor<1x1x128xf32>
    %cst_277 = arith.constant dense_resource<__elided__> : tensor<1x1x128xf32>
    %cst_278 = arith.constant dense_resource<__elided__> : tensor<1x1x128xf32>
    %cst_279 = arith.constant dense_resource<__elided__> : tensor<1x1x512xf32>
    %cst_280 = arith.constant dense_resource<__elided__> : tensor<1x1x512xf32>
    %cst_281 = arith.constant dense_resource<__elided__> : tensor<1x1x128xf32>
    %cst_282 = arith.constant dense_resource<__elided__> : tensor<1x1x128xf32>
    %cst_283 = arith.constant dense_resource<__elided__> : tensor<1x1x128xf32>
    %cst_284 = arith.constant dense_resource<__elided__> : tensor<1x1x128xf32>
    %cst_285 = arith.constant dense_resource<__elided__> : tensor<1x1x128xf32>
    %cst_286 = arith.constant dense_resource<__elided__> : tensor<1x1x128xf32>
    %cst_287 = arith.constant dense_resource<__elided__> : tensor<1x1x128xf32>
    %cst_288 = arith.constant dense_resource<__elided__> : tensor<1x1x128xf32>
    %cst_289 = arith.constant dense_resource<__elided__> : tensor<1x1x128xf32>
    %cst_290 = arith.constant dense_resource<__elided__> : tensor<1x1x128xf32>
    %cst_291 = arith.constant dense<0.176776692> : tensor<1x1x1xf32>
    %cst_292 = arith.constant dense_resource<__elided__> : tensor<1x1x512xf32>
    %cst_293 = arith.constant dense_resource<__elided__> : tensor<1x1x512xf32>
    %cst_294 = arith.constant dense<-1.000000e+04> : tensor<1x1x1xf32>
    %cst_295 = arith.constant dense<1.000000e+00> : tensor<1x1x1xf32>
    %cst_296 = arith.constant dense<0.000000e+00> : tensor<32xf32>
    %cst_297 = arith.constant dense<0.000000e+00> : tensor<384xf32>
    %cst_298 = arith.constant dense_resource<__elided__> : tensor<1x30522x128xf32>
    %cst_299 = arith.constant dense_resource<__elided__> : tensor<1x2x512xf32>
    %cst_300 = arith.constant dense_resource<__elided__> : tensor<2xf32>
    %cst_301 = arith.constant dense_resource<__elided__> : tensor<2x512xf32>
    %cst_302 = arith.constant dense_resource<__elided__> : tensor<512xf32>
    %cst_303 = arith.constant dense_resource<__elided__> : tensor<512x128xf32>
    %cst_304 = arith.constant dense_resource<__elided__> : tensor<128xf32>
    %cst_305 = arith.constant dense_resource<__elided__> : tensor<128x512xf32>
    %cst_306 = arith.constant dense_resource<__elided__> : tensor<512xf32>
    %cst_307 = arith.constant dense_resource<__elided__> : tensor<512x128xf32>
    %cst_308 = arith.constant dense_resource<__elided__> : tensor<128xf32>
    %cst_309 = arith.constant dense_resource<__elided__> : tensor<128x512xf32>
    %cst_310 = arith.constant dense_resource<__elided__> : tensor<512xf32>
    %cst_311 = arith.constant dense_resource<__elided__> : tensor<512x128xf32>
    %cst_312 = arith.constant dense_resource<__elided__> : tensor<128xf32>
    %cst_313 = arith.constant dense_resource<__elided__> : tensor<128x512xf32>
    %cst_314 = arith.constant dense_resource<__elided__> : tensor<512xf32>
    %cst_315 = arith.constant dense_resource<__elided__> : tensor<512x128xf32>
    %cst_316 = arith.constant dense_resource<__elided__> : tensor<128xf32>
    %cst_317 = arith.constant dense_resource<__elided__> : tensor<128x512xf32>
    %cst_318 = arith.constant dense_resource<__elided__> : tensor<512xf32>
    %cst_319 = arith.constant dense_resource<__elided__> : tensor<512x128xf32>
    %cst_320 = arith.constant dense_resource<__elided__> : tensor<128xf32>
    %cst_321 = arith.constant dense_resource<__elided__> : tensor<128x128xf32>
    %cst_322 = arith.constant dense_resource<__elided__> : tensor<128xf32>
    %cst_323 = arith.constant dense_resource<__elided__> : tensor<128x128xf32>
    %cst_324 = arith.constant dense_resource<__elided__> : tensor<128xf32>
    %cst_325 = arith.constant dense_resource<__elided__> : tensor<128x128xf32>
    %cst_326 = arith.constant dense_resource<__elided__> : tensor<128xf32>
    %cst_327 = arith.constant dense_resource<__elided__> : tensor<128x128xf32>
    %cst_328 = arith.constant dense_resource<__elided__> : tensor<128xf32>
    %cst_329 = arith.constant dense_resource<__elided__> : tensor<128x512xf32>
    %cst_330 = arith.constant dense_resource<__elided__> : tensor<128xf32>
    %cst_331 = arith.constant dense_resource<__elided__> : tensor<128x512xf32>
    %cst_332 = arith.constant dense_resource<__elided__> : tensor<128xf32>
    %cst_333 = arith.constant dense_resource<__elided__> : tensor<128x512xf32>
    %cst_334 = arith.constant dense_resource<__elided__> : tensor<512xf32>
    %cst_335 = arith.constant dense_resource<__elided__> : tensor<512x128xf32>
    %cst_336 = arith.constant dense_resource<__elided__> : tensor<128xf32>
    %cst_337 = arith.constant dense_resource<__elided__> : tensor<128x512xf32>
    %cst_338 = arith.constant dense_resource<__elided__> : tensor<512xf32>
    %cst_339 = arith.constant dense_resource<__elided__> : tensor<512x128xf32>
    %cst_340 = arith.constant dense_resource<__elided__> : tensor<128xf32>
    %cst_341 = arith.constant dense_resource<__elided__> : tensor<128x512xf32>
    %cst_342 = arith.constant dense_resource<__elided__> : tensor<512xf32>
    %cst_343 = arith.constant dense_resource<__elided__> : tensor<512x128xf32>
    %cst_344 = arith.constant dense_resource<__elided__> : tensor<128xf32>
    %cst_345 = arith.constant dense_resource<__elided__> : tensor<128x512xf32>
    %cst_346 = arith.constant dense_resource<__elided__> : tensor<512xf32>
    %cst_347 = arith.constant dense_resource<__elided__> : tensor<512x128xf32>
    %cst_348 = arith.constant dense_resource<__elided__> : tensor<128xf32>
    %cst_349 = arith.constant dense_resource<__elided__> : tensor<128x512xf32>
    %cst_350 = arith.constant dense_resource<__elided__> : tensor<512xf32>
    %cst_351 = arith.constant dense_resource<__elided__> : tensor<512x128xf32>
    %cst_352 = arith.constant dense_resource<__elided__> : tensor<128xf32>
    %cst_353 = arith.constant dense_resource<__elided__> : tensor<128x128xf32>
    %cst_354 = arith.constant dense_resource<__elided__> : tensor<128xf32>
    %cst_355 = arith.constant dense_resource<__elided__> : tensor<128x128xf32>
    %cst_356 = arith.constant dense_resource<__elided__> : tensor<128xf32>
    %cst_357 = arith.constant dense_resource<__elided__> : tensor<128x128xf32>
    %cst_358 = arith.constant dense_resource<__elided__> : tensor<128xf32>
    %cst_359 = arith.constant dense_resource<__elided__> : tensor<128x128xf32>
    %cst_360 = arith.constant dense_resource<__elided__> : tensor<128xf32>
    %cst_361 = arith.constant dense_resource<__elided__> : tensor<128x512xf32>
    %cst_362 = arith.constant dense_resource<__elided__> : tensor<128xf32>
    %cst_363 = arith.constant dense_resource<__elided__> : tensor<128x512xf32>
    %cst_364 = arith.constant dense_resource<__elided__> : tensor<128xf32>
    %cst_365 = arith.constant dense_resource<__elided__> : tensor<128x512xf32>
    %cst_366 = arith.constant dense_resource<__elided__> : tensor<512xf32>
    %cst_367 = arith.constant dense_resource<__elided__> : tensor<512x128xf32>
    %cst_368 = arith.constant dense_resource<__elided__> : tensor<128xf32>
    %cst_369 = arith.constant dense_resource<__elided__> : tensor<128x512xf32>
    %cst_370 = arith.constant dense_resource<__elided__> : tensor<512xf32>
    %cst_371 = arith.constant dense_resource<__elided__> : tensor<512x128xf32>
    %cst_372 = arith.constant dense_resource<__elided__> : tensor<128xf32>
    %cst_373 = arith.constant dense_resource<__elided__> : tensor<128x512xf32>
    %cst_374 = arith.constant dense_resource<__elided__> : tensor<512xf32>
    %cst_375 = arith.constant dense_resource<__elided__> : tensor<512x128xf32>
    %cst_376 = arith.constant dense_resource<__elided__> : tensor<128xf32>
    %cst_377 = arith.constant dense_resource<__elided__> : tensor<128x512xf32>
    %cst_378 = arith.constant dense_resource<__elided__> : tensor<512xf32>
    %cst_379 = arith.constant dense_resource<__elided__> : tensor<512x128xf32>
    %cst_380 = arith.constant dense_resource<__elided__> : tensor<128xf32>
    %cst_381 = arith.constant dense_resource<__elided__> : tensor<128x512xf32>
    %cst_382 = arith.constant dense_resource<__elided__> : tensor<512xf32>
    %cst_383 = arith.constant dense_resource<__elided__> : tensor<512x128xf32>
    %cst_384 = arith.constant dense_resource<__elided__> : tensor<128xf32>
    %cst_385 = arith.constant dense_resource<__elided__> : tensor<128x128xf32>
    %cst_386 = arith.constant dense_resource<__elided__> : tensor<128xf32>
    %cst_387 = arith.constant dense_resource<__elided__> : tensor<128x128xf32>
    %cst_388 = arith.constant dense_resource<__elided__> : tensor<128xf32>
    %cst_389 = arith.constant dense_resource<__elided__> : tensor<128x128xf32>
    %cst_390 = arith.constant dense_resource<__elided__> : tensor<128xf32>
    %cst_391 = arith.constant dense_resource<__elided__> : tensor<128x128xf32>
    %cst_392 = arith.constant dense_resource<__elided__> : tensor<128xf32>
    %cst_393 = arith.constant dense_resource<__elided__> : tensor<128x512xf32>
    %cst_394 = arith.constant dense_resource<__elided__> : tensor<128xf32>
    %cst_395 = arith.constant dense_resource<__elided__> : tensor<128x512xf32>
    %cst_396 = arith.constant dense_resource<__elided__> : tensor<128xf32>
    %cst_397 = arith.constant dense_resource<__elided__> : tensor<128x512xf32>
    %cst_398 = arith.constant dense_resource<__elided__> : tensor<512xf32>
    %cst_399 = arith.constant dense_resource<__elided__> : tensor<512x128xf32>
    %cst_400 = arith.constant dense_resource<__elided__> : tensor<128xf32>
    %cst_401 = arith.constant dense_resource<__elided__> : tensor<128x512xf32>
    %cst_402 = arith.constant dense_resource<__elided__> : tensor<512xf32>
    %cst_403 = arith.constant dense_resource<__elided__> : tensor<512x128xf32>
    %cst_404 = arith.constant dense_resource<__elided__> : tensor<128xf32>
    %cst_405 = arith.constant dense_resource<__elided__> : tensor<128x512xf32>
    %cst_406 = arith.constant dense_resource<__elided__> : tensor<512xf32>
    %cst_407 = arith.constant dense_resource<__elided__> : tensor<512x128xf32>
    %cst_408 = arith.constant dense_resource<__elided__> : tensor<128xf32>
    %cst_409 = arith.constant dense_resource<__elided__> : tensor<128x512xf32>
    %cst_410 = arith.constant dense_resource<__elided__> : tensor<512xf32>
    %cst_411 = arith.constant dense_resource<__elided__> : tensor<512x128xf32>
    %cst_412 = arith.constant dense_resource<__elided__> : tensor<128xf32>
    %cst_413 = arith.constant dense_resource<__elided__> : tensor<128x512xf32>
    %cst_414 = arith.constant dense_resource<__elided__> : tensor<512xf32>
    %cst_415 = arith.constant dense_resource<__elided__> : tensor<512x128xf32>
    %cst_416 = arith.constant dense_resource<__elided__> : tensor<128xf32>
    %cst_417 = arith.constant dense_resource<__elided__> : tensor<128x128xf32>
    %cst_418 = arith.constant dense_resource<__elided__> : tensor<128xf32>
    %cst_419 = arith.constant dense_resource<__elided__> : tensor<128x128xf32>
    %cst_420 = arith.constant dense_resource<__elided__> : tensor<128xf32>
    %cst_421 = arith.constant dense_resource<__elided__> : tensor<128x128xf32>
    %cst_422 = arith.constant dense_resource<__elided__> : tensor<128xf32>
    %cst_423 = arith.constant dense_resource<__elided__> : tensor<128x128xf32>
    %cst_424 = arith.constant dense_resource<__elided__> : tensor<128xf32>
    %cst_425 = arith.constant dense_resource<__elided__> : tensor<128x512xf32>
    %cst_426 = arith.constant dense_resource<__elided__> : tensor<128xf32>
    %cst_427 = arith.constant dense_resource<__elided__> : tensor<128x512xf32>
    %cst_428 = arith.constant dense_resource<__elided__> : tensor<128xf32>
    %cst_429 = arith.constant dense_resource<__elided__> : tensor<128x512xf32>
    %cst_430 = arith.constant dense_resource<__elided__> : tensor<512xf32>
    %cst_431 = arith.constant dense_resource<__elided__> : tensor<512x128xf32>
    %cst_432 = arith.constant dense_resource<__elided__> : tensor<128xf32>
    %cst_433 = arith.constant dense_resource<__elided__> : tensor<128x512xf32>
    %cst_434 = arith.constant dense_resource<__elided__> : tensor<512xf32>
    %cst_435 = arith.constant dense_resource<__elided__> : tensor<512x128xf32>
    %cst_436 = arith.constant dense_resource<__elided__> : tensor<128xf32>
    %cst_437 = arith.constant dense_resource<__elided__> : tensor<128x512xf32>
    %cst_438 = arith.constant dense_resource<__elided__> : tensor<512xf32>
    %cst_439 = arith.constant dense_resource<__elided__> : tensor<512x128xf32>
    %cst_440 = arith.constant dense_resource<__elided__> : tensor<128xf32>
    %cst_441 = arith.constant dense_resource<__elided__> : tensor<128x512xf32>
    %cst_442 = arith.constant dense_resource<__elided__> : tensor<512xf32>
    %cst_443 = arith.constant dense_resource<__elided__> : tensor<512x128xf32>
    %cst_444 = arith.constant dense_resource<__elided__> : tensor<128xf32>
    %cst_445 = arith.constant dense_resource<__elided__> : tensor<128x512xf32>
    %cst_446 = arith.constant dense_resource<__elided__> : tensor<512xf32>
    %cst_447 = arith.constant dense_resource<__elided__> : tensor<512x128xf32>
    %cst_448 = arith.constant dense_resource<__elided__> : tensor<128xf32>
    %cst_449 = arith.constant dense_resource<__elided__> : tensor<128x128xf32>
    %cst_450 = arith.constant dense_resource<__elided__> : tensor<128xf32>
    %cst_451 = arith.constant dense_resource<__elided__> : tensor<128x128xf32>
    %cst_452 = arith.constant dense_resource<__elided__> : tensor<128xf32>
    %cst_453 = arith.constant dense_resource<__elided__> : tensor<128x128xf32>
    %cst_454 = arith.constant dense_resource<__elided__> : tensor<128xf32>
    %cst_455 = arith.constant dense_resource<__elided__> : tensor<128x128xf32>
    %cst_456 = arith.constant dense_resource<__elided__> : tensor<128xf32>
    %cst_457 = arith.constant dense_resource<__elided__> : tensor<128x512xf32>
    %cst_458 = arith.constant dense_resource<__elided__> : tensor<128xf32>
    %cst_459 = arith.constant dense_resource<__elided__> : tensor<128x512xf32>
    %cst_460 = arith.constant dense_resource<__elided__> : tensor<128xf32>
    %cst_461 = arith.constant dense_resource<__elided__> : tensor<128x512xf32>
    %cst_462 = arith.constant dense_resource<__elided__> : tensor<512xf32>
    %cst_463 = arith.constant dense_resource<__elided__> : tensor<512x128xf32>
    %cst_464 = arith.constant dense_resource<__elided__> : tensor<128xf32>
    %cst_465 = arith.constant dense_resource<__elided__> : tensor<128x512xf32>
    %cst_466 = arith.constant dense_resource<__elided__> : tensor<512xf32>
    %cst_467 = arith.constant dense_resource<__elided__> : tensor<512x128xf32>
    %cst_468 = arith.constant dense_resource<__elided__> : tensor<128xf32>
    %cst_469 = arith.constant dense_resource<__elided__> : tensor<128x512xf32>
    %cst_470 = arith.constant dense_resource<__elided__> : tensor<512xf32>
    %cst_471 = arith.constant dense_resource<__elided__> : tensor<512x128xf32>
    %cst_472 = arith.constant dense_resource<__elided__> : tensor<128xf32>
    %cst_473 = arith.constant dense_resource<__elided__> : tensor<128x512xf32>
    %cst_474 = arith.constant dense_resource<__elided__> : tensor<512xf32>
    %cst_475 = arith.constant dense_resource<__elided__> : tensor<512x128xf32>
    %cst_476 = arith.constant dense_resource<__elided__> : tensor<128xf32>
    %cst_477 = arith.constant dense_resource<__elided__> : tensor<128x512xf32>
    %cst_478 = arith.constant dense_resource<__elided__> : tensor<512xf32>
    %cst_479 = arith.constant dense_resource<__elided__> : tensor<512x128xf32>
    %cst_480 = arith.constant dense_resource<__elided__> : tensor<128xf32>
    %cst_481 = arith.constant dense_resource<__elided__> : tensor<128x128xf32>
    %cst_482 = arith.constant dense_resource<__elided__> : tensor<128xf32>
    %cst_483 = arith.constant dense_resource<__elided__> : tensor<128x128xf32>
    %cst_484 = arith.constant dense_resource<__elided__> : tensor<128xf32>
    %cst_485 = arith.constant dense_resource<__elided__> : tensor<128x128xf32>
    %cst_486 = arith.constant dense_resource<__elided__> : tensor<128xf32>
    %cst_487 = arith.constant dense_resource<__elided__> : tensor<128x128xf32>
    %cst_488 = arith.constant dense_resource<__elided__> : tensor<128xf32>
    %cst_489 = arith.constant dense_resource<__elided__> : tensor<128x512xf32>
    %cst_490 = arith.constant dense_resource<__elided__> : tensor<128xf32>
    %cst_491 = arith.constant dense_resource<__elided__> : tensor<128x512xf32>
    %cst_492 = arith.constant dense_resource<__elided__> : tensor<128xf32>
    %cst_493 = arith.constant dense_resource<__elided__> : tensor<128x512xf32>
    %cst_494 = arith.constant dense_resource<__elided__> : tensor<512xf32>
    %cst_495 = arith.constant dense_resource<__elided__> : tensor<512x128xf32>
    %cst_496 = arith.constant dense_resource<__elided__> : tensor<128xf32>
    %cst_497 = arith.constant dense_resource<__elided__> : tensor<128x512xf32>
    %cst_498 = arith.constant dense_resource<__elided__> : tensor<512xf32>
    %cst_499 = arith.constant dense_resource<__elided__> : tensor<512x128xf32>
    %cst_500 = arith.constant dense_resource<__elided__> : tensor<128xf32>
    %cst_501 = arith.constant dense_resource<__elided__> : tensor<128x512xf32>
    %cst_502 = arith.constant dense_resource<__elided__> : tensor<512xf32>
    %cst_503 = arith.constant dense_resource<__elided__> : tensor<512x128xf32>
    %cst_504 = arith.constant dense_resource<__elided__> : tensor<128xf32>
    %cst_505 = arith.constant dense_resource<__elided__> : tensor<128x512xf32>
    %cst_506 = arith.constant dense_resource<__elided__> : tensor<512xf32>
    %cst_507 = arith.constant dense_resource<__elided__> : tensor<512x128xf32>
    %cst_508 = arith.constant dense_resource<__elided__> : tensor<128xf32>
    %cst_509 = arith.constant dense_resource<__elided__> : tensor<128x512xf32>
    %cst_510 = arith.constant dense_resource<__elided__> : tensor<512xf32>
    %cst_511 = arith.constant dense_resource<__elided__> : tensor<512x128xf32>
    %cst_512 = arith.constant dense_resource<__elided__> : tensor<128xf32>
    %cst_513 = arith.constant dense_resource<__elided__> : tensor<128x128xf32>
    %cst_514 = arith.constant dense_resource<__elided__> : tensor<128xf32>
    %cst_515 = arith.constant dense_resource<__elided__> : tensor<128x128xf32>
    %cst_516 = arith.constant dense_resource<__elided__> : tensor<128xf32>
    %cst_517 = arith.constant dense_resource<__elided__> : tensor<128x128xf32>
    %cst_518 = arith.constant dense_resource<__elided__> : tensor<128xf32>
    %cst_519 = arith.constant dense_resource<__elided__> : tensor<128x128xf32>
    %cst_520 = arith.constant dense_resource<__elided__> : tensor<128xf32>
    %cst_521 = arith.constant dense_resource<__elided__> : tensor<128x512xf32>
    %cst_522 = arith.constant dense_resource<__elided__> : tensor<128xf32>
    %cst_523 = arith.constant dense_resource<__elided__> : tensor<128x512xf32>
    %cst_524 = arith.constant dense_resource<__elided__> : tensor<128xf32>
    %cst_525 = arith.constant dense_resource<__elided__> : tensor<128x512xf32>
    %cst_526 = arith.constant dense_resource<__elided__> : tensor<512xf32>
    %cst_527 = arith.constant dense_resource<__elided__> : tensor<512x128xf32>
    %cst_528 = arith.constant dense_resource<__elided__> : tensor<128xf32>
    %cst_529 = arith.constant dense_resource<__elided__> : tensor<128x512xf32>
    %cst_530 = arith.constant dense_resource<__elided__> : tensor<512xf32>
    %cst_531 = arith.constant dense_resource<__elided__> : tensor<512x128xf32>
    %cst_532 = arith.constant dense_resource<__elided__> : tensor<128xf32>
    %cst_533 = arith.constant dense_resource<__elided__> : tensor<128x512xf32>
    %cst_534 = arith.constant dense_resource<__elided__> : tensor<512xf32>
    %cst_535 = arith.constant dense_resource<__elided__> : tensor<512x128xf32>
    %cst_536 = arith.constant dense_resource<__elided__> : tensor<128xf32>
    %cst_537 = arith.constant dense_resource<__elided__> : tensor<128x512xf32>
    %cst_538 = arith.constant dense_resource<__elided__> : tensor<512xf32>
    %cst_539 = arith.constant dense_resource<__elided__> : tensor<512x128xf32>
    %cst_540 = arith.constant dense_resource<__elided__> : tensor<128xf32>
    %cst_541 = arith.constant dense_resource<__elided__> : tensor<128x512xf32>
    %cst_542 = arith.constant dense_resource<__elided__> : tensor<512xf32>
    %cst_543 = arith.constant dense_resource<__elided__> : tensor<512x128xf32>
    %cst_544 = arith.constant dense_resource<__elided__> : tensor<128xf32>
    %cst_545 = arith.constant dense_resource<__elided__> : tensor<128x128xf32>
    %cst_546 = arith.constant dense_resource<__elided__> : tensor<128xf32>
    %cst_547 = arith.constant dense_resource<__elided__> : tensor<128x128xf32>
    %cst_548 = arith.constant dense_resource<__elided__> : tensor<128xf32>
    %cst_549 = arith.constant dense_resource<__elided__> : tensor<128x128xf32>
    %cst_550 = arith.constant dense_resource<__elided__> : tensor<128xf32>
    %cst_551 = arith.constant dense_resource<__elided__> : tensor<128x128xf32>
    %cst_552 = arith.constant dense_resource<__elided__> : tensor<128xf32>
    %cst_553 = arith.constant dense_resource<__elided__> : tensor<128x512xf32>
    %cst_554 = arith.constant dense_resource<__elided__> : tensor<128xf32>
    %cst_555 = arith.constant dense_resource<__elided__> : tensor<128x512xf32>
    %cst_556 = arith.constant dense_resource<__elided__> : tensor<128xf32>
    %cst_557 = arith.constant dense_resource<__elided__> : tensor<128x512xf32>
    %cst_558 = arith.constant dense_resource<__elided__> : tensor<512xf32>
    %cst_559 = arith.constant dense_resource<__elided__> : tensor<512x128xf32>
    %cst_560 = arith.constant dense_resource<__elided__> : tensor<128xf32>
    %cst_561 = arith.constant dense_resource<__elided__> : tensor<128x512xf32>
    %cst_562 = arith.constant dense_resource<__elided__> : tensor<512xf32>
    %cst_563 = arith.constant dense_resource<__elided__> : tensor<512x128xf32>
    %cst_564 = arith.constant dense_resource<__elided__> : tensor<128xf32>
    %cst_565 = arith.constant dense_resource<__elided__> : tensor<128x512xf32>
    %cst_566 = arith.constant dense_resource<__elided__> : tensor<512xf32>
    %cst_567 = arith.constant dense_resource<__elided__> : tensor<512x128xf32>
    %cst_568 = arith.constant dense_resource<__elided__> : tensor<128xf32>
    %cst_569 = arith.constant dense_resource<__elided__> : tensor<128x512xf32>
    %cst_570 = arith.constant dense_resource<__elided__> : tensor<512xf32>
    %cst_571 = arith.constant dense_resource<__elided__> : tensor<512x128xf32>
    %cst_572 = arith.constant dense_resource<__elided__> : tensor<128xf32>
    %cst_573 = arith.constant dense_resource<__elided__> : tensor<128x512xf32>
    %cst_574 = arith.constant dense_resource<__elided__> : tensor<512xf32>
    %cst_575 = arith.constant dense_resource<__elided__> : tensor<512x128xf32>
    %cst_576 = arith.constant dense_resource<__elided__> : tensor<128xf32>
    %cst_577 = arith.constant dense_resource<__elided__> : tensor<128x128xf32>
    %cst_578 = arith.constant dense_resource<__elided__> : tensor<128xf32>
    %cst_579 = arith.constant dense_resource<__elided__> : tensor<128x128xf32>
    %cst_580 = arith.constant dense_resource<__elided__> : tensor<128xf32>
    %cst_581 = arith.constant dense_resource<__elided__> : tensor<128x128xf32>
    %cst_582 = arith.constant dense_resource<__elided__> : tensor<128xf32>
    %cst_583 = arith.constant dense_resource<__elided__> : tensor<128x128xf32>
    %cst_584 = arith.constant dense_resource<__elided__> : tensor<128xf32>
    %cst_585 = arith.constant dense_resource<__elided__> : tensor<128x512xf32>
    %cst_586 = arith.constant dense_resource<__elided__> : tensor<128xf32>
    %cst_587 = arith.constant dense_resource<__elided__> : tensor<128x512xf32>
    %cst_588 = arith.constant dense_resource<__elided__> : tensor<128xf32>
    %cst_589 = arith.constant dense_resource<__elided__> : tensor<128x512xf32>
    %cst_590 = arith.constant dense_resource<__elided__> : tensor<512xf32>
    %cst_591 = arith.constant dense_resource<__elided__> : tensor<512x128xf32>
    %cst_592 = arith.constant dense_resource<__elided__> : tensor<128xf32>
    %cst_593 = arith.constant dense_resource<__elided__> : tensor<128x512xf32>
    %cst_594 = arith.constant dense_resource<__elided__> : tensor<512xf32>
    %cst_595 = arith.constant dense_resource<__elided__> : tensor<512x128xf32>
    %cst_596 = arith.constant dense_resource<__elided__> : tensor<128xf32>
    %cst_597 = arith.constant dense_resource<__elided__> : tensor<128x512xf32>
    %cst_598 = arith.constant dense_resource<__elided__> : tensor<512xf32>
    %cst_599 = arith.constant dense_resource<__elided__> : tensor<512x128xf32>
    %cst_600 = arith.constant dense_resource<__elided__> : tensor<128xf32>
    %cst_601 = arith.constant dense_resource<__elided__> : tensor<128x512xf32>
    %cst_602 = arith.constant dense_resource<__elided__> : tensor<512xf32>
    %cst_603 = arith.constant dense_resource<__elided__> : tensor<512x128xf32>
    %cst_604 = arith.constant dense_resource<__elided__> : tensor<128xf32>
    %cst_605 = arith.constant dense_resource<__elided__> : tensor<128x512xf32>
    %cst_606 = arith.constant dense_resource<__elided__> : tensor<512xf32>
    %cst_607 = arith.constant dense_resource<__elided__> : tensor<512x128xf32>
    %cst_608 = arith.constant dense_resource<__elided__> : tensor<128xf32>
    %cst_609 = arith.constant dense_resource<__elided__> : tensor<128x128xf32>
    %cst_610 = arith.constant dense_resource<__elided__> : tensor<128xf32>
    %cst_611 = arith.constant dense_resource<__elided__> : tensor<128x128xf32>
    %cst_612 = arith.constant dense_resource<__elided__> : tensor<128xf32>
    %cst_613 = arith.constant dense_resource<__elided__> : tensor<128x128xf32>
    %cst_614 = arith.constant dense_resource<__elided__> : tensor<128xf32>
    %cst_615 = arith.constant dense_resource<__elided__> : tensor<128x128xf32>
    %cst_616 = arith.constant dense_resource<__elided__> : tensor<128xf32>
    %cst_617 = arith.constant dense_resource<__elided__> : tensor<128x512xf32>
    %cst_618 = arith.constant dense_resource<__elided__> : tensor<128xf32>
    %cst_619 = arith.constant dense_resource<__elided__> : tensor<128x512xf32>
    %cst_620 = arith.constant dense_resource<__elided__> : tensor<128xf32>
    %cst_621 = arith.constant dense_resource<__elided__> : tensor<128x512xf32>
    %cst_622 = arith.constant dense_resource<__elided__> : tensor<512xf32>
    %cst_623 = arith.constant dense_resource<__elided__> : tensor<512x128xf32>
    %cst_624 = arith.constant dense_resource<__elided__> : tensor<128xf32>
    %cst_625 = arith.constant dense_resource<__elided__> : tensor<128x512xf32>
    %cst_626 = arith.constant dense_resource<__elided__> : tensor<512xf32>
    %cst_627 = arith.constant dense_resource<__elided__> : tensor<512x128xf32>
    %cst_628 = arith.constant dense_resource<__elided__> : tensor<128xf32>
    %cst_629 = arith.constant dense_resource<__elided__> : tensor<128x512xf32>
    %cst_630 = arith.constant dense_resource<__elided__> : tensor<512xf32>
    %cst_631 = arith.constant dense_resource<__elided__> : tensor<512x128xf32>
    %cst_632 = arith.constant dense_resource<__elided__> : tensor<128xf32>
    %cst_633 = arith.constant dense_resource<__elided__> : tensor<128x512xf32>
    %cst_634 = arith.constant dense_resource<__elided__> : tensor<512xf32>
    %cst_635 = arith.constant dense_resource<__elided__> : tensor<512x128xf32>
    %cst_636 = arith.constant dense_resource<__elided__> : tensor<128xf32>
    %cst_637 = arith.constant dense_resource<__elided__> : tensor<128x512xf32>
    %cst_638 = arith.constant dense_resource<__elided__> : tensor<512xf32>
    %cst_639 = arith.constant dense_resource<__elided__> : tensor<512x128xf32>
    %cst_640 = arith.constant dense_resource<__elided__> : tensor<128xf32>
    %cst_641 = arith.constant dense_resource<__elided__> : tensor<128x128xf32>
    %cst_642 = arith.constant dense_resource<__elided__> : tensor<128xf32>
    %cst_643 = arith.constant dense_resource<__elided__> : tensor<128x128xf32>
    %cst_644 = arith.constant dense_resource<__elided__> : tensor<128xf32>
    %cst_645 = arith.constant dense_resource<__elided__> : tensor<128x128xf32>
    %cst_646 = arith.constant dense_resource<__elided__> : tensor<128xf32>
    %cst_647 = arith.constant dense_resource<__elided__> : tensor<128x128xf32>
    %cst_648 = arith.constant dense_resource<__elided__> : tensor<128xf32>
    %cst_649 = arith.constant dense_resource<__elided__> : tensor<128x512xf32>
    %cst_650 = arith.constant dense_resource<__elided__> : tensor<128xf32>
    %cst_651 = arith.constant dense_resource<__elided__> : tensor<128x512xf32>
    %cst_652 = arith.constant dense_resource<__elided__> : tensor<128xf32>
    %cst_653 = arith.constant dense_resource<__elided__> : tensor<128x512xf32>
    %cst_654 = arith.constant dense_resource<__elided__> : tensor<512xf32>
    %cst_655 = arith.constant dense_resource<__elided__> : tensor<512x128xf32>
    %cst_656 = arith.constant dense_resource<__elided__> : tensor<128xf32>
    %cst_657 = arith.constant dense_resource<__elided__> : tensor<128x512xf32>
    %cst_658 = arith.constant dense_resource<__elided__> : tensor<512xf32>
    %cst_659 = arith.constant dense_resource<__elided__> : tensor<512x128xf32>
    %cst_660 = arith.constant dense_resource<__elided__> : tensor<128xf32>
    %cst_661 = arith.constant dense_resource<__elided__> : tensor<128x512xf32>
    %cst_662 = arith.constant dense_resource<__elided__> : tensor<512xf32>
    %cst_663 = arith.constant dense_resource<__elided__> : tensor<512x128xf32>
    %cst_664 = arith.constant dense_resource<__elided__> : tensor<128xf32>
    %cst_665 = arith.constant dense_resource<__elided__> : tensor<128x512xf32>
    %cst_666 = arith.constant dense_resource<__elided__> : tensor<512xf32>
    %cst_667 = arith.constant dense_resource<__elided__> : tensor<512x128xf32>
    %cst_668 = arith.constant dense_resource<__elided__> : tensor<128xf32>
    %cst_669 = arith.constant dense_resource<__elided__> : tensor<128x512xf32>
    %cst_670 = arith.constant dense_resource<__elided__> : tensor<512xf32>
    %cst_671 = arith.constant dense_resource<__elided__> : tensor<512x128xf32>
    %cst_672 = arith.constant dense_resource<__elided__> : tensor<128xf32>
    %cst_673 = arith.constant dense_resource<__elided__> : tensor<128x128xf32>
    %cst_674 = arith.constant dense_resource<__elided__> : tensor<128xf32>
    %cst_675 = arith.constant dense_resource<__elided__> : tensor<128x128xf32>
    %cst_676 = arith.constant dense_resource<__elided__> : tensor<128xf32>
    %cst_677 = arith.constant dense_resource<__elided__> : tensor<128x128xf32>
    %cst_678 = arith.constant dense_resource<__elided__> : tensor<128xf32>
    %cst_679 = arith.constant dense_resource<__elided__> : tensor<128x128xf32>
    %cst_680 = arith.constant dense_resource<__elided__> : tensor<128xf32>
    %cst_681 = arith.constant dense_resource<__elided__> : tensor<128x512xf32>
    %cst_682 = arith.constant dense_resource<__elided__> : tensor<128xf32>
    %cst_683 = arith.constant dense_resource<__elided__> : tensor<128x512xf32>
    %cst_684 = arith.constant dense_resource<__elided__> : tensor<128xf32>
    %cst_685 = arith.constant dense_resource<__elided__> : tensor<128x512xf32>
    %cst_686 = arith.constant dense_resource<__elided__> : tensor<512xf32>
    %cst_687 = arith.constant dense_resource<__elided__> : tensor<512x128xf32>
    %cst_688 = arith.constant dense_resource<__elided__> : tensor<128xf32>
    %cst_689 = arith.constant dense_resource<__elided__> : tensor<128x512xf32>
    %cst_690 = arith.constant dense_resource<__elided__> : tensor<512xf32>
    %cst_691 = arith.constant dense_resource<__elided__> : tensor<512x128xf32>
    %cst_692 = arith.constant dense_resource<__elided__> : tensor<128xf32>
    %cst_693 = arith.constant dense_resource<__elided__> : tensor<128x512xf32>
    %cst_694 = arith.constant dense_resource<__elided__> : tensor<512xf32>
    %cst_695 = arith.constant dense_resource<__elided__> : tensor<512x128xf32>
    %cst_696 = arith.constant dense_resource<__elided__> : tensor<128xf32>
    %cst_697 = arith.constant dense_resource<__elided__> : tensor<128x512xf32>
    %cst_698 = arith.constant dense_resource<__elided__> : tensor<512xf32>
    %cst_699 = arith.constant dense_resource<__elided__> : tensor<512x128xf32>
    %cst_700 = arith.constant dense_resource<__elided__> : tensor<128xf32>
    %cst_701 = arith.constant dense_resource<__elided__> : tensor<128x512xf32>
    %cst_702 = arith.constant dense_resource<__elided__> : tensor<512xf32>
    %cst_703 = arith.constant dense_resource<__elided__> : tensor<512x128xf32>
    %cst_704 = arith.constant dense_resource<__elided__> : tensor<128xf32>
    %cst_705 = arith.constant dense_resource<__elided__> : tensor<128x128xf32>
    %cst_706 = arith.constant dense_resource<__elided__> : tensor<128xf32>
    %cst_707 = arith.constant dense_resource<__elided__> : tensor<128x128xf32>
    %cst_708 = arith.constant dense_resource<__elided__> : tensor<128xf32>
    %cst_709 = arith.constant dense_resource<__elided__> : tensor<128x128xf32>
    %cst_710 = arith.constant dense_resource<__elided__> : tensor<128xf32>
    %cst_711 = arith.constant dense_resource<__elided__> : tensor<128x128xf32>
    %cst_712 = arith.constant dense_resource<__elided__> : tensor<128xf32>
    %cst_713 = arith.constant dense_resource<__elided__> : tensor<128x512xf32>
    %cst_714 = arith.constant dense_resource<__elided__> : tensor<128xf32>
    %cst_715 = arith.constant dense_resource<__elided__> : tensor<128x512xf32>
    %cst_716 = arith.constant dense_resource<__elided__> : tensor<128xf32>
    %cst_717 = arith.constant dense_resource<__elided__> : tensor<128x512xf32>
    %cst_718 = arith.constant dense_resource<__elided__> : tensor<512xf32>
    %cst_719 = arith.constant dense_resource<__elided__> : tensor<512x128xf32>
    %cst_720 = arith.constant dense_resource<__elided__> : tensor<128xf32>
    %cst_721 = arith.constant dense_resource<__elided__> : tensor<128x512xf32>
    %cst_722 = arith.constant dense_resource<__elided__> : tensor<512xf32>
    %cst_723 = arith.constant dense_resource<__elided__> : tensor<512x128xf32>
    %cst_724 = arith.constant dense_resource<__elided__> : tensor<128xf32>
    %cst_725 = arith.constant dense_resource<__elided__> : tensor<128x512xf32>
    %cst_726 = arith.constant dense_resource<__elided__> : tensor<512xf32>
    %cst_727 = arith.constant dense_resource<__elided__> : tensor<512x128xf32>
    %cst_728 = arith.constant dense_resource<__elided__> : tensor<128xf32>
    %cst_729 = arith.constant dense_resource<__elided__> : tensor<128x512xf32>
    %cst_730 = arith.constant dense_resource<__elided__> : tensor<512xf32>
    %cst_731 = arith.constant dense_resource<__elided__> : tensor<512x128xf32>
    %cst_732 = arith.constant dense_resource<__elided__> : tensor<128xf32>
    %cst_733 = arith.constant dense_resource<__elided__> : tensor<128x512xf32>
    %cst_734 = arith.constant dense_resource<__elided__> : tensor<512xf32>
    %cst_735 = arith.constant dense_resource<__elided__> : tensor<512x128xf32>
    %cst_736 = arith.constant dense_resource<__elided__> : tensor<128xf32>
    %cst_737 = arith.constant dense_resource<__elided__> : tensor<128x128xf32>
    %cst_738 = arith.constant dense_resource<__elided__> : tensor<128xf32>
    %cst_739 = arith.constant dense_resource<__elided__> : tensor<128x128xf32>
    %cst_740 = arith.constant dense_resource<__elided__> : tensor<128xf32>
    %cst_741 = arith.constant dense_resource<__elided__> : tensor<128x128xf32>
    %cst_742 = arith.constant dense_resource<__elided__> : tensor<128xf32>
    %cst_743 = arith.constant dense_resource<__elided__> : tensor<128x128xf32>
    %cst_744 = arith.constant dense_resource<__elided__> : tensor<128xf32>
    %cst_745 = arith.constant dense_resource<__elided__> : tensor<128x512xf32>
    %cst_746 = arith.constant dense_resource<__elided__> : tensor<128xf32>
    %cst_747 = arith.constant dense_resource<__elided__> : tensor<128x512xf32>
    %cst_748 = arith.constant dense_resource<__elided__> : tensor<128xf32>
    %cst_749 = arith.constant dense_resource<__elided__> : tensor<128x512xf32>
    %cst_750 = arith.constant dense_resource<__elided__> : tensor<512xf32>
    %cst_751 = arith.constant dense_resource<__elided__> : tensor<512x128xf32>
    %cst_752 = arith.constant dense_resource<__elided__> : tensor<128xf32>
    %cst_753 = arith.constant dense_resource<__elided__> : tensor<128x512xf32>
    %cst_754 = arith.constant dense_resource<__elided__> : tensor<512xf32>
    %cst_755 = arith.constant dense_resource<__elided__> : tensor<512x128xf32>
    %cst_756 = arith.constant dense_resource<__elided__> : tensor<128xf32>
    %cst_757 = arith.constant dense_resource<__elided__> : tensor<128x512xf32>
    %cst_758 = arith.constant dense_resource<__elided__> : tensor<512xf32>
    %cst_759 = arith.constant dense_resource<__elided__> : tensor<512x128xf32>
    %cst_760 = arith.constant dense_resource<__elided__> : tensor<128xf32>
    %cst_761 = arith.constant dense_resource<__elided__> : tensor<128x512xf32>
    %cst_762 = arith.constant dense_resource<__elided__> : tensor<512xf32>
    %cst_763 = arith.constant dense_resource<__elided__> : tensor<512x128xf32>
    %cst_764 = arith.constant dense_resource<__elided__> : tensor<128xf32>
    %cst_765 = arith.constant dense_resource<__elided__> : tensor<128x512xf32>
    %cst_766 = arith.constant dense_resource<__elided__> : tensor<512xf32>
    %cst_767 = arith.constant dense_resource<__elided__> : tensor<512x128xf32>
    %cst_768 = arith.constant dense_resource<__elided__> : tensor<128xf32>
    %cst_769 = arith.constant dense_resource<__elided__> : tensor<128x128xf32>
    %cst_770 = arith.constant dense_resource<__elided__> : tensor<128xf32>
    %cst_771 = arith.constant dense_resource<__elided__> : tensor<128x128xf32>
    %cst_772 = arith.constant dense_resource<__elided__> : tensor<128xf32>
    %cst_773 = arith.constant dense_resource<__elided__> : tensor<128x128xf32>
    %cst_774 = arith.constant dense_resource<__elided__> : tensor<128xf32>
    %cst_775 = arith.constant dense_resource<__elided__> : tensor<128x128xf32>
    %cst_776 = arith.constant dense_resource<__elided__> : tensor<128xf32>
    %cst_777 = arith.constant dense_resource<__elided__> : tensor<128x512xf32>
    %cst_778 = arith.constant dense_resource<__elided__> : tensor<128xf32>
    %cst_779 = arith.constant dense_resource<__elided__> : tensor<128x512xf32>
    %cst_780 = arith.constant dense_resource<__elided__> : tensor<128xf32>
    %cst_781 = arith.constant dense_resource<__elided__> : tensor<128x512xf32>
    %cst_782 = arith.constant dense_resource<__elided__> : tensor<512xf32>
    %cst_783 = arith.constant dense_resource<__elided__> : tensor<512x128xf32>
    %cst_784 = arith.constant dense_resource<__elided__> : tensor<128xf32>
    %cst_785 = arith.constant dense_resource<__elided__> : tensor<128x512xf32>
    %cst_786 = arith.constant dense_resource<__elided__> : tensor<512xf32>
    %cst_787 = arith.constant dense_resource<__elided__> : tensor<512x128xf32>
    %cst_788 = arith.constant dense_resource<__elided__> : tensor<128xf32>
    %cst_789 = arith.constant dense_resource<__elided__> : tensor<128x512xf32>
    %cst_790 = arith.constant dense_resource<__elided__> : tensor<512xf32>
    %cst_791 = arith.constant dense_resource<__elided__> : tensor<512x128xf32>
    %cst_792 = arith.constant dense_resource<__elided__> : tensor<128xf32>
    %cst_793 = arith.constant dense_resource<__elided__> : tensor<128x512xf32>
    %cst_794 = arith.constant dense_resource<__elided__> : tensor<512xf32>
    %cst_795 = arith.constant dense_resource<__elided__> : tensor<512x128xf32>
    %cst_796 = arith.constant dense_resource<__elided__> : tensor<128xf32>
    %cst_797 = arith.constant dense_resource<__elided__> : tensor<128x512xf32>
    %cst_798 = arith.constant dense_resource<__elided__> : tensor<512xf32>
    %cst_799 = arith.constant dense_resource<__elided__> : tensor<512x128xf32>
    %cst_800 = arith.constant dense_resource<__elided__> : tensor<128xf32>
    %cst_801 = arith.constant dense_resource<__elided__> : tensor<128x128xf32>
    %cst_802 = arith.constant dense_resource<__elided__> : tensor<128xf32>
    %cst_803 = arith.constant dense_resource<__elided__> : tensor<128x128xf32>
    %cst_804 = arith.constant dense_resource<__elided__> : tensor<128xf32>
    %cst_805 = arith.constant dense_resource<__elided__> : tensor<128x128xf32>
    %cst_806 = arith.constant dense_resource<__elided__> : tensor<128xf32>
    %cst_807 = arith.constant dense_resource<__elided__> : tensor<128x128xf32>
    %cst_808 = arith.constant dense_resource<__elided__> : tensor<128xf32>
    %cst_809 = arith.constant dense_resource<__elided__> : tensor<128x512xf32>
    %cst_810 = arith.constant dense_resource<__elided__> : tensor<128xf32>
    %cst_811 = arith.constant dense_resource<__elided__> : tensor<128x512xf32>
    %cst_812 = arith.constant dense_resource<__elided__> : tensor<128xf32>
    %cst_813 = arith.constant dense_resource<__elided__> : tensor<128x512xf32>
    %cst_814 = arith.constant dense_resource<__elided__> : tensor<512xf32>
    %cst_815 = arith.constant dense_resource<__elided__> : tensor<512x128xf32>
    %cst_816 = arith.constant dense_resource<__elided__> : tensor<128xf32>
    %cst_817 = arith.constant dense_resource<__elided__> : tensor<128x512xf32>
    %cst_818 = arith.constant dense_resource<__elided__> : tensor<512xf32>
    %cst_819 = arith.constant dense_resource<__elided__> : tensor<512x128xf32>
    %cst_820 = arith.constant dense_resource<__elided__> : tensor<128xf32>
    %cst_821 = arith.constant dense_resource<__elided__> : tensor<128x512xf32>
    %cst_822 = arith.constant dense_resource<__elided__> : tensor<512xf32>
    %cst_823 = arith.constant dense_resource<__elided__> : tensor<512x128xf32>
    %cst_824 = arith.constant dense_resource<__elided__> : tensor<128xf32>
    %cst_825 = arith.constant dense_resource<__elided__> : tensor<128x512xf32>
    %cst_826 = arith.constant dense_resource<__elided__> : tensor<512xf32>
    %cst_827 = arith.constant dense_resource<__elided__> : tensor<512x128xf32>
    %cst_828 = arith.constant dense_resource<__elided__> : tensor<128xf32>
    %cst_829 = arith.constant dense_resource<__elided__> : tensor<128x512xf32>
    %cst_830 = arith.constant dense_resource<__elided__> : tensor<512xf32>
    %cst_831 = arith.constant dense_resource<__elided__> : tensor<512x128xf32>
    %cst_832 = arith.constant dense_resource<__elided__> : tensor<128xf32>
    %cst_833 = arith.constant dense_resource<__elided__> : tensor<128x128xf32>
    %cst_834 = arith.constant dense_resource<__elided__> : tensor<128xf32>
    %cst_835 = arith.constant dense_resource<__elided__> : tensor<128x128xf32>
    %cst_836 = arith.constant dense_resource<__elided__> : tensor<128xf32>
    %cst_837 = arith.constant dense_resource<__elided__> : tensor<128x128xf32>
    %cst_838 = arith.constant dense_resource<__elided__> : tensor<128xf32>
    %cst_839 = arith.constant dense_resource<__elided__> : tensor<128x128xf32>
    %cst_840 = arith.constant dense_resource<__elided__> : tensor<128xf32>
    %cst_841 = arith.constant dense_resource<__elided__> : tensor<128x512xf32>
    %cst_842 = arith.constant dense_resource<__elided__> : tensor<128xf32>
    %cst_843 = arith.constant dense_resource<__elided__> : tensor<128x512xf32>
    %cst_844 = arith.constant dense_resource<__elided__> : tensor<128xf32>
    %cst_845 = arith.constant dense_resource<__elided__> : tensor<128x512xf32>
    %cst_846 = arith.constant dense_resource<__elided__> : tensor<512xf32>
    %cst_847 = arith.constant dense_resource<__elided__> : tensor<512x128xf32>
    %cst_848 = arith.constant dense_resource<__elided__> : tensor<128xf32>
    %cst_849 = arith.constant dense_resource<__elided__> : tensor<128x512xf32>
    %cst_850 = arith.constant dense_resource<__elided__> : tensor<512xf32>
    %cst_851 = arith.constant dense_resource<__elided__> : tensor<512x128xf32>
    %cst_852 = arith.constant dense_resource<__elided__> : tensor<128xf32>
    %cst_853 = arith.constant dense_resource<__elided__> : tensor<128x512xf32>
    %cst_854 = arith.constant dense_resource<__elided__> : tensor<512xf32>
    %cst_855 = arith.constant dense_resource<__elided__> : tensor<512x128xf32>
    %cst_856 = arith.constant dense_resource<__elided__> : tensor<128xf32>
    %cst_857 = arith.constant dense_resource<__elided__> : tensor<128x512xf32>
    %cst_858 = arith.constant dense_resource<__elided__> : tensor<512xf32>
    %cst_859 = arith.constant dense_resource<__elided__> : tensor<512x128xf32>
    %cst_860 = arith.constant dense_resource<__elided__> : tensor<128xf32>
    %cst_861 = arith.constant dense_resource<__elided__> : tensor<128x512xf32>
    %cst_862 = arith.constant dense_resource<__elided__> : tensor<512xf32>
    %cst_863 = arith.constant dense_resource<__elided__> : tensor<512x128xf32>
    %cst_864 = arith.constant dense_resource<__elided__> : tensor<128xf32>
    %cst_865 = arith.constant dense_resource<__elided__> : tensor<128x128xf32>
    %cst_866 = arith.constant dense_resource<__elided__> : tensor<128xf32>
    %cst_867 = arith.constant dense_resource<__elided__> : tensor<128x128xf32>
    %cst_868 = arith.constant dense_resource<__elided__> : tensor<128xf32>
    %cst_869 = arith.constant dense_resource<__elided__> : tensor<128x128xf32>
    %cst_870 = arith.constant dense_resource<__elided__> : tensor<128xf32>
    %cst_871 = arith.constant dense_resource<__elided__> : tensor<128x128xf32>
    %cst_872 = arith.constant dense_resource<__elided__> : tensor<128xf32>
    %cst_873 = arith.constant dense_resource<__elided__> : tensor<128x512xf32>
    %cst_874 = arith.constant dense_resource<__elided__> : tensor<128xf32>
    %cst_875 = arith.constant dense_resource<__elided__> : tensor<128x512xf32>
    %cst_876 = arith.constant dense_resource<__elided__> : tensor<128xf32>
    %cst_877 = arith.constant dense_resource<__elided__> : tensor<128x512xf32>
    %cst_878 = arith.constant dense_resource<__elided__> : tensor<512xf32>
    %cst_879 = arith.constant dense_resource<__elided__> : tensor<512x128xf32>
    %cst_880 = arith.constant dense_resource<__elided__> : tensor<128xf32>
    %cst_881 = arith.constant dense_resource<__elided__> : tensor<128x512xf32>
    %cst_882 = arith.constant dense_resource<__elided__> : tensor<512xf32>
    %cst_883 = arith.constant dense_resource<__elided__> : tensor<512x128xf32>
    %cst_884 = arith.constant dense_resource<__elided__> : tensor<128xf32>
    %cst_885 = arith.constant dense_resource<__elided__> : tensor<128x512xf32>
    %cst_886 = arith.constant dense_resource<__elided__> : tensor<512xf32>
    %cst_887 = arith.constant dense_resource<__elided__> : tensor<512x128xf32>
    %cst_888 = arith.constant dense_resource<__elided__> : tensor<128xf32>
    %cst_889 = arith.constant dense_resource<__elided__> : tensor<128x512xf32>
    %cst_890 = arith.constant dense_resource<__elided__> : tensor<512xf32>
    %cst_891 = arith.constant dense_resource<__elided__> : tensor<512x128xf32>
    %cst_892 = arith.constant dense_resource<__elided__> : tensor<128xf32>
    %cst_893 = arith.constant dense_resource<__elided__> : tensor<128x512xf32>
    %cst_894 = arith.constant dense_resource<__elided__> : tensor<512xf32>
    %cst_895 = arith.constant dense_resource<__elided__> : tensor<512x128xf32>
    %cst_896 = arith.constant dense_resource<__elided__> : tensor<128xf32>
    %cst_897 = arith.constant dense_resource<__elided__> : tensor<128x128xf32>
    %cst_898 = arith.constant dense_resource<__elided__> : tensor<128xf32>
    %cst_899 = arith.constant dense_resource<__elided__> : tensor<128x128xf32>
    %cst_900 = arith.constant dense_resource<__elided__> : tensor<128xf32>
    %cst_901 = arith.constant dense_resource<__elided__> : tensor<128x128xf32>
    %cst_902 = arith.constant dense_resource<__elided__> : tensor<128xf32>
    %cst_903 = arith.constant dense_resource<__elided__> : tensor<128x128xf32>
    %cst_904 = arith.constant dense_resource<__elided__> : tensor<128xf32>
    %cst_905 = arith.constant dense_resource<__elided__> : tensor<128x512xf32>
    %cst_906 = arith.constant dense_resource<__elided__> : tensor<128xf32>
    %cst_907 = arith.constant dense_resource<__elided__> : tensor<128x512xf32>
    %cst_908 = arith.constant dense_resource<__elided__> : tensor<128xf32>
    %cst_909 = arith.constant dense_resource<__elided__> : tensor<128x512xf32>
    %cst_910 = arith.constant dense_resource<__elided__> : tensor<512xf32>
    %cst_911 = arith.constant dense_resource<__elided__> : tensor<512x128xf32>
    %cst_912 = arith.constant dense_resource<__elided__> : tensor<128xf32>
    %cst_913 = arith.constant dense_resource<__elided__> : tensor<128x512xf32>
    %cst_914 = arith.constant dense_resource<__elided__> : tensor<512xf32>
    %cst_915 = arith.constant dense_resource<__elided__> : tensor<512x128xf32>
    %cst_916 = arith.constant dense_resource<__elided__> : tensor<128xf32>
    %cst_917 = arith.constant dense_resource<__elided__> : tensor<128x512xf32>
    %cst_918 = arith.constant dense_resource<__elided__> : tensor<512xf32>
    %cst_919 = arith.constant dense_resource<__elided__> : tensor<512x128xf32>
    %cst_920 = arith.constant dense_resource<__elided__> : tensor<128xf32>
    %cst_921 = arith.constant dense_resource<__elided__> : tensor<128x512xf32>
    %cst_922 = arith.constant dense_resource<__elided__> : tensor<512xf32>
    %cst_923 = arith.constant dense_resource<__elided__> : tensor<512x128xf32>
    %cst_924 = arith.constant dense_resource<__elided__> : tensor<128xf32>
    %cst_925 = arith.constant dense_resource<__elided__> : tensor<128x512xf32>
    %cst_926 = arith.constant dense_resource<__elided__> : tensor<512xf32>
    %cst_927 = arith.constant dense_resource<__elided__> : tensor<512x128xf32>
    %cst_928 = arith.constant dense_resource<__elided__> : tensor<128xf32>
    %cst_929 = arith.constant dense_resource<__elided__> : tensor<128x128xf32>
    %cst_930 = arith.constant dense_resource<__elided__> : tensor<128xf32>
    %cst_931 = arith.constant dense_resource<__elided__> : tensor<128x128xf32>
    %cst_932 = arith.constant dense_resource<__elided__> : tensor<128xf32>
    %cst_933 = arith.constant dense_resource<__elided__> : tensor<128x128xf32>
    %cst_934 = arith.constant dense_resource<__elided__> : tensor<128xf32>
    %cst_935 = arith.constant dense_resource<__elided__> : tensor<128x128xf32>
    %cst_936 = arith.constant dense_resource<__elided__> : tensor<128xf32>
    %cst_937 = arith.constant dense_resource<__elided__> : tensor<128x512xf32>
    %cst_938 = arith.constant dense_resource<__elided__> : tensor<128xf32>
    %cst_939 = arith.constant dense_resource<__elided__> : tensor<128x512xf32>
    %cst_940 = arith.constant dense_resource<__elided__> : tensor<128xf32>
    %cst_941 = arith.constant dense_resource<__elided__> : tensor<128x512xf32>
    %cst_942 = arith.constant dense_resource<__elided__> : tensor<512xf32>
    %cst_943 = arith.constant dense_resource<__elided__> : tensor<512x128xf32>
    %cst_944 = arith.constant dense_resource<__elided__> : tensor<128xf32>
    %cst_945 = arith.constant dense_resource<__elided__> : tensor<128x512xf32>
    %cst_946 = arith.constant dense_resource<__elided__> : tensor<512xf32>
    %cst_947 = arith.constant dense_resource<__elided__> : tensor<512x128xf32>
    %cst_948 = arith.constant dense_resource<__elided__> : tensor<128xf32>
    %cst_949 = arith.constant dense_resource<__elided__> : tensor<128x512xf32>
    %cst_950 = arith.constant dense_resource<__elided__> : tensor<512xf32>
    %cst_951 = arith.constant dense_resource<__elided__> : tensor<512x128xf32>
    %cst_952 = arith.constant dense_resource<__elided__> : tensor<128xf32>
    %cst_953 = arith.constant dense_resource<__elided__> : tensor<128x512xf32>
    %cst_954 = arith.constant dense_resource<__elided__> : tensor<512xf32>
    %cst_955 = arith.constant dense_resource<__elided__> : tensor<512x128xf32>
    %cst_956 = arith.constant dense_resource<__elided__> : tensor<128xf32>
    %cst_957 = arith.constant dense_resource<__elided__> : tensor<128x512xf32>
    %cst_958 = arith.constant dense_resource<__elided__> : tensor<512xf32>
    %cst_959 = arith.constant dense_resource<__elided__> : tensor<512x128xf32>
    %cst_960 = arith.constant dense_resource<__elided__> : tensor<128xf32>
    %cst_961 = arith.constant dense_resource<__elided__> : tensor<128x128xf32>
    %cst_962 = arith.constant dense_resource<__elided__> : tensor<128xf32>
    %cst_963 = arith.constant dense_resource<__elided__> : tensor<128x128xf32>
    %cst_964 = arith.constant dense_resource<__elided__> : tensor<128xf32>
    %cst_965 = arith.constant dense_resource<__elided__> : tensor<128x128xf32>
    %cst_966 = arith.constant dense_resource<__elided__> : tensor<128xf32>
    %cst_967 = arith.constant dense_resource<__elided__> : tensor<128x128xf32>
    %cst_968 = arith.constant dense_resource<__elided__> : tensor<128xf32>
    %cst_969 = arith.constant dense_resource<__elided__> : tensor<128x512xf32>
    %cst_970 = arith.constant dense_resource<__elided__> : tensor<128xf32>
    %cst_971 = arith.constant dense_resource<__elided__> : tensor<128x512xf32>
    %cst_972 = arith.constant dense_resource<__elided__> : tensor<128xf32>
    %cst_973 = arith.constant dense_resource<__elided__> : tensor<128x512xf32>
    %cst_974 = arith.constant dense_resource<__elided__> : tensor<512xf32>
    %cst_975 = arith.constant dense_resource<__elided__> : tensor<512x128xf32>
    %cst_976 = arith.constant dense_resource<__elided__> : tensor<128xf32>
    %cst_977 = arith.constant dense_resource<__elided__> : tensor<128x512xf32>
    %cst_978 = arith.constant dense_resource<__elided__> : tensor<512xf32>
    %cst_979 = arith.constant dense_resource<__elided__> : tensor<512x128xf32>
    %cst_980 = arith.constant dense_resource<__elided__> : tensor<128xf32>
    %cst_981 = arith.constant dense_resource<__elided__> : tensor<128x512xf32>
    %cst_982 = arith.constant dense_resource<__elided__> : tensor<512xf32>
    %cst_983 = arith.constant dense_resource<__elided__> : tensor<512x128xf32>
    %cst_984 = arith.constant dense_resource<__elided__> : tensor<128xf32>
    %cst_985 = arith.constant dense_resource<__elided__> : tensor<128x512xf32>
    %cst_986 = arith.constant dense_resource<__elided__> : tensor<512xf32>
    %cst_987 = arith.constant dense_resource<__elided__> : tensor<512x128xf32>
    %cst_988 = arith.constant dense_resource<__elided__> : tensor<128xf32>
    %cst_989 = arith.constant dense_resource<__elided__> : tensor<128x512xf32>
    %cst_990 = arith.constant dense_resource<__elided__> : tensor<512xf32>
    %cst_991 = arith.constant dense_resource<__elided__> : tensor<512x128xf32>
    %cst_992 = arith.constant dense_resource<__elided__> : tensor<128xf32>
    %cst_993 = arith.constant dense_resource<__elided__> : tensor<128x128xf32>
    %cst_994 = arith.constant dense_resource<__elided__> : tensor<128xf32>
    %cst_995 = arith.constant dense_resource<__elided__> : tensor<128x128xf32>
    %cst_996 = arith.constant dense_resource<__elided__> : tensor<128xf32>
    %cst_997 = arith.constant dense_resource<__elided__> : tensor<128x128xf32>
    %cst_998 = arith.constant dense_resource<__elided__> : tensor<128xf32>
    %cst_999 = arith.constant dense_resource<__elided__> : tensor<128x128xf32>
    %cst_1000 = arith.constant dense_resource<__elided__> : tensor<128xf32>
    %cst_1001 = arith.constant dense_resource<__elided__> : tensor<128x512xf32>
    %cst_1002 = arith.constant dense_resource<__elided__> : tensor<128xf32>
    %cst_1003 = arith.constant dense_resource<__elided__> : tensor<128x512xf32>
    %cst_1004 = arith.constant dense_resource<__elided__> : tensor<128xf32>
    %cst_1005 = arith.constant dense_resource<__elided__> : tensor<128x512xf32>
    %cst_1006 = arith.constant dense_resource<__elided__> : tensor<512xf32>
    %cst_1007 = arith.constant dense_resource<__elided__> : tensor<512x128xf32>
    %cst_1008 = arith.constant dense_resource<__elided__> : tensor<128xf32>
    %cst_1009 = arith.constant dense_resource<__elided__> : tensor<128x512xf32>
    %cst_1010 = arith.constant dense_resource<__elided__> : tensor<512xf32>
    %cst_1011 = arith.constant dense_resource<__elided__> : tensor<512x128xf32>
    %cst_1012 = arith.constant dense_resource<__elided__> : tensor<128xf32>
    %cst_1013 = arith.constant dense_resource<__elided__> : tensor<128x512xf32>
    %cst_1014 = arith.constant dense_resource<__elided__> : tensor<512xf32>
    %cst_1015 = arith.constant dense_resource<__elided__> : tensor<512x128xf32>
    %cst_1016 = arith.constant dense_resource<__elided__> : tensor<128xf32>
    %cst_1017 = arith.constant dense_resource<__elided__> : tensor<128x512xf32>
    %cst_1018 = arith.constant dense_resource<__elided__> : tensor<512xf32>
    %cst_1019 = arith.constant dense_resource<__elided__> : tensor<512x128xf32>
    %cst_1020 = arith.constant dense_resource<__elided__> : tensor<128xf32>
    %cst_1021 = arith.constant dense_resource<__elided__> : tensor<128x512xf32>
    %cst_1022 = arith.constant dense_resource<__elided__> : tensor<512xf32>
    %cst_1023 = arith.constant dense_resource<__elided__> : tensor<512x128xf32>
    %cst_1024 = arith.constant dense_resource<__elided__> : tensor<128xf32>
    %cst_1025 = arith.constant dense_resource<__elided__> : tensor<128x128xf32>
    %cst_1026 = arith.constant dense_resource<__elided__> : tensor<128xf32>
    %cst_1027 = arith.constant dense_resource<__elided__> : tensor<128x128xf32>
    %cst_1028 = arith.constant dense_resource<__elided__> : tensor<128xf32>
    %cst_1029 = arith.constant dense_resource<__elided__> : tensor<128x128xf32>
    %cst_1030 = arith.constant dense_resource<__elided__> : tensor<128xf32>
    %cst_1031 = arith.constant dense_resource<__elided__> : tensor<128x128xf32>
    %cst_1032 = arith.constant dense_resource<__elided__> : tensor<128xf32>
    %cst_1033 = arith.constant dense_resource<__elided__> : tensor<128x512xf32>
    %cst_1034 = arith.constant dense_resource<__elided__> : tensor<128xf32>
    %cst_1035 = arith.constant dense_resource<__elided__> : tensor<128x512xf32>
    %cst_1036 = arith.constant dense_resource<__elided__> : tensor<128xf32>
    %cst_1037 = arith.constant dense_resource<__elided__> : tensor<128x512xf32>
    %cst_1038 = arith.constant dense_resource<__elided__> : tensor<512xf32>
    %cst_1039 = arith.constant dense_resource<__elided__> : tensor<512x128xf32>
    %cst_1040 = arith.constant dense_resource<__elided__> : tensor<128xf32>
    %cst_1041 = arith.constant dense_resource<__elided__> : tensor<128x512xf32>
    %cst_1042 = arith.constant dense_resource<__elided__> : tensor<512xf32>
    %cst_1043 = arith.constant dense_resource<__elided__> : tensor<512x128xf32>
    %cst_1044 = arith.constant dense_resource<__elided__> : tensor<128xf32>
    %cst_1045 = arith.constant dense_resource<__elided__> : tensor<128x512xf32>
    %cst_1046 = arith.constant dense_resource<__elided__> : tensor<512xf32>
    %cst_1047 = arith.constant dense_resource<__elided__> : tensor<512x128xf32>
    %cst_1048 = arith.constant dense_resource<__elided__> : tensor<128xf32>
    %cst_1049 = arith.constant dense_resource<__elided__> : tensor<128x512xf32>
    %cst_1050 = arith.constant dense_resource<__elided__> : tensor<512xf32>
    %cst_1051 = arith.constant dense_resource<__elided__> : tensor<512x128xf32>
    %cst_1052 = arith.constant dense_resource<__elided__> : tensor<128xf32>
    %cst_1053 = arith.constant dense_resource<__elided__> : tensor<128x512xf32>
    %cst_1054 = arith.constant dense_resource<__elided__> : tensor<512xf32>
    %cst_1055 = arith.constant dense_resource<__elided__> : tensor<512x128xf32>
    %cst_1056 = arith.constant dense_resource<__elided__> : tensor<128xf32>
    %cst_1057 = arith.constant dense_resource<__elided__> : tensor<128x128xf32>
    %cst_1058 = arith.constant dense_resource<__elided__> : tensor<128xf32>
    %cst_1059 = arith.constant dense_resource<__elided__> : tensor<128x128xf32>
    %cst_1060 = arith.constant dense_resource<__elided__> : tensor<128xf32>
    %cst_1061 = arith.constant dense_resource<__elided__> : tensor<128x128xf32>
    %cst_1062 = arith.constant dense_resource<__elided__> : tensor<128xf32>
    %cst_1063 = arith.constant dense_resource<__elided__> : tensor<128x128xf32>
    %cst_1064 = arith.constant dense_resource<__elided__> : tensor<128xf32>
    %cst_1065 = arith.constant dense_resource<__elided__> : tensor<128x512xf32>
    %cst_1066 = arith.constant dense_resource<__elided__> : tensor<128xf32>
    %cst_1067 = arith.constant dense_resource<__elided__> : tensor<128x512xf32>
    %cst_1068 = arith.constant dense_resource<__elided__> : tensor<128xf32>
    %cst_1069 = arith.constant dense_resource<__elided__> : tensor<128x512xf32>
    %cst_1070 = arith.constant dense_resource<__elided__> : tensor<512xf32>
    %cst_1071 = arith.constant dense_resource<__elided__> : tensor<512x384xf32>
    %cst_1072 = arith.constant dense_resource<__elided__> : tensor<1x384x512xf32>
    %cst_1073 = arith.constant dense<1.000000e+00> : tensor<1x384x1xf32>
    %0 = tensor.empty() : tensor<1x384xf32>
    %1 = linalg.generic {indexing_maps = [#map, #map1], iterator_types = ["parallel", "parallel"]} ins(%arg1 : tensor<1x384xi32>) outs(%0 : tensor<1x384xf32>) {
    ^bb0(%in: i32, %out: f32):
      %1676 = arith.sitofp %in : i32 to f32
      linalg.yield %1676 : f32
    } -> tensor<1x384xf32>
    %2 = tensor.empty() : tensor<1x384x512xf32>
    %3 = linalg.generic {indexing_maps = [#map2, #map3], iterator_types = ["parallel", "parallel", "parallel"]} ins(%arg2 : tensor<1x384xi32>) outs(%2 : tensor<1x384x512xf32>) {
    ^bb0(%in: i32, %out: f32):
      %1676 = linalg.index 0 : index
      %1677 = arith.index_cast %in : i32 to index
      %1678 = linalg.index 2 : index
      %extracted = tensor.extract %cst_299[%1676, %1677, %1678] : tensor<1x2x512xf32>
      linalg.yield %extracted : f32
    } -> tensor<1x384x512xf32>
    %expanded = tensor.expand_shape %1 [[0, 1], [2]] : tensor<1x384xf32> into tensor<1x1x384xf32>
    %4 = tensor.empty() : tensor<1x384x128xf32>
    %5 = linalg.generic {indexing_maps = [#map2, #map3], iterator_types = ["parallel", "parallel", "parallel"]} ins(%arg0 : tensor<1x384xi32>) outs(%4 : tensor<1x384x128xf32>) {
    ^bb0(%in: i32, %out: f32):
      %1676 = linalg.index 0 : index
      %1677 = arith.index_cast %in : i32 to index
      %1678 = linalg.index 2 : index
      %extracted = tensor.extract %cst_298[%1676, %1677, %1678] : tensor<1x30522x128xf32>
      linalg.yield %extracted : f32
    } -> tensor<1x384x128xf32>
    %6 = tensor.empty() : tensor<1x384x384xf32>
    %7 = linalg.generic {indexing_maps = [#map4, #map5, #map3], iterator_types = ["parallel", "parallel", "parallel"]} ins(%expanded, %cst_1073 : tensor<1x1x384xf32>, tensor<1x384x1xf32>) outs(%6 : tensor<1x384x384xf32>) {
    ^bb0(%in: f32, %in_3583: f32, %out: f32):
      %1676 = arith.mulf %in, %in_3583 : f32
      linalg.yield %1676 : f32
    } -> tensor<1x384x384xf32>
    %8 = linalg.generic {indexing_maps = [#map6, #map6, #map3], iterator_types = ["parallel", "parallel", "parallel"]} ins(%3, %cst_1072 : tensor<1x384x512xf32>, tensor<1x384x512xf32>) outs(%2 : tensor<1x384x512xf32>) {
    ^bb0(%in: f32, %in_3583: f32, %out: f32):
      %1676 = arith.addf %in, %in_3583 : f32
      linalg.yield %1676 : f32
    } -> tensor<1x384x512xf32>
    %9 = linalg.generic {indexing_maps = [#map7, #map6, #map3], iterator_types = ["parallel", "parallel", "parallel"]} ins(%cst_295, %7 : tensor<1x1x1xf32>, tensor<1x384x384xf32>) outs(%6 : tensor<1x384x384xf32>) {
    ^bb0(%in: f32, %in_3583: f32, %out: f32):
      %1676 = arith.subf %in, %in_3583 : f32
      linalg.yield %1676 : f32
    } -> tensor<1x384x384xf32>
    %10 = linalg.generic {indexing_maps = [#map6, #map7, #map3], iterator_types = ["parallel", "parallel", "parallel"]} ins(%9, %cst_294 : tensor<1x384x384xf32>, tensor<1x1x1xf32>) outs(%6 : tensor<1x384x384xf32>) {
    ^bb0(%in: f32, %in_3583: f32, %out: f32):
      %1676 = arith.mulf %in, %in_3583 : f32
      linalg.yield %1676 : f32
    } -> tensor<1x384x384xf32>
    %extracted_slice = tensor.extract_slice %5[0, 1, 0] [1, 383, 128] [1, 1, 1] : tensor<1x384x128xf32> to tensor<1x383x128xf32>
    %extracted_slice_1074 = tensor.extract_slice %5[0, 0, 0] [1, 383, 128] [1, 1, 1] : tensor<1x384x128xf32> to tensor<1x383x128xf32>
    %expanded_1075 = tensor.expand_shape %10 [[0, 1], [2], [3]] : tensor<1x384x384xf32> into tensor<1x1x384x384xf32>
    %padded = tensor.pad %extracted_slice low[%c0, %c0, %c0] high[%c0, %c1, %c0] {
    ^bb0(%arg3: index, %arg4: index, %arg5: index):
      tensor.yield %cst_2 : f32
    } : tensor<1x383x128xf32> to tensor<1x384x128xf32>
    %padded_1076 = tensor.pad %extracted_slice_1074 low[%c0, %c1, %c0] high[%c0, %c0, %c0] {
    ^bb0(%arg3: index, %arg4: index, %arg5: index):
      tensor.yield %cst_2 : f32
    } : tensor<1x383x128xf32> to tensor<1x384x128xf32>
    %inserted_slice = tensor.insert_slice %padded into %6[0, 0, 0] [1, 384, 128] [1, 1, 1] : tensor<1x384x128xf32> into tensor<1x384x384xf32>
    %inserted_slice_1077 = tensor.insert_slice %5 into %inserted_slice[0, 0, 128] [1, 384, 128] [1, 1, 1] : tensor<1x384x128xf32> into tensor<1x384x384xf32>
    %inserted_slice_1078 = tensor.insert_slice %padded_1076 into %inserted_slice_1077[0, 0, 256] [1, 384, 128] [1, 1, 1] : tensor<1x384x128xf32> into tensor<1x384x384xf32>
    %collapsed = tensor.collapse_shape %inserted_slice_1078 [[0, 1], [2]] : tensor<1x384x384xf32> into tensor<384x384xf32>
    %11 = tensor.empty() : tensor<384x512xf32>
    %transposed = linalg.transpose ins(%cst_1071 : tensor<512x384xf32>) outs(%11 : tensor<384x512xf32>) permutation = [1, 0] 
    %12 = linalg.generic {indexing_maps = [#map8, #map1], iterator_types = ["parallel", "parallel"]} ins(%cst_1070 : tensor<512xf32>) outs(%11 : tensor<384x512xf32>) {
    ^bb0(%in: f32, %out: f32):
      linalg.yield %in : f32
    } -> tensor<384x512xf32>
    %13 = linalg.matmul ins(%collapsed, %transposed : tensor<384x384xf32>, tensor<384x512xf32>) outs(%12 : tensor<384x512xf32>) -> tensor<384x512xf32>
    %expanded_1079 = tensor.expand_shape %13 [[0, 1], [2]] : tensor<384x512xf32> into tensor<1x384x512xf32>
    %14 = linalg.generic {indexing_maps = [#map6, #map6, #map3], iterator_types = ["parallel", "parallel", "parallel"]} ins(%expanded_1079, %8 : tensor<1x384x512xf32>, tensor<1x384x512xf32>) outs(%2 : tensor<1x384x512xf32>) {
    ^bb0(%in: f32, %in_3583: f32, %out: f32):
      %1676 = arith.addf %in, %in_3583 : f32
      linalg.yield %1676 : f32
    } -> tensor<1x384x512xf32>
    %15 = linalg.generic {indexing_maps = [#map6, #map4, #map3], iterator_types = ["parallel", "parallel", "parallel"]} ins(%14, %cst_293 : tensor<1x384x512xf32>, tensor<1x1x512xf32>) outs(%2 : tensor<1x384x512xf32>) {
    ^bb0(%in: f32, %in_3583: f32, %out: f32):
      %1676 = arith.mulf %in, %in_3583 : f32
      linalg.yield %1676 : f32
    } -> tensor<1x384x512xf32>
    %16 = linalg.generic {indexing_maps = [#map6, #map4, #map3], iterator_types = ["parallel", "parallel", "parallel"]} ins(%15, %cst_292 : tensor<1x384x512xf32>, tensor<1x1x512xf32>) outs(%2 : tensor<1x384x512xf32>) {
    ^bb0(%in: f32, %in_3583: f32, %out: f32):
      %1676 = arith.addf %in, %in_3583 : f32
      linalg.yield %1676 : f32
    } -> tensor<1x384x512xf32>
    %collapsed_1080 = tensor.collapse_shape %16 [[0, 1], [2]] : tensor<1x384x512xf32> into tensor<384x512xf32>
    %17 = tensor.empty() : tensor<512x128xf32>
    %transposed_1081 = linalg.transpose ins(%cst_1069 : tensor<128x512xf32>) outs(%17 : tensor<512x128xf32>) permutation = [1, 0] 
    %18 = tensor.empty() : tensor<384x128xf32>
    %19 = linalg.generic {indexing_maps = [#map8, #map1], iterator_types = ["parallel", "parallel"]} ins(%cst_1068 : tensor<128xf32>) outs(%18 : tensor<384x128xf32>) {
    ^bb0(%in: f32, %out: f32):
      linalg.yield %in : f32
    } -> tensor<384x128xf32>
    %20 = linalg.matmul ins(%collapsed_1080, %transposed_1081 : tensor<384x512xf32>, tensor<512x128xf32>) outs(%19 : tensor<384x128xf32>) -> tensor<384x128xf32>
    %transposed_1082 = linalg.transpose ins(%cst_1067 : tensor<128x512xf32>) outs(%17 : tensor<512x128xf32>) permutation = [1, 0] 
    %21 = linalg.generic {indexing_maps = [#map8, #map1], iterator_types = ["parallel", "parallel"]} ins(%cst_1066 : tensor<128xf32>) outs(%18 : tensor<384x128xf32>) {
    ^bb0(%in: f32, %out: f32):
      linalg.yield %in : f32
    } -> tensor<384x128xf32>
    %22 = linalg.matmul ins(%collapsed_1080, %transposed_1082 : tensor<384x512xf32>, tensor<512x128xf32>) outs(%21 : tensor<384x128xf32>) -> tensor<384x128xf32>
    %transposed_1083 = linalg.transpose ins(%cst_1065 : tensor<128x512xf32>) outs(%17 : tensor<512x128xf32>) permutation = [1, 0] 
    %23 = linalg.generic {indexing_maps = [#map8, #map1], iterator_types = ["parallel", "parallel"]} ins(%cst_1064 : tensor<128xf32>) outs(%18 : tensor<384x128xf32>) {
    ^bb0(%in: f32, %out: f32):
      linalg.yield %in : f32
    } -> tensor<384x128xf32>
    %24 = linalg.matmul ins(%collapsed_1080, %transposed_1083 : tensor<384x512xf32>, tensor<512x128xf32>) outs(%23 : tensor<384x128xf32>) -> tensor<384x128xf32>
    %expanded_1084 = tensor.expand_shape %20 [[0, 1], [2]] : tensor<384x128xf32> into tensor<1x384x128xf32>
    %25 = tensor.empty() : tensor<128x128xf32>
    %transposed_1085 = linalg.transpose ins(%cst_1063 : tensor<128x128xf32>) outs(%25 : tensor<128x128xf32>) permutation = [1, 0] 
    %26 = linalg.generic {indexing_maps = [#map8, #map1], iterator_types = ["parallel", "parallel"]} ins(%cst_1062 : tensor<128xf32>) outs(%18 : tensor<384x128xf32>) {
    ^bb0(%in: f32, %out: f32):
      linalg.yield %in : f32
    } -> tensor<384x128xf32>
    %27 = linalg.matmul ins(%22, %transposed_1085 : tensor<384x128xf32>, tensor<128x128xf32>) outs(%26 : tensor<384x128xf32>) -> tensor<384x128xf32>
    %transposed_1086 = linalg.transpose ins(%cst_1061 : tensor<128x128xf32>) outs(%25 : tensor<128x128xf32>) permutation = [1, 0] 
    %28 = linalg.generic {indexing_maps = [#map8, #map1], iterator_types = ["parallel", "parallel"]} ins(%cst_1060 : tensor<128xf32>) outs(%18 : tensor<384x128xf32>) {
    ^bb0(%in: f32, %out: f32):
      linalg.yield %in : f32
    } -> tensor<384x128xf32>
    %29 = linalg.matmul ins(%22, %transposed_1086 : tensor<384x128xf32>, tensor<128x128xf32>) outs(%28 : tensor<384x128xf32>) -> tensor<384x128xf32>
    %transposed_1087 = linalg.transpose ins(%cst_1059 : tensor<128x128xf32>) outs(%25 : tensor<128x128xf32>) permutation = [1, 0] 
    %30 = linalg.generic {indexing_maps = [#map8, #map1], iterator_types = ["parallel", "parallel"]} ins(%cst_1058 : tensor<128xf32>) outs(%18 : tensor<384x128xf32>) {
    ^bb0(%in: f32, %out: f32):
      linalg.yield %in : f32
    } -> tensor<384x128xf32>
    %31 = linalg.matmul ins(%24, %transposed_1087 : tensor<384x128xf32>, tensor<128x128xf32>) outs(%30 : tensor<384x128xf32>) -> tensor<384x128xf32>
    %expanded_1088 = tensor.expand_shape %27 [[0, 1], [2, 3]] : tensor<384x128xf32> into tensor<1x384x4x32xf32>
    %expanded_1089 = tensor.expand_shape %29 [[0, 1], [2, 3]] : tensor<384x128xf32> into tensor<1x384x4x32xf32>
    %expanded_1090 = tensor.expand_shape %31 [[0, 1], [2, 3]] : tensor<384x128xf32> into tensor<1x384x4x32xf32>
    %32 = tensor.empty() : tensor<1x4x384x32xf32>
    %transposed_1091 = linalg.transpose ins(%expanded_1088 : tensor<1x384x4x32xf32>) outs(%32 : tensor<1x4x384x32xf32>) permutation = [0, 2, 1, 3] 
    %transposed_1092 = linalg.transpose ins(%expanded_1090 : tensor<1x384x4x32xf32>) outs(%32 : tensor<1x4x384x32xf32>) permutation = [0, 2, 1, 3] 
    %33 = tensor.empty() : tensor<1x4x32x384xf32>
    %transposed_1093 = linalg.transpose ins(%expanded_1089 : tensor<1x384x4x32xf32>) outs(%33 : tensor<1x4x32x384xf32>) permutation = [0, 2, 3, 1] 
    %collapsed_1094 = tensor.collapse_shape %transposed_1091 [[0, 1], [2], [3]] : tensor<1x4x384x32xf32> into tensor<4x384x32xf32>
    %extracted_slice_1095 = tensor.extract_slice %collapsed_1094[0, 0, 0] [1, 384, 32] [1, 1, 1] : tensor<4x384x32xf32> to tensor<1x384x32xf32>
    %extracted_slice_1096 = tensor.extract_slice %collapsed_1094[1, 0, 0] [1, 384, 32] [1, 1, 1] : tensor<4x384x32xf32> to tensor<1x384x32xf32>
    %extracted_slice_1097 = tensor.extract_slice %collapsed_1094[2, 0, 0] [1, 384, 32] [1, 1, 1] : tensor<4x384x32xf32> to tensor<1x384x32xf32>
    %extracted_slice_1098 = tensor.extract_slice %collapsed_1094[3, 0, 0] [1, 384, 32] [1, 1, 1] : tensor<4x384x32xf32> to tensor<1x384x32xf32>
    %collapsed_1099 = tensor.collapse_shape %transposed_1093 [[0, 1], [2], [3]] : tensor<1x4x32x384xf32> into tensor<4x32x384xf32>
    %extracted_slice_1100 = tensor.extract_slice %collapsed_1099[0, 0, 0] [1, 32, 384] [1, 1, 1] : tensor<4x32x384xf32> to tensor<1x32x384xf32>
    %34 = tensor.empty() : tensor<384x32x1xf32>
    %transposed_1101 = linalg.transpose ins(%extracted_slice_1100 : tensor<1x32x384xf32>) outs(%34 : tensor<384x32x1xf32>) permutation = [2, 1, 0] 
    %extracted_slice_1102 = tensor.extract_slice %collapsed_1099[1, 0, 0] [1, 32, 384] [1, 1, 1] : tensor<4x32x384xf32> to tensor<1x32x384xf32>
    %transposed_1103 = linalg.transpose ins(%extracted_slice_1102 : tensor<1x32x384xf32>) outs(%34 : tensor<384x32x1xf32>) permutation = [2, 1, 0] 
    %extracted_slice_1104 = tensor.extract_slice %collapsed_1099[2, 0, 0] [1, 32, 384] [1, 1, 1] : tensor<4x32x384xf32> to tensor<1x32x384xf32>
    %transposed_1105 = linalg.transpose ins(%extracted_slice_1104 : tensor<1x32x384xf32>) outs(%34 : tensor<384x32x1xf32>) permutation = [2, 1, 0] 
    %extracted_slice_1106 = tensor.extract_slice %collapsed_1099[3, 0, 0] [1, 32, 384] [1, 1, 1] : tensor<4x32x384xf32> to tensor<1x32x384xf32>
    %transposed_1107 = linalg.transpose ins(%extracted_slice_1106 : tensor<1x32x384xf32>) outs(%34 : tensor<384x32x1xf32>) permutation = [2, 1, 0] 
    %collapsed_1108 = tensor.collapse_shape %transposed_1101 [[0], [1, 2]] : tensor<384x32x1xf32> into tensor<384x32xf32>
    %collapsed_1109 = tensor.collapse_shape %extracted_slice_1095 [[0, 1], [2]] : tensor<1x384x32xf32> into tensor<384x32xf32>
    %35 = tensor.empty() : tensor<32x384xf32>
    %transposed_1110 = linalg.transpose ins(%collapsed_1108 : tensor<384x32xf32>) outs(%35 : tensor<32x384xf32>) permutation = [1, 0] 
    %36 = tensor.empty() : tensor<384x384xf32>
    %37 = linalg.generic {indexing_maps = [#map8, #map1], iterator_types = ["parallel", "parallel"]} ins(%cst_297 : tensor<384xf32>) outs(%36 : tensor<384x384xf32>) {
    ^bb0(%in: f32, %out: f32):
      linalg.yield %in : f32
    } -> tensor<384x384xf32>
    %38 = linalg.matmul ins(%collapsed_1109, %transposed_1110 : tensor<384x32xf32>, tensor<32x384xf32>) outs(%37 : tensor<384x384xf32>) -> tensor<384x384xf32>
    %collapsed_1111 = tensor.collapse_shape %transposed_1103 [[0], [1, 2]] : tensor<384x32x1xf32> into tensor<384x32xf32>
    %collapsed_1112 = tensor.collapse_shape %extracted_slice_1096 [[0, 1], [2]] : tensor<1x384x32xf32> into tensor<384x32xf32>
    %transposed_1113 = linalg.transpose ins(%collapsed_1111 : tensor<384x32xf32>) outs(%35 : tensor<32x384xf32>) permutation = [1, 0] 
    %39 = linalg.matmul ins(%collapsed_1112, %transposed_1113 : tensor<384x32xf32>, tensor<32x384xf32>) outs(%37 : tensor<384x384xf32>) -> tensor<384x384xf32>
    %collapsed_1114 = tensor.collapse_shape %transposed_1105 [[0], [1, 2]] : tensor<384x32x1xf32> into tensor<384x32xf32>
    %collapsed_1115 = tensor.collapse_shape %extracted_slice_1097 [[0, 1], [2]] : tensor<1x384x32xf32> into tensor<384x32xf32>
    %transposed_1116 = linalg.transpose ins(%collapsed_1114 : tensor<384x32xf32>) outs(%35 : tensor<32x384xf32>) permutation = [1, 0] 
    %40 = linalg.matmul ins(%collapsed_1115, %transposed_1116 : tensor<384x32xf32>, tensor<32x384xf32>) outs(%37 : tensor<384x384xf32>) -> tensor<384x384xf32>
    %collapsed_1117 = tensor.collapse_shape %transposed_1107 [[0], [1, 2]] : tensor<384x32x1xf32> into tensor<384x32xf32>
    %collapsed_1118 = tensor.collapse_shape %extracted_slice_1098 [[0, 1], [2]] : tensor<1x384x32xf32> into tensor<384x32xf32>
    %transposed_1119 = linalg.transpose ins(%collapsed_1117 : tensor<384x32xf32>) outs(%35 : tensor<32x384xf32>) permutation = [1, 0] 
    %41 = linalg.matmul ins(%collapsed_1118, %transposed_1119 : tensor<384x32xf32>, tensor<32x384xf32>) outs(%37 : tensor<384x384xf32>) -> tensor<384x384xf32>
    %42 = tensor.empty() : tensor<1536x384xf32>
    %inserted_slice_1120 = tensor.insert_slice %38 into %42[0, 0] [384, 384] [1, 1] : tensor<384x384xf32> into tensor<1536x384xf32>
    %inserted_slice_1121 = tensor.insert_slice %39 into %inserted_slice_1120[384, 0] [384, 384] [1, 1] : tensor<384x384xf32> into tensor<1536x384xf32>
    %inserted_slice_1122 = tensor.insert_slice %40 into %inserted_slice_1121[768, 0] [384, 384] [1, 1] : tensor<384x384xf32> into tensor<1536x384xf32>
    %inserted_slice_1123 = tensor.insert_slice %41 into %inserted_slice_1122[1152, 0] [384, 384] [1, 1] : tensor<384x384xf32> into tensor<1536x384xf32>
    %expanded_1124 = tensor.expand_shape %inserted_slice_1123 [[0, 1], [2]] : tensor<1536x384xf32> into tensor<4x384x384xf32>
    %43 = tensor.empty() : tensor<4x384x384xf32>
    %44 = linalg.generic {indexing_maps = [#map3, #map7, #map3], iterator_types = ["parallel", "parallel", "parallel"]} ins(%expanded_1124, %cst_291 : tensor<4x384x384xf32>, tensor<1x1x1xf32>) outs(%43 : tensor<4x384x384xf32>) {
    ^bb0(%in: f32, %in_3583: f32, %out: f32):
      %1676 = arith.mulf %in, %in_3583 : f32
      linalg.yield %1676 : f32
    } -> tensor<4x384x384xf32>
    %expanded_1125 = tensor.expand_shape %44 [[0, 1], [2], [3]] : tensor<4x384x384xf32> into tensor<1x4x384x384xf32>
    %45 = tensor.empty() : tensor<1x4x384x384xf32>
    %46 = linalg.generic {indexing_maps = [#map9, #map10, #map11], iterator_types = ["parallel", "parallel", "parallel", "parallel"]} ins(%expanded_1125, %expanded_1075 : tensor<1x4x384x384xf32>, tensor<1x1x384x384xf32>) outs(%45 : tensor<1x4x384x384xf32>) {
    ^bb0(%in: f32, %in_3583: f32, %out: f32):
      %1676 = arith.addf %in, %in_3583 : f32
      linalg.yield %1676 : f32
    } -> tensor<1x4x384x384xf32>
    %47 = tensor.empty() : tensor<1x4x384xf32>
    %48 = linalg.fill ins(%cst_1 : f32) outs(%47 : tensor<1x4x384xf32>) -> tensor<1x4x384xf32>
    %reduced = linalg.reduce ins(%46 : tensor<1x4x384x384xf32>) outs(%48 : tensor<1x4x384xf32>) dimensions = [3] 
      (%in: f32, %init: f32) {
        %1676 = arith.maximumf %in, %init : f32
        linalg.yield %1676 : f32
      }
    %expanded_1126 = tensor.expand_shape %reduced [[0], [1], [2, 3]] : tensor<1x4x384xf32> into tensor<1x4x384x1xf32>
    %49 = linalg.generic {indexing_maps = [#map9, #map12, #map11], iterator_types = ["parallel", "parallel", "parallel", "parallel"]} ins(%46, %expanded_1126 : tensor<1x4x384x384xf32>, tensor<1x4x384x1xf32>) outs(%45 : tensor<1x4x384x384xf32>) {
    ^bb0(%in: f32, %in_3583: f32, %out: f32):
      %1676 = arith.subf %in, %in_3583 : f32
      linalg.yield %1676 : f32
    } -> tensor<1x4x384x384xf32>
    %50 = linalg.generic {indexing_maps = [#map9, #map11], iterator_types = ["parallel", "parallel", "parallel", "parallel"]} ins(%49 : tensor<1x4x384x384xf32>) outs(%45 : tensor<1x4x384x384xf32>) {
    ^bb0(%in: f32, %out: f32):
      %1676 = math.exp %in : f32
      linalg.yield %1676 : f32
    } -> tensor<1x4x384x384xf32>
    %51 = linalg.fill ins(%cst_2 : f32) outs(%47 : tensor<1x4x384xf32>) -> tensor<1x4x384xf32>
    %reduced_1127 = linalg.reduce ins(%50 : tensor<1x4x384x384xf32>) outs(%51 : tensor<1x4x384xf32>) dimensions = [3] 
      (%in: f32, %init: f32) {
        %1676 = arith.addf %in, %init : f32
        linalg.yield %1676 : f32
      }
    %expanded_1128 = tensor.expand_shape %reduced_1127 [[0], [1], [2, 3]] : tensor<1x4x384xf32> into tensor<1x4x384x1xf32>
    %52 = tensor.empty() : tensor<1x4x384x1xf32>
    %53 = linalg.generic {indexing_maps = [#map12, #map11], iterator_types = ["parallel", "parallel", "parallel", "parallel"]} ins(%expanded_1128 : tensor<1x4x384x1xf32>) outs(%52 : tensor<1x4x384x1xf32>) {
    ^bb0(%in: f32, %out: f32):
      %1676 = arith.divf %cst_0, %in : f32
      linalg.yield %1676 : f32
    } -> tensor<1x4x384x1xf32>
    %54 = linalg.generic {indexing_maps = [#map9, #map12, #map11], iterator_types = ["parallel", "parallel", "parallel", "parallel"]} ins(%50, %53 : tensor<1x4x384x384xf32>, tensor<1x4x384x1xf32>) outs(%45 : tensor<1x4x384x384xf32>) {
    ^bb0(%in: f32, %in_3583: f32, %out: f32):
      %1676 = arith.mulf %in, %in_3583 : f32
      linalg.yield %1676 : f32
    } -> tensor<1x4x384x384xf32>
    %collapsed_1129 = tensor.collapse_shape %54 [[0, 1], [2], [3]] : tensor<1x4x384x384xf32> into tensor<4x384x384xf32>
    %extracted_slice_1130 = tensor.extract_slice %collapsed_1129[0, 0, 0] [1, 384, 384] [1, 1, 1] : tensor<4x384x384xf32> to tensor<1x384x384xf32>
    %extracted_slice_1131 = tensor.extract_slice %collapsed_1129[1, 0, 0] [1, 384, 384] [1, 1, 1] : tensor<4x384x384xf32> to tensor<1x384x384xf32>
    %extracted_slice_1132 = tensor.extract_slice %collapsed_1129[2, 0, 0] [1, 384, 384] [1, 1, 1] : tensor<4x384x384xf32> to tensor<1x384x384xf32>
    %extracted_slice_1133 = tensor.extract_slice %collapsed_1129[3, 0, 0] [1, 384, 384] [1, 1, 1] : tensor<4x384x384xf32> to tensor<1x384x384xf32>
    %collapsed_1134 = tensor.collapse_shape %transposed_1092 [[0, 1], [2], [3]] : tensor<1x4x384x32xf32> into tensor<4x384x32xf32>
    %extracted_slice_1135 = tensor.extract_slice %collapsed_1134[0, 0, 0] [1, 384, 32] [1, 1, 1] : tensor<4x384x32xf32> to tensor<1x384x32xf32>
    %55 = tensor.empty() : tensor<32x384x1xf32>
    %transposed_1136 = linalg.transpose ins(%extracted_slice_1135 : tensor<1x384x32xf32>) outs(%55 : tensor<32x384x1xf32>) permutation = [2, 1, 0] 
    %extracted_slice_1137 = tensor.extract_slice %collapsed_1134[1, 0, 0] [1, 384, 32] [1, 1, 1] : tensor<4x384x32xf32> to tensor<1x384x32xf32>
    %transposed_1138 = linalg.transpose ins(%extracted_slice_1137 : tensor<1x384x32xf32>) outs(%55 : tensor<32x384x1xf32>) permutation = [2, 1, 0] 
    %extracted_slice_1139 = tensor.extract_slice %collapsed_1134[2, 0, 0] [1, 384, 32] [1, 1, 1] : tensor<4x384x32xf32> to tensor<1x384x32xf32>
    %transposed_1140 = linalg.transpose ins(%extracted_slice_1139 : tensor<1x384x32xf32>) outs(%55 : tensor<32x384x1xf32>) permutation = [2, 1, 0] 
    %extracted_slice_1141 = tensor.extract_slice %collapsed_1134[3, 0, 0] [1, 384, 32] [1, 1, 1] : tensor<4x384x32xf32> to tensor<1x384x32xf32>
    %transposed_1142 = linalg.transpose ins(%extracted_slice_1141 : tensor<1x384x32xf32>) outs(%55 : tensor<32x384x1xf32>) permutation = [2, 1, 0] 
    %collapsed_1143 = tensor.collapse_shape %transposed_1136 [[0], [1, 2]] : tensor<32x384x1xf32> into tensor<32x384xf32>
    %collapsed_1144 = tensor.collapse_shape %extracted_slice_1130 [[0, 1], [2]] : tensor<1x384x384xf32> into tensor<384x384xf32>
    %56 = tensor.empty() : tensor<384x32xf32>
    %transposed_1145 = linalg.transpose ins(%collapsed_1143 : tensor<32x384xf32>) outs(%56 : tensor<384x32xf32>) permutation = [1, 0] 
    %57 = linalg.generic {indexing_maps = [#map8, #map1], iterator_types = ["parallel", "parallel"]} ins(%cst_296 : tensor<32xf32>) outs(%56 : tensor<384x32xf32>) {
    ^bb0(%in: f32, %out: f32):
      linalg.yield %in : f32
    } -> tensor<384x32xf32>
    %58 = linalg.matmul ins(%collapsed_1144, %transposed_1145 : tensor<384x384xf32>, tensor<384x32xf32>) outs(%57 : tensor<384x32xf32>) -> tensor<384x32xf32>
    %collapsed_1146 = tensor.collapse_shape %transposed_1138 [[0], [1, 2]] : tensor<32x384x1xf32> into tensor<32x384xf32>
    %collapsed_1147 = tensor.collapse_shape %extracted_slice_1131 [[0, 1], [2]] : tensor<1x384x384xf32> into tensor<384x384xf32>
    %transposed_1148 = linalg.transpose ins(%collapsed_1146 : tensor<32x384xf32>) outs(%56 : tensor<384x32xf32>) permutation = [1, 0] 
    %59 = linalg.matmul ins(%collapsed_1147, %transposed_1148 : tensor<384x384xf32>, tensor<384x32xf32>) outs(%57 : tensor<384x32xf32>) -> tensor<384x32xf32>
    %collapsed_1149 = tensor.collapse_shape %transposed_1140 [[0], [1, 2]] : tensor<32x384x1xf32> into tensor<32x384xf32>
    %collapsed_1150 = tensor.collapse_shape %extracted_slice_1132 [[0, 1], [2]] : tensor<1x384x384xf32> into tensor<384x384xf32>
    %transposed_1151 = linalg.transpose ins(%collapsed_1149 : tensor<32x384xf32>) outs(%56 : tensor<384x32xf32>) permutation = [1, 0] 
    %60 = linalg.matmul ins(%collapsed_1150, %transposed_1151 : tensor<384x384xf32>, tensor<384x32xf32>) outs(%57 : tensor<384x32xf32>) -> tensor<384x32xf32>
    %collapsed_1152 = tensor.collapse_shape %transposed_1142 [[0], [1, 2]] : tensor<32x384x1xf32> into tensor<32x384xf32>
    %collapsed_1153 = tensor.collapse_shape %extracted_slice_1133 [[0, 1], [2]] : tensor<1x384x384xf32> into tensor<384x384xf32>
    %transposed_1154 = linalg.transpose ins(%collapsed_1152 : tensor<32x384xf32>) outs(%56 : tensor<384x32xf32>) permutation = [1, 0] 
    %61 = linalg.matmul ins(%collapsed_1153, %transposed_1154 : tensor<384x384xf32>, tensor<384x32xf32>) outs(%57 : tensor<384x32xf32>) -> tensor<384x32xf32>
    %62 = tensor.empty() : tensor<1536x32xf32>
    %inserted_slice_1155 = tensor.insert_slice %58 into %62[0, 0] [384, 32] [1, 1] : tensor<384x32xf32> into tensor<1536x32xf32>
    %inserted_slice_1156 = tensor.insert_slice %59 into %inserted_slice_1155[384, 0] [384, 32] [1, 1] : tensor<384x32xf32> into tensor<1536x32xf32>
    %inserted_slice_1157 = tensor.insert_slice %60 into %inserted_slice_1156[768, 0] [384, 32] [1, 1] : tensor<384x32xf32> into tensor<1536x32xf32>
    %inserted_slice_1158 = tensor.insert_slice %61 into %inserted_slice_1157[1152, 0] [384, 32] [1, 1] : tensor<384x32xf32> into tensor<1536x32xf32>
    %expanded_1159 = tensor.expand_shape %inserted_slice_1158 [[0, 1], [2]] : tensor<1536x32xf32> into tensor<4x384x32xf32>
    %63 = tensor.empty() : tensor<384x4x32xf32>
    %transposed_1160 = linalg.transpose ins(%expanded_1159 : tensor<4x384x32xf32>) outs(%63 : tensor<384x4x32xf32>) permutation = [1, 0, 2] 
    %collapsed_1161 = tensor.collapse_shape %transposed_1160 [[0], [1, 2]] : tensor<384x4x32xf32> into tensor<384x128xf32>
    %transposed_1162 = linalg.transpose ins(%cst_1057 : tensor<128x128xf32>) outs(%25 : tensor<128x128xf32>) permutation = [1, 0] 
    %64 = linalg.generic {indexing_maps = [#map8, #map1], iterator_types = ["parallel", "parallel"]} ins(%cst_1056 : tensor<128xf32>) outs(%18 : tensor<384x128xf32>) {
    ^bb0(%in: f32, %out: f32):
      linalg.yield %in : f32
    } -> tensor<384x128xf32>
    %65 = linalg.matmul ins(%collapsed_1161, %transposed_1162 : tensor<384x128xf32>, tensor<128x128xf32>) outs(%64 : tensor<384x128xf32>) -> tensor<384x128xf32>
    %expanded_1163 = tensor.expand_shape %65 [[0, 1], [2]] : tensor<384x128xf32> into tensor<1x384x128xf32>
    %66 = linalg.generic {indexing_maps = [#map6, #map6, #map3], iterator_types = ["parallel", "parallel", "parallel"]} ins(%expanded_1163, %expanded_1084 : tensor<1x384x128xf32>, tensor<1x384x128xf32>) outs(%4 : tensor<1x384x128xf32>) {
    ^bb0(%in: f32, %in_3583: f32, %out: f32):
      %1676 = arith.addf %in, %in_3583 : f32
      linalg.yield %1676 : f32
    } -> tensor<1x384x128xf32>
    %67 = linalg.generic {indexing_maps = [#map6, #map4, #map3], iterator_types = ["parallel", "parallel", "parallel"]} ins(%66, %cst_290 : tensor<1x384x128xf32>, tensor<1x1x128xf32>) outs(%4 : tensor<1x384x128xf32>) {
    ^bb0(%in: f32, %in_3583: f32, %out: f32):
      %1676 = arith.mulf %in, %in_3583 : f32
      linalg.yield %1676 : f32
    } -> tensor<1x384x128xf32>
    %68 = linalg.generic {indexing_maps = [#map6, #map4, #map3], iterator_types = ["parallel", "parallel", "parallel"]} ins(%67, %cst_289 : tensor<1x384x128xf32>, tensor<1x1x128xf32>) outs(%4 : tensor<1x384x128xf32>) {
    ^bb0(%in: f32, %in_3583: f32, %out: f32):
      %1676 = arith.addf %in, %in_3583 : f32
      linalg.yield %1676 : f32
    } -> tensor<1x384x128xf32>
    %collapsed_1164 = tensor.collapse_shape %68 [[0, 1], [2]] : tensor<1x384x128xf32> into tensor<384x128xf32>
    %69 = tensor.empty() : tensor<128x512xf32>
    %transposed_1165 = linalg.transpose ins(%cst_1055 : tensor<512x128xf32>) outs(%69 : tensor<128x512xf32>) permutation = [1, 0] 
    %70 = linalg.generic {indexing_maps = [#map8, #map1], iterator_types = ["parallel", "parallel"]} ins(%cst_1054 : tensor<512xf32>) outs(%11 : tensor<384x512xf32>) {
    ^bb0(%in: f32, %out: f32):
      linalg.yield %in : f32
    } -> tensor<384x512xf32>
    %71 = linalg.matmul ins(%collapsed_1164, %transposed_1165 : tensor<384x128xf32>, tensor<128x512xf32>) outs(%70 : tensor<384x512xf32>) -> tensor<384x512xf32>
    %72 = linalg.generic {indexing_maps = [#map1, #map1], iterator_types = ["parallel", "parallel"]} ins(%71 : tensor<384x512xf32>) outs(%11 : tensor<384x512xf32>) {
    ^bb0(%in: f32, %out: f32):
      %1676 = arith.minimumf %in, %cst : f32
      %1677 = arith.maximumf %1676, %cst_2 : f32
      linalg.yield %1677 : f32
    } -> tensor<384x512xf32>
    %transposed_1166 = linalg.transpose ins(%cst_1053 : tensor<128x512xf32>) outs(%17 : tensor<512x128xf32>) permutation = [1, 0] 
    %73 = linalg.generic {indexing_maps = [#map8, #map1], iterator_types = ["parallel", "parallel"]} ins(%cst_1052 : tensor<128xf32>) outs(%18 : tensor<384x128xf32>) {
    ^bb0(%in: f32, %out: f32):
      linalg.yield %in : f32
    } -> tensor<384x128xf32>
    %74 = linalg.matmul ins(%72, %transposed_1166 : tensor<384x512xf32>, tensor<512x128xf32>) outs(%73 : tensor<384x128xf32>) -> tensor<384x128xf32>
    %expanded_1167 = tensor.expand_shape %74 [[0, 1], [2]] : tensor<384x128xf32> into tensor<1x384x128xf32>
    %75 = linalg.generic {indexing_maps = [#map6, #map6, #map3], iterator_types = ["parallel", "parallel", "parallel"]} ins(%expanded_1167, %68 : tensor<1x384x128xf32>, tensor<1x384x128xf32>) outs(%4 : tensor<1x384x128xf32>) {
    ^bb0(%in: f32, %in_3583: f32, %out: f32):
      %1676 = arith.addf %in, %in_3583 : f32
      linalg.yield %1676 : f32
    } -> tensor<1x384x128xf32>
    %76 = linalg.generic {indexing_maps = [#map6, #map4, #map3], iterator_types = ["parallel", "parallel", "parallel"]} ins(%75, %cst_288 : tensor<1x384x128xf32>, tensor<1x1x128xf32>) outs(%4 : tensor<1x384x128xf32>) {
    ^bb0(%in: f32, %in_3583: f32, %out: f32):
      %1676 = arith.mulf %in, %in_3583 : f32
      linalg.yield %1676 : f32
    } -> tensor<1x384x128xf32>
    %77 = linalg.generic {indexing_maps = [#map6, #map4, #map3], iterator_types = ["parallel", "parallel", "parallel"]} ins(%76, %cst_287 : tensor<1x384x128xf32>, tensor<1x1x128xf32>) outs(%4 : tensor<1x384x128xf32>) {
    ^bb0(%in: f32, %in_3583: f32, %out: f32):
      %1676 = arith.addf %in, %in_3583 : f32
      linalg.yield %1676 : f32
    } -> tensor<1x384x128xf32>
    %collapsed_1168 = tensor.collapse_shape %77 [[0, 1], [2]] : tensor<1x384x128xf32> into tensor<384x128xf32>
    %transposed_1169 = linalg.transpose ins(%cst_1051 : tensor<512x128xf32>) outs(%69 : tensor<128x512xf32>) permutation = [1, 0] 
    %78 = linalg.generic {indexing_maps = [#map8, #map1], iterator_types = ["parallel", "parallel"]} ins(%cst_1050 : tensor<512xf32>) outs(%11 : tensor<384x512xf32>) {
    ^bb0(%in: f32, %out: f32):
      linalg.yield %in : f32
    } -> tensor<384x512xf32>
    %79 = linalg.matmul ins(%collapsed_1168, %transposed_1169 : tensor<384x128xf32>, tensor<128x512xf32>) outs(%78 : tensor<384x512xf32>) -> tensor<384x512xf32>
    %80 = linalg.generic {indexing_maps = [#map1, #map1], iterator_types = ["parallel", "parallel"]} ins(%79 : tensor<384x512xf32>) outs(%11 : tensor<384x512xf32>) {
    ^bb0(%in: f32, %out: f32):
      %1676 = arith.minimumf %in, %cst : f32
      %1677 = arith.maximumf %1676, %cst_2 : f32
      linalg.yield %1677 : f32
    } -> tensor<384x512xf32>
    %transposed_1170 = linalg.transpose ins(%cst_1049 : tensor<128x512xf32>) outs(%17 : tensor<512x128xf32>) permutation = [1, 0] 
    %81 = linalg.generic {indexing_maps = [#map8, #map1], iterator_types = ["parallel", "parallel"]} ins(%cst_1048 : tensor<128xf32>) outs(%18 : tensor<384x128xf32>) {
    ^bb0(%in: f32, %out: f32):
      linalg.yield %in : f32
    } -> tensor<384x128xf32>
    %82 = linalg.matmul ins(%80, %transposed_1170 : tensor<384x512xf32>, tensor<512x128xf32>) outs(%81 : tensor<384x128xf32>) -> tensor<384x128xf32>
    %expanded_1171 = tensor.expand_shape %82 [[0, 1], [2]] : tensor<384x128xf32> into tensor<1x384x128xf32>
    %83 = linalg.generic {indexing_maps = [#map6, #map6, #map3], iterator_types = ["parallel", "parallel", "parallel"]} ins(%expanded_1171, %77 : tensor<1x384x128xf32>, tensor<1x384x128xf32>) outs(%4 : tensor<1x384x128xf32>) {
    ^bb0(%in: f32, %in_3583: f32, %out: f32):
      %1676 = arith.addf %in, %in_3583 : f32
      linalg.yield %1676 : f32
    } -> tensor<1x384x128xf32>
    %84 = linalg.generic {indexing_maps = [#map6, #map4, #map3], iterator_types = ["parallel", "parallel", "parallel"]} ins(%83, %cst_286 : tensor<1x384x128xf32>, tensor<1x1x128xf32>) outs(%4 : tensor<1x384x128xf32>) {
    ^bb0(%in: f32, %in_3583: f32, %out: f32):
      %1676 = arith.mulf %in, %in_3583 : f32
      linalg.yield %1676 : f32
    } -> tensor<1x384x128xf32>
    %85 = linalg.generic {indexing_maps = [#map6, #map4, #map3], iterator_types = ["parallel", "parallel", "parallel"]} ins(%84, %cst_285 : tensor<1x384x128xf32>, tensor<1x1x128xf32>) outs(%4 : tensor<1x384x128xf32>) {
    ^bb0(%in: f32, %in_3583: f32, %out: f32):
      %1676 = arith.addf %in, %in_3583 : f32
      linalg.yield %1676 : f32
    } -> tensor<1x384x128xf32>
    %collapsed_1172 = tensor.collapse_shape %85 [[0, 1], [2]] : tensor<1x384x128xf32> into tensor<384x128xf32>
    %transposed_1173 = linalg.transpose ins(%cst_1047 : tensor<512x128xf32>) outs(%69 : tensor<128x512xf32>) permutation = [1, 0] 
    %86 = linalg.generic {indexing_maps = [#map8, #map1], iterator_types = ["parallel", "parallel"]} ins(%cst_1046 : tensor<512xf32>) outs(%11 : tensor<384x512xf32>) {
    ^bb0(%in: f32, %out: f32):
      linalg.yield %in : f32
    } -> tensor<384x512xf32>
    %87 = linalg.matmul ins(%collapsed_1172, %transposed_1173 : tensor<384x128xf32>, tensor<128x512xf32>) outs(%86 : tensor<384x512xf32>) -> tensor<384x512xf32>
    %88 = linalg.generic {indexing_maps = [#map1, #map1], iterator_types = ["parallel", "parallel"]} ins(%87 : tensor<384x512xf32>) outs(%11 : tensor<384x512xf32>) {
    ^bb0(%in: f32, %out: f32):
      %1676 = arith.minimumf %in, %cst : f32
      %1677 = arith.maximumf %1676, %cst_2 : f32
      linalg.yield %1677 : f32
    } -> tensor<384x512xf32>
    %transposed_1174 = linalg.transpose ins(%cst_1045 : tensor<128x512xf32>) outs(%17 : tensor<512x128xf32>) permutation = [1, 0] 
    %89 = linalg.generic {indexing_maps = [#map8, #map1], iterator_types = ["parallel", "parallel"]} ins(%cst_1044 : tensor<128xf32>) outs(%18 : tensor<384x128xf32>) {
    ^bb0(%in: f32, %out: f32):
      linalg.yield %in : f32
    } -> tensor<384x128xf32>
    %90 = linalg.matmul ins(%88, %transposed_1174 : tensor<384x512xf32>, tensor<512x128xf32>) outs(%89 : tensor<384x128xf32>) -> tensor<384x128xf32>
    %expanded_1175 = tensor.expand_shape %90 [[0, 1], [2]] : tensor<384x128xf32> into tensor<1x384x128xf32>
    %91 = linalg.generic {indexing_maps = [#map6, #map6, #map3], iterator_types = ["parallel", "parallel", "parallel"]} ins(%expanded_1175, %85 : tensor<1x384x128xf32>, tensor<1x384x128xf32>) outs(%4 : tensor<1x384x128xf32>) {
    ^bb0(%in: f32, %in_3583: f32, %out: f32):
      %1676 = arith.addf %in, %in_3583 : f32
      linalg.yield %1676 : f32
    } -> tensor<1x384x128xf32>
    %92 = linalg.generic {indexing_maps = [#map6, #map4, #map3], iterator_types = ["parallel", "parallel", "parallel"]} ins(%91, %cst_284 : tensor<1x384x128xf32>, tensor<1x1x128xf32>) outs(%4 : tensor<1x384x128xf32>) {
    ^bb0(%in: f32, %in_3583: f32, %out: f32):
      %1676 = arith.mulf %in, %in_3583 : f32
      linalg.yield %1676 : f32
    } -> tensor<1x384x128xf32>
    %93 = linalg.generic {indexing_maps = [#map6, #map4, #map3], iterator_types = ["parallel", "parallel", "parallel"]} ins(%92, %cst_283 : tensor<1x384x128xf32>, tensor<1x1x128xf32>) outs(%4 : tensor<1x384x128xf32>) {
    ^bb0(%in: f32, %in_3583: f32, %out: f32):
      %1676 = arith.addf %in, %in_3583 : f32
      linalg.yield %1676 : f32
    } -> tensor<1x384x128xf32>
    %collapsed_1176 = tensor.collapse_shape %93 [[0, 1], [2]] : tensor<1x384x128xf32> into tensor<384x128xf32>
    %transposed_1177 = linalg.transpose ins(%cst_1043 : tensor<512x128xf32>) outs(%69 : tensor<128x512xf32>) permutation = [1, 0] 
    %94 = linalg.generic {indexing_maps = [#map8, #map1], iterator_types = ["parallel", "parallel"]} ins(%cst_1042 : tensor<512xf32>) outs(%11 : tensor<384x512xf32>) {
    ^bb0(%in: f32, %out: f32):
      linalg.yield %in : f32
    } -> tensor<384x512xf32>
    %95 = linalg.matmul ins(%collapsed_1176, %transposed_1177 : tensor<384x128xf32>, tensor<128x512xf32>) outs(%94 : tensor<384x512xf32>) -> tensor<384x512xf32>
    %96 = linalg.generic {indexing_maps = [#map1, #map1], iterator_types = ["parallel", "parallel"]} ins(%95 : tensor<384x512xf32>) outs(%11 : tensor<384x512xf32>) {
    ^bb0(%in: f32, %out: f32):
      %1676 = arith.minimumf %in, %cst : f32
      %1677 = arith.maximumf %1676, %cst_2 : f32
      linalg.yield %1677 : f32
    } -> tensor<384x512xf32>
    %transposed_1178 = linalg.transpose ins(%cst_1041 : tensor<128x512xf32>) outs(%17 : tensor<512x128xf32>) permutation = [1, 0] 
    %97 = linalg.generic {indexing_maps = [#map8, #map1], iterator_types = ["parallel", "parallel"]} ins(%cst_1040 : tensor<128xf32>) outs(%18 : tensor<384x128xf32>) {
    ^bb0(%in: f32, %out: f32):
      linalg.yield %in : f32
    } -> tensor<384x128xf32>
    %98 = linalg.matmul ins(%96, %transposed_1178 : tensor<384x512xf32>, tensor<512x128xf32>) outs(%97 : tensor<384x128xf32>) -> tensor<384x128xf32>
    %expanded_1179 = tensor.expand_shape %98 [[0, 1], [2]] : tensor<384x128xf32> into tensor<1x384x128xf32>
    %99 = linalg.generic {indexing_maps = [#map6, #map6, #map3], iterator_types = ["parallel", "parallel", "parallel"]} ins(%expanded_1179, %93 : tensor<1x384x128xf32>, tensor<1x384x128xf32>) outs(%4 : tensor<1x384x128xf32>) {
    ^bb0(%in: f32, %in_3583: f32, %out: f32):
      %1676 = arith.addf %in, %in_3583 : f32
      linalg.yield %1676 : f32
    } -> tensor<1x384x128xf32>
    %100 = linalg.generic {indexing_maps = [#map6, #map4, #map3], iterator_types = ["parallel", "parallel", "parallel"]} ins(%99, %cst_282 : tensor<1x384x128xf32>, tensor<1x1x128xf32>) outs(%4 : tensor<1x384x128xf32>) {
    ^bb0(%in: f32, %in_3583: f32, %out: f32):
      %1676 = arith.mulf %in, %in_3583 : f32
      linalg.yield %1676 : f32
    } -> tensor<1x384x128xf32>
    %101 = linalg.generic {indexing_maps = [#map6, #map4, #map3], iterator_types = ["parallel", "parallel", "parallel"]} ins(%100, %cst_281 : tensor<1x384x128xf32>, tensor<1x1x128xf32>) outs(%4 : tensor<1x384x128xf32>) {
    ^bb0(%in: f32, %in_3583: f32, %out: f32):
      %1676 = arith.addf %in, %in_3583 : f32
      linalg.yield %1676 : f32
    } -> tensor<1x384x128xf32>
    %collapsed_1180 = tensor.collapse_shape %101 [[0, 1], [2]] : tensor<1x384x128xf32> into tensor<384x128xf32>
    %transposed_1181 = linalg.transpose ins(%cst_1039 : tensor<512x128xf32>) outs(%69 : tensor<128x512xf32>) permutation = [1, 0] 
    %102 = linalg.generic {indexing_maps = [#map8, #map1], iterator_types = ["parallel", "parallel"]} ins(%cst_1038 : tensor<512xf32>) outs(%11 : tensor<384x512xf32>) {
    ^bb0(%in: f32, %out: f32):
      linalg.yield %in : f32
    } -> tensor<384x512xf32>
    %103 = linalg.matmul ins(%collapsed_1180, %transposed_1181 : tensor<384x128xf32>, tensor<128x512xf32>) outs(%102 : tensor<384x512xf32>) -> tensor<384x512xf32>
    %expanded_1182 = tensor.expand_shape %103 [[0, 1], [2]] : tensor<384x512xf32> into tensor<1x384x512xf32>
    %104 = linalg.generic {indexing_maps = [#map6, #map6, #map3], iterator_types = ["parallel", "parallel", "parallel"]} ins(%expanded_1182, %16 : tensor<1x384x512xf32>, tensor<1x384x512xf32>) outs(%2 : tensor<1x384x512xf32>) {
    ^bb0(%in: f32, %in_3583: f32, %out: f32):
      %1676 = arith.addf %in, %in_3583 : f32
      linalg.yield %1676 : f32
    } -> tensor<1x384x512xf32>
    %105 = linalg.generic {indexing_maps = [#map6, #map4, #map3], iterator_types = ["parallel", "parallel", "parallel"]} ins(%104, %cst_280 : tensor<1x384x512xf32>, tensor<1x1x512xf32>) outs(%2 : tensor<1x384x512xf32>) {
    ^bb0(%in: f32, %in_3583: f32, %out: f32):
      %1676 = arith.mulf %in, %in_3583 : f32
      linalg.yield %1676 : f32
    } -> tensor<1x384x512xf32>
    %106 = linalg.generic {indexing_maps = [#map6, #map4, #map3], iterator_types = ["parallel", "parallel", "parallel"]} ins(%105, %cst_279 : tensor<1x384x512xf32>, tensor<1x1x512xf32>) outs(%2 : tensor<1x384x512xf32>) {
    ^bb0(%in: f32, %in_3583: f32, %out: f32):
      %1676 = arith.addf %in, %in_3583 : f32
      linalg.yield %1676 : f32
    } -> tensor<1x384x512xf32>
    %collapsed_1183 = tensor.collapse_shape %106 [[0, 1], [2]] : tensor<1x384x512xf32> into tensor<384x512xf32>
    %transposed_1184 = linalg.transpose ins(%cst_1037 : tensor<128x512xf32>) outs(%17 : tensor<512x128xf32>) permutation = [1, 0] 
    %107 = linalg.generic {indexing_maps = [#map8, #map1], iterator_types = ["parallel", "parallel"]} ins(%cst_1036 : tensor<128xf32>) outs(%18 : tensor<384x128xf32>) {
    ^bb0(%in: f32, %out: f32):
      linalg.yield %in : f32
    } -> tensor<384x128xf32>
    %108 = linalg.matmul ins(%collapsed_1183, %transposed_1184 : tensor<384x512xf32>, tensor<512x128xf32>) outs(%107 : tensor<384x128xf32>) -> tensor<384x128xf32>
    %transposed_1185 = linalg.transpose ins(%cst_1035 : tensor<128x512xf32>) outs(%17 : tensor<512x128xf32>) permutation = [1, 0] 
    %109 = linalg.generic {indexing_maps = [#map8, #map1], iterator_types = ["parallel", "parallel"]} ins(%cst_1034 : tensor<128xf32>) outs(%18 : tensor<384x128xf32>) {
    ^bb0(%in: f32, %out: f32):
      linalg.yield %in : f32
    } -> tensor<384x128xf32>
    %110 = linalg.matmul ins(%collapsed_1183, %transposed_1185 : tensor<384x512xf32>, tensor<512x128xf32>) outs(%109 : tensor<384x128xf32>) -> tensor<384x128xf32>
    %transposed_1186 = linalg.transpose ins(%cst_1033 : tensor<128x512xf32>) outs(%17 : tensor<512x128xf32>) permutation = [1, 0] 
    %111 = linalg.generic {indexing_maps = [#map8, #map1], iterator_types = ["parallel", "parallel"]} ins(%cst_1032 : tensor<128xf32>) outs(%18 : tensor<384x128xf32>) {
    ^bb0(%in: f32, %out: f32):
      linalg.yield %in : f32
    } -> tensor<384x128xf32>
    %112 = linalg.matmul ins(%collapsed_1183, %transposed_1186 : tensor<384x512xf32>, tensor<512x128xf32>) outs(%111 : tensor<384x128xf32>) -> tensor<384x128xf32>
    %expanded_1187 = tensor.expand_shape %108 [[0, 1], [2]] : tensor<384x128xf32> into tensor<1x384x128xf32>
    %transposed_1188 = linalg.transpose ins(%cst_1031 : tensor<128x128xf32>) outs(%25 : tensor<128x128xf32>) permutation = [1, 0] 
    %113 = linalg.generic {indexing_maps = [#map8, #map1], iterator_types = ["parallel", "parallel"]} ins(%cst_1030 : tensor<128xf32>) outs(%18 : tensor<384x128xf32>) {
    ^bb0(%in: f32, %out: f32):
      linalg.yield %in : f32
    } -> tensor<384x128xf32>
    %114 = linalg.matmul ins(%110, %transposed_1188 : tensor<384x128xf32>, tensor<128x128xf32>) outs(%113 : tensor<384x128xf32>) -> tensor<384x128xf32>
    %transposed_1189 = linalg.transpose ins(%cst_1029 : tensor<128x128xf32>) outs(%25 : tensor<128x128xf32>) permutation = [1, 0] 
    %115 = linalg.generic {indexing_maps = [#map8, #map1], iterator_types = ["parallel", "parallel"]} ins(%cst_1028 : tensor<128xf32>) outs(%18 : tensor<384x128xf32>) {
    ^bb0(%in: f32, %out: f32):
      linalg.yield %in : f32
    } -> tensor<384x128xf32>
    %116 = linalg.matmul ins(%110, %transposed_1189 : tensor<384x128xf32>, tensor<128x128xf32>) outs(%115 : tensor<384x128xf32>) -> tensor<384x128xf32>
    %transposed_1190 = linalg.transpose ins(%cst_1027 : tensor<128x128xf32>) outs(%25 : tensor<128x128xf32>) permutation = [1, 0] 
    %117 = linalg.generic {indexing_maps = [#map8, #map1], iterator_types = ["parallel", "parallel"]} ins(%cst_1026 : tensor<128xf32>) outs(%18 : tensor<384x128xf32>) {
    ^bb0(%in: f32, %out: f32):
      linalg.yield %in : f32
    } -> tensor<384x128xf32>
    %118 = linalg.matmul ins(%112, %transposed_1190 : tensor<384x128xf32>, tensor<128x128xf32>) outs(%117 : tensor<384x128xf32>) -> tensor<384x128xf32>
    %expanded_1191 = tensor.expand_shape %114 [[0, 1], [2, 3]] : tensor<384x128xf32> into tensor<1x384x4x32xf32>
    %expanded_1192 = tensor.expand_shape %116 [[0, 1], [2, 3]] : tensor<384x128xf32> into tensor<1x384x4x32xf32>
    %expanded_1193 = tensor.expand_shape %118 [[0, 1], [2, 3]] : tensor<384x128xf32> into tensor<1x384x4x32xf32>
    %transposed_1194 = linalg.transpose ins(%expanded_1191 : tensor<1x384x4x32xf32>) outs(%32 : tensor<1x4x384x32xf32>) permutation = [0, 2, 1, 3] 
    %transposed_1195 = linalg.transpose ins(%expanded_1193 : tensor<1x384x4x32xf32>) outs(%32 : tensor<1x4x384x32xf32>) permutation = [0, 2, 1, 3] 
    %transposed_1196 = linalg.transpose ins(%expanded_1192 : tensor<1x384x4x32xf32>) outs(%33 : tensor<1x4x32x384xf32>) permutation = [0, 2, 3, 1] 
    %collapsed_1197 = tensor.collapse_shape %transposed_1194 [[0, 1], [2], [3]] : tensor<1x4x384x32xf32> into tensor<4x384x32xf32>
    %extracted_slice_1198 = tensor.extract_slice %collapsed_1197[0, 0, 0] [1, 384, 32] [1, 1, 1] : tensor<4x384x32xf32> to tensor<1x384x32xf32>
    %extracted_slice_1199 = tensor.extract_slice %collapsed_1197[1, 0, 0] [1, 384, 32] [1, 1, 1] : tensor<4x384x32xf32> to tensor<1x384x32xf32>
    %extracted_slice_1200 = tensor.extract_slice %collapsed_1197[2, 0, 0] [1, 384, 32] [1, 1, 1] : tensor<4x384x32xf32> to tensor<1x384x32xf32>
    %extracted_slice_1201 = tensor.extract_slice %collapsed_1197[3, 0, 0] [1, 384, 32] [1, 1, 1] : tensor<4x384x32xf32> to tensor<1x384x32xf32>
    %collapsed_1202 = tensor.collapse_shape %transposed_1196 [[0, 1], [2], [3]] : tensor<1x4x32x384xf32> into tensor<4x32x384xf32>
    %extracted_slice_1203 = tensor.extract_slice %collapsed_1202[0, 0, 0] [1, 32, 384] [1, 1, 1] : tensor<4x32x384xf32> to tensor<1x32x384xf32>
    %transposed_1204 = linalg.transpose ins(%extracted_slice_1203 : tensor<1x32x384xf32>) outs(%34 : tensor<384x32x1xf32>) permutation = [2, 1, 0] 
    %extracted_slice_1205 = tensor.extract_slice %collapsed_1202[1, 0, 0] [1, 32, 384] [1, 1, 1] : tensor<4x32x384xf32> to tensor<1x32x384xf32>
    %transposed_1206 = linalg.transpose ins(%extracted_slice_1205 : tensor<1x32x384xf32>) outs(%34 : tensor<384x32x1xf32>) permutation = [2, 1, 0] 
    %extracted_slice_1207 = tensor.extract_slice %collapsed_1202[2, 0, 0] [1, 32, 384] [1, 1, 1] : tensor<4x32x384xf32> to tensor<1x32x384xf32>
    %transposed_1208 = linalg.transpose ins(%extracted_slice_1207 : tensor<1x32x384xf32>) outs(%34 : tensor<384x32x1xf32>) permutation = [2, 1, 0] 
    %extracted_slice_1209 = tensor.extract_slice %collapsed_1202[3, 0, 0] [1, 32, 384] [1, 1, 1] : tensor<4x32x384xf32> to tensor<1x32x384xf32>
    %transposed_1210 = linalg.transpose ins(%extracted_slice_1209 : tensor<1x32x384xf32>) outs(%34 : tensor<384x32x1xf32>) permutation = [2, 1, 0] 
    %collapsed_1211 = tensor.collapse_shape %transposed_1204 [[0], [1, 2]] : tensor<384x32x1xf32> into tensor<384x32xf32>
    %collapsed_1212 = tensor.collapse_shape %extracted_slice_1198 [[0, 1], [2]] : tensor<1x384x32xf32> into tensor<384x32xf32>
    %transposed_1213 = linalg.transpose ins(%collapsed_1211 : tensor<384x32xf32>) outs(%35 : tensor<32x384xf32>) permutation = [1, 0] 
    %119 = linalg.matmul ins(%collapsed_1212, %transposed_1213 : tensor<384x32xf32>, tensor<32x384xf32>) outs(%37 : tensor<384x384xf32>) -> tensor<384x384xf32>
    %collapsed_1214 = tensor.collapse_shape %transposed_1206 [[0], [1, 2]] : tensor<384x32x1xf32> into tensor<384x32xf32>
    %collapsed_1215 = tensor.collapse_shape %extracted_slice_1199 [[0, 1], [2]] : tensor<1x384x32xf32> into tensor<384x32xf32>
    %transposed_1216 = linalg.transpose ins(%collapsed_1214 : tensor<384x32xf32>) outs(%35 : tensor<32x384xf32>) permutation = [1, 0] 
    %120 = linalg.matmul ins(%collapsed_1215, %transposed_1216 : tensor<384x32xf32>, tensor<32x384xf32>) outs(%37 : tensor<384x384xf32>) -> tensor<384x384xf32>
    %collapsed_1217 = tensor.collapse_shape %transposed_1208 [[0], [1, 2]] : tensor<384x32x1xf32> into tensor<384x32xf32>
    %collapsed_1218 = tensor.collapse_shape %extracted_slice_1200 [[0, 1], [2]] : tensor<1x384x32xf32> into tensor<384x32xf32>
    %transposed_1219 = linalg.transpose ins(%collapsed_1217 : tensor<384x32xf32>) outs(%35 : tensor<32x384xf32>) permutation = [1, 0] 
    %121 = linalg.matmul ins(%collapsed_1218, %transposed_1219 : tensor<384x32xf32>, tensor<32x384xf32>) outs(%37 : tensor<384x384xf32>) -> tensor<384x384xf32>
    %collapsed_1220 = tensor.collapse_shape %transposed_1210 [[0], [1, 2]] : tensor<384x32x1xf32> into tensor<384x32xf32>
    %collapsed_1221 = tensor.collapse_shape %extracted_slice_1201 [[0, 1], [2]] : tensor<1x384x32xf32> into tensor<384x32xf32>
    %transposed_1222 = linalg.transpose ins(%collapsed_1220 : tensor<384x32xf32>) outs(%35 : tensor<32x384xf32>) permutation = [1, 0] 
    %122 = linalg.matmul ins(%collapsed_1221, %transposed_1222 : tensor<384x32xf32>, tensor<32x384xf32>) outs(%37 : tensor<384x384xf32>) -> tensor<384x384xf32>
    %inserted_slice_1223 = tensor.insert_slice %119 into %42[0, 0] [384, 384] [1, 1] : tensor<384x384xf32> into tensor<1536x384xf32>
    %inserted_slice_1224 = tensor.insert_slice %120 into %inserted_slice_1223[384, 0] [384, 384] [1, 1] : tensor<384x384xf32> into tensor<1536x384xf32>
    %inserted_slice_1225 = tensor.insert_slice %121 into %inserted_slice_1224[768, 0] [384, 384] [1, 1] : tensor<384x384xf32> into tensor<1536x384xf32>
    %inserted_slice_1226 = tensor.insert_slice %122 into %inserted_slice_1225[1152, 0] [384, 384] [1, 1] : tensor<384x384xf32> into tensor<1536x384xf32>
    %expanded_1227 = tensor.expand_shape %inserted_slice_1226 [[0, 1], [2]] : tensor<1536x384xf32> into tensor<4x384x384xf32>
    %123 = linalg.generic {indexing_maps = [#map3, #map7, #map3], iterator_types = ["parallel", "parallel", "parallel"]} ins(%expanded_1227, %cst_291 : tensor<4x384x384xf32>, tensor<1x1x1xf32>) outs(%43 : tensor<4x384x384xf32>) {
    ^bb0(%in: f32, %in_3583: f32, %out: f32):
      %1676 = arith.mulf %in, %in_3583 : f32
      linalg.yield %1676 : f32
    } -> tensor<4x384x384xf32>
    %expanded_1228 = tensor.expand_shape %123 [[0, 1], [2], [3]] : tensor<4x384x384xf32> into tensor<1x4x384x384xf32>
    %124 = linalg.generic {indexing_maps = [#map9, #map10, #map11], iterator_types = ["parallel", "parallel", "parallel", "parallel"]} ins(%expanded_1228, %expanded_1075 : tensor<1x4x384x384xf32>, tensor<1x1x384x384xf32>) outs(%45 : tensor<1x4x384x384xf32>) {
    ^bb0(%in: f32, %in_3583: f32, %out: f32):
      %1676 = arith.addf %in, %in_3583 : f32
      linalg.yield %1676 : f32
    } -> tensor<1x4x384x384xf32>
    %reduced_1229 = linalg.reduce ins(%124 : tensor<1x4x384x384xf32>) outs(%48 : tensor<1x4x384xf32>) dimensions = [3] 
      (%in: f32, %init: f32) {
        %1676 = arith.maximumf %in, %init : f32
        linalg.yield %1676 : f32
      }
    %expanded_1230 = tensor.expand_shape %reduced_1229 [[0], [1], [2, 3]] : tensor<1x4x384xf32> into tensor<1x4x384x1xf32>
    %125 = linalg.generic {indexing_maps = [#map9, #map12, #map11], iterator_types = ["parallel", "parallel", "parallel", "parallel"]} ins(%124, %expanded_1230 : tensor<1x4x384x384xf32>, tensor<1x4x384x1xf32>) outs(%45 : tensor<1x4x384x384xf32>) {
    ^bb0(%in: f32, %in_3583: f32, %out: f32):
      %1676 = arith.subf %in, %in_3583 : f32
      linalg.yield %1676 : f32
    } -> tensor<1x4x384x384xf32>
    %126 = linalg.generic {indexing_maps = [#map9, #map11], iterator_types = ["parallel", "parallel", "parallel", "parallel"]} ins(%125 : tensor<1x4x384x384xf32>) outs(%45 : tensor<1x4x384x384xf32>) {
    ^bb0(%in: f32, %out: f32):
      %1676 = math.exp %in : f32
      linalg.yield %1676 : f32
    } -> tensor<1x4x384x384xf32>
    %reduced_1231 = linalg.reduce ins(%126 : tensor<1x4x384x384xf32>) outs(%51 : tensor<1x4x384xf32>) dimensions = [3] 
      (%in: f32, %init: f32) {
        %1676 = arith.addf %in, %init : f32
        linalg.yield %1676 : f32
      }
    %expanded_1232 = tensor.expand_shape %reduced_1231 [[0], [1], [2, 3]] : tensor<1x4x384xf32> into tensor<1x4x384x1xf32>
    %127 = linalg.generic {indexing_maps = [#map12, #map11], iterator_types = ["parallel", "parallel", "parallel", "parallel"]} ins(%expanded_1232 : tensor<1x4x384x1xf32>) outs(%52 : tensor<1x4x384x1xf32>) {
    ^bb0(%in: f32, %out: f32):
      %1676 = arith.divf %cst_0, %in : f32
      linalg.yield %1676 : f32
    } -> tensor<1x4x384x1xf32>
    %128 = linalg.generic {indexing_maps = [#map9, #map12, #map11], iterator_types = ["parallel", "parallel", "parallel", "parallel"]} ins(%126, %127 : tensor<1x4x384x384xf32>, tensor<1x4x384x1xf32>) outs(%45 : tensor<1x4x384x384xf32>) {
    ^bb0(%in: f32, %in_3583: f32, %out: f32):
      %1676 = arith.mulf %in, %in_3583 : f32
      linalg.yield %1676 : f32
    } -> tensor<1x4x384x384xf32>
    %collapsed_1233 = tensor.collapse_shape %128 [[0, 1], [2], [3]] : tensor<1x4x384x384xf32> into tensor<4x384x384xf32>
    %extracted_slice_1234 = tensor.extract_slice %collapsed_1233[0, 0, 0] [1, 384, 384] [1, 1, 1] : tensor<4x384x384xf32> to tensor<1x384x384xf32>
    %extracted_slice_1235 = tensor.extract_slice %collapsed_1233[1, 0, 0] [1, 384, 384] [1, 1, 1] : tensor<4x384x384xf32> to tensor<1x384x384xf32>
    %extracted_slice_1236 = tensor.extract_slice %collapsed_1233[2, 0, 0] [1, 384, 384] [1, 1, 1] : tensor<4x384x384xf32> to tensor<1x384x384xf32>
    %extracted_slice_1237 = tensor.extract_slice %collapsed_1233[3, 0, 0] [1, 384, 384] [1, 1, 1] : tensor<4x384x384xf32> to tensor<1x384x384xf32>
    %collapsed_1238 = tensor.collapse_shape %transposed_1195 [[0, 1], [2], [3]] : tensor<1x4x384x32xf32> into tensor<4x384x32xf32>
    %extracted_slice_1239 = tensor.extract_slice %collapsed_1238[0, 0, 0] [1, 384, 32] [1, 1, 1] : tensor<4x384x32xf32> to tensor<1x384x32xf32>
    %transposed_1240 = linalg.transpose ins(%extracted_slice_1239 : tensor<1x384x32xf32>) outs(%55 : tensor<32x384x1xf32>) permutation = [2, 1, 0] 
    %extracted_slice_1241 = tensor.extract_slice %collapsed_1238[1, 0, 0] [1, 384, 32] [1, 1, 1] : tensor<4x384x32xf32> to tensor<1x384x32xf32>
    %transposed_1242 = linalg.transpose ins(%extracted_slice_1241 : tensor<1x384x32xf32>) outs(%55 : tensor<32x384x1xf32>) permutation = [2, 1, 0] 
    %extracted_slice_1243 = tensor.extract_slice %collapsed_1238[2, 0, 0] [1, 384, 32] [1, 1, 1] : tensor<4x384x32xf32> to tensor<1x384x32xf32>
    %transposed_1244 = linalg.transpose ins(%extracted_slice_1243 : tensor<1x384x32xf32>) outs(%55 : tensor<32x384x1xf32>) permutation = [2, 1, 0] 
    %extracted_slice_1245 = tensor.extract_slice %collapsed_1238[3, 0, 0] [1, 384, 32] [1, 1, 1] : tensor<4x384x32xf32> to tensor<1x384x32xf32>
    %transposed_1246 = linalg.transpose ins(%extracted_slice_1245 : tensor<1x384x32xf32>) outs(%55 : tensor<32x384x1xf32>) permutation = [2, 1, 0] 
    %collapsed_1247 = tensor.collapse_shape %transposed_1240 [[0], [1, 2]] : tensor<32x384x1xf32> into tensor<32x384xf32>
    %collapsed_1248 = tensor.collapse_shape %extracted_slice_1234 [[0, 1], [2]] : tensor<1x384x384xf32> into tensor<384x384xf32>
    %transposed_1249 = linalg.transpose ins(%collapsed_1247 : tensor<32x384xf32>) outs(%56 : tensor<384x32xf32>) permutation = [1, 0] 
    %129 = linalg.matmul ins(%collapsed_1248, %transposed_1249 : tensor<384x384xf32>, tensor<384x32xf32>) outs(%57 : tensor<384x32xf32>) -> tensor<384x32xf32>
    %collapsed_1250 = tensor.collapse_shape %transposed_1242 [[0], [1, 2]] : tensor<32x384x1xf32> into tensor<32x384xf32>
    %collapsed_1251 = tensor.collapse_shape %extracted_slice_1235 [[0, 1], [2]] : tensor<1x384x384xf32> into tensor<384x384xf32>
    %transposed_1252 = linalg.transpose ins(%collapsed_1250 : tensor<32x384xf32>) outs(%56 : tensor<384x32xf32>) permutation = [1, 0] 
    %130 = linalg.matmul ins(%collapsed_1251, %transposed_1252 : tensor<384x384xf32>, tensor<384x32xf32>) outs(%57 : tensor<384x32xf32>) -> tensor<384x32xf32>
    %collapsed_1253 = tensor.collapse_shape %transposed_1244 [[0], [1, 2]] : tensor<32x384x1xf32> into tensor<32x384xf32>
    %collapsed_1254 = tensor.collapse_shape %extracted_slice_1236 [[0, 1], [2]] : tensor<1x384x384xf32> into tensor<384x384xf32>
    %transposed_1255 = linalg.transpose ins(%collapsed_1253 : tensor<32x384xf32>) outs(%56 : tensor<384x32xf32>) permutation = [1, 0] 
    %131 = linalg.matmul ins(%collapsed_1254, %transposed_1255 : tensor<384x384xf32>, tensor<384x32xf32>) outs(%57 : tensor<384x32xf32>) -> tensor<384x32xf32>
    %collapsed_1256 = tensor.collapse_shape %transposed_1246 [[0], [1, 2]] : tensor<32x384x1xf32> into tensor<32x384xf32>
    %collapsed_1257 = tensor.collapse_shape %extracted_slice_1237 [[0, 1], [2]] : tensor<1x384x384xf32> into tensor<384x384xf32>
    %transposed_1258 = linalg.transpose ins(%collapsed_1256 : tensor<32x384xf32>) outs(%56 : tensor<384x32xf32>) permutation = [1, 0] 
    %132 = linalg.matmul ins(%collapsed_1257, %transposed_1258 : tensor<384x384xf32>, tensor<384x32xf32>) outs(%57 : tensor<384x32xf32>) -> tensor<384x32xf32>
    %inserted_slice_1259 = tensor.insert_slice %129 into %62[0, 0] [384, 32] [1, 1] : tensor<384x32xf32> into tensor<1536x32xf32>
    %inserted_slice_1260 = tensor.insert_slice %130 into %inserted_slice_1259[384, 0] [384, 32] [1, 1] : tensor<384x32xf32> into tensor<1536x32xf32>
    %inserted_slice_1261 = tensor.insert_slice %131 into %inserted_slice_1260[768, 0] [384, 32] [1, 1] : tensor<384x32xf32> into tensor<1536x32xf32>
    %inserted_slice_1262 = tensor.insert_slice %132 into %inserted_slice_1261[1152, 0] [384, 32] [1, 1] : tensor<384x32xf32> into tensor<1536x32xf32>
    %expanded_1263 = tensor.expand_shape %inserted_slice_1262 [[0, 1], [2]] : tensor<1536x32xf32> into tensor<4x384x32xf32>
    %transposed_1264 = linalg.transpose ins(%expanded_1263 : tensor<4x384x32xf32>) outs(%63 : tensor<384x4x32xf32>) permutation = [1, 0, 2] 
    %collapsed_1265 = tensor.collapse_shape %transposed_1264 [[0], [1, 2]] : tensor<384x4x32xf32> into tensor<384x128xf32>
    %transposed_1266 = linalg.transpose ins(%cst_1025 : tensor<128x128xf32>) outs(%25 : tensor<128x128xf32>) permutation = [1, 0] 
    %133 = linalg.generic {indexing_maps = [#map8, #map1], iterator_types = ["parallel", "parallel"]} ins(%cst_1024 : tensor<128xf32>) outs(%18 : tensor<384x128xf32>) {
    ^bb0(%in: f32, %out: f32):
      linalg.yield %in : f32
    } -> tensor<384x128xf32>
    %134 = linalg.matmul ins(%collapsed_1265, %transposed_1266 : tensor<384x128xf32>, tensor<128x128xf32>) outs(%133 : tensor<384x128xf32>) -> tensor<384x128xf32>
    %expanded_1267 = tensor.expand_shape %134 [[0, 1], [2]] : tensor<384x128xf32> into tensor<1x384x128xf32>
    %135 = linalg.generic {indexing_maps = [#map6, #map6, #map3], iterator_types = ["parallel", "parallel", "parallel"]} ins(%expanded_1267, %expanded_1187 : tensor<1x384x128xf32>, tensor<1x384x128xf32>) outs(%4 : tensor<1x384x128xf32>) {
    ^bb0(%in: f32, %in_3583: f32, %out: f32):
      %1676 = arith.addf %in, %in_3583 : f32
      linalg.yield %1676 : f32
    } -> tensor<1x384x128xf32>
    %136 = linalg.generic {indexing_maps = [#map6, #map4, #map3], iterator_types = ["parallel", "parallel", "parallel"]} ins(%135, %cst_278 : tensor<1x384x128xf32>, tensor<1x1x128xf32>) outs(%4 : tensor<1x384x128xf32>) {
    ^bb0(%in: f32, %in_3583: f32, %out: f32):
      %1676 = arith.mulf %in, %in_3583 : f32
      linalg.yield %1676 : f32
    } -> tensor<1x384x128xf32>
    %137 = linalg.generic {indexing_maps = [#map6, #map4, #map3], iterator_types = ["parallel", "parallel", "parallel"]} ins(%136, %cst_277 : tensor<1x384x128xf32>, tensor<1x1x128xf32>) outs(%4 : tensor<1x384x128xf32>) {
    ^bb0(%in: f32, %in_3583: f32, %out: f32):
      %1676 = arith.addf %in, %in_3583 : f32
      linalg.yield %1676 : f32
    } -> tensor<1x384x128xf32>
    %collapsed_1268 = tensor.collapse_shape %137 [[0, 1], [2]] : tensor<1x384x128xf32> into tensor<384x128xf32>
    %transposed_1269 = linalg.transpose ins(%cst_1023 : tensor<512x128xf32>) outs(%69 : tensor<128x512xf32>) permutation = [1, 0] 
    %138 = linalg.generic {indexing_maps = [#map8, #map1], iterator_types = ["parallel", "parallel"]} ins(%cst_1022 : tensor<512xf32>) outs(%11 : tensor<384x512xf32>) {
    ^bb0(%in: f32, %out: f32):
      linalg.yield %in : f32
    } -> tensor<384x512xf32>
    %139 = linalg.matmul ins(%collapsed_1268, %transposed_1269 : tensor<384x128xf32>, tensor<128x512xf32>) outs(%138 : tensor<384x512xf32>) -> tensor<384x512xf32>
    %140 = linalg.generic {indexing_maps = [#map1, #map1], iterator_types = ["parallel", "parallel"]} ins(%139 : tensor<384x512xf32>) outs(%11 : tensor<384x512xf32>) {
    ^bb0(%in: f32, %out: f32):
      %1676 = arith.minimumf %in, %cst : f32
      %1677 = arith.maximumf %1676, %cst_2 : f32
      linalg.yield %1677 : f32
    } -> tensor<384x512xf32>
    %transposed_1270 = linalg.transpose ins(%cst_1021 : tensor<128x512xf32>) outs(%17 : tensor<512x128xf32>) permutation = [1, 0] 
    %141 = linalg.generic {indexing_maps = [#map8, #map1], iterator_types = ["parallel", "parallel"]} ins(%cst_1020 : tensor<128xf32>) outs(%18 : tensor<384x128xf32>) {
    ^bb0(%in: f32, %out: f32):
      linalg.yield %in : f32
    } -> tensor<384x128xf32>
    %142 = linalg.matmul ins(%140, %transposed_1270 : tensor<384x512xf32>, tensor<512x128xf32>) outs(%141 : tensor<384x128xf32>) -> tensor<384x128xf32>
    %expanded_1271 = tensor.expand_shape %142 [[0, 1], [2]] : tensor<384x128xf32> into tensor<1x384x128xf32>
    %143 = linalg.generic {indexing_maps = [#map6, #map6, #map3], iterator_types = ["parallel", "parallel", "parallel"]} ins(%expanded_1271, %137 : tensor<1x384x128xf32>, tensor<1x384x128xf32>) outs(%4 : tensor<1x384x128xf32>) {
    ^bb0(%in: f32, %in_3583: f32, %out: f32):
      %1676 = arith.addf %in, %in_3583 : f32
      linalg.yield %1676 : f32
    } -> tensor<1x384x128xf32>
    %144 = linalg.generic {indexing_maps = [#map6, #map4, #map3], iterator_types = ["parallel", "parallel", "parallel"]} ins(%143, %cst_276 : tensor<1x384x128xf32>, tensor<1x1x128xf32>) outs(%4 : tensor<1x384x128xf32>) {
    ^bb0(%in: f32, %in_3583: f32, %out: f32):
      %1676 = arith.mulf %in, %in_3583 : f32
      linalg.yield %1676 : f32
    } -> tensor<1x384x128xf32>
    %145 = linalg.generic {indexing_maps = [#map6, #map4, #map3], iterator_types = ["parallel", "parallel", "parallel"]} ins(%144, %cst_275 : tensor<1x384x128xf32>, tensor<1x1x128xf32>) outs(%4 : tensor<1x384x128xf32>) {
    ^bb0(%in: f32, %in_3583: f32, %out: f32):
      %1676 = arith.addf %in, %in_3583 : f32
      linalg.yield %1676 : f32
    } -> tensor<1x384x128xf32>
    %collapsed_1272 = tensor.collapse_shape %145 [[0, 1], [2]] : tensor<1x384x128xf32> into tensor<384x128xf32>
    %transposed_1273 = linalg.transpose ins(%cst_1019 : tensor<512x128xf32>) outs(%69 : tensor<128x512xf32>) permutation = [1, 0] 
    %146 = linalg.generic {indexing_maps = [#map8, #map1], iterator_types = ["parallel", "parallel"]} ins(%cst_1018 : tensor<512xf32>) outs(%11 : tensor<384x512xf32>) {
    ^bb0(%in: f32, %out: f32):
      linalg.yield %in : f32
    } -> tensor<384x512xf32>
    %147 = linalg.matmul ins(%collapsed_1272, %transposed_1273 : tensor<384x128xf32>, tensor<128x512xf32>) outs(%146 : tensor<384x512xf32>) -> tensor<384x512xf32>
    %148 = linalg.generic {indexing_maps = [#map1, #map1], iterator_types = ["parallel", "parallel"]} ins(%147 : tensor<384x512xf32>) outs(%11 : tensor<384x512xf32>) {
    ^bb0(%in: f32, %out: f32):
      %1676 = arith.minimumf %in, %cst : f32
      %1677 = arith.maximumf %1676, %cst_2 : f32
      linalg.yield %1677 : f32
    } -> tensor<384x512xf32>
    %transposed_1274 = linalg.transpose ins(%cst_1017 : tensor<128x512xf32>) outs(%17 : tensor<512x128xf32>) permutation = [1, 0] 
    %149 = linalg.generic {indexing_maps = [#map8, #map1], iterator_types = ["parallel", "parallel"]} ins(%cst_1016 : tensor<128xf32>) outs(%18 : tensor<384x128xf32>) {
    ^bb0(%in: f32, %out: f32):
      linalg.yield %in : f32
    } -> tensor<384x128xf32>
    %150 = linalg.matmul ins(%148, %transposed_1274 : tensor<384x512xf32>, tensor<512x128xf32>) outs(%149 : tensor<384x128xf32>) -> tensor<384x128xf32>
    %expanded_1275 = tensor.expand_shape %150 [[0, 1], [2]] : tensor<384x128xf32> into tensor<1x384x128xf32>
    %151 = linalg.generic {indexing_maps = [#map6, #map6, #map3], iterator_types = ["parallel", "parallel", "parallel"]} ins(%expanded_1275, %145 : tensor<1x384x128xf32>, tensor<1x384x128xf32>) outs(%4 : tensor<1x384x128xf32>) {
    ^bb0(%in: f32, %in_3583: f32, %out: f32):
      %1676 = arith.addf %in, %in_3583 : f32
      linalg.yield %1676 : f32
    } -> tensor<1x384x128xf32>
    %152 = linalg.generic {indexing_maps = [#map6, #map4, #map3], iterator_types = ["parallel", "parallel", "parallel"]} ins(%151, %cst_274 : tensor<1x384x128xf32>, tensor<1x1x128xf32>) outs(%4 : tensor<1x384x128xf32>) {
    ^bb0(%in: f32, %in_3583: f32, %out: f32):
      %1676 = arith.mulf %in, %in_3583 : f32
      linalg.yield %1676 : f32
    } -> tensor<1x384x128xf32>
    %153 = linalg.generic {indexing_maps = [#map6, #map4, #map3], iterator_types = ["parallel", "parallel", "parallel"]} ins(%152, %cst_273 : tensor<1x384x128xf32>, tensor<1x1x128xf32>) outs(%4 : tensor<1x384x128xf32>) {
    ^bb0(%in: f32, %in_3583: f32, %out: f32):
      %1676 = arith.addf %in, %in_3583 : f32
      linalg.yield %1676 : f32
    } -> tensor<1x384x128xf32>
    %collapsed_1276 = tensor.collapse_shape %153 [[0, 1], [2]] : tensor<1x384x128xf32> into tensor<384x128xf32>
    %transposed_1277 = linalg.transpose ins(%cst_1015 : tensor<512x128xf32>) outs(%69 : tensor<128x512xf32>) permutation = [1, 0] 
    %154 = linalg.generic {indexing_maps = [#map8, #map1], iterator_types = ["parallel", "parallel"]} ins(%cst_1014 : tensor<512xf32>) outs(%11 : tensor<384x512xf32>) {
    ^bb0(%in: f32, %out: f32):
      linalg.yield %in : f32
    } -> tensor<384x512xf32>
    %155 = linalg.matmul ins(%collapsed_1276, %transposed_1277 : tensor<384x128xf32>, tensor<128x512xf32>) outs(%154 : tensor<384x512xf32>) -> tensor<384x512xf32>
    %156 = linalg.generic {indexing_maps = [#map1, #map1], iterator_types = ["parallel", "parallel"]} ins(%155 : tensor<384x512xf32>) outs(%11 : tensor<384x512xf32>) {
    ^bb0(%in: f32, %out: f32):
      %1676 = arith.minimumf %in, %cst : f32
…
    %inserted_slice_3443 = tensor.insert_slice %1557 into %62[0, 0] [384, 32] [1, 1] : tensor<384x32xf32> into tensor<1536x32xf32>
    %inserted_slice_3444 = tensor.insert_slice %1558 into %inserted_slice_3443[384, 0] [384, 32] [1, 1] : tensor<384x32xf32> into tensor<1536x32xf32>
    %inserted_slice_3445 = tensor.insert_slice %1559 into %inserted_slice_3444[768, 0] [384, 32] [1, 1] : tensor<384x32xf32> into tensor<1536x32xf32>
    %inserted_slice_3446 = tensor.insert_slice %1560 into %inserted_slice_3445[1152, 0] [384, 32] [1, 1] : tensor<384x32xf32> into tensor<1536x32xf32>
    %expanded_3447 = tensor.expand_shape %inserted_slice_3446 [[0, 1], [2]] : tensor<1536x32xf32> into tensor<4x384x32xf32>
    %transposed_3448 = linalg.transpose ins(%expanded_3447 : tensor<4x384x32xf32>) outs(%63 : tensor<384x4x32xf32>) permutation = [1, 0, 2] 
    %collapsed_3449 = tensor.collapse_shape %transposed_3448 [[0], [1, 2]] : tensor<384x4x32xf32> into tensor<384x128xf32>
    %transposed_3450 = linalg.transpose ins(%cst_353 : tensor<128x128xf32>) outs(%25 : tensor<128x128xf32>) permutation = [1, 0] 
    %1561 = linalg.generic {indexing_maps = [#map8, #map1], iterator_types = ["parallel", "parallel"]} ins(%cst_352 : tensor<128xf32>) outs(%18 : tensor<384x128xf32>) {
    ^bb0(%in: f32, %out: f32):
      linalg.yield %in : f32
    } -> tensor<384x128xf32>
    %1562 = linalg.matmul ins(%collapsed_3449, %transposed_3450 : tensor<384x128xf32>, tensor<128x128xf32>) outs(%1561 : tensor<384x128xf32>) -> tensor<384x128xf32>
    %expanded_3451 = tensor.expand_shape %1562 [[0, 1], [2]] : tensor<384x128xf32> into tensor<1x384x128xf32>
    %1563 = linalg.generic {indexing_maps = [#map6, #map6, #map3], iterator_types = ["parallel", "parallel", "parallel"]} ins(%expanded_3451, %expanded_3371 : tensor<1x384x128xf32>, tensor<1x384x128xf32>) outs(%4 : tensor<1x384x128xf32>) {
    ^bb0(%in: f32, %in_3583: f32, %out: f32):
      %1676 = arith.addf %in, %in_3583 : f32
      linalg.yield %1676 : f32
    } -> tensor<1x384x128xf32>
    %1564 = linalg.generic {indexing_maps = [#map6, #map4, #map3], iterator_types = ["parallel", "parallel", "parallel"]} ins(%1563, %cst_26 : tensor<1x384x128xf32>, tensor<1x1x128xf32>) outs(%4 : tensor<1x384x128xf32>) {
    ^bb0(%in: f32, %in_3583: f32, %out: f32):
      %1676 = arith.mulf %in, %in_3583 : f32
      linalg.yield %1676 : f32
    } -> tensor<1x384x128xf32>
    %1565 = linalg.generic {indexing_maps = [#map6, #map4, #map3], iterator_types = ["parallel", "parallel", "parallel"]} ins(%1564, %cst_25 : tensor<1x384x128xf32>, tensor<1x1x128xf32>) outs(%4 : tensor<1x384x128xf32>) {
    ^bb0(%in: f32, %in_3583: f32, %out: f32):
      %1676 = arith.addf %in, %in_3583 : f32
      linalg.yield %1676 : f32
    } -> tensor<1x384x128xf32>
    %collapsed_3452 = tensor.collapse_shape %1565 [[0, 1], [2]] : tensor<1x384x128xf32> into tensor<384x128xf32>
    %transposed_3453 = linalg.transpose ins(%cst_351 : tensor<512x128xf32>) outs(%69 : tensor<128x512xf32>) permutation = [1, 0] 
    %1566 = linalg.generic {indexing_maps = [#map8, #map1], iterator_types = ["parallel", "parallel"]} ins(%cst_350 : tensor<512xf32>) outs(%11 : tensor<384x512xf32>) {
    ^bb0(%in: f32, %out: f32):
      linalg.yield %in : f32
    } -> tensor<384x512xf32>
    %1567 = linalg.matmul ins(%collapsed_3452, %transposed_3453 : tensor<384x128xf32>, tensor<128x512xf32>) outs(%1566 : tensor<384x512xf32>) -> tensor<384x512xf32>
    %1568 = linalg.generic {indexing_maps = [#map1, #map1], iterator_types = ["parallel", "parallel"]} ins(%1567 : tensor<384x512xf32>) outs(%11 : tensor<384x512xf32>) {
    ^bb0(%in: f32, %out: f32):
      %1676 = arith.minimumf %in, %cst : f32
      %1677 = arith.maximumf %1676, %cst_2 : f32
      linalg.yield %1677 : f32
    } -> tensor<384x512xf32>
    %transposed_3454 = linalg.transpose ins(%cst_349 : tensor<128x512xf32>) outs(%17 : tensor<512x128xf32>) permutation = [1, 0] 
    %1569 = linalg.generic {indexing_maps = [#map8, #map1], iterator_types = ["parallel", "parallel"]} ins(%cst_348 : tensor<128xf32>) outs(%18 : tensor<384x128xf32>) {
    ^bb0(%in: f32, %out: f32):
      linalg.yield %in : f32
    } -> tensor<384x128xf32>
    %1570 = linalg.matmul ins(%1568, %transposed_3454 : tensor<384x512xf32>, tensor<512x128xf32>) outs(%1569 : tensor<384x128xf32>) -> tensor<384x128xf32>
    %expanded_3455 = tensor.expand_shape %1570 [[0, 1], [2]] : tensor<384x128xf32> into tensor<1x384x128xf32>
    %1571 = linalg.generic {indexing_maps = [#map6, #map6, #map3], iterator_types = ["parallel", "parallel", "parallel"]} ins(%expanded_3455, %1565 : tensor<1x384x128xf32>, tensor<1x384x128xf32>) outs(%4 : tensor<1x384x128xf32>) {
    ^bb0(%in: f32, %in_3583: f32, %out: f32):
      %1676 = arith.addf %in, %in_3583 : f32
      linalg.yield %1676 : f32
    } -> tensor<1x384x128xf32>
    %1572 = linalg.generic {indexing_maps = [#map6, #map4, #map3], iterator_types = ["parallel", "parallel", "parallel"]} ins(%1571, %cst_24 : tensor<1x384x128xf32>, tensor<1x1x128xf32>) outs(%4 : tensor<1x384x128xf32>) {
    ^bb0(%in: f32, %in_3583: f32, %out: f32):
      %1676 = arith.mulf %in, %in_3583 : f32
      linalg.yield %1676 : f32
    } -> tensor<1x384x128xf32>
    %1573 = linalg.generic {indexing_maps = [#map6, #map4, #map3], iterator_types = ["parallel", "parallel", "parallel"]} ins(%1572, %cst_23 : tensor<1x384x128xf32>, tensor<1x1x128xf32>) outs(%4 : tensor<1x384x128xf32>) {
    ^bb0(%in: f32, %in_3583: f32, %out: f32):
      %1676 = arith.addf %in, %in_3583 : f32
      linalg.yield %1676 : f32
    } -> tensor<1x384x128xf32>
    %collapsed_3456 = tensor.collapse_shape %1573 [[0, 1], [2]] : tensor<1x384x128xf32> into tensor<384x128xf32>
    %transposed_3457 = linalg.transpose ins(%cst_347 : tensor<512x128xf32>) outs(%69 : tensor<128x512xf32>) permutation = [1, 0] 
    %1574 = linalg.generic {indexing_maps = [#map8, #map1], iterator_types = ["parallel", "parallel"]} ins(%cst_346 : tensor<512xf32>) outs(%11 : tensor<384x512xf32>) {
    ^bb0(%in: f32, %out: f32):
      linalg.yield %in : f32
    } -> tensor<384x512xf32>
    %1575 = linalg.matmul ins(%collapsed_3456, %transposed_3457 : tensor<384x128xf32>, tensor<128x512xf32>) outs(%1574 : tensor<384x512xf32>) -> tensor<384x512xf32>
    %1576 = linalg.generic {indexing_maps = [#map1, #map1], iterator_types = ["parallel", "parallel"]} ins(%1575 : tensor<384x512xf32>) outs(%11 : tensor<384x512xf32>) {
    ^bb0(%in: f32, %out: f32):
      %1676 = arith.minimumf %in, %cst : f32
      %1677 = arith.maximumf %1676, %cst_2 : f32
      linalg.yield %1677 : f32
    } -> tensor<384x512xf32>
    %transposed_3458 = linalg.transpose ins(%cst_345 : tensor<128x512xf32>) outs(%17 : tensor<512x128xf32>) permutation = [1, 0] 
    %1577 = linalg.generic {indexing_maps = [#map8, #map1], iterator_types = ["parallel", "parallel"]} ins(%cst_344 : tensor<128xf32>) outs(%18 : tensor<384x128xf32>) {
    ^bb0(%in: f32, %out: f32):
      linalg.yield %in : f32
    } -> tensor<384x128xf32>
    %1578 = linalg.matmul ins(%1576, %transposed_3458 : tensor<384x512xf32>, tensor<512x128xf32>) outs(%1577 : tensor<384x128xf32>) -> tensor<384x128xf32>
    %expanded_3459 = tensor.expand_shape %1578 [[0, 1], [2]] : tensor<384x128xf32> into tensor<1x384x128xf32>
    %1579 = linalg.generic {indexing_maps = [#map6, #map6, #map3], iterator_types = ["parallel", "parallel", "parallel"]} ins(%expanded_3459, %1573 : tensor<1x384x128xf32>, tensor<1x384x128xf32>) outs(%4 : tensor<1x384x128xf32>) {
    ^bb0(%in: f32, %in_3583: f32, %out: f32):
      %1676 = arith.addf %in, %in_3583 : f32
      linalg.yield %1676 : f32
    } -> tensor<1x384x128xf32>
    %1580 = linalg.generic {indexing_maps = [#map6, #map4, #map3], iterator_types = ["parallel", "parallel", "parallel"]} ins(%1579, %cst_22 : tensor<1x384x128xf32>, tensor<1x1x128xf32>) outs(%4 : tensor<1x384x128xf32>) {
    ^bb0(%in: f32, %in_3583: f32, %out: f32):
      %1676 = arith.mulf %in, %in_3583 : f32
      linalg.yield %1676 : f32
    } -> tensor<1x384x128xf32>
    %1581 = linalg.generic {indexing_maps = [#map6, #map4, #map3], iterator_types = ["parallel", "parallel", "parallel"]} ins(%1580, %cst_21 : tensor<1x384x128xf32>, tensor<1x1x128xf32>) outs(%4 : tensor<1x384x128xf32>) {
    ^bb0(%in: f32, %in_3583: f32, %out: f32):
      %1676 = arith.addf %in, %in_3583 : f32
      linalg.yield %1676 : f32
    } -> tensor<1x384x128xf32>
    %collapsed_3460 = tensor.collapse_shape %1581 [[0, 1], [2]] : tensor<1x384x128xf32> into tensor<384x128xf32>
    %transposed_3461 = linalg.transpose ins(%cst_343 : tensor<512x128xf32>) outs(%69 : tensor<128x512xf32>) permutation = [1, 0] 
    %1582 = linalg.generic {indexing_maps = [#map8, #map1], iterator_types = ["parallel", "parallel"]} ins(%cst_342 : tensor<512xf32>) outs(%11 : tensor<384x512xf32>) {
    ^bb0(%in: f32, %out: f32):
      linalg.yield %in : f32
    } -> tensor<384x512xf32>
    %1583 = linalg.matmul ins(%collapsed_3460, %transposed_3461 : tensor<384x128xf32>, tensor<128x512xf32>) outs(%1582 : tensor<384x512xf32>) -> tensor<384x512xf32>
    %1584 = linalg.generic {indexing_maps = [#map1, #map1], iterator_types = ["parallel", "parallel"]} ins(%1583 : tensor<384x512xf32>) outs(%11 : tensor<384x512xf32>) {
    ^bb0(%in: f32, %out: f32):
      %1676 = arith.minimumf %in, %cst : f32
      %1677 = arith.maximumf %1676, %cst_2 : f32
      linalg.yield %1677 : f32
    } -> tensor<384x512xf32>
    %transposed_3462 = linalg.transpose ins(%cst_341 : tensor<128x512xf32>) outs(%17 : tensor<512x128xf32>) permutation = [1, 0] 
    %1585 = linalg.generic {indexing_maps = [#map8, #map1], iterator_types = ["parallel", "parallel"]} ins(%cst_340 : tensor<128xf32>) outs(%18 : tensor<384x128xf32>) {
    ^bb0(%in: f32, %out: f32):
      linalg.yield %in : f32
    } -> tensor<384x128xf32>
    %1586 = linalg.matmul ins(%1584, %transposed_3462 : tensor<384x512xf32>, tensor<512x128xf32>) outs(%1585 : tensor<384x128xf32>) -> tensor<384x128xf32>
    %expanded_3463 = tensor.expand_shape %1586 [[0, 1], [2]] : tensor<384x128xf32> into tensor<1x384x128xf32>
    %1587 = linalg.generic {indexing_maps = [#map6, #map6, #map3], iterator_types = ["parallel", "parallel", "parallel"]} ins(%expanded_3463, %1581 : tensor<1x384x128xf32>, tensor<1x384x128xf32>) outs(%4 : tensor<1x384x128xf32>) {
    ^bb0(%in: f32, %in_3583: f32, %out: f32):
      %1676 = arith.addf %in, %in_3583 : f32
      linalg.yield %1676 : f32
    } -> tensor<1x384x128xf32>
    %1588 = linalg.generic {indexing_maps = [#map6, #map4, #map3], iterator_types = ["parallel", "parallel", "parallel"]} ins(%1587, %cst_20 : tensor<1x384x128xf32>, tensor<1x1x128xf32>) outs(%4 : tensor<1x384x128xf32>) {
    ^bb0(%in: f32, %in_3583: f32, %out: f32):
      %1676 = arith.mulf %in, %in_3583 : f32
      linalg.yield %1676 : f32
    } -> tensor<1x384x128xf32>
    %1589 = linalg.generic {indexing_maps = [#map6, #map4, #map3], iterator_types = ["parallel", "parallel", "parallel"]} ins(%1588, %cst_19 : tensor<1x384x128xf32>, tensor<1x1x128xf32>) outs(%4 : tensor<1x384x128xf32>) {
    ^bb0(%in: f32, %in_3583: f32, %out: f32):
      %1676 = arith.addf %in, %in_3583 : f32
      linalg.yield %1676 : f32
    } -> tensor<1x384x128xf32>
    %collapsed_3464 = tensor.collapse_shape %1589 [[0, 1], [2]] : tensor<1x384x128xf32> into tensor<384x128xf32>
    %transposed_3465 = linalg.transpose ins(%cst_339 : tensor<512x128xf32>) outs(%69 : tensor<128x512xf32>) permutation = [1, 0] 
    %1590 = linalg.generic {indexing_maps = [#map8, #map1], iterator_types = ["parallel", "parallel"]} ins(%cst_338 : tensor<512xf32>) outs(%11 : tensor<384x512xf32>) {
    ^bb0(%in: f32, %out: f32):
      linalg.yield %in : f32
    } -> tensor<384x512xf32>
    %1591 = linalg.matmul ins(%collapsed_3464, %transposed_3465 : tensor<384x128xf32>, tensor<128x512xf32>) outs(%1590 : tensor<384x512xf32>) -> tensor<384x512xf32>
    %1592 = linalg.generic {indexing_maps = [#map1, #map1], iterator_types = ["parallel", "parallel"]} ins(%1591 : tensor<384x512xf32>) outs(%11 : tensor<384x512xf32>) {
    ^bb0(%in: f32, %out: f32):
      %1676 = arith.minimumf %in, %cst : f32
      %1677 = arith.maximumf %1676, %cst_2 : f32
      linalg.yield %1677 : f32
    } -> tensor<384x512xf32>
    %transposed_3466 = linalg.transpose ins(%cst_337 : tensor<128x512xf32>) outs(%17 : tensor<512x128xf32>) permutation = [1, 0] 
    %1593 = linalg.generic {indexing_maps = [#map8, #map1], iterator_types = ["parallel", "parallel"]} ins(%cst_336 : tensor<128xf32>) outs(%18 : tensor<384x128xf32>) {
    ^bb0(%in: f32, %out: f32):
      linalg.yield %in : f32
    } -> tensor<384x128xf32>
    %1594 = linalg.matmul ins(%1592, %transposed_3466 : tensor<384x512xf32>, tensor<512x128xf32>) outs(%1593 : tensor<384x128xf32>) -> tensor<384x128xf32>
    %expanded_3467 = tensor.expand_shape %1594 [[0, 1], [2]] : tensor<384x128xf32> into tensor<1x384x128xf32>
    %1595 = linalg.generic {indexing_maps = [#map6, #map6, #map3], iterator_types = ["parallel", "parallel", "parallel"]} ins(%expanded_3467, %1589 : tensor<1x384x128xf32>, tensor<1x384x128xf32>) outs(%4 : tensor<1x384x128xf32>) {
    ^bb0(%in: f32, %in_3583: f32, %out: f32):
      %1676 = arith.addf %in, %in_3583 : f32
      linalg.yield %1676 : f32
    } -> tensor<1x384x128xf32>
    %1596 = linalg.generic {indexing_maps = [#map6, #map4, #map3], iterator_types = ["parallel", "parallel", "parallel"]} ins(%1595, %cst_18 : tensor<1x384x128xf32>, tensor<1x1x128xf32>) outs(%4 : tensor<1x384x128xf32>) {
    ^bb0(%in: f32, %in_3583: f32, %out: f32):
      %1676 = arith.mulf %in, %in_3583 : f32
      linalg.yield %1676 : f32
    } -> tensor<1x384x128xf32>
    %1597 = linalg.generic {indexing_maps = [#map6, #map4, #map3], iterator_types = ["parallel", "parallel", "parallel"]} ins(%1596, %cst_17 : tensor<1x384x128xf32>, tensor<1x1x128xf32>) outs(%4 : tensor<1x384x128xf32>) {
    ^bb0(%in: f32, %in_3583: f32, %out: f32):
      %1676 = arith.addf %in, %in_3583 : f32
      linalg.yield %1676 : f32
    } -> tensor<1x384x128xf32>
    %collapsed_3468 = tensor.collapse_shape %1597 [[0, 1], [2]] : tensor<1x384x128xf32> into tensor<384x128xf32>
    %transposed_3469 = linalg.transpose ins(%cst_335 : tensor<512x128xf32>) outs(%69 : tensor<128x512xf32>) permutation = [1, 0] 
    %1598 = linalg.generic {indexing_maps = [#map8, #map1], iterator_types = ["parallel", "parallel"]} ins(%cst_334 : tensor<512xf32>) outs(%11 : tensor<384x512xf32>) {
    ^bb0(%in: f32, %out: f32):
      linalg.yield %in : f32
    } -> tensor<384x512xf32>
    %1599 = linalg.matmul ins(%collapsed_3468, %transposed_3469 : tensor<384x128xf32>, tensor<128x512xf32>) outs(%1598 : tensor<384x512xf32>) -> tensor<384x512xf32>
    %expanded_3470 = tensor.expand_shape %1599 [[0, 1], [2]] : tensor<384x512xf32> into tensor<1x384x512xf32>
    %1600 = linalg.generic {indexing_maps = [#map6, #map6, #map3], iterator_types = ["parallel", "parallel", "parallel"]} ins(%expanded_3470, %1534 : tensor<1x384x512xf32>, tensor<1x384x512xf32>) outs(%2 : tensor<1x384x512xf32>) {
    ^bb0(%in: f32, %in_3583: f32, %out: f32):
      %1676 = arith.addf %in, %in_3583 : f32
      linalg.yield %1676 : f32
    } -> tensor<1x384x512xf32>
    %1601 = linalg.generic {indexing_maps = [#map6, #map4, #map3], iterator_types = ["parallel", "parallel", "parallel"]} ins(%1600, %cst_16 : tensor<1x384x512xf32>, tensor<1x1x512xf32>) outs(%2 : tensor<1x384x512xf32>) {
    ^bb0(%in: f32, %in_3583: f32, %out: f32):
      %1676 = arith.mulf %in, %in_3583 : f32
      linalg.yield %1676 : f32
    } -> tensor<1x384x512xf32>
    %1602 = linalg.generic {indexing_maps = [#map6, #map4, #map3], iterator_types = ["parallel", "parallel", "parallel"]} ins(%1601, %cst_15 : tensor<1x384x512xf32>, tensor<1x1x512xf32>) outs(%2 : tensor<1x384x512xf32>) {
    ^bb0(%in: f32, %in_3583: f32, %out: f32):
      %1676 = arith.addf %in, %in_3583 : f32
      linalg.yield %1676 : f32
    } -> tensor<1x384x512xf32>
    %collapsed_3471 = tensor.collapse_shape %1602 [[0, 1], [2]] : tensor<1x384x512xf32> into tensor<384x512xf32>
    %transposed_3472 = linalg.transpose ins(%cst_333 : tensor<128x512xf32>) outs(%17 : tensor<512x128xf32>) permutation = [1, 0] 
    %1603 = linalg.generic {indexing_maps = [#map8, #map1], iterator_types = ["parallel", "parallel"]} ins(%cst_332 : tensor<128xf32>) outs(%18 : tensor<384x128xf32>) {
    ^bb0(%in: f32, %out: f32):
      linalg.yield %in : f32
    } -> tensor<384x128xf32>
    %1604 = linalg.matmul ins(%collapsed_3471, %transposed_3472 : tensor<384x512xf32>, tensor<512x128xf32>) outs(%1603 : tensor<384x128xf32>) -> tensor<384x128xf32>
    %transposed_3473 = linalg.transpose ins(%cst_331 : tensor<128x512xf32>) outs(%17 : tensor<512x128xf32>) permutation = [1, 0] 
    %1605 = linalg.generic {indexing_maps = [#map8, #map1], iterator_types = ["parallel", "parallel"]} ins(%cst_330 : tensor<128xf32>) outs(%18 : tensor<384x128xf32>) {
    ^bb0(%in: f32, %out: f32):
      linalg.yield %in : f32
    } -> tensor<384x128xf32>
    %1606 = linalg.matmul ins(%collapsed_3471, %transposed_3473 : tensor<384x512xf32>, tensor<512x128xf32>) outs(%1605 : tensor<384x128xf32>) -> tensor<384x128xf32>
    %transposed_3474 = linalg.transpose ins(%cst_329 : tensor<128x512xf32>) outs(%17 : tensor<512x128xf32>) permutation = [1, 0] 
    %1607 = linalg.generic {indexing_maps = [#map8, #map1], iterator_types = ["parallel", "parallel"]} ins(%cst_328 : tensor<128xf32>) outs(%18 : tensor<384x128xf32>) {
    ^bb0(%in: f32, %out: f32):
      linalg.yield %in : f32
    } -> tensor<384x128xf32>
    %1608 = linalg.matmul ins(%collapsed_3471, %transposed_3474 : tensor<384x512xf32>, tensor<512x128xf32>) outs(%1607 : tensor<384x128xf32>) -> tensor<384x128xf32>
    %expanded_3475 = tensor.expand_shape %1604 [[0, 1], [2]] : tensor<384x128xf32> into tensor<1x384x128xf32>
    %transposed_3476 = linalg.transpose ins(%cst_327 : tensor<128x128xf32>) outs(%25 : tensor<128x128xf32>) permutation = [1, 0] 
    %1609 = linalg.generic {indexing_maps = [#map8, #map1], iterator_types = ["parallel", "parallel"]} ins(%cst_326 : tensor<128xf32>) outs(%18 : tensor<384x128xf32>) {
    ^bb0(%in: f32, %out: f32):
      linalg.yield %in : f32
    } -> tensor<384x128xf32>
    %1610 = linalg.matmul ins(%1606, %transposed_3476 : tensor<384x128xf32>, tensor<128x128xf32>) outs(%1609 : tensor<384x128xf32>) -> tensor<384x128xf32>
    %transposed_3477 = linalg.transpose ins(%cst_325 : tensor<128x128xf32>) outs(%25 : tensor<128x128xf32>) permutation = [1, 0] 
    %1611 = linalg.generic {indexing_maps = [#map8, #map1], iterator_types = ["parallel", "parallel"]} ins(%cst_324 : tensor<128xf32>) outs(%18 : tensor<384x128xf32>) {
    ^bb0(%in: f32, %out: f32):
      linalg.yield %in : f32
    } -> tensor<384x128xf32>
    %1612 = linalg.matmul ins(%1606, %transposed_3477 : tensor<384x128xf32>, tensor<128x128xf32>) outs(%1611 : tensor<384x128xf32>) -> tensor<384x128xf32>
    %transposed_3478 = linalg.transpose ins(%cst_323 : tensor<128x128xf32>) outs(%25 : tensor<128x128xf32>) permutation = [1, 0] 
    %1613 = linalg.generic {indexing_maps = [#map8, #map1], iterator_types = ["parallel", "parallel"]} ins(%cst_322 : tensor<128xf32>) outs(%18 : tensor<384x128xf32>) {
    ^bb0(%in: f32, %out: f32):
      linalg.yield %in : f32
    } -> tensor<384x128xf32>
    %1614 = linalg.matmul ins(%1608, %transposed_3478 : tensor<384x128xf32>, tensor<128x128xf32>) outs(%1613 : tensor<384x128xf32>) -> tensor<384x128xf32>
    %expanded_3479 = tensor.expand_shape %1610 [[0, 1], [2, 3]] : tensor<384x128xf32> into tensor<1x384x4x32xf32>
    %expanded_3480 = tensor.expand_shape %1612 [[0, 1], [2, 3]] : tensor<384x128xf32> into tensor<1x384x4x32xf32>
    %expanded_3481 = tensor.expand_shape %1614 [[0, 1], [2, 3]] : tensor<384x128xf32> into tensor<1x384x4x32xf32>
    %transposed_3482 = linalg.transpose ins(%expanded_3479 : tensor<1x384x4x32xf32>) outs(%32 : tensor<1x4x384x32xf32>) permutation = [0, 2, 1, 3] 
    %transposed_3483 = linalg.transpose ins(%expanded_3481 : tensor<1x384x4x32xf32>) outs(%32 : tensor<1x4x384x32xf32>) permutation = [0, 2, 1, 3] 
    %transposed_3484 = linalg.transpose ins(%expanded_3480 : tensor<1x384x4x32xf32>) outs(%33 : tensor<1x4x32x384xf32>) permutation = [0, 2, 3, 1] 
    %collapsed_3485 = tensor.collapse_shape %transposed_3482 [[0, 1], [2], [3]] : tensor<1x4x384x32xf32> into tensor<4x384x32xf32>
    %extracted_slice_3486 = tensor.extract_slice %collapsed_3485[0, 0, 0] [1, 384, 32] [1, 1, 1] : tensor<4x384x32xf32> to tensor<1x384x32xf32>
    %extracted_slice_3487 = tensor.extract_slice %collapsed_3485[1, 0, 0] [1, 384, 32] [1, 1, 1] : tensor<4x384x32xf32> to tensor<1x384x32xf32>
    %extracted_slice_3488 = tensor.extract_slice %collapsed_3485[2, 0, 0] [1, 384, 32] [1, 1, 1] : tensor<4x384x32xf32> to tensor<1x384x32xf32>
    %extracted_slice_3489 = tensor.extract_slice %collapsed_3485[3, 0, 0] [1, 384, 32] [1, 1, 1] : tensor<4x384x32xf32> to tensor<1x384x32xf32>
    %collapsed_3490 = tensor.collapse_shape %transposed_3484 [[0, 1], [2], [3]] : tensor<1x4x32x384xf32> into tensor<4x32x384xf32>
    %extracted_slice_3491 = tensor.extract_slice %collapsed_3490[0, 0, 0] [1, 32, 384] [1, 1, 1] : tensor<4x32x384xf32> to tensor<1x32x384xf32>
    %transposed_3492 = linalg.transpose ins(%extracted_slice_3491 : tensor<1x32x384xf32>) outs(%34 : tensor<384x32x1xf32>) permutation = [2, 1, 0] 
    %extracted_slice_3493 = tensor.extract_slice %collapsed_3490[1, 0, 0] [1, 32, 384] [1, 1, 1] : tensor<4x32x384xf32> to tensor<1x32x384xf32>
    %transposed_3494 = linalg.transpose ins(%extracted_slice_3493 : tensor<1x32x384xf32>) outs(%34 : tensor<384x32x1xf32>) permutation = [2, 1, 0] 
    %extracted_slice_3495 = tensor.extract_slice %collapsed_3490[2, 0, 0] [1, 32, 384] [1, 1, 1] : tensor<4x32x384xf32> to tensor<1x32x384xf32>
    %transposed_3496 = linalg.transpose ins(%extracted_slice_3495 : tensor<1x32x384xf32>) outs(%34 : tensor<384x32x1xf32>) permutation = [2, 1, 0] 
    %extracted_slice_3497 = tensor.extract_slice %collapsed_3490[3, 0, 0] [1, 32, 384] [1, 1, 1] : tensor<4x32x384xf32> to tensor<1x32x384xf32>
    %transposed_3498 = linalg.transpose ins(%extracted_slice_3497 : tensor<1x32x384xf32>) outs(%34 : tensor<384x32x1xf32>) permutation = [2, 1, 0] 
    %collapsed_3499 = tensor.collapse_shape %transposed_3492 [[0], [1, 2]] : tensor<384x32x1xf32> into tensor<384x32xf32>
    %collapsed_3500 = tensor.collapse_shape %extracted_slice_3486 [[0, 1], [2]] : tensor<1x384x32xf32> into tensor<384x32xf32>
    %transposed_3501 = linalg.transpose ins(%collapsed_3499 : tensor<384x32xf32>) outs(%35 : tensor<32x384xf32>) permutation = [1, 0] 
    %1615 = linalg.matmul ins(%collapsed_3500, %transposed_3501 : tensor<384x32xf32>, tensor<32x384xf32>) outs(%37 : tensor<384x384xf32>) -> tensor<384x384xf32>
    %collapsed_3502 = tensor.collapse_shape %transposed_3494 [[0], [1, 2]] : tensor<384x32x1xf32> into tensor<384x32xf32>
    %collapsed_3503 = tensor.collapse_shape %extracted_slice_3487 [[0, 1], [2]] : tensor<1x384x32xf32> into tensor<384x32xf32>
    %transposed_3504 = linalg.transpose ins(%collapsed_3502 : tensor<384x32xf32>) outs(%35 : tensor<32x384xf32>) permutation = [1, 0] 
    %1616 = linalg.matmul ins(%collapsed_3503, %transposed_3504 : tensor<384x32xf32>, tensor<32x384xf32>) outs(%37 : tensor<384x384xf32>) -> tensor<384x384xf32>
    %collapsed_3505 = tensor.collapse_shape %transposed_3496 [[0], [1, 2]] : tensor<384x32x1xf32> into tensor<384x32xf32>
    %collapsed_3506 = tensor.collapse_shape %extracted_slice_3488 [[0, 1], [2]] : tensor<1x384x32xf32> into tensor<384x32xf32>
    %transposed_3507 = linalg.transpose ins(%collapsed_3505 : tensor<384x32xf32>) outs(%35 : tensor<32x384xf32>) permutation = [1, 0] 
    %1617 = linalg.matmul ins(%collapsed_3506, %transposed_3507 : tensor<384x32xf32>, tensor<32x384xf32>) outs(%37 : tensor<384x384xf32>) -> tensor<384x384xf32>
    %collapsed_3508 = tensor.collapse_shape %transposed_3498 [[0], [1, 2]] : tensor<384x32x1xf32> into tensor<384x32xf32>
    %collapsed_3509 = tensor.collapse_shape %extracted_slice_3489 [[0, 1], [2]] : tensor<1x384x32xf32> into tensor<384x32xf32>
    %transposed_3510 = linalg.transpose ins(%collapsed_3508 : tensor<384x32xf32>) outs(%35 : tensor<32x384xf32>) permutation = [1, 0] 
    %1618 = linalg.matmul ins(%collapsed_3509, %transposed_3510 : tensor<384x32xf32>, tensor<32x384xf32>) outs(%37 : tensor<384x384xf32>) -> tensor<384x384xf32>
    %inserted_slice_3511 = tensor.insert_slice %1615 into %42[0, 0] [384, 384] [1, 1] : tensor<384x384xf32> into tensor<1536x384xf32>
    %inserted_slice_3512 = tensor.insert_slice %1616 into %inserted_slice_3511[384, 0] [384, 384] [1, 1] : tensor<384x384xf32> into tensor<1536x384xf32>
    %inserted_slice_3513 = tensor.insert_slice %1617 into %inserted_slice_3512[768, 0] [384, 384] [1, 1] : tensor<384x384xf32> into tensor<1536x384xf32>
    %inserted_slice_3514 = tensor.insert_slice %1618 into %inserted_slice_3513[1152, 0] [384, 384] [1, 1] : tensor<384x384xf32> into tensor<1536x384xf32>
    %expanded_3515 = tensor.expand_shape %inserted_slice_3514 [[0, 1], [2]] : tensor<1536x384xf32> into tensor<4x384x384xf32>
    %1619 = linalg.generic {indexing_maps = [#map3, #map7, #map3], iterator_types = ["parallel", "parallel", "parallel"]} ins(%expanded_3515, %cst_291 : tensor<4x384x384xf32>, tensor<1x1x1xf32>) outs(%43 : tensor<4x384x384xf32>) {
    ^bb0(%in: f32, %in_3583: f32, %out: f32):
      %1676 = arith.mulf %in, %in_3583 : f32
      linalg.yield %1676 : f32
    } -> tensor<4x384x384xf32>
    %expanded_3516 = tensor.expand_shape %1619 [[0, 1], [2], [3]] : tensor<4x384x384xf32> into tensor<1x4x384x384xf32>
    %1620 = linalg.generic {indexing_maps = [#map9, #map10, #map11], iterator_types = ["parallel", "parallel", "parallel", "parallel"]} ins(%expanded_3516, %expanded_1075 : tensor<1x4x384x384xf32>, tensor<1x1x384x384xf32>) outs(%45 : tensor<1x4x384x384xf32>) {
    ^bb0(%in: f32, %in_3583: f32, %out: f32):
      %1676 = arith.addf %in, %in_3583 : f32
      linalg.yield %1676 : f32
    } -> tensor<1x4x384x384xf32>
    %reduced_3517 = linalg.reduce ins(%1620 : tensor<1x4x384x384xf32>) outs(%48 : tensor<1x4x384xf32>) dimensions = [3] 
      (%in: f32, %init: f32) {
        %1676 = arith.maximumf %in, %init : f32
        linalg.yield %1676 : f32
      }
    %expanded_3518 = tensor.expand_shape %reduced_3517 [[0], [1], [2, 3]] : tensor<1x4x384xf32> into tensor<1x4x384x1xf32>
    %1621 = linalg.generic {indexing_maps = [#map9, #map12, #map11], iterator_types = ["parallel", "parallel", "parallel", "parallel"]} ins(%1620, %expanded_3518 : tensor<1x4x384x384xf32>, tensor<1x4x384x1xf32>) outs(%45 : tensor<1x4x384x384xf32>) {
    ^bb0(%in: f32, %in_3583: f32, %out: f32):
      %1676 = arith.subf %in, %in_3583 : f32
      linalg.yield %1676 : f32
    } -> tensor<1x4x384x384xf32>
    %1622 = linalg.generic {indexing_maps = [#map9, #map11], iterator_types = ["parallel", "parallel", "parallel", "parallel"]} ins(%1621 : tensor<1x4x384x384xf32>) outs(%45 : tensor<1x4x384x384xf32>) {
    ^bb0(%in: f32, %out: f32):
      %1676 = math.exp %in : f32
      linalg.yield %1676 : f32
    } -> tensor<1x4x384x384xf32>
    %reduced_3519 = linalg.reduce ins(%1622 : tensor<1x4x384x384xf32>) outs(%51 : tensor<1x4x384xf32>) dimensions = [3] 
      (%in: f32, %init: f32) {
        %1676 = arith.addf %in, %init : f32
        linalg.yield %1676 : f32
      }
    %expanded_3520 = tensor.expand_shape %reduced_3519 [[0], [1], [2, 3]] : tensor<1x4x384xf32> into tensor<1x4x384x1xf32>
    %1623 = linalg.generic {indexing_maps = [#map12, #map11], iterator_types = ["parallel", "parallel", "parallel", "parallel"]} ins(%expanded_3520 : tensor<1x4x384x1xf32>) outs(%52 : tensor<1x4x384x1xf32>) {
    ^bb0(%in: f32, %out: f32):
      %1676 = arith.divf %cst_0, %in : f32
      linalg.yield %1676 : f32
    } -> tensor<1x4x384x1xf32>
    %1624 = linalg.generic {indexing_maps = [#map9, #map12, #map11], iterator_types = ["parallel", "parallel", "parallel", "parallel"]} ins(%1622, %1623 : tensor<1x4x384x384xf32>, tensor<1x4x384x1xf32>) outs(%45 : tensor<1x4x384x384xf32>) {
    ^bb0(%in: f32, %in_3583: f32, %out: f32):
      %1676 = arith.mulf %in, %in_3583 : f32
      linalg.yield %1676 : f32
    } -> tensor<1x4x384x384xf32>
    %collapsed_3521 = tensor.collapse_shape %1624 [[0, 1], [2], [3]] : tensor<1x4x384x384xf32> into tensor<4x384x384xf32>
    %extracted_slice_3522 = tensor.extract_slice %collapsed_3521[0, 0, 0] [1, 384, 384] [1, 1, 1] : tensor<4x384x384xf32> to tensor<1x384x384xf32>
    %extracted_slice_3523 = tensor.extract_slice %collapsed_3521[1, 0, 0] [1, 384, 384] [1, 1, 1] : tensor<4x384x384xf32> to tensor<1x384x384xf32>
    %extracted_slice_3524 = tensor.extract_slice %collapsed_3521[2, 0, 0] [1, 384, 384] [1, 1, 1] : tensor<4x384x384xf32> to tensor<1x384x384xf32>
    %extracted_slice_3525 = tensor.extract_slice %collapsed_3521[3, 0, 0] [1, 384, 384] [1, 1, 1] : tensor<4x384x384xf32> to tensor<1x384x384xf32>
    %collapsed_3526 = tensor.collapse_shape %transposed_3483 [[0, 1], [2], [3]] : tensor<1x4x384x32xf32> into tensor<4x384x32xf32>
    %extracted_slice_3527 = tensor.extract_slice %collapsed_3526[0, 0, 0] [1, 384, 32] [1, 1, 1] : tensor<4x384x32xf32> to tensor<1x384x32xf32>
    %transposed_3528 = linalg.transpose ins(%extracted_slice_3527 : tensor<1x384x32xf32>) outs(%55 : tensor<32x384x1xf32>) permutation = [2, 1, 0] 
    %extracted_slice_3529 = tensor.extract_slice %collapsed_3526[1, 0, 0] [1, 384, 32] [1, 1, 1] : tensor<4x384x32xf32> to tensor<1x384x32xf32>
    %transposed_3530 = linalg.transpose ins(%extracted_slice_3529 : tensor<1x384x32xf32>) outs(%55 : tensor<32x384x1xf32>) permutation = [2, 1, 0] 
    %extracted_slice_3531 = tensor.extract_slice %collapsed_3526[2, 0, 0] [1, 384, 32] [1, 1, 1] : tensor<4x384x32xf32> to tensor<1x384x32xf32>
    %transposed_3532 = linalg.transpose ins(%extracted_slice_3531 : tensor<1x384x32xf32>) outs(%55 : tensor<32x384x1xf32>) permutation = [2, 1, 0] 
    %extracted_slice_3533 = tensor.extract_slice %collapsed_3526[3, 0, 0] [1, 384, 32] [1, 1, 1] : tensor<4x384x32xf32> to tensor<1x384x32xf32>
    %transposed_3534 = linalg.transpose ins(%extracted_slice_3533 : tensor<1x384x32xf32>) outs(%55 : tensor<32x384x1xf32>) permutation = [2, 1, 0] 
    %collapsed_3535 = tensor.collapse_shape %transposed_3528 [[0], [1, 2]] : tensor<32x384x1xf32> into tensor<32x384xf32>
    %collapsed_3536 = tensor.collapse_shape %extracted_slice_3522 [[0, 1], [2]] : tensor<1x384x384xf32> into tensor<384x384xf32>
    %transposed_3537 = linalg.transpose ins(%collapsed_3535 : tensor<32x384xf32>) outs(%56 : tensor<384x32xf32>) permutation = [1, 0] 
    %1625 = linalg.matmul ins(%collapsed_3536, %transposed_3537 : tensor<384x384xf32>, tensor<384x32xf32>) outs(%57 : tensor<384x32xf32>) -> tensor<384x32xf32>
    %collapsed_3538 = tensor.collapse_shape %transposed_3530 [[0], [1, 2]] : tensor<32x384x1xf32> into tensor<32x384xf32>
    %collapsed_3539 = tensor.collapse_shape %extracted_slice_3523 [[0, 1], [2]] : tensor<1x384x384xf32> into tensor<384x384xf32>
    %transposed_3540 = linalg.transpose ins(%collapsed_3538 : tensor<32x384xf32>) outs(%56 : tensor<384x32xf32>) permutation = [1, 0] 
    %1626 = linalg.matmul ins(%collapsed_3539, %transposed_3540 : tensor<384x384xf32>, tensor<384x32xf32>) outs(%57 : tensor<384x32xf32>) -> tensor<384x32xf32>
    %collapsed_3541 = tensor.collapse_shape %transposed_3532 [[0], [1, 2]] : tensor<32x384x1xf32> into tensor<32x384xf32>
    %collapsed_3542 = tensor.collapse_shape %extracted_slice_3524 [[0, 1], [2]] : tensor<1x384x384xf32> into tensor<384x384xf32>
    %transposed_3543 = linalg.transpose ins(%collapsed_3541 : tensor<32x384xf32>) outs(%56 : tensor<384x32xf32>) permutation = [1, 0] 
    %1627 = linalg.matmul ins(%collapsed_3542, %transposed_3543 : tensor<384x384xf32>, tensor<384x32xf32>) outs(%57 : tensor<384x32xf32>) -> tensor<384x32xf32>
    %collapsed_3544 = tensor.collapse_shape %transposed_3534 [[0], [1, 2]] : tensor<32x384x1xf32> into tensor<32x384xf32>
    %collapsed_3545 = tensor.collapse_shape %extracted_slice_3525 [[0, 1], [2]] : tensor<1x384x384xf32> into tensor<384x384xf32>
    %transposed_3546 = linalg.transpose ins(%collapsed_3544 : tensor<32x384xf32>) outs(%56 : tensor<384x32xf32>) permutation = [1, 0] 
    %1628 = linalg.matmul ins(%collapsed_3545, %transposed_3546 : tensor<384x384xf32>, tensor<384x32xf32>) outs(%57 : tensor<384x32xf32>) -> tensor<384x32xf32>
    %inserted_slice_3547 = tensor.insert_slice %1625 into %62[0, 0] [384, 32] [1, 1] : tensor<384x32xf32> into tensor<1536x32xf32>
    %inserted_slice_3548 = tensor.insert_slice %1626 into %inserted_slice_3547[384, 0] [384, 32] [1, 1] : tensor<384x32xf32> into tensor<1536x32xf32>
    %inserted_slice_3549 = tensor.insert_slice %1627 into %inserted_slice_3548[768, 0] [384, 32] [1, 1] : tensor<384x32xf32> into tensor<1536x32xf32>
    %inserted_slice_3550 = tensor.insert_slice %1628 into %inserted_slice_3549[1152, 0] [384, 32] [1, 1] : tensor<384x32xf32> into tensor<1536x32xf32>
    %expanded_3551 = tensor.expand_shape %inserted_slice_3550 [[0, 1], [2]] : tensor<1536x32xf32> into tensor<4x384x32xf32>
    %transposed_3552 = linalg.transpose ins(%expanded_3551 : tensor<4x384x32xf32>) outs(%63 : tensor<384x4x32xf32>) permutation = [1, 0, 2] 
    %collapsed_3553 = tensor.collapse_shape %transposed_3552 [[0], [1, 2]] : tensor<384x4x32xf32> into tensor<384x128xf32>
    %transposed_3554 = linalg.transpose ins(%cst_321 : tensor<128x128xf32>) outs(%25 : tensor<128x128xf32>) permutation = [1, 0] 
    %1629 = linalg.generic {indexing_maps = [#map8, #map1], iterator_types = ["parallel", "parallel"]} ins(%cst_320 : tensor<128xf32>) outs(%18 : tensor<384x128xf32>) {
    ^bb0(%in: f32, %out: f32):
      linalg.yield %in : f32
    } -> tensor<384x128xf32>
    %1630 = linalg.matmul ins(%collapsed_3553, %transposed_3554 : tensor<384x128xf32>, tensor<128x128xf32>) outs(%1629 : tensor<384x128xf32>) -> tensor<384x128xf32>
    %expanded_3555 = tensor.expand_shape %1630 [[0, 1], [2]] : tensor<384x128xf32> into tensor<1x384x128xf32>
    %1631 = linalg.generic {indexing_maps = [#map6, #map6, #map3], iterator_types = ["parallel", "parallel", "parallel"]} ins(%expanded_3555, %expanded_3475 : tensor<1x384x128xf32>, tensor<1x384x128xf32>) outs(%4 : tensor<1x384x128xf32>) {
    ^bb0(%in: f32, %in_3583: f32, %out: f32):
      %1676 = arith.addf %in, %in_3583 : f32
      linalg.yield %1676 : f32
    } -> tensor<1x384x128xf32>
    %1632 = linalg.generic {indexing_maps = [#map6, #map4, #map3], iterator_types = ["parallel", "parallel", "parallel"]} ins(%1631, %cst_14 : tensor<1x384x128xf32>, tensor<1x1x128xf32>) outs(%4 : tensor<1x384x128xf32>) {
    ^bb0(%in: f32, %in_3583: f32, %out: f32):
      %1676 = arith.mulf %in, %in_3583 : f32
      linalg.yield %1676 : f32
    } -> tensor<1x384x128xf32>
    %1633 = linalg.generic {indexing_maps = [#map6, #map4, #map3], iterator_types = ["parallel", "parallel", "parallel"]} ins(%1632, %cst_13 : tensor<1x384x128xf32>, tensor<1x1x128xf32>) outs(%4 : tensor<1x384x128xf32>) {
    ^bb0(%in: f32, %in_3583: f32, %out: f32):
      %1676 = arith.addf %in, %in_3583 : f32
      linalg.yield %1676 : f32
    } -> tensor<1x384x128xf32>
    %collapsed_3556 = tensor.collapse_shape %1633 [[0, 1], [2]] : tensor<1x384x128xf32> into tensor<384x128xf32>
    %transposed_3557 = linalg.transpose ins(%cst_319 : tensor<512x128xf32>) outs(%69 : tensor<128x512xf32>) permutation = [1, 0] 
    %1634 = linalg.generic {indexing_maps = [#map8, #map1], iterator_types = ["parallel", "parallel"]} ins(%cst_318 : tensor<512xf32>) outs(%11 : tensor<384x512xf32>) {
    ^bb0(%in: f32, %out: f32):
      linalg.yield %in : f32
    } -> tensor<384x512xf32>
    %1635 = linalg.matmul ins(%collapsed_3556, %transposed_3557 : tensor<384x128xf32>, tensor<128x512xf32>) outs(%1634 : tensor<384x512xf32>) -> tensor<384x512xf32>
    %1636 = linalg.generic {indexing_maps = [#map1, #map1], iterator_types = ["parallel", "parallel"]} ins(%1635 : tensor<384x512xf32>) outs(%11 : tensor<384x512xf32>) {
    ^bb0(%in: f32, %out: f32):
      %1676 = arith.minimumf %in, %cst : f32
      %1677 = arith.maximumf %1676, %cst_2 : f32
      linalg.yield %1677 : f32
    } -> tensor<384x512xf32>
    %transposed_3558 = linalg.transpose ins(%cst_317 : tensor<128x512xf32>) outs(%17 : tensor<512x128xf32>) permutation = [1, 0] 
    %1637 = linalg.generic {indexing_maps = [#map8, #map1], iterator_types = ["parallel", "parallel"]} ins(%cst_316 : tensor<128xf32>) outs(%18 : tensor<384x128xf32>) {
    ^bb0(%in: f32, %out: f32):
      linalg.yield %in : f32
    } -> tensor<384x128xf32>
    %1638 = linalg.matmul ins(%1636, %transposed_3558 : tensor<384x512xf32>, tensor<512x128xf32>) outs(%1637 : tensor<384x128xf32>) -> tensor<384x128xf32>
    %expanded_3559 = tensor.expand_shape %1638 [[0, 1], [2]] : tensor<384x128xf32> into tensor<1x384x128xf32>
    %1639 = linalg.generic {indexing_maps = [#map6, #map6, #map3], iterator_types = ["parallel", "parallel", "parallel"]} ins(%expanded_3559, %1633 : tensor<1x384x128xf32>, tensor<1x384x128xf32>) outs(%4 : tensor<1x384x128xf32>) {
    ^bb0(%in: f32, %in_3583: f32, %out: f32):
      %1676 = arith.addf %in, %in_3583 : f32
      linalg.yield %1676 : f32
    } -> tensor<1x384x128xf32>
    %1640 = linalg.generic {indexing_maps = [#map6, #map4, #map3], iterator_types = ["parallel", "parallel", "parallel"]} ins(%1639, %cst_12 : tensor<1x384x128xf32>, tensor<1x1x128xf32>) outs(%4 : tensor<1x384x128xf32>) {
    ^bb0(%in: f32, %in_3583: f32, %out: f32):
      %1676 = arith.mulf %in, %in_3583 : f32
      linalg.yield %1676 : f32
    } -> tensor<1x384x128xf32>
    %1641 = linalg.generic {indexing_maps = [#map6, #map4, #map3], iterator_types = ["parallel", "parallel", "parallel"]} ins(%1640, %cst_11 : tensor<1x384x128xf32>, tensor<1x1x128xf32>) outs(%4 : tensor<1x384x128xf32>) {
    ^bb0(%in: f32, %in_3583: f32, %out: f32):
      %1676 = arith.addf %in, %in_3583 : f32
      linalg.yield %1676 : f32
    } -> tensor<1x384x128xf32>
    %collapsed_3560 = tensor.collapse_shape %1641 [[0, 1], [2]] : tensor<1x384x128xf32> into tensor<384x128xf32>
    %transposed_3561 = linalg.transpose ins(%cst_315 : tensor<512x128xf32>) outs(%69 : tensor<128x512xf32>) permutation = [1, 0] 
    %1642 = linalg.generic {indexing_maps = [#map8, #map1], iterator_types = ["parallel", "parallel"]} ins(%cst_314 : tensor<512xf32>) outs(%11 : tensor<384x512xf32>) {
    ^bb0(%in: f32, %out: f32):
      linalg.yield %in : f32
    } -> tensor<384x512xf32>
    %1643 = linalg.matmul ins(%collapsed_3560, %transposed_3561 : tensor<384x128xf32>, tensor<128x512xf32>) outs(%1642 : tensor<384x512xf32>) -> tensor<384x512xf32>
    %1644 = linalg.generic {indexing_maps = [#map1, #map1], iterator_types = ["parallel", "parallel"]} ins(%1643 : tensor<384x512xf32>) outs(%11 : tensor<384x512xf32>) {
    ^bb0(%in: f32, %out: f32):
      %1676 = arith.minimumf %in, %cst : f32
      %1677 = arith.maximumf %1676, %cst_2 : f32
      linalg.yield %1677 : f32
    } -> tensor<384x512xf32>
    %transposed_3562 = linalg.transpose ins(%cst_313 : tensor<128x512xf32>) outs(%17 : tensor<512x128xf32>) permutation = [1, 0] 
    %1645 = linalg.generic {indexing_maps = [#map8, #map1], iterator_types = ["parallel", "parallel"]} ins(%cst_312 : tensor<128xf32>) outs(%18 : tensor<384x128xf32>) {
    ^bb0(%in: f32, %out: f32):
      linalg.yield %in : f32
    } -> tensor<384x128xf32>
    %1646 = linalg.matmul ins(%1644, %transposed_3562 : tensor<384x512xf32>, tensor<512x128xf32>) outs(%1645 : tensor<384x128xf32>) -> tensor<384x128xf32>
    %expanded_3563 = tensor.expand_shape %1646 [[0, 1], [2]] : tensor<384x128xf32> into tensor<1x384x128xf32>
    %1647 = linalg.generic {indexing_maps = [#map6, #map6, #map3], iterator_types = ["parallel", "parallel", "parallel"]} ins(%expanded_3563, %1641 : tensor<1x384x128xf32>, tensor<1x384x128xf32>) outs(%4 : tensor<1x384x128xf32>) {
    ^bb0(%in: f32, %in_3583: f32, %out: f32):
      %1676 = arith.addf %in, %in_3583 : f32
      linalg.yield %1676 : f32
    } -> tensor<1x384x128xf32>
    %1648 = linalg.generic {indexing_maps = [#map6, #map4, #map3], iterator_types = ["parallel", "parallel", "parallel"]} ins(%1647, %cst_10 : tensor<1x384x128xf32>, tensor<1x1x128xf32>) outs(%4 : tensor<1x384x128xf32>) {
    ^bb0(%in: f32, %in_3583: f32, %out: f32):
      %1676 = arith.mulf %in, %in_3583 : f32
      linalg.yield %1676 : f32
    } -> tensor<1x384x128xf32>
    %1649 = linalg.generic {indexing_maps = [#map6, #map4, #map3], iterator_types = ["parallel", "parallel", "parallel"]} ins(%1648, %cst_9 : tensor<1x384x128xf32>, tensor<1x1x128xf32>) outs(%4 : tensor<1x384x128xf32>) {
    ^bb0(%in: f32, %in_3583: f32, %out: f32):
      %1676 = arith.addf %in, %in_3583 : f32
      linalg.yield %1676 : f32
    } -> tensor<1x384x128xf32>
    %collapsed_3564 = tensor.collapse_shape %1649 [[0, 1], [2]] : tensor<1x384x128xf32> into tensor<384x128xf32>
    %transposed_3565 = linalg.transpose ins(%cst_311 : tensor<512x128xf32>) outs(%69 : tensor<128x512xf32>) permutation = [1, 0] 
    %1650 = linalg.generic {indexing_maps = [#map8, #map1], iterator_types = ["parallel", "parallel"]} ins(%cst_310 : tensor<512xf32>) outs(%11 : tensor<384x512xf32>) {
    ^bb0(%in: f32, %out: f32):
      linalg.yield %in : f32
    } -> tensor<384x512xf32>
    %1651 = linalg.matmul ins(%collapsed_3564, %transposed_3565 : tensor<384x128xf32>, tensor<128x512xf32>) outs(%1650 : tensor<384x512xf32>) -> tensor<384x512xf32>
    %1652 = linalg.generic {indexing_maps = [#map1, #map1], iterator_types = ["parallel", "parallel"]} ins(%1651 : tensor<384x512xf32>) outs(%11 : tensor<384x512xf32>) {
    ^bb0(%in: f32, %out: f32):
      %1676 = arith.minimumf %in, %cst : f32
      %1677 = arith.maximumf %1676, %cst_2 : f32
      linalg.yield %1677 : f32
    } -> tensor<384x512xf32>
    %transposed_3566 = linalg.transpose ins(%cst_309 : tensor<128x512xf32>) outs(%17 : tensor<512x128xf32>) permutation = [1, 0] 
    %1653 = linalg.generic {indexing_maps = [#map8, #map1], iterator_types = ["parallel", "parallel"]} ins(%cst_308 : tensor<128xf32>) outs(%18 : tensor<384x128xf32>) {
    ^bb0(%in: f32, %out: f32):
      linalg.yield %in : f32
    } -> tensor<384x128xf32>
    %1654 = linalg.matmul ins(%1652, %transposed_3566 : tensor<384x512xf32>, tensor<512x128xf32>) outs(%1653 : tensor<384x128xf32>) -> tensor<384x128xf32>
    %expanded_3567 = tensor.expand_shape %1654 [[0, 1], [2]] : tensor<384x128xf32> into tensor<1x384x128xf32>
    %1655 = linalg.generic {indexing_maps = [#map6, #map6, #map3], iterator_types = ["parallel", "parallel", "parallel"]} ins(%expanded_3567, %1649 : tensor<1x384x128xf32>, tensor<1x384x128xf32>) outs(%4 : tensor<1x384x128xf32>) {
    ^bb0(%in: f32, %in_3583: f32, %out: f32):
      %1676 = arith.addf %in, %in_3583 : f32
      linalg.yield %1676 : f32
    } -> tensor<1x384x128xf32>
    %1656 = linalg.generic {indexing_maps = [#map6, #map4, #map3], iterator_types = ["parallel", "parallel", "parallel"]} ins(%1655, %cst_8 : tensor<1x384x128xf32>, tensor<1x1x128xf32>) outs(%4 : tensor<1x384x128xf32>) {
    ^bb0(%in: f32, %in_3583: f32, %out: f32):
      %1676 = arith.mulf %in, %in_3583 : f32
      linalg.yield %1676 : f32
    } -> tensor<1x384x128xf32>
    %1657 = linalg.generic {indexing_maps = [#map6, #map4, #map3], iterator_types = ["parallel", "parallel", "parallel"]} ins(%1656, %cst_7 : tensor<1x384x128xf32>, tensor<1x1x128xf32>) outs(%4 : tensor<1x384x128xf32>) {
    ^bb0(%in: f32, %in_3583: f32, %out: f32):
      %1676 = arith.addf %in, %in_3583 : f32
      linalg.yield %1676 : f32
    } -> tensor<1x384x128xf32>
    %collapsed_3568 = tensor.collapse_shape %1657 [[0, 1], [2]] : tensor<1x384x128xf32> into tensor<384x128xf32>
    %transposed_3569 = linalg.transpose ins(%cst_307 : tensor<512x128xf32>) outs(%69 : tensor<128x512xf32>) permutation = [1, 0] 
    %1658 = linalg.generic {indexing_maps = [#map8, #map1], iterator_types = ["parallel", "parallel"]} ins(%cst_306 : tensor<512xf32>) outs(%11 : tensor<384x512xf32>) {
    ^bb0(%in: f32, %out: f32):
      linalg.yield %in : f32
    } -> tensor<384x512xf32>
    %1659 = linalg.matmul ins(%collapsed_3568, %transposed_3569 : tensor<384x128xf32>, tensor<128x512xf32>) outs(%1658 : tensor<384x512xf32>) -> tensor<384x512xf32>
    %1660 = linalg.generic {indexing_maps = [#map1, #map1], iterator_types = ["parallel", "parallel"]} ins(%1659 : tensor<384x512xf32>) outs(%11 : tensor<384x512xf32>) {
    ^bb0(%in: f32, %out: f32):
      %1676 = arith.minimumf %in, %cst : f32
      %1677 = arith.maximumf %1676, %cst_2 : f32
      linalg.yield %1677 : f32
    } -> tensor<384x512xf32>
    %transposed_3570 = linalg.transpose ins(%cst_305 : tensor<128x512xf32>) outs(%17 : tensor<512x128xf32>) permutation = [1, 0] 
    %1661 = linalg.generic {indexing_maps = [#map8, #map1], iterator_types = ["parallel", "parallel"]} ins(%cst_304 : tensor<128xf32>) outs(%18 : tensor<384x128xf32>) {
    ^bb0(%in: f32, %out: f32):
      linalg.yield %in : f32
    } -> tensor<384x128xf32>
    %1662 = linalg.matmul ins(%1660, %transposed_3570 : tensor<384x512xf32>, tensor<512x128xf32>) outs(%1661 : tensor<384x128xf32>) -> tensor<384x128xf32>
    %expanded_3571 = tensor.expand_shape %1662 [[0, 1], [2]] : tensor<384x128xf32> into tensor<1x384x128xf32>
    %1663 = linalg.generic {indexing_maps = [#map6, #map6, #map3], iterator_types = ["parallel", "parallel", "parallel"]} ins(%expanded_3571, %1657 : tensor<1x384x128xf32>, tensor<1x384x128xf32>) outs(%4 : tensor<1x384x128xf32>) {
    ^bb0(%in: f32, %in_3583: f32, %out: f32):
      %1676 = arith.addf %in, %in_3583 : f32
      linalg.yield %1676 : f32
    } -> tensor<1x384x128xf32>
    %1664 = linalg.generic {indexing_maps = [#map6, #map4, #map3], iterator_types = ["parallel", "parallel", "parallel"]} ins(%1663, %cst_6 : tensor<1x384x128xf32>, tensor<1x1x128xf32>) outs(%4 : tensor<1x384x128xf32>) {
    ^bb0(%in: f32, %in_3583: f32, %out: f32):
      %1676 = arith.mulf %in, %in_3583 : f32
      linalg.yield %1676 : f32
    } -> tensor<1x384x128xf32>
    %1665 = linalg.generic {indexing_maps = [#map6, #map4, #map3], iterator_types = ["parallel", "parallel", "parallel"]} ins(%1664, %cst_5 : tensor<1x384x128xf32>, tensor<1x1x128xf32>) outs(%4 : tensor<1x384x128xf32>) {
    ^bb0(%in: f32, %in_3583: f32, %out: f32):
      %1676 = arith.addf %in, %in_3583 : f32
      linalg.yield %1676 : f32
    } -> tensor<1x384x128xf32>
    %collapsed_3572 = tensor.collapse_shape %1665 [[0, 1], [2]] : tensor<1x384x128xf32> into tensor<384x128xf32>
    %transposed_3573 = linalg.transpose ins(%cst_303 : tensor<512x128xf32>) outs(%69 : tensor<128x512xf32>) permutation = [1, 0] 
    %1666 = linalg.generic {indexing_maps = [#map8, #map1], iterator_types = ["parallel", "parallel"]} ins(%cst_302 : tensor<512xf32>) outs(%11 : tensor<384x512xf32>) {
    ^bb0(%in: f32, %out: f32):
      linalg.yield %in : f32
    } -> tensor<384x512xf32>
    %1667 = linalg.matmul ins(%collapsed_3572, %transposed_3573 : tensor<384x128xf32>, tensor<128x512xf32>) outs(%1666 : tensor<384x512xf32>) -> tensor<384x512xf32>
    %expanded_3574 = tensor.expand_shape %1667 [[0, 1], [2]] : tensor<384x512xf32> into tensor<1x384x512xf32>
    %1668 = linalg.generic {indexing_maps = [#map6, #map6, #map3], iterator_types = ["parallel", "parallel", "parallel"]} ins(%expanded_3574, %1602 : tensor<1x384x512xf32>, tensor<1x384x512xf32>) outs(%2 : tensor<1x384x512xf32>) {
    ^bb0(%in: f32, %in_3583: f32, %out: f32):
      %1676 = arith.addf %in, %in_3583 : f32
      linalg.yield %1676 : f32
    } -> tensor<1x384x512xf32>
    %1669 = linalg.generic {indexing_maps = [#map6, #map4, #map3], iterator_types = ["parallel", "parallel", "parallel"]} ins(%1668, %cst_4 : tensor<1x384x512xf32>, tensor<1x1x512xf32>) outs(%2 : tensor<1x384x512xf32>) {
    ^bb0(%in: f32, %in_3583: f32, %out: f32):
      %1676 = arith.mulf %in, %in_3583 : f32
      linalg.yield %1676 : f32
    } -> tensor<1x384x512xf32>
    %1670 = linalg.generic {indexing_maps = [#map6, #map4, #map3], iterator_types = ["parallel", "parallel", "parallel"]} ins(%1669, %cst_3 : tensor<1x384x512xf32>, tensor<1x1x512xf32>) outs(%2 : tensor<1x384x512xf32>) {
    ^bb0(%in: f32, %in_3583: f32, %out: f32):
      %1676 = arith.addf %in, %in_3583 : f32
      linalg.yield %1676 : f32
    } -> tensor<1x384x512xf32>
    %collapsed_3575 = tensor.collapse_shape %1670 [[0, 1], [2]] : tensor<1x384x512xf32> into tensor<384x512xf32>
    %1671 = tensor.empty() : tensor<512x2xf32>
    %transposed_3576 = linalg.transpose ins(%cst_301 : tensor<2x512xf32>) outs(%1671 : tensor<512x2xf32>) permutation = [1, 0] 
    %1672 = tensor.empty() : tensor<384x2xf32>
    %1673 = linalg.generic {indexing_maps = [#map8, #map1], iterator_types = ["parallel", "parallel"]} ins(%cst_300 : tensor<2xf32>) outs(%1672 : tensor<384x2xf32>) {
    ^bb0(%in: f32, %out: f32):
      linalg.yield %in : f32
    } -> tensor<384x2xf32>
    %1674 = linalg.matmul ins(%collapsed_3575, %transposed_3576 : tensor<384x512xf32>, tensor<512x2xf32>) outs(%1673 : tensor<384x2xf32>) -> tensor<384x2xf32>
    %1675 = tensor.empty() : tensor<2x384xf32>
    %transposed_3577 = linalg.transpose ins(%1674 : tensor<384x2xf32>) outs(%1675 : tensor<2x384xf32>) permutation = [1, 0] 
    %expanded_3578 = tensor.expand_shape %transposed_3577 [[0, 1], [2]] : tensor<2x384xf32> into tensor<2x1x384xf32>
    %extracted_slice_3579 = tensor.extract_slice %expanded_3578[0, 0, 0] [1, 1, 384] [1, 1, 1] : tensor<2x1x384xf32> to tensor<1x1x384xf32>
    %collapsed_3580 = tensor.collapse_shape %extracted_slice_3579 [[0, 1], [2]] : tensor<1x1x384xf32> into tensor<1x384xf32>
    %extracted_slice_3581 = tensor.extract_slice %expanded_3578[1, 0, 0] [1, 1, 384] [1, 1, 1] : tensor<2x1x384xf32> to tensor<1x1x384xf32>
    %collapsed_3582 = tensor.collapse_shape %extracted_slice_3581 [[0, 1], [2]] : tensor<1x1x384xf32> into tensor<1x384xf32>
    return %collapsed_3582, %collapsed_3580 : tensor<1x384xf32>, tensor<1x384xf32>
  }
}

