#map = affine_map<(d0, d1) -> (0, d1)>
#map1 = affine_map<(d0, d1) -> (d0, d1)>
#map2 = affine_map<(d0, d1, d2) -> (d0, d1)>
#map3 = affine_map<(d0, d1, d2) -> (d0, d1, d2)>
#map4 = affine_map<(d0, d1, d2) -> (0, 0, d2)>
#map5 = affine_map<(d0, d1, d2) -> (0, d1, 0)>
#map6 = affine_map<(d0, d1, d2) -> (0, d1, d2)>
#map7 = affine_map<(d0, d1, d2) -> (0, 0, 0)>
#map8 = affine_map<(d0, d1) -> (d1)>
#map9 = affine_map<(d0, d1, d2, d3) -> (0, d1, d2, d3)>
#map10 = affine_map<(d0, d1, d2, d3) -> (0, 0, d2, d3)>
#map11 = affine_map<(d0, d1, d2, d3) -> (d0, d1, d2, d3)>
#map12 = affine_map<(d0, d1, d2, d3) -> (0, d1, d2, 0)>
module attributes {tfl.description = "TOCO Converted.", tfl.schema_version = 3 : i32} {
  func.func @main(%arg0: tensor<1x384xi32>, %arg1: tensor<1x384xi32>, %arg2: tensor<1x384xi32>) -> (tensor<1x384xf32>, tensor<1x384xf32>) attributes {tf.entry_function = {inputs = "input_ids,input_mask,segment_ids", outputs = "end_logits,start_logits"}} {
    %cst = arith.constant dense_resource<__elided__> : tensor<4xi32>
    %cst_0 = arith.constant dense<0.000000e+00> : tensor<f32>
    %cst_1 = arith.constant dense_resource<__elided__> : tensor<1x1x512xf32>
    %cst_2 = arith.constant dense_resource<__elided__> : tensor<1x1x512xf32>
    %cst_3 = arith.constant dense_resource<__elided__> : tensor<1x1x128xf32>
    %cst_4 = arith.constant dense_resource<__elided__> : tensor<1x1x128xf32>
    %cst_5 = arith.constant dense_resource<__elided__> : tensor<1x1x128xf32>
    %cst_6 = arith.constant dense_resource<__elided__> : tensor<1x1x128xf32>
    %cst_7 = arith.constant dense_resource<__elided__> : tensor<1x1x128xf32>
    %cst_8 = arith.constant dense_resource<__elided__> : tensor<1x1x128xf32>
    %cst_9 = arith.constant dense_resource<__elided__> : tensor<1x1x128xf32>
    %cst_10 = arith.constant dense_resource<__elided__> : tensor<1x1x128xf32>
    %cst_11 = arith.constant dense_resource<__elided__> : tensor<1x1x128xf32>
    %cst_12 = arith.constant dense_resource<__elided__> : tensor<1x1x128xf32>
    %cst_13 = arith.constant dense_resource<__elided__> : tensor<1x1x512xf32>
    %cst_14 = arith.constant dense_resource<__elided__> : tensor<1x1x512xf32>
    %cst_15 = arith.constant dense_resource<__elided__> : tensor<1x1x128xf32>
    %cst_16 = arith.constant dense_resource<__elided__> : tensor<1x1x128xf32>
    %cst_17 = arith.constant dense_resource<__elided__> : tensor<1x1x128xf32>
    %cst_18 = arith.constant dense_resource<__elided__> : tensor<1x1x128xf32>
    %cst_19 = arith.constant dense_resource<__elided__> : tensor<1x1x128xf32>
    %cst_20 = arith.constant dense_resource<__elided__> : tensor<1x1x128xf32>
    %cst_21 = arith.constant dense_resource<__elided__> : tensor<1x1x128xf32>
    %cst_22 = arith.constant dense_resource<__elided__> : tensor<1x1x128xf32>
    %cst_23 = arith.constant dense_resource<__elided__> : tensor<1x1x128xf32>
    %cst_24 = arith.constant dense_resource<__elided__> : tensor<1x1x128xf32>
    %cst_25 = arith.constant dense_resource<__elided__> : tensor<1x1x512xf32>
    %cst_26 = arith.constant dense_resource<__elided__> : tensor<1x1x512xf32>
    %cst_27 = arith.constant dense_resource<__elided__> : tensor<1x1x128xf32>
    %cst_28 = arith.constant dense_resource<__elided__> : tensor<1x1x128xf32>
    %cst_29 = arith.constant dense_resource<__elided__> : tensor<1x1x128xf32>
    %cst_30 = arith.constant dense_resource<__elided__> : tensor<1x1x128xf32>
    %cst_31 = arith.constant dense_resource<__elided__> : tensor<1x1x128xf32>
    %cst_32 = arith.constant dense_resource<__elided__> : tensor<1x1x128xf32>
    %cst_33 = arith.constant dense_resource<__elided__> : tensor<1x1x128xf32>
    %cst_34 = arith.constant dense_resource<__elided__> : tensor<1x1x128xf32>
    %cst_35 = arith.constant dense_resource<__elided__> : tensor<1x1x128xf32>
    %cst_36 = arith.constant dense_resource<__elided__> : tensor<1x1x128xf32>
    %cst_37 = arith.constant dense_resource<__elided__> : tensor<1x1x512xf32>
    %cst_38 = arith.constant dense_resource<__elided__> : tensor<1x1x512xf32>
    %cst_39 = arith.constant dense_resource<__elided__> : tensor<1x1x128xf32>
    %cst_40 = arith.constant dense_resource<__elided__> : tensor<1x1x128xf32>
    %cst_41 = arith.constant dense_resource<__elided__> : tensor<1x1x128xf32>
    %cst_42 = arith.constant dense_resource<__elided__> : tensor<1x1x128xf32>
    %cst_43 = arith.constant dense_resource<__elided__> : tensor<1x1x128xf32>
    %cst_44 = arith.constant dense_resource<__elided__> : tensor<1x1x128xf32>
    %cst_45 = arith.constant dense_resource<__elided__> : tensor<1x1x128xf32>
    %cst_46 = arith.constant dense_resource<__elided__> : tensor<1x1x128xf32>
    %cst_47 = arith.constant dense_resource<__elided__> : tensor<1x1x128xf32>
    %cst_48 = arith.constant dense_resource<__elided__> : tensor<1x1x128xf32>
    %cst_49 = arith.constant dense_resource<__elided__> : tensor<1x1x512xf32>
    %cst_50 = arith.constant dense_resource<__elided__> : tensor<1x1x512xf32>
    %cst_51 = arith.constant dense_resource<__elided__> : tensor<1x1x128xf32>
    %cst_52 = arith.constant dense_resource<__elided__> : tensor<1x1x128xf32>
    %cst_53 = arith.constant dense_resource<__elided__> : tensor<1x1x128xf32>
    %cst_54 = arith.constant dense_resource<__elided__> : tensor<1x1x128xf32>
    %cst_55 = arith.constant dense_resource<__elided__> : tensor<1x1x128xf32>
    %cst_56 = arith.constant dense_resource<__elided__> : tensor<1x1x128xf32>
    %cst_57 = arith.constant dense_resource<__elided__> : tensor<1x1x128xf32>
    %cst_58 = arith.constant dense_resource<__elided__> : tensor<1x1x128xf32>
    %cst_59 = arith.constant dense_resource<__elided__> : tensor<1x1x128xf32>
    %cst_60 = arith.constant dense_resource<__elided__> : tensor<1x1x128xf32>
    %cst_61 = arith.constant dense_resource<__elided__> : tensor<1x1x512xf32>
    %cst_62 = arith.constant dense_resource<__elided__> : tensor<1x1x512xf32>
    %cst_63 = arith.constant dense_resource<__elided__> : tensor<1x1x128xf32>
    %cst_64 = arith.constant dense_resource<__elided__> : tensor<1x1x128xf32>
    %cst_65 = arith.constant dense_resource<__elided__> : tensor<1x1x128xf32>
    %cst_66 = arith.constant dense_resource<__elided__> : tensor<1x1x128xf32>
    %cst_67 = arith.constant dense_resource<__elided__> : tensor<1x1x128xf32>
    %cst_68 = arith.constant dense_resource<__elided__> : tensor<1x1x128xf32>
    %cst_69 = arith.constant dense_resource<__elided__> : tensor<1x1x128xf32>
    %cst_70 = arith.constant dense_resource<__elided__> : tensor<1x1x128xf32>
    %cst_71 = arith.constant dense_resource<__elided__> : tensor<1x1x128xf32>
    %cst_72 = arith.constant dense_resource<__elided__> : tensor<1x1x128xf32>
    %cst_73 = arith.constant dense_resource<__elided__> : tensor<1x1x512xf32>
    %cst_74 = arith.constant dense_resource<__elided__> : tensor<1x1x512xf32>
    %cst_75 = arith.constant dense_resource<__elided__> : tensor<1x1x128xf32>
    %cst_76 = arith.constant dense_resource<__elided__> : tensor<1x1x128xf32>
    %cst_77 = arith.constant dense_resource<__elided__> : tensor<1x1x128xf32>
    %cst_78 = arith.constant dense_resource<__elided__> : tensor<1x1x128xf32>
    %cst_79 = arith.constant dense_resource<__elided__> : tensor<1x1x128xf32>
    %cst_80 = arith.constant dense_resource<__elided__> : tensor<1x1x128xf32>
    %cst_81 = arith.constant dense_resource<__elided__> : tensor<1x1x128xf32>
    %cst_82 = arith.constant dense_resource<__elided__> : tensor<1x1x128xf32>
    %cst_83 = arith.constant dense_resource<__elided__> : tensor<1x1x128xf32>
    %cst_84 = arith.constant dense_resource<__elided__> : tensor<1x1x128xf32>
    %cst_85 = arith.constant dense_resource<__elided__> : tensor<1x1x512xf32>
    %cst_86 = arith.constant dense_resource<__elided__> : tensor<1x1x512xf32>
    %cst_87 = arith.constant dense_resource<__elided__> : tensor<1x1x128xf32>
    %cst_88 = arith.constant dense_resource<__elided__> : tensor<1x1x128xf32>
    %cst_89 = arith.constant dense_resource<__elided__> : tensor<1x1x128xf32>
    %cst_90 = arith.constant dense_resource<__elided__> : tensor<1x1x128xf32>
    %cst_91 = arith.constant dense_resource<__elided__> : tensor<1x1x128xf32>
    %cst_92 = arith.constant dense_resource<__elided__> : tensor<1x1x128xf32>
    %cst_93 = arith.constant dense_resource<__elided__> : tensor<1x1x128xf32>
    %cst_94 = arith.constant dense_resource<__elided__> : tensor<1x1x128xf32>
    %cst_95 = arith.constant dense_resource<__elided__> : tensor<1x1x128xf32>
    %cst_96 = arith.constant dense_resource<__elided__> : tensor<1x1x128xf32>
    %cst_97 = arith.constant dense_resource<__elided__> : tensor<1x1x512xf32>
    %cst_98 = arith.constant dense_resource<__elided__> : tensor<1x1x512xf32>
    %cst_99 = arith.constant dense_resource<__elided__> : tensor<1x1x128xf32>
    %cst_100 = arith.constant dense_resource<__elided__> : tensor<1x1x128xf32>
    %cst_101 = arith.constant dense_resource<__elided__> : tensor<1x1x128xf32>
    %cst_102 = arith.constant dense_resource<__elided__> : tensor<1x1x128xf32>
    %cst_103 = arith.constant dense_resource<__elided__> : tensor<1x1x128xf32>
    %cst_104 = arith.constant dense_resource<__elided__> : tensor<1x1x128xf32>
    %cst_105 = arith.constant dense_resource<__elided__> : tensor<1x1x128xf32>
    %cst_106 = arith.constant dense_resource<__elided__> : tensor<1x1x128xf32>
    %cst_107 = arith.constant dense_resource<__elided__> : tensor<1x1x128xf32>
    %cst_108 = arith.constant dense_resource<__elided__> : tensor<1x1x128xf32>
    %cst_109 = arith.constant dense_resource<__elided__> : tensor<1x1x512xf32>
    %cst_110 = arith.constant dense_resource<__elided__> : tensor<1x1x512xf32>
    %cst_111 = arith.constant dense_resource<__elided__> : tensor<1x1x128xf32>
    %cst_112 = arith.constant dense_resource<__elided__> : tensor<1x1x128xf32>
    %cst_113 = arith.constant dense_resource<__elided__> : tensor<1x1x128xf32>
    %cst_114 = arith.constant dense_resource<__elided__> : tensor<1x1x128xf32>
    %cst_115 = arith.constant dense_resource<__elided__> : tensor<1x1x128xf32>
    %cst_116 = arith.constant dense_resource<__elided__> : tensor<1x1x128xf32>
    %cst_117 = arith.constant dense_resource<__elided__> : tensor<1x1x128xf32>
    %cst_118 = arith.constant dense_resource<__elided__> : tensor<1x1x128xf32>
    %cst_119 = arith.constant dense_resource<__elided__> : tensor<1x1x128xf32>
    %cst_120 = arith.constant dense_resource<__elided__> : tensor<1x1x128xf32>
    %cst_121 = arith.constant dense_resource<__elided__> : tensor<1x1x512xf32>
    %cst_122 = arith.constant dense_resource<__elided__> : tensor<1x1x512xf32>
    %cst_123 = arith.constant dense_resource<__elided__> : tensor<1x1x128xf32>
    %cst_124 = arith.constant dense_resource<__elided__> : tensor<1x1x128xf32>
    %cst_125 = arith.constant dense_resource<__elided__> : tensor<1x1x128xf32>
    %cst_126 = arith.constant dense_resource<__elided__> : tensor<1x1x128xf32>
    %cst_127 = arith.constant dense_resource<__elided__> : tensor<1x1x128xf32>
    %cst_128 = arith.constant dense_resource<__elided__> : tensor<1x1x128xf32>
    %cst_129 = arith.constant dense_resource<__elided__> : tensor<1x1x128xf32>
    %cst_130 = arith.constant dense_resource<__elided__> : tensor<1x1x128xf32>
    %cst_131 = arith.constant dense_resource<__elided__> : tensor<1x1x128xf32>
    %cst_132 = arith.constant dense_resource<__elided__> : tensor<1x1x128xf32>
    %cst_133 = arith.constant dense_resource<__elided__> : tensor<1x1x512xf32>
    %cst_134 = arith.constant dense_resource<__elided__> : tensor<1x1x512xf32>
    %cst_135 = arith.constant dense_resource<__elided__> : tensor<1x1x128xf32>
    %cst_136 = arith.constant dense_resource<__elided__> : tensor<1x1x128xf32>
    %cst_137 = arith.constant dense_resource<__elided__> : tensor<1x1x128xf32>
    %cst_138 = arith.constant dense_resource<__elided__> : tensor<1x1x128xf32>
    %cst_139 = arith.constant dense_resource<__elided__> : tensor<1x1x128xf32>
    %cst_140 = arith.constant dense_resource<__elided__> : tensor<1x1x128xf32>
    %cst_141 = arith.constant dense_resource<__elided__> : tensor<1x1x128xf32>
    %cst_142 = arith.constant dense_resource<__elided__> : tensor<1x1x128xf32>
    %cst_143 = arith.constant dense_resource<__elided__> : tensor<1x1x128xf32>
    %cst_144 = arith.constant dense_resource<__elided__> : tensor<1x1x128xf32>
    %cst_145 = arith.constant dense_resource<__elided__> : tensor<1x1x512xf32>
    %cst_146 = arith.constant dense_resource<__elided__> : tensor<1x1x512xf32>
    %cst_147 = arith.constant dense_resource<__elided__> : tensor<1x1x128xf32>
    %cst_148 = arith.constant dense_resource<__elided__> : tensor<1x1x128xf32>
    %cst_149 = arith.constant dense_resource<__elided__> : tensor<1x1x128xf32>
    %cst_150 = arith.constant dense_resource<__elided__> : tensor<1x1x128xf32>
    %cst_151 = arith.constant dense_resource<__elided__> : tensor<1x1x128xf32>
    %cst_152 = arith.constant dense_resource<__elided__> : tensor<1x1x128xf32>
    %cst_153 = arith.constant dense_resource<__elided__> : tensor<1x1x128xf32>
    %cst_154 = arith.constant dense_resource<__elided__> : tensor<1x1x128xf32>
    %cst_155 = arith.constant dense_resource<__elided__> : tensor<1x1x128xf32>
    %cst_156 = arith.constant dense_resource<__elided__> : tensor<1x1x128xf32>
    %cst_157 = arith.constant dense_resource<__elided__> : tensor<1x1x512xf32>
    %cst_158 = arith.constant dense_resource<__elided__> : tensor<1x1x512xf32>
    %cst_159 = arith.constant dense_resource<__elided__> : tensor<1x1x128xf32>
    %cst_160 = arith.constant dense_resource<__elided__> : tensor<1x1x128xf32>
    %cst_161 = arith.constant dense_resource<__elided__> : tensor<1x1x128xf32>
    %cst_162 = arith.constant dense_resource<__elided__> : tensor<1x1x128xf32>
    %cst_163 = arith.constant dense_resource<__elided__> : tensor<1x1x128xf32>
    %cst_164 = arith.constant dense_resource<__elided__> : tensor<1x1x128xf32>
    %cst_165 = arith.constant dense_resource<__elided__> : tensor<1x1x128xf32>
    %cst_166 = arith.constant dense_resource<__elided__> : tensor<1x1x128xf32>
    %cst_167 = arith.constant dense_resource<__elided__> : tensor<1x1x128xf32>
    %cst_168 = arith.constant dense_resource<__elided__> : tensor<1x1x128xf32>
    %cst_169 = arith.constant dense_resource<__elided__> : tensor<1x1x512xf32>
    %cst_170 = arith.constant dense_resource<__elided__> : tensor<1x1x512xf32>
    %cst_171 = arith.constant dense_resource<__elided__> : tensor<1x1x128xf32>
    %cst_172 = arith.constant dense_resource<__elided__> : tensor<1x1x128xf32>
    %cst_173 = arith.constant dense_resource<__elided__> : tensor<1x1x128xf32>
    %cst_174 = arith.constant dense_resource<__elided__> : tensor<1x1x128xf32>
    %cst_175 = arith.constant dense_resource<__elided__> : tensor<1x1x128xf32>
    %cst_176 = arith.constant dense_resource<__elided__> : tensor<1x1x128xf32>
    %cst_177 = arith.constant dense_resource<__elided__> : tensor<1x1x128xf32>
    %cst_178 = arith.constant dense_resource<__elided__> : tensor<1x1x128xf32>
    %cst_179 = arith.constant dense_resource<__elided__> : tensor<1x1x128xf32>
    %cst_180 = arith.constant dense_resource<__elided__> : tensor<1x1x128xf32>
    %cst_181 = arith.constant dense_resource<__elided__> : tensor<1x1x512xf32>
    %cst_182 = arith.constant dense_resource<__elided__> : tensor<1x1x512xf32>
    %cst_183 = arith.constant dense_resource<__elided__> : tensor<1x1x128xf32>
    %cst_184 = arith.constant dense_resource<__elided__> : tensor<1x1x128xf32>
    %cst_185 = arith.constant dense_resource<__elided__> : tensor<1x1x128xf32>
    %cst_186 = arith.constant dense_resource<__elided__> : tensor<1x1x128xf32>
    %cst_187 = arith.constant dense_resource<__elided__> : tensor<1x1x128xf32>
    %cst_188 = arith.constant dense_resource<__elided__> : tensor<1x1x128xf32>
    %cst_189 = arith.constant dense_resource<__elided__> : tensor<1x1x128xf32>
    %cst_190 = arith.constant dense_resource<__elided__> : tensor<1x1x128xf32>
    %cst_191 = arith.constant dense_resource<__elided__> : tensor<1x1x128xf32>
    %cst_192 = arith.constant dense_resource<__elided__> : tensor<1x1x128xf32>
    %cst_193 = arith.constant dense_resource<__elided__> : tensor<1x1x512xf32>
    %cst_194 = arith.constant dense_resource<__elided__> : tensor<1x1x512xf32>
    %cst_195 = arith.constant dense_resource<__elided__> : tensor<1x1x128xf32>
    %cst_196 = arith.constant dense_resource<__elided__> : tensor<1x1x128xf32>
    %cst_197 = arith.constant dense_resource<__elided__> : tensor<1x1x128xf32>
    %cst_198 = arith.constant dense_resource<__elided__> : tensor<1x1x128xf32>
    %cst_199 = arith.constant dense_resource<__elided__> : tensor<1x1x128xf32>
    %cst_200 = arith.constant dense_resource<__elided__> : tensor<1x1x128xf32>
    %cst_201 = arith.constant dense_resource<__elided__> : tensor<1x1x128xf32>
    %cst_202 = arith.constant dense_resource<__elided__> : tensor<1x1x128xf32>
    %cst_203 = arith.constant dense_resource<__elided__> : tensor<1x1x128xf32>
    %cst_204 = arith.constant dense_resource<__elided__> : tensor<1x1x128xf32>
    %cst_205 = arith.constant dense_resource<__elided__> : tensor<1x1x512xf32>
    %cst_206 = arith.constant dense_resource<__elided__> : tensor<1x1x512xf32>
    %cst_207 = arith.constant dense_resource<__elided__> : tensor<1x1x128xf32>
    %cst_208 = arith.constant dense_resource<__elided__> : tensor<1x1x128xf32>
    %cst_209 = arith.constant dense_resource<__elided__> : tensor<1x1x128xf32>
    %cst_210 = arith.constant dense_resource<__elided__> : tensor<1x1x128xf32>
    %cst_211 = arith.constant dense_resource<__elided__> : tensor<1x1x128xf32>
    %cst_212 = arith.constant dense_resource<__elided__> : tensor<1x1x128xf32>
    %cst_213 = arith.constant dense_resource<__elided__> : tensor<1x1x128xf32>
    %cst_214 = arith.constant dense_resource<__elided__> : tensor<1x1x128xf32>
    %cst_215 = arith.constant dense_resource<__elided__> : tensor<1x1x128xf32>
    %cst_216 = arith.constant dense_resource<__elided__> : tensor<1x1x128xf32>
    %cst_217 = arith.constant dense_resource<__elided__> : tensor<1x1x512xf32>
    %cst_218 = arith.constant dense_resource<__elided__> : tensor<1x1x512xf32>
    %cst_219 = arith.constant dense_resource<__elided__> : tensor<1x1x128xf32>
    %cst_220 = arith.constant dense_resource<__elided__> : tensor<1x1x128xf32>
    %cst_221 = arith.constant dense_resource<__elided__> : tensor<1x1x128xf32>
    %cst_222 = arith.constant dense_resource<__elided__> : tensor<1x1x128xf32>
    %cst_223 = arith.constant dense_resource<__elided__> : tensor<1x1x128xf32>
    %cst_224 = arith.constant dense_resource<__elided__> : tensor<1x1x128xf32>
    %cst_225 = arith.constant dense_resource<__elided__> : tensor<1x1x128xf32>
    %cst_226 = arith.constant dense_resource<__elided__> : tensor<1x1x128xf32>
    %cst_227 = arith.constant dense_resource<__elided__> : tensor<1x1x128xf32>
    %cst_228 = arith.constant dense_resource<__elided__> : tensor<1x1x128xf32>
    %cst_229 = arith.constant dense_resource<__elided__> : tensor<1x1x512xf32>
    %cst_230 = arith.constant dense_resource<__elided__> : tensor<1x1x512xf32>
    %cst_231 = arith.constant dense_resource<__elided__> : tensor<1x1x128xf32>
    %cst_232 = arith.constant dense_resource<__elided__> : tensor<1x1x128xf32>
    %cst_233 = arith.constant dense_resource<__elided__> : tensor<1x1x128xf32>
    %cst_234 = arith.constant dense_resource<__elided__> : tensor<1x1x128xf32>
    %cst_235 = arith.constant dense_resource<__elided__> : tensor<1x1x128xf32>
    %cst_236 = arith.constant dense_resource<__elided__> : tensor<1x1x128xf32>
    %cst_237 = arith.constant dense_resource<__elided__> : tensor<1x1x128xf32>
    %cst_238 = arith.constant dense_resource<__elided__> : tensor<1x1x128xf32>
    %cst_239 = arith.constant dense_resource<__elided__> : tensor<1x1x128xf32>
    %cst_240 = arith.constant dense_resource<__elided__> : tensor<1x1x128xf32>
    %cst_241 = arith.constant dense_resource<__elided__> : tensor<1x1x512xf32>
    %cst_242 = arith.constant dense_resource<__elided__> : tensor<1x1x512xf32>
    %cst_243 = arith.constant dense_resource<__elided__> : tensor<1x1x128xf32>
    %cst_244 = arith.constant dense_resource<__elided__> : tensor<1x1x128xf32>
    %cst_245 = arith.constant dense_resource<__elided__> : tensor<1x1x128xf32>
    %cst_246 = arith.constant dense_resource<__elided__> : tensor<1x1x128xf32>
    %cst_247 = arith.constant dense_resource<__elided__> : tensor<1x1x128xf32>
    %cst_248 = arith.constant dense_resource<__elided__> : tensor<1x1x128xf32>
    %cst_249 = arith.constant dense_resource<__elided__> : tensor<1x1x128xf32>
    %cst_250 = arith.constant dense_resource<__elided__> : tensor<1x1x128xf32>
    %cst_251 = arith.constant dense_resource<__elided__> : tensor<1x1x128xf32>
    %cst_252 = arith.constant dense_resource<__elided__> : tensor<1x1x128xf32>
    %cst_253 = arith.constant dense_resource<__elided__> : tensor<1x1x512xf32>
    %cst_254 = arith.constant dense_resource<__elided__> : tensor<1x1x512xf32>
    %cst_255 = arith.constant dense_resource<__elided__> : tensor<1x1x128xf32>
    %cst_256 = arith.constant dense_resource<__elided__> : tensor<1x1x128xf32>
    %cst_257 = arith.constant dense_resource<__elided__> : tensor<1x1x128xf32>
    %cst_258 = arith.constant dense_resource<__elided__> : tensor<1x1x128xf32>
    %cst_259 = arith.constant dense_resource<__elided__> : tensor<1x1x128xf32>
    %cst_260 = arith.constant dense_resource<__elided__> : tensor<1x1x128xf32>
    %cst_261 = arith.constant dense_resource<__elided__> : tensor<1x1x128xf32>
    %cst_262 = arith.constant dense_resource<__elided__> : tensor<1x1x128xf32>
    %cst_263 = arith.constant dense_resource<__elided__> : tensor<1x1x128xf32>
    %cst_264 = arith.constant dense_resource<__elided__> : tensor<1x1x128xf32>
    %cst_265 = arith.constant dense_resource<__elided__> : tensor<1x1x512xf32>
    %cst_266 = arith.constant dense_resource<__elided__> : tensor<1x1x512xf32>
    %cst_267 = arith.constant dense_resource<__elided__> : tensor<1x1x128xf32>
    %cst_268 = arith.constant dense_resource<__elided__> : tensor<1x1x128xf32>
    %cst_269 = arith.constant dense_resource<__elided__> : tensor<1x1x128xf32>
    %cst_270 = arith.constant dense_resource<__elided__> : tensor<1x1x128xf32>
    %cst_271 = arith.constant dense_resource<__elided__> : tensor<1x1x128xf32>
    %cst_272 = arith.constant dense_resource<__elided__> : tensor<1x1x128xf32>
    %cst_273 = arith.constant dense_resource<__elided__> : tensor<1x1x128xf32>
    %cst_274 = arith.constant dense_resource<__elided__> : tensor<1x1x128xf32>
    %cst_275 = arith.constant dense_resource<__elided__> : tensor<1x1x128xf32>
    %cst_276 = arith.constant dense_resource<__elided__> : tensor<1x1x128xf32>
    %cst_277 = arith.constant dense_resource<__elided__> : tensor<1x1x512xf32>
    %cst_278 = arith.constant dense_resource<__elided__> : tensor<1x1x512xf32>
    %cst_279 = arith.constant dense_resource<__elided__> : tensor<1x1x128xf32>
    %cst_280 = arith.constant dense_resource<__elided__> : tensor<1x1x128xf32>
    %cst_281 = arith.constant dense_resource<__elided__> : tensor<1x1x128xf32>
    %cst_282 = arith.constant dense_resource<__elided__> : tensor<1x1x128xf32>
    %cst_283 = arith.constant dense_resource<__elided__> : tensor<1x1x128xf32>
    %cst_284 = arith.constant dense_resource<__elided__> : tensor<1x1x128xf32>
    %cst_285 = arith.constant dense_resource<__elided__> : tensor<1x1x128xf32>
    %cst_286 = arith.constant dense_resource<__elided__> : tensor<1x1x128xf32>
    %cst_287 = arith.constant dense_resource<__elided__> : tensor<1x1x128xf32>
    %cst_288 = arith.constant dense_resource<__elided__> : tensor<1x1x128xf32>
    %cst_289 = arith.constant dense<0.176776692> : tensor<1x1x1xf32>
    %cst_290 = arith.constant dense_resource<__elided__> : tensor<1x1x512xf32>
    %cst_291 = arith.constant dense_resource<__elided__> : tensor<1x1x512xf32>
    %cst_292 = arith.constant dense<-1.000000e+04> : tensor<1x1x1xf32>
    %cst_293 = arith.constant dense<1.000000e+00> : tensor<1x1x1xf32>
    %cst_294 = arith.constant dense<0.000000e+00> : tensor<32xf32>
    %cst_295 = arith.constant dense<0.000000e+00> : tensor<384xf32>
    %cst_296 = arith.constant dense_resource<__elided__> : tensor<1x30522x128xf32>
    %cst_297 = arith.constant dense_resource<__elided__> : tensor<1x2x512xf32>
    %cst_298 = arith.constant dense_resource<__elided__> : tensor<2xi32>
    %cst_299 = arith.constant dense_resource<__elided__> : tensor<2xf32>
    %cst_300 = arith.constant dense_resource<__elided__> : tensor<2x512xf32>
    %cst_301 = arith.constant dense_resource<__elided__> : tensor<512xf32>
    %cst_302 = arith.constant dense_resource<__elided__> : tensor<512x128xf32>
    %cst_303 = arith.constant dense_resource<__elided__> : tensor<128xf32>
    %cst_304 = arith.constant dense_resource<__elided__> : tensor<128x512xf32>
    %cst_305 = arith.constant dense_resource<__elided__> : tensor<512xf32>
    %cst_306 = arith.constant dense_resource<__elided__> : tensor<512x128xf32>
    %cst_307 = arith.constant dense_resource<__elided__> : tensor<128xf32>
    %cst_308 = arith.constant dense_resource<__elided__> : tensor<128x512xf32>
    %cst_309 = arith.constant dense_resource<__elided__> : tensor<512xf32>
    %cst_310 = arith.constant dense_resource<__elided__> : tensor<512x128xf32>
    %cst_311 = arith.constant dense_resource<__elided__> : tensor<128xf32>
    %cst_312 = arith.constant dense_resource<__elided__> : tensor<128x512xf32>
    %cst_313 = arith.constant dense_resource<__elided__> : tensor<512xf32>
    %cst_314 = arith.constant dense_resource<__elided__> : tensor<512x128xf32>
    %cst_315 = arith.constant dense_resource<__elided__> : tensor<128xf32>
    %cst_316 = arith.constant dense_resource<__elided__> : tensor<128x512xf32>
    %cst_317 = arith.constant dense_resource<__elided__> : tensor<512xf32>
    %cst_318 = arith.constant dense_resource<__elided__> : tensor<512x128xf32>
    %cst_319 = arith.constant dense_resource<__elided__> : tensor<128xf32>
    %cst_320 = arith.constant dense_resource<__elided__> : tensor<128x128xf32>
    %cst_321 = arith.constant dense_resource<__elided__> : tensor<128xf32>
    %cst_322 = arith.constant dense_resource<__elided__> : tensor<128x128xf32>
    %cst_323 = arith.constant dense_resource<__elided__> : tensor<128xf32>
    %cst_324 = arith.constant dense_resource<__elided__> : tensor<128x128xf32>
    %cst_325 = arith.constant dense_resource<__elided__> : tensor<128xf32>
    %cst_326 = arith.constant dense_resource<__elided__> : tensor<128x128xf32>
    %cst_327 = arith.constant dense_resource<__elided__> : tensor<128xf32>
    %cst_328 = arith.constant dense_resource<__elided__> : tensor<128x512xf32>
    %cst_329 = arith.constant dense_resource<__elided__> : tensor<128xf32>
    %cst_330 = arith.constant dense_resource<__elided__> : tensor<128x512xf32>
    %cst_331 = arith.constant dense_resource<__elided__> : tensor<128xf32>
    %cst_332 = arith.constant dense_resource<__elided__> : tensor<128x512xf32>
    %cst_333 = arith.constant dense_resource<__elided__> : tensor<512xf32>
    %cst_334 = arith.constant dense_resource<__elided__> : tensor<512x128xf32>
    %cst_335 = arith.constant dense_resource<__elided__> : tensor<128xf32>
    %cst_336 = arith.constant dense_resource<__elided__> : tensor<128x512xf32>
    %cst_337 = arith.constant dense_resource<__elided__> : tensor<512xf32>
    %cst_338 = arith.constant dense_resource<__elided__> : tensor<512x128xf32>
    %cst_339 = arith.constant dense_resource<__elided__> : tensor<128xf32>
    %cst_340 = arith.constant dense_resource<__elided__> : tensor<128x512xf32>
    %cst_341 = arith.constant dense_resource<__elided__> : tensor<512xf32>
    %cst_342 = arith.constant dense_resource<__elided__> : tensor<512x128xf32>
    %cst_343 = arith.constant dense_resource<__elided__> : tensor<128xf32>
    %cst_344 = arith.constant dense_resource<__elided__> : tensor<128x512xf32>
    %cst_345 = arith.constant dense_resource<__elided__> : tensor<512xf32>
    %cst_346 = arith.constant dense_resource<__elided__> : tensor<512x128xf32>
    %cst_347 = arith.constant dense_resource<__elided__> : tensor<128xf32>
    %cst_348 = arith.constant dense_resource<__elided__> : tensor<128x512xf32>
    %cst_349 = arith.constant dense_resource<__elided__> : tensor<512xf32>
    %cst_350 = arith.constant dense_resource<__elided__> : tensor<512x128xf32>
    %cst_351 = arith.constant dense_resource<__elided__> : tensor<128xf32>
    %cst_352 = arith.constant dense_resource<__elided__> : tensor<128x128xf32>
    %cst_353 = arith.constant dense_resource<__elided__> : tensor<128xf32>
    %cst_354 = arith.constant dense_resource<__elided__> : tensor<128x128xf32>
    %cst_355 = arith.constant dense_resource<__elided__> : tensor<128xf32>
    %cst_356 = arith.constant dense_resource<__elided__> : tensor<128x128xf32>
    %cst_357 = arith.constant dense_resource<__elided__> : tensor<128xf32>
    %cst_358 = arith.constant dense_resource<__elided__> : tensor<128x128xf32>
    %cst_359 = arith.constant dense_resource<__elided__> : tensor<128xf32>
    %cst_360 = arith.constant dense_resource<__elided__> : tensor<128x512xf32>
    %cst_361 = arith.constant dense_resource<__elided__> : tensor<128xf32>
    %cst_362 = arith.constant dense_resource<__elided__> : tensor<128x512xf32>
    %cst_363 = arith.constant dense_resource<__elided__> : tensor<128xf32>
    %cst_364 = arith.constant dense_resource<__elided__> : tensor<128x512xf32>
    %cst_365 = arith.constant dense_resource<__elided__> : tensor<512xf32>
    %cst_366 = arith.constant dense_resource<__elided__> : tensor<512x128xf32>
    %cst_367 = arith.constant dense_resource<__elided__> : tensor<128xf32>
    %cst_368 = arith.constant dense_resource<__elided__> : tensor<128x512xf32>
    %cst_369 = arith.constant dense_resource<__elided__> : tensor<512xf32>
    %cst_370 = arith.constant dense_resource<__elided__> : tensor<512x128xf32>
    %cst_371 = arith.constant dense_resource<__elided__> : tensor<128xf32>
    %cst_372 = arith.constant dense_resource<__elided__> : tensor<128x512xf32>
    %cst_373 = arith.constant dense_resource<__elided__> : tensor<512xf32>
    %cst_374 = arith.constant dense_resource<__elided__> : tensor<512x128xf32>
    %cst_375 = arith.constant dense_resource<__elided__> : tensor<128xf32>
    %cst_376 = arith.constant dense_resource<__elided__> : tensor<128x512xf32>
    %cst_377 = arith.constant dense_resource<__elided__> : tensor<512xf32>
    %cst_378 = arith.constant dense_resource<__elided__> : tensor<512x128xf32>
    %cst_379 = arith.constant dense_resource<__elided__> : tensor<128xf32>
    %cst_380 = arith.constant dense_resource<__elided__> : tensor<128x512xf32>
    %cst_381 = arith.constant dense_resource<__elided__> : tensor<512xf32>
    %cst_382 = arith.constant dense_resource<__elided__> : tensor<512x128xf32>
    %cst_383 = arith.constant dense_resource<__elided__> : tensor<128xf32>
    %cst_384 = arith.constant dense_resource<__elided__> : tensor<128x128xf32>
    %cst_385 = arith.constant dense_resource<__elided__> : tensor<128xf32>
    %cst_386 = arith.constant dense_resource<__elided__> : tensor<128x128xf32>
    %cst_387 = arith.constant dense_resource<__elided__> : tensor<128xf32>
    %cst_388 = arith.constant dense_resource<__elided__> : tensor<128x128xf32>
    %cst_389 = arith.constant dense_resource<__elided__> : tensor<128xf32>
    %cst_390 = arith.constant dense_resource<__elided__> : tensor<128x128xf32>
    %cst_391 = arith.constant dense_resource<__elided__> : tensor<128xf32>
    %cst_392 = arith.constant dense_resource<__elided__> : tensor<128x512xf32>
    %cst_393 = arith.constant dense_resource<__elided__> : tensor<128xf32>
    %cst_394 = arith.constant dense_resource<__elided__> : tensor<128x512xf32>
    %cst_395 = arith.constant dense_resource<__elided__> : tensor<128xf32>
    %cst_396 = arith.constant dense_resource<__elided__> : tensor<128x512xf32>
    %cst_397 = arith.constant dense_resource<__elided__> : tensor<512xf32>
    %cst_398 = arith.constant dense_resource<__elided__> : tensor<512x128xf32>
    %cst_399 = arith.constant dense_resource<__elided__> : tensor<128xf32>
    %cst_400 = arith.constant dense_resource<__elided__> : tensor<128x512xf32>
    %cst_401 = arith.constant dense_resource<__elided__> : tensor<512xf32>
    %cst_402 = arith.constant dense_resource<__elided__> : tensor<512x128xf32>
    %cst_403 = arith.constant dense_resource<__elided__> : tensor<128xf32>
    %cst_404 = arith.constant dense_resource<__elided__> : tensor<128x512xf32>
    %cst_405 = arith.constant dense_resource<__elided__> : tensor<512xf32>
    %cst_406 = arith.constant dense_resource<__elided__> : tensor<512x128xf32>
    %cst_407 = arith.constant dense_resource<__elided__> : tensor<128xf32>
    %cst_408 = arith.constant dense_resource<__elided__> : tensor<128x512xf32>
    %cst_409 = arith.constant dense_resource<__elided__> : tensor<512xf32>
    %cst_410 = arith.constant dense_resource<__elided__> : tensor<512x128xf32>
    %cst_411 = arith.constant dense_resource<__elided__> : tensor<128xf32>
    %cst_412 = arith.constant dense_resource<__elided__> : tensor<128x512xf32>
    %cst_413 = arith.constant dense_resource<__elided__> : tensor<512xf32>
    %cst_414 = arith.constant dense_resource<__elided__> : tensor<512x128xf32>
    %cst_415 = arith.constant dense_resource<__elided__> : tensor<128xf32>
    %cst_416 = arith.constant dense_resource<__elided__> : tensor<128x128xf32>
    %cst_417 = arith.constant dense_resource<__elided__> : tensor<128xf32>
    %cst_418 = arith.constant dense_resource<__elided__> : tensor<128x128xf32>
    %cst_419 = arith.constant dense_resource<__elided__> : tensor<128xf32>
    %cst_420 = arith.constant dense_resource<__elided__> : tensor<128x128xf32>
    %cst_421 = arith.constant dense_resource<__elided__> : tensor<128xf32>
    %cst_422 = arith.constant dense_resource<__elided__> : tensor<128x128xf32>
    %cst_423 = arith.constant dense_resource<__elided__> : tensor<128xf32>
    %cst_424 = arith.constant dense_resource<__elided__> : tensor<128x512xf32>
    %cst_425 = arith.constant dense_resource<__elided__> : tensor<128xf32>
    %cst_426 = arith.constant dense_resource<__elided__> : tensor<128x512xf32>
    %cst_427 = arith.constant dense_resource<__elided__> : tensor<128xf32>
    %cst_428 = arith.constant dense_resource<__elided__> : tensor<128x512xf32>
    %cst_429 = arith.constant dense_resource<__elided__> : tensor<512xf32>
    %cst_430 = arith.constant dense_resource<__elided__> : tensor<512x128xf32>
    %cst_431 = arith.constant dense_resource<__elided__> : tensor<128xf32>
    %cst_432 = arith.constant dense_resource<__elided__> : tensor<128x512xf32>
    %cst_433 = arith.constant dense_resource<__elided__> : tensor<512xf32>
    %cst_434 = arith.constant dense_resource<__elided__> : tensor<512x128xf32>
    %cst_435 = arith.constant dense_resource<__elided__> : tensor<128xf32>
    %cst_436 = arith.constant dense_resource<__elided__> : tensor<128x512xf32>
    %cst_437 = arith.constant dense_resource<__elided__> : tensor<512xf32>
    %cst_438 = arith.constant dense_resource<__elided__> : tensor<512x128xf32>
    %cst_439 = arith.constant dense_resource<__elided__> : tensor<128xf32>
    %cst_440 = arith.constant dense_resource<__elided__> : tensor<128x512xf32>
    %cst_441 = arith.constant dense_resource<__elided__> : tensor<512xf32>
    %cst_442 = arith.constant dense_resource<__elided__> : tensor<512x128xf32>
    %cst_443 = arith.constant dense_resource<__elided__> : tensor<128xf32>
    %cst_444 = arith.constant dense_resource<__elided__> : tensor<128x512xf32>
    %cst_445 = arith.constant dense_resource<__elided__> : tensor<512xf32>
    %cst_446 = arith.constant dense_resource<__elided__> : tensor<512x128xf32>
    %cst_447 = arith.constant dense_resource<__elided__> : tensor<128xf32>
    %cst_448 = arith.constant dense_resource<__elided__> : tensor<128x128xf32>
    %cst_449 = arith.constant dense_resource<__elided__> : tensor<128xf32>
    %cst_450 = arith.constant dense_resource<__elided__> : tensor<128x128xf32>
    %cst_451 = arith.constant dense_resource<__elided__> : tensor<128xf32>
    %cst_452 = arith.constant dense_resource<__elided__> : tensor<128x128xf32>
    %cst_453 = arith.constant dense_resource<__elided__> : tensor<128xf32>
    %cst_454 = arith.constant dense_resource<__elided__> : tensor<128x128xf32>
    %cst_455 = arith.constant dense_resource<__elided__> : tensor<128xf32>
    %cst_456 = arith.constant dense_resource<__elided__> : tensor<128x512xf32>
    %cst_457 = arith.constant dense_resource<__elided__> : tensor<128xf32>
    %cst_458 = arith.constant dense_resource<__elided__> : tensor<128x512xf32>
    %cst_459 = arith.constant dense_resource<__elided__> : tensor<128xf32>
    %cst_460 = arith.constant dense_resource<__elided__> : tensor<128x512xf32>
    %cst_461 = arith.constant dense_resource<__elided__> : tensor<512xf32>
    %cst_462 = arith.constant dense_resource<__elided__> : tensor<512x128xf32>
    %cst_463 = arith.constant dense_resource<__elided__> : tensor<128xf32>
    %cst_464 = arith.constant dense_resource<__elided__> : tensor<128x512xf32>
    %cst_465 = arith.constant dense_resource<__elided__> : tensor<512xf32>
    %cst_466 = arith.constant dense_resource<__elided__> : tensor<512x128xf32>
    %cst_467 = arith.constant dense_resource<__elided__> : tensor<128xf32>
    %cst_468 = arith.constant dense_resource<__elided__> : tensor<128x512xf32>
    %cst_469 = arith.constant dense_resource<__elided__> : tensor<512xf32>
    %cst_470 = arith.constant dense_resource<__elided__> : tensor<512x128xf32>
    %cst_471 = arith.constant dense_resource<__elided__> : tensor<128xf32>
    %cst_472 = arith.constant dense_resource<__elided__> : tensor<128x512xf32>
    %cst_473 = arith.constant dense_resource<__elided__> : tensor<512xf32>
    %cst_474 = arith.constant dense_resource<__elided__> : tensor<512x128xf32>
    %cst_475 = arith.constant dense_resource<__elided__> : tensor<128xf32>
    %cst_476 = arith.constant dense_resource<__elided__> : tensor<128x512xf32>
    %cst_477 = arith.constant dense_resource<__elided__> : tensor<512xf32>
    %cst_478 = arith.constant dense_resource<__elided__> : tensor<512x128xf32>
    %cst_479 = arith.constant dense_resource<__elided__> : tensor<128xf32>
    %cst_480 = arith.constant dense_resource<__elided__> : tensor<128x128xf32>
    %cst_481 = arith.constant dense_resource<__elided__> : tensor<128xf32>
    %cst_482 = arith.constant dense_resource<__elided__> : tensor<128x128xf32>
    %cst_483 = arith.constant dense_resource<__elided__> : tensor<128xf32>
    %cst_484 = arith.constant dense_resource<__elided__> : tensor<128x128xf32>
    %cst_485 = arith.constant dense_resource<__elided__> : tensor<128xf32>
    %cst_486 = arith.constant dense_resource<__elided__> : tensor<128x128xf32>
    %cst_487 = arith.constant dense_resource<__elided__> : tensor<128xf32>
    %cst_488 = arith.constant dense_resource<__elided__> : tensor<128x512xf32>
    %cst_489 = arith.constant dense_resource<__elided__> : tensor<128xf32>
    %cst_490 = arith.constant dense_resource<__elided__> : tensor<128x512xf32>
    %cst_491 = arith.constant dense_resource<__elided__> : tensor<128xf32>
    %cst_492 = arith.constant dense_resource<__elided__> : tensor<128x512xf32>
    %cst_493 = arith.constant dense_resource<__elided__> : tensor<512xf32>
    %cst_494 = arith.constant dense_resource<__elided__> : tensor<512x128xf32>
    %cst_495 = arith.constant dense_resource<__elided__> : tensor<128xf32>
    %cst_496 = arith.constant dense_resource<__elided__> : tensor<128x512xf32>
    %cst_497 = arith.constant dense_resource<__elided__> : tensor<512xf32>
    %cst_498 = arith.constant dense_resource<__elided__> : tensor<512x128xf32>
    %cst_499 = arith.constant dense_resource<__elided__> : tensor<128xf32>
    %cst_500 = arith.constant dense_resource<__elided__> : tensor<128x512xf32>
    %cst_501 = arith.constant dense_resource<__elided__> : tensor<512xf32>
    %cst_502 = arith.constant dense_resource<__elided__> : tensor<512x128xf32>
    %cst_503 = arith.constant dense_resource<__elided__> : tensor<128xf32>
    %cst_504 = arith.constant dense_resource<__elided__> : tensor<128x512xf32>
    %cst_505 = arith.constant dense_resource<__elided__> : tensor<512xf32>
    %cst_506 = arith.constant dense_resource<__elided__> : tensor<512x128xf32>
    %cst_507 = arith.constant dense_resource<__elided__> : tensor<128xf32>
    %cst_508 = arith.constant dense_resource<__elided__> : tensor<128x512xf32>
    %cst_509 = arith.constant dense_resource<__elided__> : tensor<512xf32>
    %cst_510 = arith.constant dense_resource<__elided__> : tensor<512x128xf32>
    %cst_511 = arith.constant dense_resource<__elided__> : tensor<128xf32>
    %cst_512 = arith.constant dense_resource<__elided__> : tensor<128x128xf32>
    %cst_513 = arith.constant dense_resource<__elided__> : tensor<128xf32>
    %cst_514 = arith.constant dense_resource<__elided__> : tensor<128x128xf32>
    %cst_515 = arith.constant dense_resource<__elided__> : tensor<128xf32>
    %cst_516 = arith.constant dense_resource<__elided__> : tensor<128x128xf32>
    %cst_517 = arith.constant dense_resource<__elided__> : tensor<128xf32>
    %cst_518 = arith.constant dense_resource<__elided__> : tensor<128x128xf32>
    %cst_519 = arith.constant dense_resource<__elided__> : tensor<128xf32>
    %cst_520 = arith.constant dense_resource<__elided__> : tensor<128x512xf32>
    %cst_521 = arith.constant dense_resource<__elided__> : tensor<128xf32>
    %cst_522 = arith.constant dense_resource<__elided__> : tensor<128x512xf32>
    %cst_523 = arith.constant dense_resource<__elided__> : tensor<128xf32>
    %cst_524 = arith.constant dense_resource<__elided__> : tensor<128x512xf32>
    %cst_525 = arith.constant dense_resource<__elided__> : tensor<512xf32>
    %cst_526 = arith.constant dense_resource<__elided__> : tensor<512x128xf32>
    %cst_527 = arith.constant dense_resource<__elided__> : tensor<128xf32>
    %cst_528 = arith.constant dense_resource<__elided__> : tensor<128x512xf32>
    %cst_529 = arith.constant dense_resource<__elided__> : tensor<512xf32>
    %cst_530 = arith.constant dense_resource<__elided__> : tensor<512x128xf32>
    %cst_531 = arith.constant dense_resource<__elided__> : tensor<128xf32>
    %cst_532 = arith.constant dense_resource<__elided__> : tensor<128x512xf32>
    %cst_533 = arith.constant dense_resource<__elided__> : tensor<512xf32>
    %cst_534 = arith.constant dense_resource<__elided__> : tensor<512x128xf32>
    %cst_535 = arith.constant dense_resource<__elided__> : tensor<128xf32>
    %cst_536 = arith.constant dense_resource<__elided__> : tensor<128x512xf32>
    %cst_537 = arith.constant dense_resource<__elided__> : tensor<512xf32>
    %cst_538 = arith.constant dense_resource<__elided__> : tensor<512x128xf32>
    %cst_539 = arith.constant dense_resource<__elided__> : tensor<128xf32>
    %cst_540 = arith.constant dense_resource<__elided__> : tensor<128x512xf32>
    %cst_541 = arith.constant dense_resource<__elided__> : tensor<512xf32>
    %cst_542 = arith.constant dense_resource<__elided__> : tensor<512x128xf32>
    %cst_543 = arith.constant dense_resource<__elided__> : tensor<128xf32>
    %cst_544 = arith.constant dense_resource<__elided__> : tensor<128x128xf32>
    %cst_545 = arith.constant dense_resource<__elided__> : tensor<128xf32>
    %cst_546 = arith.constant dense_resource<__elided__> : tensor<128x128xf32>
    %cst_547 = arith.constant dense_resource<__elided__> : tensor<128xf32>
    %cst_548 = arith.constant dense_resource<__elided__> : tensor<128x128xf32>
    %cst_549 = arith.constant dense_resource<__elided__> : tensor<128xf32>
    %cst_550 = arith.constant dense_resource<__elided__> : tensor<128x128xf32>
    %cst_551 = arith.constant dense_resource<__elided__> : tensor<128xf32>
    %cst_552 = arith.constant dense_resource<__elided__> : tensor<128x512xf32>
    %cst_553 = arith.constant dense_resource<__elided__> : tensor<128xf32>
    %cst_554 = arith.constant dense_resource<__elided__> : tensor<128x512xf32>
    %cst_555 = arith.constant dense_resource<__elided__> : tensor<128xf32>
    %cst_556 = arith.constant dense_resource<__elided__> : tensor<128x512xf32>
    %cst_557 = arith.constant dense_resource<__elided__> : tensor<512xf32>
    %cst_558 = arith.constant dense_resource<__elided__> : tensor<512x128xf32>
    %cst_559 = arith.constant dense_resource<__elided__> : tensor<128xf32>
    %cst_560 = arith.constant dense_resource<__elided__> : tensor<128x512xf32>
    %cst_561 = arith.constant dense_resource<__elided__> : tensor<512xf32>
    %cst_562 = arith.constant dense_resource<__elided__> : tensor<512x128xf32>
    %cst_563 = arith.constant dense_resource<__elided__> : tensor<128xf32>
    %cst_564 = arith.constant dense_resource<__elided__> : tensor<128x512xf32>
    %cst_565 = arith.constant dense_resource<__elided__> : tensor<512xf32>
    %cst_566 = arith.constant dense_resource<__elided__> : tensor<512x128xf32>
    %cst_567 = arith.constant dense_resource<__elided__> : tensor<128xf32>
    %cst_568 = arith.constant dense_resource<__elided__> : tensor<128x512xf32>
    %cst_569 = arith.constant dense_resource<__elided__> : tensor<512xf32>
    %cst_570 = arith.constant dense_resource<__elided__> : tensor<512x128xf32>
    %cst_571 = arith.constant dense_resource<__elided__> : tensor<128xf32>
    %cst_572 = arith.constant dense_resource<__elided__> : tensor<128x512xf32>
    %cst_573 = arith.constant dense_resource<__elided__> : tensor<512xf32>
    %cst_574 = arith.constant dense_resource<__elided__> : tensor<512x128xf32>
    %cst_575 = arith.constant dense_resource<__elided__> : tensor<128xf32>
    %cst_576 = arith.constant dense_resource<__elided__> : tensor<128x128xf32>
    %cst_577 = arith.constant dense_resource<__elided__> : tensor<128xf32>
    %cst_578 = arith.constant dense_resource<__elided__> : tensor<128x128xf32>
    %cst_579 = arith.constant dense_resource<__elided__> : tensor<128xf32>
    %cst_580 = arith.constant dense_resource<__elided__> : tensor<128x128xf32>
    %cst_581 = arith.constant dense_resource<__elided__> : tensor<128xf32>
    %cst_582 = arith.constant dense_resource<__elided__> : tensor<128x128xf32>
    %cst_583 = arith.constant dense_resource<__elided__> : tensor<128xf32>
    %cst_584 = arith.constant dense_resource<__elided__> : tensor<128x512xf32>
    %cst_585 = arith.constant dense_resource<__elided__> : tensor<128xf32>
    %cst_586 = arith.constant dense_resource<__elided__> : tensor<128x512xf32>
    %cst_587 = arith.constant dense_resource<__elided__> : tensor<128xf32>
    %cst_588 = arith.constant dense_resource<__elided__> : tensor<128x512xf32>
    %cst_589 = arith.constant dense_resource<__elided__> : tensor<512xf32>
    %cst_590 = arith.constant dense_resource<__elided__> : tensor<512x128xf32>
    %cst_591 = arith.constant dense_resource<__elided__> : tensor<128xf32>
    %cst_592 = arith.constant dense_resource<__elided__> : tensor<128x512xf32>
    %cst_593 = arith.constant dense_resource<__elided__> : tensor<512xf32>
    %cst_594 = arith.constant dense_resource<__elided__> : tensor<512x128xf32>
    %cst_595 = arith.constant dense_resource<__elided__> : tensor<128xf32>
    %cst_596 = arith.constant dense_resource<__elided__> : tensor<128x512xf32>
    %cst_597 = arith.constant dense_resource<__elided__> : tensor<512xf32>
    %cst_598 = arith.constant dense_resource<__elided__> : tensor<512x128xf32>
    %cst_599 = arith.constant dense_resource<__elided__> : tensor<128xf32>
    %cst_600 = arith.constant dense_resource<__elided__> : tensor<128x512xf32>
    %cst_601 = arith.constant dense_resource<__elided__> : tensor<512xf32>
    %cst_602 = arith.constant dense_resource<__elided__> : tensor<512x128xf32>
    %cst_603 = arith.constant dense_resource<__elided__> : tensor<128xf32>
    %cst_604 = arith.constant dense_resource<__elided__> : tensor<128x512xf32>
    %cst_605 = arith.constant dense_resource<__elided__> : tensor<512xf32>
    %cst_606 = arith.constant dense_resource<__elided__> : tensor<512x128xf32>
    %cst_607 = arith.constant dense_resource<__elided__> : tensor<128xf32>
    %cst_608 = arith.constant dense_resource<__elided__> : tensor<128x128xf32>
    %cst_609 = arith.constant dense_resource<__elided__> : tensor<128xf32>
    %cst_610 = arith.constant dense_resource<__elided__> : tensor<128x128xf32>
    %cst_611 = arith.constant dense_resource<__elided__> : tensor<128xf32>
    %cst_612 = arith.constant dense_resource<__elided__> : tensor<128x128xf32>
    %cst_613 = arith.constant dense_resource<__elided__> : tensor<128xf32>
    %cst_614 = arith.constant dense_resource<__elided__> : tensor<128x128xf32>
    %cst_615 = arith.constant dense_resource<__elided__> : tensor<128xf32>
    %cst_616 = arith.constant dense_resource<__elided__> : tensor<128x512xf32>
    %cst_617 = arith.constant dense_resource<__elided__> : tensor<128xf32>
    %cst_618 = arith.constant dense_resource<__elided__> : tensor<128x512xf32>
    %cst_619 = arith.constant dense_resource<__elided__> : tensor<128xf32>
    %cst_620 = arith.constant dense_resource<__elided__> : tensor<128x512xf32>
    %cst_621 = arith.constant dense_resource<__elided__> : tensor<512xf32>
    %cst_622 = arith.constant dense_resource<__elided__> : tensor<512x128xf32>
    %cst_623 = arith.constant dense_resource<__elided__> : tensor<128xf32>
    %cst_624 = arith.constant dense_resource<__elided__> : tensor<128x512xf32>
    %cst_625 = arith.constant dense_resource<__elided__> : tensor<512xf32>
    %cst_626 = arith.constant dense_resource<__elided__> : tensor<512x128xf32>
    %cst_627 = arith.constant dense_resource<__elided__> : tensor<128xf32>
    %cst_628 = arith.constant dense_resource<__elided__> : tensor<128x512xf32>
    %cst_629 = arith.constant dense_resource<__elided__> : tensor<512xf32>
    %cst_630 = arith.constant dense_resource<__elided__> : tensor<512x128xf32>
    %cst_631 = arith.constant dense_resource<__elided__> : tensor<128xf32>
    %cst_632 = arith.constant dense_resource<__elided__> : tensor<128x512xf32>
    %cst_633 = arith.constant dense_resource<__elided__> : tensor<512xf32>
    %cst_634 = arith.constant dense_resource<__elided__> : tensor<512x128xf32>
    %cst_635 = arith.constant dense_resource<__elided__> : tensor<128xf32>
    %cst_636 = arith.constant dense_resource<__elided__> : tensor<128x512xf32>
    %cst_637 = arith.constant dense_resource<__elided__> : tensor<512xf32>
    %cst_638 = arith.constant dense_resource<__elided__> : tensor<512x128xf32>
    %cst_639 = arith.constant dense_resource<__elided__> : tensor<128xf32>
    %cst_640 = arith.constant dense_resource<__elided__> : tensor<128x128xf32>
    %cst_641 = arith.constant dense_resource<__elided__> : tensor<128xf32>
    %cst_642 = arith.constant dense_resource<__elided__> : tensor<128x128xf32>
    %cst_643 = arith.constant dense_resource<__elided__> : tensor<128xf32>
    %cst_644 = arith.constant dense_resource<__elided__> : tensor<128x128xf32>
    %cst_645 = arith.constant dense_resource<__elided__> : tensor<128xf32>
    %cst_646 = arith.constant dense_resource<__elided__> : tensor<128x128xf32>
    %cst_647 = arith.constant dense_resource<__elided__> : tensor<128xf32>
    %cst_648 = arith.constant dense_resource<__elided__> : tensor<128x512xf32>
    %cst_649 = arith.constant dense_resource<__elided__> : tensor<128xf32>
    %cst_650 = arith.constant dense_resource<__elided__> : tensor<128x512xf32>
    %cst_651 = arith.constant dense_resource<__elided__> : tensor<128xf32>
    %cst_652 = arith.constant dense_resource<__elided__> : tensor<128x512xf32>
    %cst_653 = arith.constant dense_resource<__elided__> : tensor<512xf32>
    %cst_654 = arith.constant dense_resource<__elided__> : tensor<512x128xf32>
    %cst_655 = arith.constant dense_resource<__elided__> : tensor<128xf32>
    %cst_656 = arith.constant dense_resource<__elided__> : tensor<128x512xf32>
    %cst_657 = arith.constant dense_resource<__elided__> : tensor<512xf32>
    %cst_658 = arith.constant dense_resource<__elided__> : tensor<512x128xf32>
    %cst_659 = arith.constant dense_resource<__elided__> : tensor<128xf32>
    %cst_660 = arith.constant dense_resource<__elided__> : tensor<128x512xf32>
    %cst_661 = arith.constant dense_resource<__elided__> : tensor<512xf32>
    %cst_662 = arith.constant dense_resource<__elided__> : tensor<512x128xf32>
    %cst_663 = arith.constant dense_resource<__elided__> : tensor<128xf32>
    %cst_664 = arith.constant dense_resource<__elided__> : tensor<128x512xf32>
    %cst_665 = arith.constant dense_resource<__elided__> : tensor<512xf32>
    %cst_666 = arith.constant dense_resource<__elided__> : tensor<512x128xf32>
    %cst_667 = arith.constant dense_resource<__elided__> : tensor<128xf32>
    %cst_668 = arith.constant dense_resource<__elided__> : tensor<128x512xf32>
    %cst_669 = arith.constant dense_resource<__elided__> : tensor<512xf32>
    %cst_670 = arith.constant dense_resource<__elided__> : tensor<512x128xf32>
    %cst_671 = arith.constant dense_resource<__elided__> : tensor<128xf32>
    %cst_672 = arith.constant dense_resource<__elided__> : tensor<128x128xf32>
    %cst_673 = arith.constant dense_resource<__elided__> : tensor<128xf32>
    %cst_674 = arith.constant dense_resource<__elided__> : tensor<128x128xf32>
    %cst_675 = arith.constant dense_resource<__elided__> : tensor<128xf32>
    %cst_676 = arith.constant dense_resource<__elided__> : tensor<128x128xf32>
    %cst_677 = arith.constant dense_resource<__elided__> : tensor<128xf32>
    %cst_678 = arith.constant dense_resource<__elided__> : tensor<128x128xf32>
    %cst_679 = arith.constant dense_resource<__elided__> : tensor<128xf32>
    %cst_680 = arith.constant dense_resource<__elided__> : tensor<128x512xf32>
    %cst_681 = arith.constant dense_resource<__elided__> : tensor<128xf32>
    %cst_682 = arith.constant dense_resource<__elided__> : tensor<128x512xf32>
    %cst_683 = arith.constant dense_resource<__elided__> : tensor<128xf32>
    %cst_684 = arith.constant dense_resource<__elided__> : tensor<128x512xf32>
    %cst_685 = arith.constant dense_resource<__elided__> : tensor<512xf32>
    %cst_686 = arith.constant dense_resource<__elided__> : tensor<512x128xf32>
    %cst_687 = arith.constant dense_resource<__elided__> : tensor<128xf32>
    %cst_688 = arith.constant dense_resource<__elided__> : tensor<128x512xf32>
    %cst_689 = arith.constant dense_resource<__elided__> : tensor<512xf32>
    %cst_690 = arith.constant dense_resource<__elided__> : tensor<512x128xf32>
    %cst_691 = arith.constant dense_resource<__elided__> : tensor<128xf32>
    %cst_692 = arith.constant dense_resource<__elided__> : tensor<128x512xf32>
    %cst_693 = arith.constant dense_resource<__elided__> : tensor<512xf32>
    %cst_694 = arith.constant dense_resource<__elided__> : tensor<512x128xf32>
    %cst_695 = arith.constant dense_resource<__elided__> : tensor<128xf32>
    %cst_696 = arith.constant dense_resource<__elided__> : tensor<128x512xf32>
    %cst_697 = arith.constant dense_resource<__elided__> : tensor<512xf32>
    %cst_698 = arith.constant dense_resource<__elided__> : tensor<512x128xf32>
    %cst_699 = arith.constant dense_resource<__elided__> : tensor<128xf32>
    %cst_700 = arith.constant dense_resource<__elided__> : tensor<128x512xf32>
    %cst_701 = arith.constant dense_resource<__elided__> : tensor<512xf32>
    %cst_702 = arith.constant dense_resource<__elided__> : tensor<512x128xf32>
    %cst_703 = arith.constant dense_resource<__elided__> : tensor<128xf32>
    %cst_704 = arith.constant dense_resource<__elided__> : tensor<128x128xf32>
    %cst_705 = arith.constant dense_resource<__elided__> : tensor<128xf32>
    %cst_706 = arith.constant dense_resource<__elided__> : tensor<128x128xf32>
    %cst_707 = arith.constant dense_resource<__elided__> : tensor<128xf32>
    %cst_708 = arith.constant dense_resource<__elided__> : tensor<128x128xf32>
    %cst_709 = arith.constant dense_resource<__elided__> : tensor<128xf32>
    %cst_710 = arith.constant dense_resource<__elided__> : tensor<128x128xf32>
    %cst_711 = arith.constant dense_resource<__elided__> : tensor<128xf32>
    %cst_712 = arith.constant dense_resource<__elided__> : tensor<128x512xf32>
    %cst_713 = arith.constant dense_resource<__elided__> : tensor<128xf32>
    %cst_714 = arith.constant dense_resource<__elided__> : tensor<128x512xf32>
    %cst_715 = arith.constant dense_resource<__elided__> : tensor<128xf32>
    %cst_716 = arith.constant dense_resource<__elided__> : tensor<128x512xf32>
    %cst_717 = arith.constant dense_resource<__elided__> : tensor<512xf32>
    %cst_718 = arith.constant dense_resource<__elided__> : tensor<512x128xf32>
    %cst_719 = arith.constant dense_resource<__elided__> : tensor<128xf32>
    %cst_720 = arith.constant dense_resource<__elided__> : tensor<128x512xf32>
    %cst_721 = arith.constant dense_resource<__elided__> : tensor<512xf32>
    %cst_722 = arith.constant dense_resource<__elided__> : tensor<512x128xf32>
    %cst_723 = arith.constant dense_resource<__elided__> : tensor<128xf32>
    %cst_724 = arith.constant dense_resource<__elided__> : tensor<128x512xf32>
    %cst_725 = arith.constant dense_resource<__elided__> : tensor<512xf32>
    %cst_726 = arith.constant dense_resource<__elided__> : tensor<512x128xf32>
    %cst_727 = arith.constant dense_resource<__elided__> : tensor<128xf32>
    %cst_728 = arith.constant dense_resource<__elided__> : tensor<128x512xf32>
    %cst_729 = arith.constant dense_resource<__elided__> : tensor<512xf32>
    %cst_730 = arith.constant dense_resource<__elided__> : tensor<512x128xf32>
    %cst_731 = arith.constant dense_resource<__elided__> : tensor<128xf32>
    %cst_732 = arith.constant dense_resource<__elided__> : tensor<128x512xf32>
    %cst_733 = arith.constant dense_resource<__elided__> : tensor<512xf32>
    %cst_734 = arith.constant dense_resource<__elided__> : tensor<512x128xf32>
    %cst_735 = arith.constant dense_resource<__elided__> : tensor<128xf32>
    %cst_736 = arith.constant dense_resource<__elided__> : tensor<128x128xf32>
    %cst_737 = arith.constant dense_resource<__elided__> : tensor<128xf32>
    %cst_738 = arith.constant dense_resource<__elided__> : tensor<128x128xf32>
    %cst_739 = arith.constant dense_resource<__elided__> : tensor<128xf32>
    %cst_740 = arith.constant dense_resource<__elided__> : tensor<128x128xf32>
    %cst_741 = arith.constant dense_resource<__elided__> : tensor<128xf32>
    %cst_742 = arith.constant dense_resource<__elided__> : tensor<128x128xf32>
    %cst_743 = arith.constant dense_resource<__elided__> : tensor<128xf32>
    %cst_744 = arith.constant dense_resource<__elided__> : tensor<128x512xf32>
    %cst_745 = arith.constant dense_resource<__elided__> : tensor<128xf32>
    %cst_746 = arith.constant dense_resource<__elided__> : tensor<128x512xf32>
    %cst_747 = arith.constant dense_resource<__elided__> : tensor<128xf32>
    %cst_748 = arith.constant dense_resource<__elided__> : tensor<128x512xf32>
    %cst_749 = arith.constant dense_resource<__elided__> : tensor<512xf32>
    %cst_750 = arith.constant dense_resource<__elided__> : tensor<512x128xf32>
    %cst_751 = arith.constant dense_resource<__elided__> : tensor<128xf32>
    %cst_752 = arith.constant dense_resource<__elided__> : tensor<128x512xf32>
    %cst_753 = arith.constant dense_resource<__elided__> : tensor<512xf32>
    %cst_754 = arith.constant dense_resource<__elided__> : tensor<512x128xf32>
    %cst_755 = arith.constant dense_resource<__elided__> : tensor<128xf32>
    %cst_756 = arith.constant dense_resource<__elided__> : tensor<128x512xf32>
    %cst_757 = arith.constant dense_resource<__elided__> : tensor<512xf32>
    %cst_758 = arith.constant dense_resource<__elided__> : tensor<512x128xf32>
    %cst_759 = arith.constant dense_resource<__elided__> : tensor<128xf32>
    %cst_760 = arith.constant dense_resource<__elided__> : tensor<128x512xf32>
    %cst_761 = arith.constant dense_resource<__elided__> : tensor<512xf32>
    %cst_762 = arith.constant dense_resource<__elided__> : tensor<512x128xf32>
    %cst_763 = arith.constant dense_resource<__elided__> : tensor<128xf32>
    %cst_764 = arith.constant dense_resource<__elided__> : tensor<128x512xf32>
    %cst_765 = arith.constant dense_resource<__elided__> : tensor<512xf32>
    %cst_766 = arith.constant dense_resource<__elided__> : tensor<512x128xf32>
    %cst_767 = arith.constant dense_resource<__elided__> : tensor<128xf32>
    %cst_768 = arith.constant dense_resource<__elided__> : tensor<128x128xf32>
    %cst_769 = arith.constant dense_resource<__elided__> : tensor<128xf32>
    %cst_770 = arith.constant dense_resource<__elided__> : tensor<128x128xf32>
    %cst_771 = arith.constant dense_resource<__elided__> : tensor<128xf32>
    %cst_772 = arith.constant dense_resource<__elided__> : tensor<128x128xf32>
    %cst_773 = arith.constant dense_resource<__elided__> : tensor<128xf32>
    %cst_774 = arith.constant dense_resource<__elided__> : tensor<128x128xf32>
    %cst_775 = arith.constant dense_resource<__elided__> : tensor<128xf32>
    %cst_776 = arith.constant dense_resource<__elided__> : tensor<128x512xf32>
    %cst_777 = arith.constant dense_resource<__elided__> : tensor<128xf32>
    %cst_778 = arith.constant dense_resource<__elided__> : tensor<128x512xf32>
    %cst_779 = arith.constant dense_resource<__elided__> : tensor<128xf32>
    %cst_780 = arith.constant dense_resource<__elided__> : tensor<128x512xf32>
    %cst_781 = arith.constant dense_resource<__elided__> : tensor<512xf32>
    %cst_782 = arith.constant dense_resource<__elided__> : tensor<512x128xf32>
    %cst_783 = arith.constant dense_resource<__elided__> : tensor<128xf32>
    %cst_784 = arith.constant dense_resource<__elided__> : tensor<128x512xf32>
    %cst_785 = arith.constant dense_resource<__elided__> : tensor<512xf32>
    %cst_786 = arith.constant dense_resource<__elided__> : tensor<512x128xf32>
    %cst_787 = arith.constant dense_resource<__elided__> : tensor<128xf32>
    %cst_788 = arith.constant dense_resource<__elided__> : tensor<128x512xf32>
    %cst_789 = arith.constant dense_resource<__elided__> : tensor<512xf32>
    %cst_790 = arith.constant dense_resource<__elided__> : tensor<512x128xf32>
    %cst_791 = arith.constant dense_resource<__elided__> : tensor<128xf32>
    %cst_792 = arith.constant dense_resource<__elided__> : tensor<128x512xf32>
    %cst_793 = arith.constant dense_resource<__elided__> : tensor<512xf32>
    %cst_794 = arith.constant dense_resource<__elided__> : tensor<512x128xf32>
    %cst_795 = arith.constant dense_resource<__elided__> : tensor<128xf32>
    %cst_796 = arith.constant dense_resource<__elided__> : tensor<128x512xf32>
    %cst_797 = arith.constant dense_resource<__elided__> : tensor<512xf32>
    %cst_798 = arith.constant dense_resource<__elided__> : tensor<512x128xf32>
    %cst_799 = arith.constant dense_resource<__elided__> : tensor<128xf32>
    %cst_800 = arith.constant dense_resource<__elided__> : tensor<128x128xf32>
    %cst_801 = arith.constant dense_resource<__elided__> : tensor<128xf32>
    %cst_802 = arith.constant dense_resource<__elided__> : tensor<128x128xf32>
    %cst_803 = arith.constant dense_resource<__elided__> : tensor<128xf32>
    %cst_804 = arith.constant dense_resource<__elided__> : tensor<128x128xf32>
    %cst_805 = arith.constant dense_resource<__elided__> : tensor<128xf32>
    %cst_806 = arith.constant dense_resource<__elided__> : tensor<128x128xf32>
    %cst_807 = arith.constant dense_resource<__elided__> : tensor<128xf32>
    %cst_808 = arith.constant dense_resource<__elided__> : tensor<128x512xf32>
    %cst_809 = arith.constant dense_resource<__elided__> : tensor<128xf32>
    %cst_810 = arith.constant dense_resource<__elided__> : tensor<128x512xf32>
    %cst_811 = arith.constant dense_resource<__elided__> : tensor<128xf32>
    %cst_812 = arith.constant dense_resource<__elided__> : tensor<128x512xf32>
    %cst_813 = arith.constant dense_resource<__elided__> : tensor<512xf32>
    %cst_814 = arith.constant dense_resource<__elided__> : tensor<512x128xf32>
    %cst_815 = arith.constant dense_resource<__elided__> : tensor<128xf32>
    %cst_816 = arith.constant dense_resource<__elided__> : tensor<128x512xf32>
    %cst_817 = arith.constant dense_resource<__elided__> : tensor<512xf32>
    %cst_818 = arith.constant dense_resource<__elided__> : tensor<512x128xf32>
    %cst_819 = arith.constant dense_resource<__elided__> : tensor<128xf32>
    %cst_820 = arith.constant dense_resource<__elided__> : tensor<128x512xf32>
    %cst_821 = arith.constant dense_resource<__elided__> : tensor<512xf32>
    %cst_822 = arith.constant dense_resource<__elided__> : tensor<512x128xf32>
    %cst_823 = arith.constant dense_resource<__elided__> : tensor<128xf32>
    %cst_824 = arith.constant dense_resource<__elided__> : tensor<128x512xf32>
    %cst_825 = arith.constant dense_resource<__elided__> : tensor<512xf32>
    %cst_826 = arith.constant dense_resource<__elided__> : tensor<512x128xf32>
    %cst_827 = arith.constant dense_resource<__elided__> : tensor<128xf32>
    %cst_828 = arith.constant dense_resource<__elided__> : tensor<128x512xf32>
    %cst_829 = arith.constant dense_resource<__elided__> : tensor<512xf32>
    %cst_830 = arith.constant dense_resource<__elided__> : tensor<512x128xf32>
    %cst_831 = arith.constant dense_resource<__elided__> : tensor<128xf32>
    %cst_832 = arith.constant dense_resource<__elided__> : tensor<128x128xf32>
    %cst_833 = arith.constant dense_resource<__elided__> : tensor<128xf32>
    %cst_834 = arith.constant dense_resource<__elided__> : tensor<128x128xf32>
    %cst_835 = arith.constant dense_resource<__elided__> : tensor<128xf32>
    %cst_836 = arith.constant dense_resource<__elided__> : tensor<128x128xf32>
    %cst_837 = arith.constant dense_resource<__elided__> : tensor<128xf32>
    %cst_838 = arith.constant dense_resource<__elided__> : tensor<128x128xf32>
    %cst_839 = arith.constant dense_resource<__elided__> : tensor<128xf32>
    %cst_840 = arith.constant dense_resource<__elided__> : tensor<128x512xf32>
    %cst_841 = arith.constant dense_resource<__elided__> : tensor<128xf32>
    %cst_842 = arith.constant dense_resource<__elided__> : tensor<128x512xf32>
    %cst_843 = arith.constant dense_resource<__elided__> : tensor<128xf32>
    %cst_844 = arith.constant dense_resource<__elided__> : tensor<128x512xf32>
    %cst_845 = arith.constant dense_resource<__elided__> : tensor<512xf32>
    %cst_846 = arith.constant dense_resource<__elided__> : tensor<512x128xf32>
    %cst_847 = arith.constant dense_resource<__elided__> : tensor<128xf32>
    %cst_848 = arith.constant dense_resource<__elided__> : tensor<128x512xf32>
    %cst_849 = arith.constant dense_resource<__elided__> : tensor<512xf32>
    %cst_850 = arith.constant dense_resource<__elided__> : tensor<512x128xf32>
    %cst_851 = arith.constant dense_resource<__elided__> : tensor<128xf32>
    %cst_852 = arith.constant dense_resource<__elided__> : tensor<128x512xf32>
    %cst_853 = arith.constant dense_resource<__elided__> : tensor<512xf32>
    %cst_854 = arith.constant dense_resource<__elided__> : tensor<512x128xf32>
    %cst_855 = arith.constant dense_resource<__elided__> : tensor<128xf32>
    %cst_856 = arith.constant dense_resource<__elided__> : tensor<128x512xf32>
    %cst_857 = arith.constant dense_resource<__elided__> : tensor<512xf32>
    %cst_858 = arith.constant dense_resource<__elided__> : tensor<512x128xf32>
    %cst_859 = arith.constant dense_resource<__elided__> : tensor<128xf32>
    %cst_860 = arith.constant dense_resource<__elided__> : tensor<128x512xf32>
    %cst_861 = arith.constant dense_resource<__elided__> : tensor<512xf32>
    %cst_862 = arith.constant dense_resource<__elided__> : tensor<512x128xf32>
    %cst_863 = arith.constant dense_resource<__elided__> : tensor<128xf32>
    %cst_864 = arith.constant dense_resource<__elided__> : tensor<128x128xf32>
    %cst_865 = arith.constant dense_resource<__elided__> : tensor<128xf32>
    %cst_866 = arith.constant dense_resource<__elided__> : tensor<128x128xf32>
    %cst_867 = arith.constant dense_resource<__elided__> : tensor<128xf32>
    %cst_868 = arith.constant dense_resource<__elided__> : tensor<128x128xf32>
    %cst_869 = arith.constant dense_resource<__elided__> : tensor<128xf32>
    %cst_870 = arith.constant dense_resource<__elided__> : tensor<128x128xf32>
    %cst_871 = arith.constant dense_resource<__elided__> : tensor<128xf32>
    %cst_872 = arith.constant dense_resource<__elided__> : tensor<128x512xf32>
    %cst_873 = arith.constant dense_resource<__elided__> : tensor<128xf32>
    %cst_874 = arith.constant dense_resource<__elided__> : tensor<128x512xf32>
    %cst_875 = arith.constant dense_resource<__elided__> : tensor<128xf32>
    %cst_876 = arith.constant dense_resource<__elided__> : tensor<128x512xf32>
    %cst_877 = arith.constant dense_resource<__elided__> : tensor<512xf32>
    %cst_878 = arith.constant dense_resource<__elided__> : tensor<512x128xf32>
    %cst_879 = arith.constant dense_resource<__elided__> : tensor<128xf32>
    %cst_880 = arith.constant dense_resource<__elided__> : tensor<128x512xf32>
    %cst_881 = arith.constant dense_resource<__elided__> : tensor<512xf32>
    %cst_882 = arith.constant dense_resource<__elided__> : tensor<512x128xf32>
    %cst_883 = arith.constant dense_resource<__elided__> : tensor<128xf32>
    %cst_884 = arith.constant dense_resource<__elided__> : tensor<128x512xf32>
    %cst_885 = arith.constant dense_resource<__elided__> : tensor<512xf32>
    %cst_886 = arith.constant dense_resource<__elided__> : tensor<512x128xf32>
    %cst_887 = arith.constant dense_resource<__elided__> : tensor<128xf32>
    %cst_888 = arith.constant dense_resource<__elided__> : tensor<128x512xf32>
    %cst_889 = arith.constant dense_resource<__elided__> : tensor<512xf32>
    %cst_890 = arith.constant dense_resource<__elided__> : tensor<512x128xf32>
    %cst_891 = arith.constant dense_resource<__elided__> : tensor<128xf32>
    %cst_892 = arith.constant dense_resource<__elided__> : tensor<128x512xf32>
    %cst_893 = arith.constant dense_resource<__elided__> : tensor<512xf32>
    %cst_894 = arith.constant dense_resource<__elided__> : tensor<512x128xf32>
    %cst_895 = arith.constant dense_resource<__elided__> : tensor<128xf32>
    %cst_896 = arith.constant dense_resource<__elided__> : tensor<128x128xf32>
    %cst_897 = arith.constant dense_resource<__elided__> : tensor<128xf32>
    %cst_898 = arith.constant dense_resource<__elided__> : tensor<128x128xf32>
    %cst_899 = arith.constant dense_resource<__elided__> : tensor<128xf32>
    %cst_900 = arith.constant dense_resource<__elided__> : tensor<128x128xf32>
    %cst_901 = arith.constant dense_resource<__elided__> : tensor<128xf32>
    %cst_902 = arith.constant dense_resource<__elided__> : tensor<128x128xf32>
    %cst_903 = arith.constant dense_resource<__elided__> : tensor<128xf32>
    %cst_904 = arith.constant dense_resource<__elided__> : tensor<128x512xf32>
    %cst_905 = arith.constant dense_resource<__elided__> : tensor<128xf32>
    %cst_906 = arith.constant dense_resource<__elided__> : tensor<128x512xf32>
    %cst_907 = arith.constant dense_resource<__elided__> : tensor<128xf32>
    %cst_908 = arith.constant dense_resource<__elided__> : tensor<128x512xf32>
    %cst_909 = arith.constant dense_resource<__elided__> : tensor<512xf32>
    %cst_910 = arith.constant dense_resource<__elided__> : tensor<512x128xf32>
    %cst_911 = arith.constant dense_resource<__elided__> : tensor<128xf32>
    %cst_912 = arith.constant dense_resource<__elided__> : tensor<128x512xf32>
    %cst_913 = arith.constant dense_resource<__elided__> : tensor<512xf32>
    %cst_914 = arith.constant dense_resource<__elided__> : tensor<512x128xf32>
    %cst_915 = arith.constant dense_resource<__elided__> : tensor<128xf32>
    %cst_916 = arith.constant dense_resource<__elided__> : tensor<128x512xf32>
    %cst_917 = arith.constant dense_resource<__elided__> : tensor<512xf32>
    %cst_918 = arith.constant dense_resource<__elided__> : tensor<512x128xf32>
    %cst_919 = arith.constant dense_resource<__elided__> : tensor<128xf32>
    %cst_920 = arith.constant dense_resource<__elided__> : tensor<128x512xf32>
    %cst_921 = arith.constant dense_resource<__elided__> : tensor<512xf32>
    %cst_922 = arith.constant dense_resource<__elided__> : tensor<512x128xf32>
    %cst_923 = arith.constant dense_resource<__elided__> : tensor<128xf32>
    %cst_924 = arith.constant dense_resource<__elided__> : tensor<128x512xf32>
    %cst_925 = arith.constant dense_resource<__elided__> : tensor<512xf32>
    %cst_926 = arith.constant dense_resource<__elided__> : tensor<512x128xf32>
    %cst_927 = arith.constant dense_resource<__elided__> : tensor<128xf32>
    %cst_928 = arith.constant dense_resource<__elided__> : tensor<128x128xf32>
    %cst_929 = arith.constant dense_resource<__elided__> : tensor<128xf32>
    %cst_930 = arith.constant dense_resource<__elided__> : tensor<128x128xf32>
    %cst_931 = arith.constant dense_resource<__elided__> : tensor<128xf32>
    %cst_932 = arith.constant dense_resource<__elided__> : tensor<128x128xf32>
    %cst_933 = arith.constant dense_resource<__elided__> : tensor<128xf32>
    %cst_934 = arith.constant dense_resource<__elided__> : tensor<128x128xf32>
    %cst_935 = arith.constant dense_resource<__elided__> : tensor<128xf32>
    %cst_936 = arith.constant dense_resource<__elided__> : tensor<128x512xf32>
    %cst_937 = arith.constant dense_resource<__elided__> : tensor<128xf32>
    %cst_938 = arith.constant dense_resource<__elided__> : tensor<128x512xf32>
    %cst_939 = arith.constant dense_resource<__elided__> : tensor<128xf32>
    %cst_940 = arith.constant dense_resource<__elided__> : tensor<128x512xf32>
    %cst_941 = arith.constant dense_resource<__elided__> : tensor<512xf32>
    %cst_942 = arith.constant dense_resource<__elided__> : tensor<512x128xf32>
    %cst_943 = arith.constant dense_resource<__elided__> : tensor<128xf32>
    %cst_944 = arith.constant dense_resource<__elided__> : tensor<128x512xf32>
    %cst_945 = arith.constant dense_resource<__elided__> : tensor<512xf32>
    %cst_946 = arith.constant dense_resource<__elided__> : tensor<512x128xf32>
    %cst_947 = arith.constant dense_resource<__elided__> : tensor<128xf32>
    %cst_948 = arith.constant dense_resource<__elided__> : tensor<128x512xf32>
    %cst_949 = arith.constant dense_resource<__elided__> : tensor<512xf32>
    %cst_950 = arith.constant dense_resource<__elided__> : tensor<512x128xf32>
    %cst_951 = arith.constant dense_resource<__elided__> : tensor<128xf32>
    %cst_952 = arith.constant dense_resource<__elided__> : tensor<128x512xf32>
    %cst_953 = arith.constant dense_resource<__elided__> : tensor<512xf32>
    %cst_954 = arith.constant dense_resource<__elided__> : tensor<512x128xf32>
    %cst_955 = arith.constant dense_resource<__elided__> : tensor<128xf32>
    %cst_956 = arith.constant dense_resource<__elided__> : tensor<128x512xf32>
    %cst_957 = arith.constant dense_resource<__elided__> : tensor<512xf32>
    %cst_958 = arith.constant dense_resource<__elided__> : tensor<512x128xf32>
    %cst_959 = arith.constant dense_resource<__elided__> : tensor<128xf32>
    %cst_960 = arith.constant dense_resource<__elided__> : tensor<128x128xf32>
    %cst_961 = arith.constant dense_resource<__elided__> : tensor<128xf32>
    %cst_962 = arith.constant dense_resource<__elided__> : tensor<128x128xf32>
    %cst_963 = arith.constant dense_resource<__elided__> : tensor<128xf32>
    %cst_964 = arith.constant dense_resource<__elided__> : tensor<128x128xf32>
    %cst_965 = arith.constant dense_resource<__elided__> : tensor<128xf32>
    %cst_966 = arith.constant dense_resource<__elided__> : tensor<128x128xf32>
    %cst_967 = arith.constant dense_resource<__elided__> : tensor<128xf32>
    %cst_968 = arith.constant dense_resource<__elided__> : tensor<128x512xf32>
    %cst_969 = arith.constant dense_resource<__elided__> : tensor<128xf32>
    %cst_970 = arith.constant dense_resource<__elided__> : tensor<128x512xf32>
    %cst_971 = arith.constant dense_resource<__elided__> : tensor<128xf32>
    %cst_972 = arith.constant dense_resource<__elided__> : tensor<128x512xf32>
    %cst_973 = arith.constant dense_resource<__elided__> : tensor<512xf32>
    %cst_974 = arith.constant dense_resource<__elided__> : tensor<512x128xf32>
    %cst_975 = arith.constant dense_resource<__elided__> : tensor<128xf32>
    %cst_976 = arith.constant dense_resource<__elided__> : tensor<128x512xf32>
    %cst_977 = arith.constant dense_resource<__elided__> : tensor<512xf32>
    %cst_978 = arith.constant dense_resource<__elided__> : tensor<512x128xf32>
    %cst_979 = arith.constant dense_resource<__elided__> : tensor<128xf32>
    %cst_980 = arith.constant dense_resource<__elided__> : tensor<128x512xf32>
    %cst_981 = arith.constant dense_resource<__elided__> : tensor<512xf32>
    %cst_982 = arith.constant dense_resource<__elided__> : tensor<512x128xf32>
    %cst_983 = arith.constant dense_resource<__elided__> : tensor<128xf32>
    %cst_984 = arith.constant dense_resource<__elided__> : tensor<128x512xf32>
    %cst_985 = arith.constant dense_resource<__elided__> : tensor<512xf32>
    %cst_986 = arith.constant dense_resource<__elided__> : tensor<512x128xf32>
    %cst_987 = arith.constant dense_resource<__elided__> : tensor<128xf32>
    %cst_988 = arith.constant dense_resource<__elided__> : tensor<128x512xf32>
    %cst_989 = arith.constant dense_resource<__elided__> : tensor<512xf32>
    %cst_990 = arith.constant dense_resource<__elided__> : tensor<512x128xf32>
    %cst_991 = arith.constant dense_resource<__elided__> : tensor<128xf32>
    %cst_992 = arith.constant dense_resource<__elided__> : tensor<128x128xf32>
    %cst_993 = arith.constant dense_resource<__elided__> : tensor<128xf32>
    %cst_994 = arith.constant dense_resource<__elided__> : tensor<128x128xf32>
    %cst_995 = arith.constant dense_resource<__elided__> : tensor<128xf32>
    %cst_996 = arith.constant dense_resource<__elided__> : tensor<128x128xf32>
    %cst_997 = arith.constant dense_resource<__elided__> : tensor<128xf32>
    %cst_998 = arith.constant dense_resource<__elided__> : tensor<128x128xf32>
    %cst_999 = arith.constant dense_resource<__elided__> : tensor<128xf32>
    %cst_1000 = arith.constant dense_resource<__elided__> : tensor<128x512xf32>
    %cst_1001 = arith.constant dense_resource<__elided__> : tensor<128xf32>
    %cst_1002 = arith.constant dense_resource<__elided__> : tensor<128x512xf32>
    %cst_1003 = arith.constant dense_resource<__elided__> : tensor<128xf32>
    %cst_1004 = arith.constant dense_resource<__elided__> : tensor<128x512xf32>
    %cst_1005 = arith.constant dense_resource<__elided__> : tensor<512xf32>
    %cst_1006 = arith.constant dense_resource<__elided__> : tensor<512x128xf32>
    %cst_1007 = arith.constant dense_resource<__elided__> : tensor<128xf32>
    %cst_1008 = arith.constant dense_resource<__elided__> : tensor<128x512xf32>
    %cst_1009 = arith.constant dense_resource<__elided__> : tensor<512xf32>
    %cst_1010 = arith.constant dense_resource<__elided__> : tensor<512x128xf32>
    %cst_1011 = arith.constant dense_resource<__elided__> : tensor<128xf32>
    %cst_1012 = arith.constant dense_resource<__elided__> : tensor<128x512xf32>
    %cst_1013 = arith.constant dense_resource<__elided__> : tensor<512xf32>
    %cst_1014 = arith.constant dense_resource<__elided__> : tensor<512x128xf32>
    %cst_1015 = arith.constant dense_resource<__elided__> : tensor<128xf32>
    %cst_1016 = arith.constant dense_resource<__elided__> : tensor<128x512xf32>
    %cst_1017 = arith.constant dense_resource<__elided__> : tensor<512xf32>
    %cst_1018 = arith.constant dense_resource<__elided__> : tensor<512x128xf32>
    %cst_1019 = arith.constant dense_resource<__elided__> : tensor<128xf32>
    %cst_1020 = arith.constant dense_resource<__elided__> : tensor<128x512xf32>
    %cst_1021 = arith.constant dense_resource<__elided__> : tensor<512xf32>
    %cst_1022 = arith.constant dense_resource<__elided__> : tensor<512x128xf32>
    %cst_1023 = arith.constant dense_resource<__elided__> : tensor<128xf32>
    %cst_1024 = arith.constant dense_resource<__elided__> : tensor<128x128xf32>
    %cst_1025 = arith.constant dense_resource<__elided__> : tensor<128xf32>
    %cst_1026 = arith.constant dense_resource<__elided__> : tensor<128x128xf32>
    %cst_1027 = arith.constant dense_resource<__elided__> : tensor<128xf32>
    %cst_1028 = arith.constant dense_resource<__elided__> : tensor<128x128xf32>
    %cst_1029 = arith.constant dense_resource<__elided__> : tensor<128xf32>
    %cst_1030 = arith.constant dense_resource<__elided__> : tensor<128x128xf32>
    %cst_1031 = arith.constant dense_resource<__elided__> : tensor<128xf32>
    %cst_1032 = arith.constant dense_resource<__elided__> : tensor<128x512xf32>
    %cst_1033 = arith.constant dense_resource<__elided__> : tensor<128xf32>
    %cst_1034 = arith.constant dense_resource<__elided__> : tensor<128x512xf32>
    %cst_1035 = arith.constant dense_resource<__elided__> : tensor<128xf32>
    %cst_1036 = arith.constant dense_resource<__elided__> : tensor<128x512xf32>
    %cst_1037 = arith.constant dense_resource<__elided__> : tensor<512xf32>
    %cst_1038 = arith.constant dense_resource<__elided__> : tensor<512x128xf32>
    %cst_1039 = arith.constant dense_resource<__elided__> : tensor<128xf32>
    %cst_1040 = arith.constant dense_resource<__elided__> : tensor<128x512xf32>
    %cst_1041 = arith.constant dense_resource<__elided__> : tensor<512xf32>
    %cst_1042 = arith.constant dense_resource<__elided__> : tensor<512x128xf32>
    %cst_1043 = arith.constant dense_resource<__elided__> : tensor<128xf32>
    %cst_1044 = arith.constant dense_resource<__elided__> : tensor<128x512xf32>
    %cst_1045 = arith.constant dense_resource<__elided__> : tensor<512xf32>
    %cst_1046 = arith.constant dense_resource<__elided__> : tensor<512x128xf32>
    %cst_1047 = arith.constant dense_resource<__elided__> : tensor<128xf32>
    %cst_1048 = arith.constant dense_resource<__elided__> : tensor<128x512xf32>
    %cst_1049 = arith.constant dense_resource<__elided__> : tensor<512xf32>
    %cst_1050 = arith.constant dense_resource<__elided__> : tensor<512x128xf32>
    %cst_1051 = arith.constant dense_resource<__elided__> : tensor<128xf32>
    %cst_1052 = arith.constant dense_resource<__elided__> : tensor<128x512xf32>
    %cst_1053 = arith.constant dense_resource<__elided__> : tensor<512xf32>
    %cst_1054 = arith.constant dense_resource<__elided__> : tensor<512x128xf32>
    %cst_1055 = arith.constant dense_resource<__elided__> : tensor<128xf32>
    %cst_1056 = arith.constant dense_resource<__elided__> : tensor<128x128xf32>
    %cst_1057 = arith.constant dense_resource<__elided__> : tensor<3xi32>
    %cst_1058 = arith.constant dense_resource<__elided__> : tensor<3xi32>
    %cst_1059 = arith.constant dense_resource<__elided__> : tensor<4xi32>
    %cst_1060 = arith.constant dense_resource<__elided__> : tensor<128xf32>
    %cst_1061 = arith.constant dense_resource<__elided__> : tensor<128x128xf32>
    %cst_1062 = arith.constant dense_resource<__elided__> : tensor<128xf32>
    %cst_1063 = arith.constant dense_resource<__elided__> : tensor<128x128xf32>
    %cst_1064 = arith.constant dense_resource<__elided__> : tensor<128xf32>
    %cst_1065 = arith.constant dense_resource<__elided__> : tensor<128x128xf32>
    %cst_1066 = arith.constant dense_resource<__elided__> : tensor<128xf32>
    %cst_1067 = arith.constant dense_resource<__elided__> : tensor<128x512xf32>
    %cst_1068 = arith.constant dense_resource<__elided__> : tensor<128xf32>
    %cst_1069 = arith.constant dense_resource<__elided__> : tensor<128x512xf32>
    %cst_1070 = arith.constant dense_resource<__elided__> : tensor<128xf32>
    %cst_1071 = arith.constant dense_resource<__elided__> : tensor<128x512xf32>
    %cst_1072 = arith.constant dense_resource<__elided__> : tensor<512xf32>
    %cst_1073 = arith.constant dense_resource<__elided__> : tensor<512x384xf32>
    %cst_1074 = arith.constant dense_resource<__elided__> : tensor<3x2xi32>
    %cst_1075 = arith.constant dense_resource<__elided__> : tensor<3x2xi32>
    %cst_1076 = arith.constant dense_resource<__elided__> : tensor<1x384x512xf32>
    %cst_1077 = arith.constant dense<1.000000e+00> : tensor<1x384x1xf32>
    %0 = tensor.empty() : tensor<1x384xf32>
    %1 = linalg.generic {indexing_maps = [#map, #map1], iterator_types = ["parallel", "parallel"]} ins(%arg1 : tensor<1x384xi32>) outs(%0 : tensor<1x384xf32>) {
    ^bb0(%in: i32, %out: f32):
      %4110 = arith.sitofp %in : i32 to f32
      linalg.yield %4110 : f32
    } -> tensor<1x384xf32>
    %2 = tensor.empty() : tensor<1x384x512xf32>
    %3 = linalg.generic {indexing_maps = [#map2, #map3], iterator_types = ["parallel", "parallel", "parallel"]} ins(%arg2 : tensor<1x384xi32>) outs(%2 : tensor<1x384x512xf32>) {
    ^bb0(%in: i32, %out: f32):
      %4110 = linalg.index 0 : index
      %4111 = arith.index_cast %in : i32 to index
      %4112 = linalg.index 2 : index
      %extracted = tensor.extract %cst_297[%4110, %4111, %4112] : tensor<1x2x512xf32>
      linalg.yield %extracted : f32
    } -> tensor<1x384x512xf32>
    %expanded = tensor.expand_shape %1 [[0, 1], [2]] : tensor<1x384xf32> into tensor<1x1x384xf32>
    %4 = tensor.empty() : tensor<1x384x128xf32>
    %5 = linalg.generic {indexing_maps = [#map2, #map3], iterator_types = ["parallel", "parallel", "parallel"]} ins(%arg0 : tensor<1x384xi32>) outs(%4 : tensor<1x384x128xf32>) {
    ^bb0(%in: i32, %out: f32):
      %4110 = linalg.index 0 : index
      %4111 = arith.index_cast %in : i32 to index
      %4112 = linalg.index 2 : index
      %extracted = tensor.extract %cst_296[%4110, %4111, %4112] : tensor<1x30522x128xf32>
      linalg.yield %extracted : f32
    } -> tensor<1x384x128xf32>
    %6 = tensor.empty() : tensor<1x384x384xf32>
    %7 = linalg.generic {indexing_maps = [#map4, #map5, #map3], iterator_types = ["parallel", "parallel", "parallel"]} ins(%expanded, %cst_1077 : tensor<1x1x384xf32>, tensor<1x384x1xf32>) outs(%6 : tensor<1x384x384xf32>) {
    ^bb0(%in: f32, %in_4773: f32, %out: f32):
      %4110 = arith.mulf %in, %in_4773 : f32
      linalg.yield %4110 : f32
    } -> tensor<1x384x384xf32>
    %8 = tensor.empty() : tensor<1x384x512xf32>
    %9 = linalg.generic {indexing_maps = [#map6, #map6, #map3], iterator_types = ["parallel", "parallel", "parallel"]} ins(%3, %cst_1076 : tensor<1x384x512xf32>, tensor<1x384x512xf32>) outs(%8 : tensor<1x384x512xf32>) {
    ^bb0(%in: f32, %in_4773: f32, %out: f32):
      %4110 = arith.addf %in, %in_4773 : f32
      linalg.yield %4110 : f32
    } -> tensor<1x384x512xf32>
    %10 = tensor.empty() : tensor<1x384x384xf32>
    %11 = linalg.generic {indexing_maps = [#map7, #map6, #map3], iterator_types = ["parallel", "parallel", "parallel"]} ins(%cst_293, %7 : tensor<1x1x1xf32>, tensor<1x384x384xf32>) outs(%10 : tensor<1x384x384xf32>) {
    ^bb0(%in: f32, %in_4773: f32, %out: f32):
      %4110 = arith.subf %in, %in_4773 : f32
      linalg.yield %4110 : f32
    } -> tensor<1x384x384xf32>
    %12 = tensor.empty() : tensor<1x384x384xf32>
    %13 = linalg.generic {indexing_maps = [#map6, #map7, #map3], iterator_types = ["parallel", "parallel", "parallel"]} ins(%11, %cst_292 : tensor<1x384x384xf32>, tensor<1x1x1xf32>) outs(%12 : tensor<1x384x384xf32>) {
    ^bb0(%in: f32, %in_4773: f32, %out: f32):
      %4110 = arith.mulf %in, %in_4773 : f32
      linalg.yield %4110 : f32
    } -> tensor<1x384x384xf32>
    %extracted_slice = tensor.extract_slice %5[0, 1, 0] [1, 383, 128] [1, 1, 1] : tensor<1x384x128xf32> to tensor<1x383x128xf32>
    %extracted_slice_1078 = tensor.extract_slice %5[0, 0, 0] [1, 383, 128] [1, 1, 1] : tensor<1x384x128xf32> to tensor<1x383x128xf32>
    %expanded_1079 = tensor.expand_shape %13 [[0, 1], [2], [3]] : tensor<1x384x384xf32> into tensor<1x1x384x384xf32>
    %cst_1080 = arith.constant 0.000000e+00 : f32
    %c0 = arith.constant 0 : index
    %c1 = arith.constant 1 : index
    %c0_1081 = arith.constant 0 : index
    %c0_i32 = arith.constant 0 : i32
    %c0_i32_1082 = arith.constant 0 : i32
    %c0_1083 = arith.constant 0 : index
    %c0_1084 = arith.constant 0 : index
    %c1_1085 = arith.constant 1 : index
    %c0_i32_1086 = arith.constant 0 : i32
    %c1_i32 = arith.constant 1 : i32
    %c0_1087 = arith.constant 0 : index
    %c1_1088 = arith.constant 1 : index
    %c2 = arith.constant 2 : index
    %c0_i32_1089 = arith.constant 0 : i32
    %c0_i32_1090 = arith.constant 0 : i32
    %c0_1091 = arith.constant 0 : index
    %c0_1092 = arith.constant 0 : index
    %padded = tensor.pad %extracted_slice low[%c0_1083, %c0_1087, %c0_1091] high[%c0_1084, %c1_1088, %c0_1092] {
    ^bb0(%arg3: index, %arg4: index, %arg5: index):
      tensor.yield %cst_1080 : f32
    } : tensor<1x383x128xf32> to tensor<1x384x128xf32>
    %cst_1093 = arith.constant 0.000000e+00 : f32
    %c0_1094 = arith.constant 0 : index
    %c1_1095 = arith.constant 1 : index
    %c0_1096 = arith.constant 0 : index
    %c0_i32_1097 = arith.constant 0 : i32
    %c0_i32_1098 = arith.constant 0 : i32
    %c0_1099 = arith.constant 0 : index
    %c0_1100 = arith.constant 0 : index
    %c1_1101 = arith.constant 1 : index
    %c1_i32_1102 = arith.constant 1 : i32
    %c0_i32_1103 = arith.constant 0 : i32
    %c1_1104 = arith.constant 1 : index
    %c0_1105 = arith.constant 0 : index
    %c2_1106 = arith.constant 2 : index
    %c0_i32_1107 = arith.constant 0 : i32
    %c0_i32_1108 = arith.constant 0 : i32
    %c0_1109 = arith.constant 0 : index
    %c0_1110 = arith.constant 0 : index
    %padded_1111 = tensor.pad %extracted_slice_1078 low[%c0_1099, %c1_1104, %c0_1109] high[%c0_1100, %c0_1105, %c0_1110] {
    ^bb0(%arg3: index, %arg4: index, %arg5: index):
      tensor.yield %cst_1093 : f32
    } : tensor<1x383x128xf32> to tensor<1x384x128xf32>
    %c2_1112 = arith.constant 2 : index
    %c128 = arith.constant 128 : index
    %c128_1113 = arith.constant 128 : index
    %c256 = arith.constant 256 : index
    %c128_1114 = arith.constant 128 : index
    %c256_1115 = arith.constant 256 : index
    %c384 = arith.constant 384 : index
    %14 = tensor.empty() : tensor<1x384x384xf32>
    %inserted_slice = tensor.insert_slice %padded into %14[0, 0, 0] [1, 384, 128] [1, 1, 1] : tensor<1x384x128xf32> into tensor<1x384x384xf32>
    %inserted_slice_1116 = tensor.insert_slice %5 into %inserted_slice[0, 0, 128] [1, 384, 128] [1, 1, 1] : tensor<1x384x128xf32> into tensor<1x384x384xf32>
    %inserted_slice_1117 = tensor.insert_slice %padded_1111 into %inserted_slice_1116[0, 0, 256] [1, 384, 128] [1, 1, 1] : tensor<1x384x128xf32> into tensor<1x384x384xf32>
    %collapsed = tensor.collapse_shape %inserted_slice_1117 [[0, 1], [2]] : tensor<1x384x384xf32> into tensor<384x384xf32>
    %cst_1118 = arith.constant dense_resource<__elided__> : tensor<2xi64>
    %15 = tensor.empty() : tensor<384x512xf32>
    %transposed = linalg.transpose ins(%cst_1073 : tensor<512x384xf32>) outs(%15 : tensor<384x512xf32>) permutation = [1, 0] 
    %16 = tensor.empty() : tensor<384x512xf32>
    %17 = linalg.generic {indexing_maps = [#map8, #map1], iterator_types = ["parallel", "parallel"]} ins(%cst_1072 : tensor<512xf32>) outs(%16 : tensor<384x512xf32>) {
    ^bb0(%in: f32, %out: f32):
      linalg.yield %in : f32
    } -> tensor<384x512xf32>
    %18 = linalg.matmul ins(%collapsed, %transposed : tensor<384x384xf32>, tensor<384x512xf32>) outs(%17 : tensor<384x512xf32>) -> tensor<384x512xf32>
    %expanded_1119 = tensor.expand_shape %18 [[0, 1], [2]] : tensor<384x512xf32> into tensor<1x384x512xf32>
    %19 = tensor.empty() : tensor<1x384x512xf32>
    %20 = linalg.generic {indexing_maps = [#map6, #map6, #map3], iterator_types = ["parallel", "parallel", "parallel"]} ins(%expanded_1119, %9 : tensor<1x384x512xf32>, tensor<1x384x512xf32>) outs(%19 : tensor<1x384x512xf32>) {
    ^bb0(%in: f32, %in_4773: f32, %out: f32):
      %4110 = arith.addf %in, %in_4773 : f32
      linalg.yield %4110 : f32
    } -> tensor<1x384x512xf32>
    %21 = tensor.empty() : tensor<1x384x512xf32>
    %22 = linalg.generic {indexing_maps = [#map6, #map4, #map3], iterator_types = ["parallel", "parallel", "parallel"]} ins(%20, %cst_291 : tensor<1x384x512xf32>, tensor<1x1x512xf32>) outs(%21 : tensor<1x384x512xf32>) {
    ^bb0(%in: f32, %in_4773: f32, %out: f32):
      %4110 = arith.mulf %in, %in_4773 : f32
      linalg.yield %4110 : f32
    } -> tensor<1x384x512xf32>
    %23 = tensor.empty() : tensor<1x384x512xf32>
    %24 = linalg.generic {indexing_maps = [#map6, #map4, #map3], iterator_types = ["parallel", "parallel", "parallel"]} ins(%22, %cst_290 : tensor<1x384x512xf32>, tensor<1x1x512xf32>) outs(%23 : tensor<1x384x512xf32>) {
    ^bb0(%in: f32, %in_4773: f32, %out: f32):
      %4110 = arith.addf %in, %in_4773 : f32
      linalg.yield %4110 : f32
    } -> tensor<1x384x512xf32>
    %collapsed_1120 = tensor.collapse_shape %24 [[0, 1], [2]] : tensor<1x384x512xf32> into tensor<384x512xf32>
    %cst_1121 = arith.constant dense_resource<__elided__> : tensor<2xi64>
    %25 = tensor.empty() : tensor<512x128xf32>
    %transposed_1122 = linalg.transpose ins(%cst_1071 : tensor<128x512xf32>) outs(%25 : tensor<512x128xf32>) permutation = [1, 0] 
    %26 = tensor.empty() : tensor<384x128xf32>
    %27 = linalg.generic {indexing_maps = [#map8, #map1], iterator_types = ["parallel", "parallel"]} ins(%cst_1070 : tensor<128xf32>) outs(%26 : tensor<384x128xf32>) {
    ^bb0(%in: f32, %out: f32):
      linalg.yield %in : f32
    } -> tensor<384x128xf32>
    %28 = linalg.matmul ins(%collapsed_1120, %transposed_1122 : tensor<384x512xf32>, tensor<512x128xf32>) outs(%27 : tensor<384x128xf32>) -> tensor<384x128xf32>
    %collapsed_1123 = tensor.collapse_shape %24 [[0, 1], [2]] : tensor<1x384x512xf32> into tensor<384x512xf32>
    %cst_1124 = arith.constant dense_resource<__elided__> : tensor<2xi64>
    %29 = tensor.empty() : tensor<512x128xf32>
    %transposed_1125 = linalg.transpose ins(%cst_1069 : tensor<128x512xf32>) outs(%29 : tensor<512x128xf32>) permutation = [1, 0] 
    %30 = tensor.empty() : tensor<384x128xf32>
    %31 = linalg.generic {indexing_maps = [#map8, #map1], iterator_types = ["parallel", "parallel"]} ins(%cst_1068 : tensor<128xf32>) outs(%30 : tensor<384x128xf32>) {
    ^bb0(%in: f32, %out: f32):
      linalg.yield %in : f32
    } -> tensor<384x128xf32>
    %32 = linalg.matmul ins(%collapsed_1123, %transposed_1125 : tensor<384x512xf32>, tensor<512x128xf32>) outs(%31 : tensor<384x128xf32>) -> tensor<384x128xf32>
    %collapsed_1126 = tensor.collapse_shape %24 [[0, 1], [2]] : tensor<1x384x512xf32> into tensor<384x512xf32>
    %cst_1127 = arith.constant dense_resource<__elided__> : tensor<2xi64>
    %33 = tensor.empty() : tensor<512x128xf32>
    %transposed_1128 = linalg.transpose ins(%cst_1067 : tensor<128x512xf32>) outs(%33 : tensor<512x128xf32>) permutation = [1, 0] 
    %34 = tensor.empty() : tensor<384x128xf32>
    %35 = linalg.generic {indexing_maps = [#map8, #map1], iterator_types = ["parallel", "parallel"]} ins(%cst_1066 : tensor<128xf32>) outs(%34 : tensor<384x128xf32>) {
    ^bb0(%in: f32, %out: f32):
      linalg.yield %in : f32
    } -> tensor<384x128xf32>
    %36 = linalg.matmul ins(%collapsed_1126, %transposed_1128 : tensor<384x512xf32>, tensor<512x128xf32>) outs(%35 : tensor<384x128xf32>) -> tensor<384x128xf32>
    %expanded_1129 = tensor.expand_shape %28 [[0, 1], [2]] : tensor<384x128xf32> into tensor<1x384x128xf32>
    %cst_1130 = arith.constant dense_resource<__elided__> : tensor<2xi64>
    %37 = tensor.empty() : tensor<128x128xf32>
    %transposed_1131 = linalg.transpose ins(%cst_1065 : tensor<128x128xf32>) outs(%37 : tensor<128x128xf32>) permutation = [1, 0] 
    %38 = tensor.empty() : tensor<384x128xf32>
    %39 = linalg.generic {indexing_maps = [#map8, #map1], iterator_types = ["parallel", "parallel"]} ins(%cst_1064 : tensor<128xf32>) outs(%38 : tensor<384x128xf32>) {
    ^bb0(%in: f32, %out: f32):
      linalg.yield %in : f32
    } -> tensor<384x128xf32>
    %40 = linalg.matmul ins(%32, %transposed_1131 : tensor<384x128xf32>, tensor<128x128xf32>) outs(%39 : tensor<384x128xf32>) -> tensor<384x128xf32>
    %cst_1132 = arith.constant dense_resource<__elided__> : tensor<2xi64>
    %41 = tensor.empty() : tensor<128x128xf32>
    %transposed_1133 = linalg.transpose ins(%cst_1063 : tensor<128x128xf32>) outs(%41 : tensor<128x128xf32>) permutation = [1, 0] 
    %42 = tensor.empty() : tensor<384x128xf32>
    %43 = linalg.generic {indexing_maps = [#map8, #map1], iterator_types = ["parallel", "parallel"]} ins(%cst_1062 : tensor<128xf32>) outs(%42 : tensor<384x128xf32>) {
    ^bb0(%in: f32, %out: f32):
      linalg.yield %in : f32
    } -> tensor<384x128xf32>
    %44 = linalg.matmul ins(%32, %transposed_1133 : tensor<384x128xf32>, tensor<128x128xf32>) outs(%43 : tensor<384x128xf32>) -> tensor<384x128xf32>
    %cst_1134 = arith.constant dense_resource<__elided__> : tensor<2xi64>
    %45 = tensor.empty() : tensor<128x128xf32>
    %transposed_1135 = linalg.transpose ins(%cst_1061 : tensor<128x128xf32>) outs(%45 : tensor<128x128xf32>) permutation = [1, 0] 
    %46 = tensor.empty() : tensor<384x128xf32>
    %47 = linalg.generic {indexing_maps = [#map8, #map1], iterator_types = ["parallel", "parallel"]} ins(%cst_1060 : tensor<128xf32>) outs(%46 : tensor<384x128xf32>) {
    ^bb0(%in: f32, %out: f32):
      linalg.yield %in : f32
    } -> tensor<384x128xf32>
    %48 = linalg.matmul ins(%36, %transposed_1135 : tensor<384x128xf32>, tensor<128x128xf32>) outs(%47 : tensor<384x128xf32>) -> tensor<384x128xf32>
    %expanded_1136 = tensor.expand_shape %40 [[0, 1], [2, 3]] : tensor<384x128xf32> into tensor<1x384x4x32xf32>
    %expanded_1137 = tensor.expand_shape %44 [[0, 1], [2, 3]] : tensor<384x128xf32> into tensor<1x384x4x32xf32>
    %expanded_1138 = tensor.expand_shape %48 [[0, 1], [2, 3]] : tensor<384x128xf32> into tensor<1x384x4x32xf32>
    %49 = tensor.empty() : tensor<1x4x384x32xf32>
    %transposed_1139 = linalg.transpose ins(%expanded_1136 : tensor<1x384x4x32xf32>) outs(%49 : tensor<1x4x384x32xf32>) permutation = [0, 2, 1, 3] 
    %50 = tensor.empty() : tensor<1x4x384x32xf32>
    %transposed_1140 = linalg.transpose ins(%expanded_1138 : tensor<1x384x4x32xf32>) outs(%50 : tensor<1x4x384x32xf32>) permutation = [0, 2, 1, 3] 
    %51 = tensor.empty() : tensor<1x4x32x384xf32>
    %transposed_1141 = linalg.transpose ins(%expanded_1137 : tensor<1x384x4x32xf32>) outs(%51 : tensor<1x4x32x384xf32>) permutation = [0, 2, 3, 1] 
    %collapsed_1142 = tensor.collapse_shape %transposed_1139 [[0, 1], [2], [3]] : tensor<1x4x384x32xf32> into tensor<4x384x32xf32>
    %extracted_slice_1143 = tensor.extract_slice %collapsed_1142[0, 0, 0] [1, 384, 32] [1, 1, 1] : tensor<4x384x32xf32> to tensor<1x384x32xf32>
    %extracted_slice_1144 = tensor.extract_slice %collapsed_1142[1, 0, 0] [1, 384, 32] [1, 1, 1] : tensor<4x384x32xf32> to tensor<1x384x32xf32>
    %extracted_slice_1145 = tensor.extract_slice %collapsed_1142[2, 0, 0] [1, 384, 32] [1, 1, 1] : tensor<4x384x32xf32> to tensor<1x384x32xf32>
    %extracted_slice_1146 = tensor.extract_slice %collapsed_1142[3, 0, 0] [1, 384, 32] [1, 1, 1] : tensor<4x384x32xf32> to tensor<1x384x32xf32>
    %collapsed_1147 = tensor.collapse_shape %transposed_1141 [[0, 1], [2], [3]] : tensor<1x4x32x384xf32> into tensor<4x32x384xf32>
    %extracted_slice_1148 = tensor.extract_slice %collapsed_1147[0, 0, 0] [1, 32, 384] [1, 1, 1] : tensor<4x32x384xf32> to tensor<1x32x384xf32>
    %52 = tensor.empty() : tensor<384x32x1xf32>
    %transposed_1149 = linalg.transpose ins(%extracted_slice_1148 : tensor<1x32x384xf32>) outs(%52 : tensor<384x32x1xf32>) permutation = [2, 1, 0] 
    %extracted_slice_1150 = tensor.extract_slice %collapsed_1147[1, 0, 0] [1, 32, 384] [1, 1, 1] : tensor<4x32x384xf32> to tensor<1x32x384xf32>
    %53 = tensor.empty() : tensor<384x32x1xf32>
    %transposed_1151 = linalg.transpose ins(%extracted_slice_1150 : tensor<1x32x384xf32>) outs(%53 : tensor<384x32x1xf32>) permutation = [2, 1, 0] 
    %extracted_slice_1152 = tensor.extract_slice %collapsed_1147[2, 0, 0] [1, 32, 384] [1, 1, 1] : tensor<4x32x384xf32> to tensor<1x32x384xf32>
    %54 = tensor.empty() : tensor<384x32x1xf32>
    %transposed_1153 = linalg.transpose ins(%extracted_slice_1152 : tensor<1x32x384xf32>) outs(%54 : tensor<384x32x1xf32>) permutation = [2, 1, 0] 
    %extracted_slice_1154 = tensor.extract_slice %collapsed_1147[3, 0, 0] [1, 32, 384] [1, 1, 1] : tensor<4x32x384xf32> to tensor<1x32x384xf32>
    %55 = tensor.empty() : tensor<384x32x1xf32>
    %transposed_1155 = linalg.transpose ins(%extracted_slice_1154 : tensor<1x32x384xf32>) outs(%55 : tensor<384x32x1xf32>) permutation = [2, 1, 0] 
    %collapsed_1156 = tensor.collapse_shape %transposed_1149 [[0], [1, 2]] : tensor<384x32x1xf32> into tensor<384x32xf32>
    %collapsed_1157 = tensor.collapse_shape %extracted_slice_1143 [[0, 1], [2]] : tensor<1x384x32xf32> into tensor<384x32xf32>
    %cst_1158 = arith.constant dense_resource<__elided__> : tensor<2xi64>
    %56 = tensor.empty() : tensor<32x384xf32>
    %transposed_1159 = linalg.transpose ins(%collapsed_1156 : tensor<384x32xf32>) outs(%56 : tensor<32x384xf32>) permutation = [1, 0] 
    %57 = tensor.empty() : tensor<384x384xf32>
    %58 = linalg.generic {indexing_maps = [#map8, #map1], iterator_types = ["parallel", "parallel"]} ins(%cst_295 : tensor<384xf32>) outs(%57 : tensor<384x384xf32>) {
    ^bb0(%in: f32, %out: f32):
      linalg.yield %in : f32
    } -> tensor<384x384xf32>
    %59 = linalg.matmul ins(%collapsed_1157, %transposed_1159 : tensor<384x32xf32>, tensor<32x384xf32>) outs(%58 : tensor<384x384xf32>) -> tensor<384x384xf32>
    %collapsed_1160 = tensor.collapse_shape %transposed_1151 [[0], [1, 2]] : tensor<384x32x1xf32> into tensor<384x32xf32>
    %collapsed_1161 = tensor.collapse_shape %extracted_slice_1144 [[0, 1], [2]] : tensor<1x384x32xf32> into tensor<384x32xf32>
    %cst_1162 = arith.constant dense_resource<__elided__> : tensor<2xi64>
    %60 = tensor.empty() : tensor<32x384xf32>
    %transposed_1163 = linalg.transpose ins(%collapsed_1160 : tensor<384x32xf32>) outs(%60 : tensor<32x384xf32>) permutation = [1, 0] 
    %61 = tensor.empty() : tensor<384x384xf32>
    %62 = linalg.generic {indexing_maps = [#map8, #map1], iterator_types = ["parallel", "parallel"]} ins(%cst_295 : tensor<384xf32>) outs(%61 : tensor<384x384xf32>) {
    ^bb0(%in: f32, %out: f32):
      linalg.yield %in : f32
    } -> tensor<384x384xf32>
    %63 = linalg.matmul ins(%collapsed_1161, %transposed_1163 : tensor<384x32xf32>, tensor<32x384xf32>) outs(%62 : tensor<384x384xf32>) -> tensor<384x384xf32>
    %collapsed_1164 = tensor.collapse_shape %transposed_1153 [[0], [1, 2]] : tensor<384x32x1xf32> into tensor<384x32xf32>
    %collapsed_1165 = tensor.collapse_shape %extracted_slice_1145 [[0, 1], [2]] : tensor<1x384x32xf32> into tensor<384x32xf32>
    %cst_1166 = arith.constant dense_resource<__elided__> : tensor<2xi64>
    %64 = tensor.empty() : tensor<32x384xf32>
    %transposed_1167 = linalg.transpose ins(%collapsed_1164 : tensor<384x32xf32>) outs(%64 : tensor<32x384xf32>) permutation = [1, 0] 
    %65 = tensor.empty() : tensor<384x384xf32>
    %66 = linalg.generic {indexing_maps = [#map8, #map1], iterator_types = ["parallel", "parallel"]} ins(%cst_295 : tensor<384xf32>) outs(%65 : tensor<384x384xf32>) {
    ^bb0(%in: f32, %out: f32):
      linalg.yield %in : f32
    } -> tensor<384x384xf32>
    %67 = linalg.matmul ins(%collapsed_1165, %transposed_1167 : tensor<384x32xf32>, tensor<32x384xf32>) outs(%66 : tensor<384x384xf32>) -> tensor<384x384xf32>
    %collapsed_1168 = tensor.collapse_shape %transposed_1155 [[0], [1, 2]] : tensor<384x32x1xf32> into tensor<384x32xf32>
    %collapsed_1169 = tensor.collapse_shape %extracted_slice_1146 [[0, 1], [2]] : tensor<1x384x32xf32> into tensor<384x32xf32>
    %cst_1170 = arith.constant dense_resource<__elided__> : tensor<2xi64>
    %68 = tensor.empty() : tensor<32x384xf32>
    %transposed_1171 = linalg.transpose ins(%collapsed_1168 : tensor<384x32xf32>) outs(%68 : tensor<32x384xf32>) permutation = [1, 0] 
    %69 = tensor.empty() : tensor<384x384xf32>
    %70 = linalg.generic {indexing_maps = [#map8, #map1], iterator_types = ["parallel", "parallel"]} ins(%cst_295 : tensor<384xf32>) outs(%69 : tensor<384x384xf32>) {
    ^bb0(%in: f32, %out: f32):
      linalg.yield %in : f32
    } -> tensor<384x384xf32>
    %71 = linalg.matmul ins(%collapsed_1169, %transposed_1171 : tensor<384x32xf32>, tensor<32x384xf32>) outs(%70 : tensor<384x384xf32>) -> tensor<384x384xf32>
    %c0_1172 = arith.constant 0 : index
    %c384_1173 = arith.constant 384 : index
    %c384_1174 = arith.constant 384 : index
    %c768 = arith.constant 768 : index
    %c384_1175 = arith.constant 384 : index
    %c768_1176 = arith.constant 768 : index
    %c1152 = arith.constant 1152 : index
    %c384_1177 = arith.constant 384 : index
    %c1152_1178 = arith.constant 1152 : index
    %c1536 = arith.constant 1536 : index
    %72 = tensor.empty() : tensor<1536x384xf32>
    %inserted_slice_1179 = tensor.insert_slice %59 into %72[0, 0] [384, 384] [1, 1] : tensor<384x384xf32> into tensor<1536x384xf32>
    %inserted_slice_1180 = tensor.insert_slice %63 into %inserted_slice_1179[384, 0] [384, 384] [1, 1] : tensor<384x384xf32> into tensor<1536x384xf32>
    %inserted_slice_1181 = tensor.insert_slice %67 into %inserted_slice_1180[768, 0] [384, 384] [1, 1] : tensor<384x384xf32> into tensor<1536x384xf32>
    %inserted_slice_1182 = tensor.insert_slice %71 into %inserted_slice_1181[1152, 0] [384, 384] [1, 1] : tensor<384x384xf32> into tensor<1536x384xf32>
    %expanded_1183 = tensor.expand_shape %inserted_slice_1182 [[0, 1], [2]] : tensor<1536x384xf32> into tensor<4x384x384xf32>
    %73 = tensor.empty() : tensor<4x384x384xf32>
    %74 = linalg.generic {indexing_maps = [#map3, #map7, #map3], iterator_types = ["parallel", "parallel", "parallel"]} ins(%expanded_1183, %cst_289 : tensor<4x384x384xf32>, tensor<1x1x1xf32>) outs(%73 : tensor<4x384x384xf32>) {
    ^bb0(%in: f32, %in_4773: f32, %out: f32):
      %4110 = arith.mulf %in, %in_4773 : f32
      linalg.yield %4110 : f32
    } -> tensor<4x384x384xf32>
    %expanded_1184 = tensor.expand_shape %74 [[0, 1], [2], [3]] : tensor<4x384x384xf32> into tensor<1x4x384x384xf32>
    %75 = tensor.empty() : tensor<1x4x384x384xf32>
    %76 = linalg.generic {indexing_maps = [#map9, #map10, #map11], iterator_types = ["parallel", "parallel", "parallel", "parallel"]} ins(%expanded_1184, %expanded_1079 : tensor<1x4x384x384xf32>, tensor<1x1x384x384xf32>) outs(%75 : tensor<1x4x384x384xf32>) {
    ^bb0(%in: f32, %in_4773: f32, %out: f32):
      %4110 = arith.addf %in, %in_4773 : f32
      linalg.yield %4110 : f32
    } -> tensor<1x4x384x384xf32>
    %77 = tensor.empty() : tensor<1x4x384xf32>
    %cst_1185 = arith.constant -3.40282347E+38 : f32
    %78 = linalg.fill ins(%cst_1185 : f32) outs(%77 : tensor<1x4x384xf32>) -> tensor<1x4x384xf32>
    %reduced = linalg.reduce ins(%76 : tensor<1x4x384x384xf32>) outs(%78 : tensor<1x4x384xf32>) dimensions = [3] 
      (%in: f32, %init: f32) {
        %4110 = arith.maximumf %in, %init : f32
        linalg.yield %4110 : f32
      }
    %expanded_1186 = tensor.expand_shape %reduced [[0], [1], [2, 3]] : tensor<1x4x384xf32> into tensor<1x4x384x1xf32>
    %79 = tensor.empty() : tensor<1x4x384x384xf32>
    %80 = linalg.generic {indexing_maps = [#map9, #map12, #map11], iterator_types = ["parallel", "parallel", "parallel", "parallel"]} ins(%76, %expanded_1186 : tensor<1x4x384x384xf32>, tensor<1x4x384x1xf32>) outs(%79 : tensor<1x4x384x384xf32>) {
    ^bb0(%in: f32, %in_4773: f32, %out: f32):
      %4110 = arith.subf %in, %in_4773 : f32
      linalg.yield %4110 : f32
    } -> tensor<1x4x384x384xf32>
    %81 = tensor.empty() : tensor<1x4x384x384xf32>
    %82 = linalg.generic {indexing_maps = [#map9, #map11], iterator_types = ["parallel", "parallel", "parallel", "parallel"]} ins(%80 : tensor<1x4x384x384xf32>) outs(%81 : tensor<1x4x384x384xf32>) {
    ^bb0(%in: f32, %out: f32):
      %4110 = math.exp %in : f32
      linalg.yield %4110 : f32
    } -> tensor<1x4x384x384xf32>
    %83 = tensor.empty() : tensor<1x4x384xf32>
    %cst_1187 = arith.constant 0.000000e+00 : f32
    %84 = linalg.fill ins(%cst_1187 : f32) outs(%83 : tensor<1x4x384xf32>) -> tensor<1x4x384xf32>
    %reduced_1188 = linalg.reduce ins(%82 : tensor<1x4x384x384xf32>) outs(%84 : tensor<1x4x384xf32>) dimensions = [3] 
      (%in: f32, %init: f32) {
        %4110 = arith.addf %in, %init : f32
        linalg.yield %4110 : f32
      }
    %expanded_1189 = tensor.expand_shape %reduced_1188 [[0], [1], [2, 3]] : tensor<1x4x384xf32> into tensor<1x4x384x1xf32>
    %85 = tensor.empty() : tensor<1x4x384x1xf32>
    %86 = linalg.generic {indexing_maps = [#map12, #map11], iterator_types = ["parallel", "parallel", "parallel", "parallel"]} ins(%expanded_1189 : tensor<1x4x384x1xf32>) outs(%85 : tensor<1x4x384x1xf32>) {
    ^bb0(%in: f32, %out: f32):
      %cst_4773 = arith.constant 1.000000e+00 : f32
      %4110 = arith.divf %cst_4773, %in : f32
      linalg.yield %4110 : f32
    } -> tensor<1x4x384x1xf32>
    %87 = tensor.empty() : tensor<1x4x384x384xf32>
    %88 = linalg.generic {indexing_maps = [#map9, #map12, #map11], iterator_types = ["parallel", "parallel", "parallel", "parallel"]} ins(%82, %86 : tensor<1x4x384x384xf32>, tensor<1x4x384x1xf32>) outs(%87 : tensor<1x4x384x384xf32>) {
    ^bb0(%in: f32, %in_4773: f32, %out: f32):
      %4110 = arith.mulf %in, %in_4773 : f32
      linalg.yield %4110 : f32
    } -> tensor<1x4x384x384xf32>
    %collapsed_1190 = tensor.collapse_shape %88 [[0, 1], [2], [3]] : tensor<1x4x384x384xf32> into tensor<4x384x384xf32>
    %extracted_slice_1191 = tensor.extract_slice %collapsed_1190[0, 0, 0] [1, 384, 384] [1, 1, 1] : tensor<4x384x384xf32> to tensor<1x384x384xf32>
    %extracted_slice_1192 = tensor.extract_slice %collapsed_1190[1, 0, 0] [1, 384, 384] [1, 1, 1] : tensor<4x384x384xf32> to tensor<1x384x384xf32>
    %extracted_slice_1193 = tensor.extract_slice %collapsed_1190[2, 0, 0] [1, 384, 384] [1, 1, 1] : tensor<4x384x384xf32> to tensor<1x384x384xf32>
    %extracted_slice_1194 = tensor.extract_slice %collapsed_1190[3, 0, 0] [1, 384, 384] [1, 1, 1] : tensor<4x384x384xf32> to tensor<1x384x384xf32>
    %collapsed_1195 = tensor.collapse_shape %transposed_1140 [[0, 1], [2], [3]] : tensor<1x4x384x32xf32> into tensor<4x384x32xf32>
    %extracted_slice_1196 = tensor.extract_slice %collapsed_1195[0, 0, 0] [1, 384, 32] [1, 1, 1] : tensor<4x384x32xf32> to tensor<1x384x32xf32>
    %89 = tensor.empty() : tensor<32x384x1xf32>
    %transposed_1197 = linalg.transpose ins(%extracted_slice_1196 : tensor<1x384x32xf32>) outs(%89 : tensor<32x384x1xf32>) permutation = [2, 1, 0] 
    %extracted_slice_1198 = tensor.extract_slice %collapsed_1195[1, 0, 0] [1, 384, 32] [1, 1, 1] : tensor<4x384x32xf32> to tensor<1x384x32xf32>
    %90 = tensor.empty() : tensor<32x384x1xf32>
    %transposed_1199 = linalg.transpose ins(%extracted_slice_1198 : tensor<1x384x32xf32>) outs(%90 : tensor<32x384x1xf32>) permutation = [2, 1, 0] 
    %extracted_slice_1200 = tensor.extract_slice %collapsed_1195[2, 0, 0] [1, 384, 32] [1, 1, 1] : tensor<4x384x32xf32> to tensor<1x384x32xf32>
    %91 = tensor.empty() : tensor<32x384x1xf32>
    %transposed_1201 = linalg.transpose ins(%extracted_slice_1200 : tensor<1x384x32xf32>) outs(%91 : tensor<32x384x1xf32>) permutation = [2, 1, 0] 
    %extracted_slice_1202 = tensor.extract_slice %collapsed_1195[3, 0, 0] [1, 384, 32] [1, 1, 1] : tensor<4x384x32xf32> to tensor<1x384x32xf32>
    %92 = tensor.empty() : tensor<32x384x1xf32>
    %transposed_1203 = linalg.transpose ins(%extracted_slice_1202 : tensor<1x384x32xf32>) outs(%92 : tensor<32x384x1xf32>) permutation = [2, 1, 0] 
    %collapsed_1204 = tensor.collapse_shape %transposed_1197 [[0], [1, 2]] : tensor<32x384x1xf32> into tensor<32x384xf32>
    %collapsed_1205 = tensor.collapse_shape %extracted_slice_1191 [[0, 1], [2]] : tensor<1x384x384xf32> into tensor<384x384xf32>
    %cst_1206 = arith.constant dense_resource<__elided__> : tensor<2xi64>
    %93 = tensor.empty() : tensor<384x32xf32>
    %transposed_1207 = linalg.transpose ins(%collapsed_1204 : tensor<32x384xf32>) outs(%93 : tensor<384x32xf32>) permutation = [1, 0] 
    %94 = tensor.empty() : tensor<384x32xf32>
    %95 = linalg.generic {indexing_maps = [#map8, #map1], iterator_types = ["parallel", "parallel"]} ins(%cst_294 : tensor<32xf32>) outs(%94 : tensor<384x32xf32>) {
    ^bb0(%in: f32, %out: f32):
      linalg.yield %in : f32
    } -> tensor<384x32xf32>
    %96 = linalg.matmul ins(%collapsed_1205, %transposed_1207 : tensor<384x384xf32>, tensor<384x32xf32>) outs(%95 : tensor<384x32xf32>) -> tensor<384x32xf32>
    %collapsed_1208 = tensor.collapse_shape %transposed_1199 [[0], [1, 2]] : tensor<32x384x1xf32> into tensor<32x384xf32>
    %collapsed_1209 = tensor.collapse_shape %extracted_slice_1192 [[0, 1], [2]] : tensor<1x384x384xf32> into tensor<384x384xf32>
    %cst_1210 = arith.constant dense_resource<__elided__> : tensor<2xi64>
    %97 = tensor.empty() : tensor<384x32xf32>
    %transposed_1211 = linalg.transpose ins(%collapsed_1208 : tensor<32x384xf32>) outs(%97 : tensor<384x32xf32>) permutation = [1, 0] 
    %98 = tensor.empty() : tensor<384x32xf32>
    %99 = linalg.generic {indexing_maps = [#map8, #map1], iterator_types = ["parallel", "parallel"]} ins(%cst_294 : tensor<32xf32>) outs(%98 : tensor<384x32xf32>) {
    ^bb0(%in: f32, %out: f32):
      linalg.yield %in : f32
    } -> tensor<384x32xf32>
    %100 = linalg.matmul ins(%collapsed_1209, %transposed_1211 : tensor<384x384xf32>, tensor<384x32xf32>) outs(%99 : tensor<384x32xf32>) -> tensor<384x32xf32>
    %collapsed_1212 = tensor.collapse_shape %transposed_1201 [[0], [1, 2]] : tensor<32x384x1xf32> into tensor<32x384xf32>
    %collapsed_1213 = tensor.collapse_shape %extracted_slice_1193 [[0, 1], [2]] : tensor<1x384x384xf32> into tensor<384x384xf32>
    %cst_1214 = arith.constant dense_resource<__elided__> : tensor<2xi64>
    %101 = tensor.empty() : tensor<384x32xf32>
    %transposed_1215 = linalg.transpose ins(%collapsed_1212 : tensor<32x384xf32>) outs(%101 : tensor<384x32xf32>) permutation = [1, 0] 
    %102 = tensor.empty() : tensor<384x32xf32>
    %103 = linalg.generic {indexing_maps = [#map8, #map1], iterator_types = ["parallel", "parallel"]} ins(%cst_294 : tensor<32xf32>) outs(%102 : tensor<384x32xf32>) {
    ^bb0(%in: f32, %out: f32):
      linalg.yield %in : f32
    } -> tensor<384x32xf32>
    %104 = linalg.matmul ins(%collapsed_1213, %transposed_1215 : tensor<384x384xf32>, tensor<384x32xf32>) outs(%103 : tensor<384x32xf32>) -> tensor<384x32xf32>
    %collapsed_1216 = tensor.collapse_shape %transposed_1203 [[0], [1, 2]] : tensor<32x384x1xf32> into tensor<32x384xf32>
    %collapsed_1217 = tensor.collapse_shape %extracted_slice_1194 [[0, 1], [2]] : tensor<1x384x384xf32> into tensor<384x384xf32>
    %cst_1218 = arith.constant dense_resource<__elided__> : tensor<2xi64>
    %105 = tensor.empty() : tensor<384x32xf32>
    %transposed_1219 = linalg.transpose ins(%collapsed_1216 : tensor<32x384xf32>) outs(%105 : tensor<384x32xf32>) permutation = [1, 0] 
    %106 = tensor.empty() : tensor<384x32xf32>
    %107 = linalg.generic {indexing_maps = [#map8, #map1], iterator_types = ["parallel", "parallel"]} ins(%cst_294 : tensor<32xf32>) outs(%106 : tensor<384x32xf32>) {
    ^bb0(%in: f32, %out: f32):
      linalg.yield %in : f32
    } -> tensor<384x32xf32>
    %108 = linalg.matmul ins(%collapsed_1217, %transposed_1219 : tensor<384x384xf32>, tensor<384x32xf32>) outs(%107 : tensor<384x32xf32>) -> tensor<384x32xf32>
    %c0_1220 = arith.constant 0 : index
    %c384_1221 = arith.constant 384 : index
    %c384_1222 = arith.constant 384 : index
    %c768_1223 = arith.constant 768 : index
    %c384_1224 = arith.constant 384 : index
    %c768_1225 = arith.constant 768 : index
    %c1152_1226 = arith.constant 1152 : index
    %c384_1227 = arith.constant 384 : index
    %c1152_1228 = arith.constant 1152 : index
    %c1536_1229 = arith.constant 1536 : index
    %109 = tensor.empty() : tensor<1536x32xf32>
    %inserted_slice_1230 = tensor.insert_slice %96 into %109[0, 0] [384, 32] [1, 1] : tensor<384x32xf32> into tensor<1536x32xf32>
    %inserted_slice_1231 = tensor.insert_slice %100 into %inserted_slice_1230[384, 0] [384, 32] [1, 1] : tensor<384x32xf32> into tensor<1536x32xf32>
    %inserted_slice_1232 = tensor.insert_slice %104 into %inserted_slice_1231[768, 0] [384, 32] [1, 1] : tensor<384x32xf32> into tensor<1536x32xf32>
    %inserted_slice_1233 = tensor.insert_slice %108 into %inserted_slice_1232[1152, 0] [384, 32] [1, 1] : tensor<384x32xf32> into tensor<1536x32xf32>
    %expanded_1234 = tensor.expand_shape %inserted_slice_1233 [[0, 1], [2]] : tensor<1536x32xf32> into tensor<4x384x32xf32>
    %110 = tensor.empty() : tensor<384x4x32xf32>
    %transposed_1235 = linalg.transpose ins(%expanded_1234 : tensor<4x384x32xf32>) outs(%110 : tensor<384x4x32xf32>) permutation = [1, 0, 2] 
    %collapsed_1236 = tensor.collapse_shape %transposed_1235 [[0], [1, 2]] : tensor<384x4x32xf32> into tensor<384x128xf32>
    %cst_1237 = arith.constant dense_resource<__elided__> : tensor<2xi64>
    %111 = tensor.empty() : tensor<128x128xf32>
    %transposed_1238 = linalg.transpose ins(%cst_1056 : tensor<128x128xf32>) outs(%111 : tensor<128x128xf32>) permutation = [1, 0] 
    %112 = tensor.empty() : tensor<384x128xf32>
    %113 = linalg.generic {indexing_maps = [#map8, #map1], iterator_types = ["parallel", "parallel"]} ins(%cst_1055 : tensor<128xf32>) outs(%112 : tensor<384x128xf32>) {
    ^bb0(%in: f32, %out: f32):
      linalg.yield %in : f32
    } -> tensor<384x128xf32>
    %114 = linalg.matmul ins(%collapsed_1236, %transposed_1238 : tensor<384x128xf32>, tensor<128x128xf32>) outs(%113 : tensor<384x128xf32>) -> tensor<384x128xf32>
    %expanded_1239 = tensor.expand_shape %114 [[0, 1], [2]] : tensor<384x128xf32> into tensor<1x384x128xf32>
    %115 = tensor.empty() : tensor<1x384x128xf32>
    %116 = linalg.generic {indexing_maps = [#map6, #map6, #map3], iterator_types = ["parallel", "parallel", "parallel"]} ins(%expanded_1239, %expanded_1129 : tensor<1x384x128xf32>, tensor<1x384x128xf32>) outs(%115 : tensor<1x384x128xf32>) {
    ^bb0(%in: f32, %in_4773: f32, %out: f32):
      %4110 = arith.addf %in, %in_4773 : f32
      linalg.yield %4110 : f32
    } -> tensor<1x384x128xf32>
    %117 = tensor.empty() : tensor<1x384x128xf32>
    %118 = linalg.generic {indexing_maps = [#map6, #map4, #map3], iterator_types = ["parallel", "parallel", "parallel"]} ins(%116, %cst_288 : tensor<1x384x128xf32>, tensor<1x1x128xf32>) outs(%117 : tensor<1x384x128xf32>) {
    ^bb0(%in: f32, %in_4773: f32, %out: f32):
      %4110 = arith.mulf %in, %in_4773 : f32
      linalg.yield %4110 : f32
    } -> tensor<1x384x128xf32>
    %119 = tensor.empty() : tensor<1x384x128xf32>
    %120 = linalg.generic {indexing_maps = [#map6, #map4, #map3], iterator_types = ["parallel", "parallel", "parallel"]} ins(%118, %cst_287 : tensor<1x384x128xf32>, tensor<1x1x128xf32>) outs(%119 : tensor<1x384x128xf32>) {
    ^bb0(%in: f32, %in_4773: f32, %out: f32):
      %4110 = arith.addf %in, %in_4773 : f32
      linalg.yield %4110 : f32
    } -> tensor<1x384x128xf32>
    %collapsed_1240 = tensor.collapse_shape %120 [[0, 1], [2]] : tensor<1x384x128xf32> into tensor<384x128xf32>
    %cst_1241 = arith.constant dense_resource<__elided__> : tensor<2xi64>
    %121 = tensor.empty() : tensor<128x512xf32>
    %transposed_1242 = linalg.transpose ins(%cst_1054 : tensor<512x128xf32>) outs(%121 : tensor<128x512xf32>) permutation = [1, 0] 
    %122 = tensor.empty() : tensor<384x512xf32>
    %123 = linalg.generic {indexing_maps = [#map8, #map1], iterator_types = ["parallel", "parallel"]} ins(%cst_1053 : tensor<512xf32>) outs(%122 : tensor<384x512xf32>) {
    ^bb0(%in: f32, %out: f32):
      linalg.yield %in : f32
    } -> tensor<384x512xf32>
    %124 = linalg.matmul ins(%collapsed_1240, %transposed_1242 : tensor<384x128xf32>, tensor<128x512xf32>) outs(%123 : tensor<384x512xf32>) -> tensor<384x512xf32>
    %125 = tensor.empty() : tensor<384x512xf32>
    %126 = linalg.generic {indexing_maps = [#map1, #map1], iterator_types = ["parallel", "parallel"]} ins(%124 : tensor<384x512xf32>) outs(%125 : tensor<384x512xf32>) {
    ^bb0(%in: f32, %out: f32):
      %cst_4773 = arith.constant 0.000000e+00 : f32
      %cst_4774 = arith.constant 3.40282347E+38 : f32
      %4110 = arith.minimumf %in, %cst_4774 : f32
      %4111 = arith.maximumf %4110, %cst_4773 : f32
      linalg.yield %4111 : f32
    } -> tensor<384x512xf32>
    %cst_1243 = arith.constant dense_resource<__elided__> : tensor<2xi64>
    %127 = tensor.empty() : tensor<512x128xf32>
    %transposed_1244 = linalg.transpose ins(%cst_1052 : tensor<128x512xf32>) outs(%127 : tensor<512x128xf32>) permutation = [1, 0] 
    %128 = tensor.empty() : tensor<384x128xf32>
    %129 = linalg.generic {indexing_maps = [#map8, #map1], iterator_types = ["parallel", "parallel"]} ins(%cst_1051 : tensor<128xf32>) outs(%128 : tensor<384x128xf32>) {
    ^bb0(%in: f32, %out: f32):
      linalg.yield %in : f32
    } -> tensor<384x128xf32>
    %130 = linalg.matmul ins(%126, %transposed_1244 : tensor<384x512xf32>, tensor<512x128xf32>) outs(%129 : tensor<384x128xf32>) -> tensor<384x128xf32>
    %expanded_1245 = tensor.expand_shape %130 [[0, 1], [2]] : tensor<384x128xf32> into tensor<1x384x128xf32>
    %131 = tensor.empty() : tensor<1x384x128xf32>
    %132 = linalg.generic {indexing_maps = [#map6, #map6, #map3], iterator_types = ["parallel", "parallel", "parallel"]} ins(%expanded_1245, %120 : tensor<1x384x128xf32>, tensor<1x384x128xf32>) outs(%131 : tensor<1x384x128xf32>) {
    ^bb0(%in: f32, %in_4773: f32, %out: f32):
      %4110 = arith.addf %in, %in_4773 : f32
      linalg.yield %4110 : f32
    } -> tensor<1x384x128xf32>
    %133 = tensor.empty() : tensor<1x384x128xf32>
    %134 = linalg.generic {indexing_maps = [#map6, #map4, #map3], iterator_types = ["parallel", "parallel", "parallel"]} ins(%132, %cst_286 : tensor<1x384x128xf32>, tensor<1x1x128xf32>) outs(%133 : tensor<1x384x128xf32>) {
    ^bb0(%in: f32, %in_4773: f32, %out: f32):
      %4110 = arith.mulf %in, %in_4773 : f32
      linalg.yield %4110 : f32
    } -> tensor<1x384x128xf32>
    %135 = tensor.empty() : tensor<1x384x128xf32>
    %136 = linalg.generic {indexing_maps = [#map6, #map4, #map3], iterator_types = ["parallel", "parallel", "parallel"]} ins(%134, %cst_285 : tensor<1x384x128xf32>, tensor<1x1x128xf32>) outs(%135 : tensor<1x384x128xf32>) {
    ^bb0(%in: f32, %in_4773: f32, %out: f32):
      %4110 = arith.addf %in, %in_4773 : f32
      linalg.yield %4110 : f32
    } -> tensor<1x384x128xf32>
    %collapsed_1246 = tensor.collapse_shape %136 [[0, 1], [2]] : tensor<1x384x128xf32> into tensor<384x128xf32>
    %cst_1247 = arith.constant dense_resource<__elided__> : tensor<2xi64>
    %137 = tensor.empty() : tensor<128x512xf32>
    %transposed_1248 = linalg.transpose ins(%cst_1050 : tensor<512x128xf32>) outs(%137 : tensor<128x512xf32>) permutation = [1, 0] 
    %138 = tensor.empty() : tensor<384x512xf32>
    %139 = linalg.generic {indexing_maps = [#map8, #map1], iterator_types = ["parallel", "parallel"]} ins(%cst_1049 : tensor<512xf32>) outs(%138 : tensor<384x512xf32>) {
    ^bb0(%in: f32, %out: f32):
      linalg.yield %in : f32
    } -> tensor<384x512xf32>
    %140 = linalg.matmul ins(%collapsed_1246, %transposed_1248 : tensor<384x128xf32>, tensor<128x512xf32>) outs(%139 : tensor<384x512xf32>) -> tensor<384x512xf32>
    %141 = tensor.empty() : tensor<384x512xf32>
    %142 = linalg.generic {indexing_maps = [#map1, #map1], iterator_types = ["parallel", "parallel"]} ins(%140 : tensor<384x512xf32>) outs(%141 : tensor<384x512xf32>) {
    ^bb0(%in: f32, %out: f32):
      %cst_4773 = arith.constant 0.000000e+00 : f32
      %cst_4774 = arith.constant 3.40282347E+38 : f32
      %4110 = arith.minimumf %in, %cst_4774 : f32
      %4111 = arith.maximumf %4110, %cst_4773 : f32
      linalg.yield %4111 : f32
    } -> tensor<384x512xf32>
    %cst_1249 = arith.constant dense_resource<__elided__> : tensor<2xi64>
    %143 = tensor.empty() : tensor<512x128xf32>
    %transposed_1250 = linalg.transpose ins(%cst_1048 : tensor<128x512xf32>) outs(%143 : tensor<512x128xf32>) permutation = [1, 0] 
    %144 = tensor.empty() : tensor<384x128xf32>
    %145 = linalg.generic {indexing_maps = [#map8, #map1], iterator_types = ["parallel", "parallel"]} ins(%cst_1047 : tensor<128xf32>) outs(%144 : tensor<384x128xf32>) {
    ^bb0(%in: f32, %out: f32):
      linalg.yield %in : f32
    } -> tensor<384x128xf32>
    %146 = linalg.matmul ins(%142, %transposed_1250 : tensor<384x512xf32>, tensor<512x128xf32>) outs(%145 : tensor<384x128xf32>) -> tensor<384x128xf32>
    %expanded_1251 = tensor.expand_shape %146 [[0, 1], [2]] : tensor<384x128xf32> into tensor<1x384x128xf32>
    %147 = tensor.empty() : tensor<1x384x128xf32>
    %148 = linalg.generic {indexing_maps = [#map6, #map6, #map3], iterator_types = ["parallel", "parallel", "parallel"]} ins(%expanded_1251, %136 : tensor<1x384x128xf32>, tensor<1x384x128xf32>) outs(%147 : tensor<1x384x128xf32>) {
    ^bb0(%in: f32, %in_4773: f32, %out: f32):
      %4110 = arith.addf %in, %in_4773 : f32
      linalg.yield %4110 : f32
    } -> tensor<1x384x128xf32>
    %149 = tensor.empty() : tensor<1x384x128xf32>
    %150 = linalg.generic {indexing_maps = [#map6, #map4, #map3], iterator_types = ["parallel", "parallel", "parallel"]} ins(%148, %cst_284 : tensor<1x384x128xf32>, tensor<1x1x128xf32>) outs(%149 : tensor<1x384x128xf32>) {
    ^bb0(%in: f32, %in_4773: f32, %out: f32):
      %4110 = arith.mulf %in, %in_4773 : f32
      linalg.yield %4110 : f32
    } -> tensor<1x384x128xf32>
    %151 = tensor.empty() : tensor<1x384x128xf32>
    %152 = linalg.generic {indexing_maps = [#map6, #map4, #map3], iterator_types = ["parallel", "parallel", "parallel"]} ins(%150, %cst_283 : tensor<1x384x128xf32>, tensor<1x1x128xf32>) outs(%151 : tensor<1x384x128xf32>) {
    ^bb0(%in: f32, %in_4773: f32, %out: f32):
      %4110 = arith.addf %in, %in_4773 : f32
      linalg.yield %4110 : f32
    } -> tensor<1x384x128xf32>
    %collapsed_1252 = tensor.collapse_shape %152 [[0, 1], [2]] : tensor<1x384x128xf32> into tensor<384x128xf32>
    %cst_1253 = arith.constant dense_resource<__elided__> : tensor<2xi64>
    %153 = tensor.empty() : tensor<128x512xf32>
    %transposed_1254 = linalg.transpose ins(%cst_1046 : tensor<512x128xf32>) outs(%153 : tensor<128x512xf32>) permutation = [1, 0] 
    %154 = tensor.empty() : tensor<384x512xf32>
    %155 = linalg.generic {indexing_maps = [#map8, #map1], iterator_types = ["parallel", "parallel"]} ins(%cst_1045 : tensor<512xf32>) outs(%154 : tensor<384x512xf32>) {
    ^bb0(%in: f32, %out: f32):
      linalg.yield %in : f32
    } -> tensor<384x512xf32>
    %156 = linalg.matmul ins(%collapsed_1252, %transposed_1254 : tensor<384x128xf32>, tensor<128x512xf32>) outs(%155 : tensor<384x512xf32>) -> tensor<384x512xf32>
    %157 = tensor.empty() : tensor<384x512xf32>
    %158 = linalg.generic {indexing_maps = [#map1, #map1], iterator_types = ["parallel", "parallel"]} ins(%156 : tensor<384x512xf32>) outs(%157 : tensor<384x512xf32>) {
    ^bb0(%in: f32, %out: f32):
      %cst_4773 = arith.constant 0.000000e+00 : f32
      %cst_4774 = arith.constant 3.40282347E+38 : f32
      %4110 = arith.minimumf %in, %cst_4774 : f32
      %4111 = arith.maximumf %4110, %cst_4773 : f32
      linalg.yield %4111 : f32
    } -> tensor<384x512xf32>
    %cst_1255 = arith.constant dense_resource<__elided__> : tensor<2xi64>
    %159 = tensor.empty() : tensor<512x128xf32>
    %transposed_1256 = linalg.transpose ins(%cst_1044 : tensor<128x512xf32>) outs(%159 : tensor<512x128xf32>) permutation = [1, 0] 
    %160 = tensor.empty() : tensor<384x128xf32>
    %161 = linalg.generic {indexing_maps = [#map8, #map1], iterator_types = ["parallel", "parallel"]} ins(%cst_1043 : tensor<128xf32>) outs(%160 : tensor<384x128xf32>) {
    ^bb0(%in: f32, %out: f32):
      linalg.yield %in : f32
    } -> tensor<384x128xf32>
    %162 = linalg.matmul ins(%158, %transposed_1256 : tensor<384x512xf32>, tensor<512x128xf32>) outs(%161 : tensor<384x128xf32>) -> tensor<384x128xf32>
    %expanded_1257 = tensor.expand_shape %162 [[0, 1], [2]] : tensor<384x128xf32> into tensor<1x384x128xf32>
    %163 = tensor.empty() : tensor<1x384x128xf32>
    %164 = linalg.generic {indexing_maps = [#map6, #map6, #map3], iterator_types = ["parallel", "parallel", "parallel"]} ins(%expanded_1257, %152 : tensor<1x384x128xf32>, tensor<1x384x128xf32>) outs(%163 : tensor<1x384x128xf32>) {
    ^bb0(%in: f32, %in_4773: f32, %out: f32):
      %4110 = arith.addf %in, %in_4773 : f32
      linalg.yield %4110 : f32
    } -> tensor<1x384x128xf32>
    %165 = tensor.empty() : tensor<1x384x128xf32>
    %166 = linalg.generic {indexing_maps = [#map6, #map4, #map3], iterator_types = ["parallel", "parallel", "parallel"]} ins(%164, %cst_282 : tensor<1x384x128xf32>, tensor<1x1x128xf32>) outs(%165 : tensor<1x384x128xf32>) {
    ^bb0(%in: f32, %in_4773: f32, %out: f32):
      %4110 = arith.mulf %in, %in_4773 : f32
      linalg.yield %4110 : f32
    } -> tensor<1x384x128xf32>
    %167 = tensor.empty() : tensor<1x384x128xf32>
    %168 = linalg.generic {indexing_maps = [#map6, #map4, #map3], iterator_types = ["parallel", "parallel", "parallel"]} ins(%166, %cst_281 : tensor<1x384x128xf32>, tensor<1x1x128xf32>) outs(%167 : tensor<1x384x128xf32>) {
    ^bb0(%in: f32, %in_4773: f32, %out: f32):
      %4110 = arith.addf %in, %in_4773 : f32
      linalg.yield %4110 : f32
    } -> tensor<1x384x128xf32>
    %collapsed_1258 = tensor.collapse_shape %168 [[0, 1], [2]] : tensor<1x384x128xf32> into tensor<384x128xf32>
    %cst_1259 = arith.constant dense_resource<__elided__> : tensor<2xi64>
    %169 = tensor.empty() : tensor<128x512xf32>
    %transposed_1260 = linalg.transpose ins(%cst_1042 : tensor<512x128xf32>) outs(%169 : tensor<128x512xf32>) permutation = [1, 0] 
    %170 = tensor.empty() : tensor<384x512xf32>
    %171 = linalg.generic {indexing_maps = [#map8, #map1], iterator_types = ["parallel", "parallel"]} ins(%cst_1041 : tensor<512xf32>) outs(%170 : tensor<384x512xf32>) {
    ^bb0(%in: f32, %out: f32):
      linalg.yield %in : f32
    } -> tensor<384x512xf32>
    %172 = linalg.matmul ins(%collapsed_1258, %transposed_1260 : tensor<384x128xf32>, tensor<128x512xf32>) outs(%171 : tensor<384x512xf32>) -> tensor<384x512xf32>
    %173 = tensor.empty() : tensor<384x512xf32>
    %174 = linalg.generic {indexing_maps = [#map1, #map1], iterator_types = ["parallel", "parallel"]} ins(%172 : tensor<384x512xf32>) outs(%173 : tensor<384x512xf32>) {
    ^bb0(%in: f32, %out: f32):
      %cst_4773 = arith.constant 0.000000e+00 : f32
      %cst_4774 = arith.constant 3.40282347E+38 : f32
      %4110 = arith.minimumf %in, %cst_4774 : f32
      %4111 = arith.maximumf %4110, %cst_4773 : f32
      linalg.yield %4111 : f32
    } -> tensor<384x512xf32>
    %cst_1261 = arith.constant dense_resource<__elided__> : tensor<2xi64>
    %175 = tensor.empty() : tensor<512x128xf32>
    %transposed_1262 = linalg.transpose ins(%cst_1040 : tensor<128x512xf32>) outs(%175 : tensor<512x128xf32>) permutation = [1, 0] 
    %176 = tensor.empty() : tensor<384x128xf32>
    %177 = linalg.generic {indexing_maps = [#map8, #map1], iterator_types = ["parallel", "parallel"]} ins(%cst_1039 : tensor<128xf32>) outs(%176 : tensor<384x128xf32>) {
    ^bb0(%in: f32, %out: f32):
      linalg.yield %in : f32
    } -> tensor<384x128xf32>
    %178 = linalg.matmul ins(%174, %transposed_1262 : tensor<384x512xf32>, tensor<512x128xf32>) outs(%177 : tensor<384x128xf32>) -> tensor<384x128xf32>
    %expanded_1263 = tensor.expand_shape %178 [[0, 1], [2]] : tensor<384x128xf32> into tensor<1x384x128xf32>
    %179 = tensor.empty() : tensor<1x384x128xf32>
    %180 = linalg.generic {indexing_maps = [#map6, #map6, #map3], iterator_types = ["parallel", "parallel", "parallel"]} ins(%expanded_1263, %168 : tensor<1x384x128xf32>, tensor<1x384x128xf32>) outs(%179 : tensor<1x384x128xf32>) {
    ^bb0(%in: f32, %in_4773: f32, %out: f32):
      %4110 = arith.addf %in, %in_4773 : f32
      linalg.yield %4110 : f32
    } -> tensor<1x384x128xf32>
    %181 = tensor.empty() : tensor<1x384x128xf32>
    %182 = linalg.generic {indexing_maps = [#map6, #map4, #map3], iterator_types = ["parallel", "parallel", "parallel"]} ins(%180, %cst_280 : tensor<1x384x128xf32>, tensor<1x1x128xf32>) outs(%181 : tensor<1x384x128xf32>) {
    ^bb0(%in: f32, %in_4773: f32, %out: f32):
      %4110 = arith.mulf %in, %in_4773 : f32
      linalg.yield %4110 : f32
    } -> tensor<1x384x128xf32>
    %183 = tensor.empty() : tensor<1x384x128xf32>
    %184 = linalg.generic {indexing_maps = [#map6, #map4, #map3], iterator_types = ["parallel", "parallel", "parallel"]} ins(%182, %cst_279 : tensor<1x384x128xf32>, tensor<1x1x128xf32>) outs(%183 : tensor<1x384x128xf32>) {
    ^bb0(%in: f32, %in_4773: f32, %out: f32):
      %4110 = arith.addf %in, %in_4773 : f32
      linalg.yield %4110 : f32
    } -> tensor<1x384x128xf32>
    %collapsed_1264 = tensor.collapse_shape %184 [[0, 1], [2]] : tensor<1x384x128xf32> into tensor<384x128xf32>
    %cst_1265 = arith.constant dense_resource<__elided__> : tensor<2xi64>
    %185 = tensor.empty() : tensor<128x512xf32>
    %transposed_1266 = linalg.transpose ins(%cst_1038 : tensor<512x128xf32>) outs(%185 : tensor<128x512xf32>) permutation = [1, 0] 
    %186 = tensor.empty() : tensor<384x512xf32>
    %187 = linalg.generic {indexing_maps = [#map8, #map1], iterator_types = ["parallel", "parallel"]} ins(%cst_1037 : tensor<512xf32>) outs(%186 : tensor<384x512xf32>) {
    ^bb0(%in: f32, %out: f32):
      linalg.yield %in : f32
    } -> tensor<384x512xf32>
    %188 = linalg.matmul ins(%collapsed_1264, %transposed_1266 : tensor<384x128xf32>, tensor<128x512xf32>) outs(%187 : tensor<384x512xf32>) -> tensor<384x512xf32>
    %expanded_1267 = tensor.expand_shape %188 [[0, 1], [2]] : tensor<384x512xf32> into tensor<1x384x512xf32>
    %189 = tensor.empty() : tensor<1x384x512xf32>
    %190 = linalg.generic {indexing_maps = [#map6, #map6, #map3], iterator_types = ["parallel", "parallel", "parallel"]} ins(%expanded_1267, %24 : tensor<1x384x512xf32>, tensor<1x384x512xf32>) outs(%189 : tensor<1x384x512xf32>) {
    ^bb0(%in: f32, %in_4773: f32, %out: f32):
      %4110 = arith.addf %in, %in_4773 : f32
      linalg.yield %4110 : f32
    } -> tensor<1x384x512xf32>
    %191 = tensor.empty() : tensor<1x384x512xf32>
    %192 = linalg.generic {indexing_maps = [#map6, #map4, #map3], iterator_types = ["parallel", "parallel", "parallel"]} ins(%190, %cst_278 : tensor<1x384x512xf32>, tensor<1x1x512xf32>) outs(%191 : tensor<1x384x512xf32>) {
    ^bb0(%in: f32, %in_4773: f32, %out: f32):
      %4110 = arith.mulf %in, %in_4773 : f32
      linalg.yield %4110 : f32
    } -> tensor<1x384x512xf32>
    %193 = tensor.empty() : tensor<1x384x512xf32>
    %194 = linalg.generic {indexing_maps = [#map6, #map4, #map3], iterator_types = ["parallel", "parallel", "parallel"]} ins(%192, %cst_277 : tensor<1x384x512xf32>, tensor<1x1x512xf32>) outs(%193 : tensor<1x384x512xf32>) {
    ^bb0(%in: f32, %in_4773: f32, %out: f32):
      %4110 = arith.addf %in, %in_4773 : f32
      linalg.yield %4110 : f32
    } -> tensor<1x384x512xf32>
    %collapsed_1268 = tensor.collapse_shape %194 [[0, 1], [2]] : tensor<1x384x512xf32> into tensor<384x512xf32>
    %cst_1269 = arith.constant dense_resource<__elided__> : tensor<2xi64>
    %195 = tensor.empty() : tensor<512x128xf32>
    %transposed_1270 = linalg.transpose ins(%cst_1036 : tensor<128x512xf32>) outs(%195 : tensor<512x128xf32>) permutation = [1, 0] 
    %196 = tensor.empty() : tensor<384x128xf32>
    %197 = linalg.generic {indexing_maps = [#map8, #map1], iterator_types = ["parallel", "parallel"]} ins(%cst_1035 : tensor<128xf32>) outs(%196 : tensor<384x128xf32>) {
    ^bb0(%in: f32, %out: f32):
      linalg.yield %in : f32
    } -> tensor<384x128xf32>
    %198 = linalg.matmul ins(%collapsed_1268, %transposed_1270 : tensor<384x512xf32>, tensor<512x128xf32>) outs(%197 : tensor<384x128xf32>) -> tensor<384x128xf32>
    %collapsed_1271 = tensor.collapse_shape %194 [[0, 1], [2]] : tensor<1x384x512xf32> into tensor<384x512xf32>
    %cst_1272 = arith.constant dense_resource<__elided__> : tensor<2xi64>
    %199 = tensor.empty() : tensor<512x128xf32>
    %transposed_1273 = linalg.transpose ins(%cst_1034 : tensor<128x512xf32>) outs(%199 : tensor<512x128xf32>) permutation = [1, 0] 
    %200 = tensor.empty() : tensor<384x128xf32>
    %201 = linalg.generic {indexing_maps = [#map8, #map1], iterator_types = ["parallel", "parallel"]} ins(%cst_1033 : tensor<128xf32>) outs(%200 : tensor<384x128xf32>) {
    ^bb0(%in: f32, %out: f32):
      linalg.yield %in : f32
    } -> tensor<384x128xf32>
    %202 = linalg.matmul ins(%collapsed_1271, %transposed_1273 : tensor<384x512xf32>, tensor<512x128xf32>) outs(%201 : tensor<384x128xf32>) -> tensor<384x128xf32>
    %collapsed_1274 = tensor.collapse_shape %194 [[0, 1], [2]] : tensor<1x384x512xf32> into tensor<384x512xf32>
    %cst_1275 = arith.constant dense_resource<__elided__> : tensor<2xi64>
    %203 = tensor.empty() : tensor<512x128xf32>
    %transposed_1276 = linalg.transpose ins(%cst_1032 : tensor<128x512xf32>) outs(%203 : tensor<512x128xf32>) permutation = [1, 0] 
    %204 = tensor.empty() : tensor<384x128xf32>
    %205 = linalg.generic {indexing_maps = [#map8, #map1], iterator_types = ["parallel", "parallel"]} ins(%cst_1031 : tensor<128xf32>) outs(%204 : tensor<384x128xf32>) {
    ^bb0(%in: f32, %out: f32):
      linalg.yield %in : f32
    } -> tensor<384x128xf32>
    %206 = linalg.matmul ins(%collapsed_1274, %transposed_1276 : tensor<384x512xf32>, tensor<512x128xf32>) outs(%205 : tensor<384x128xf32>) -> tensor<384x128xf32>
    %expanded_1277 = tensor.expand_shape %198 [[0, 1], [2]] : tensor<384x128xf32> into tensor<1x384x128xf32>
    %cst_1278 = arith.constant dense_resource<__elided__> : tensor<2xi64>
    %207 = tensor.empty() : tensor<128x128xf32>
    %transposed_1279 = linalg.transpose ins(%cst_1030 : tensor<128x128xf32>) outs(%207 : tensor<128x128xf32>) permutation = [1, 0] 
    %208 = tensor.empty() : tensor<384x128xf32>
    %209 = linalg.generic {indexing_maps = [#map8, #map1], iterator_types = ["parallel", "parallel"]} ins(%cst_1029 : tensor<128xf32>) outs(%208 : tensor<384x128xf32>) {
    ^bb0(%in: f32, %out: f32):
      linalg.yield %in : f32
    } -> tensor<384x128xf32>
    %210 = linalg.matmul ins(%202, %transposed_1279 : tensor<384x128xf32>, tensor<128x128xf32>) outs(%209 : tensor<384x128xf32>) -> tensor<384x128xf32>
    %cst_1280 = arith.constant dense_resource<__elided__> : tensor<2xi64>
    %211 = tensor.empty() : tensor<128x128xf32>
    %transposed_1281 = linalg.transpose ins(%cst_1028 : tensor<128x128xf32>) outs(%211 : tensor<128x128xf32>) permutation = [1, 0] 
    %212 = tensor.empty() : tensor<384x128xf32>
    %213 = linalg.generic {indexing_maps = [#map8, #map1], iterator_types = ["parallel", "parallel"]} ins(%cst_1027 : tensor<128xf32>) outs(%212 : tensor<384x128xf32>) {
    ^bb0(%in: f32, %out: f32):
      linalg.yield %in : f32
    } -> tensor<384x128xf32>
    %214 = linalg.matmul ins(%202, %transposed_1281 : tensor<384x128xf32>, tensor<128x128xf32>) outs(%213 : tensor<384x128xf32>) -> tensor<384x128xf32>
    %cst_1282 = arith.constant dense_resource<__elided__> : tensor<2xi64>
    %215 = tensor.empty() : tensor<128x128xf32>
    %transposed_1283 = linalg.transpose ins(%cst_1026 : tensor<128x128xf32>) outs(%215 : tensor<128x128xf32>) permutation = [1, 0] 
    %216 = tensor.empty() : tensor<384x128xf32>
    %217 = linalg.generic {indexing_maps = [#map8, #map1], iterator_types = ["parallel", "parallel"]} ins(%cst_1025 : tensor<128xf32>) outs(%216 : tensor<384x128xf32>) {
    ^bb0(%in: f32, %out: f32):
      linalg.yield %in : f32
    } -> tensor<384x128xf32>
    %218 = linalg.matmul ins(%206, %transposed_1283 : tensor<384x128xf32>, tensor<128x128xf32>) outs(%217 : tensor<384x128xf32>) -> tensor<384x128xf32>
    %expanded_1284 = tensor.expand_shape %210 [[0, 1], [2, 3]] : tensor<384x128xf32> into tensor<1x384x4x32xf32>
    %expanded_1285 = tensor.expand_shape %214 [[0, 1], [2, 3]] : tensor<384x128xf32> into tensor<1x384x4x32xf32>
    %expanded_1286 = tensor.expand_shape %218 [[0, 1], [2, 3]] : tensor<384x128xf32> into tensor<1x384x4x32xf32>
    %219 = tensor.empty() : tensor<1x4x384x32xf32>
    %transposed_1287 = linalg.transpose ins(%expanded_1284 : tensor<1x384x4x32xf32>) outs(%219 : tensor<1x4x384x32xf32>) permutation = [0, 2, 1, 3] 
    %220 = tensor.empty() : tensor<1x4x384x32xf32>
    %transposed_1288 = linalg.transpose ins(%expanded_1286 : tensor<1x384x4x32xf32>) outs(%220 : tensor<1x4x384x32xf32>) permutation = [0, 2, 1, 3] 
    %221 = tensor.empty() : tensor<1x4x32x384xf32>
    %transposed_1289 = linalg.transpose ins(%expanded_1285 : tensor<1x384x4x32xf32>) outs(%221 : tensor<1x4x32x384xf32>) permutation = [0, 2, 3, 1] 
    %collapsed_1290 = tensor.collapse_shape %transposed_1287 [[0, 1], [2], [3]] : tensor<1x4x384x32xf32> into tensor<4x384x32xf32>
    %extracted_slice_1291 = tensor.extract_slice %collapsed_1290[0, 0, 0] [1, 384, 32] [1, 1, 1] : tensor<4x384x32xf32> to tensor<1x384x32xf32>
    %extracted_slice_1292 = tensor.extract_slice %collapsed_1290[1, 0, 0] [1, 384, 32] [1, 1, 1] : tensor<4x384x32xf32> to tensor<1x384x32xf32>
    %extracted_slice_1293 = tensor.extract_slice %collapsed_1290[2, 0, 0] [1, 384, 32] [1, 1, 1] : tensor<4x384x32xf32> to tensor<1x384x32xf32>
    %extracted_slice_1294 = tensor.extract_slice %collapsed_1290[3, 0, 0] [1, 384, 32] [1, 1, 1] : tensor<4x384x32xf32> to tensor<1x384x32xf32>
    %collapsed_1295 = tensor.collapse_shape %transposed_1289 [[0, 1], [2], [3]] : tensor<1x4x32x384xf32> into tensor<4x32x384xf32>
    %extracted_slice_1296 = tensor.extract_slice %collapsed_1295[0, 0, 0] [1, 32, 384] [1, 1, 1] : tensor<4x32x384xf32> to tensor<1x32x384xf32>
    %222 = tensor.empty() : tensor<384x32x1xf32>
    %transposed_1297 = linalg.transpose ins(%extracted_slice_1296 : tensor<1x32x384xf32>) outs(%222 : tensor<384x32x1xf32>) permutation = [2, 1, 0] 
    %extracted_slice_1298 = tensor.extract_slice %collapsed_1295[1, 0, 0] [1, 32, 384] [1, 1, 1] : tensor<4x32x384xf32> to tensor<1x32x384xf32>
    %223 = tensor.empty() : tensor<384x32x1xf32>
    %transposed_1299 = linalg.transpose ins(%extracted_slice_1298 : tensor<1x32x384xf32>) outs(%223 : tensor<384x32x1xf32>) permutation = [2, 1, 0] 
    %extracted_slice_1300 = tensor.extract_slice %collapsed_1295[2, 0, 0] [1, 32, 384] [1, 1, 1] : tensor<4x32x384xf32> to tensor<1x32x384xf32>
    %224 = tensor.empty() : tensor<384x32x1xf32>
    %transposed_1301 = linalg.transpose ins(%extracted_slice_1300 : tensor<1x32x384xf32>) outs(%224 : tensor<384x32x1xf32>) permutation = [2, 1, 0] 
    %extracted_slice_1302 = tensor.extract_slice %collapsed_1295[3, 0, 0] [1, 32, 384] [1, 1, 1] : tensor<4x32x384xf32> to tensor<1x32x384xf32>
    %225 = tensor.empty() : tensor<384x32x1xf32>
    %transposed_1303 = linalg.transpose ins(%extracted_slice_1302 : tensor<1x32x384xf32>) outs(%225 : tensor<384x32x1xf32>) permutation = [2, 1, 0] 
    %collapsed_1304 = tensor.collapse_shape %transposed_1297 [[0], [1, 2]] : tensor<384x32x1xf32> into tensor<384x32xf32>
    %collapsed_1305 = tensor.collapse_shape %extracted_slice_1291 [[0, 1], [2]] : tensor<1x384x32xf32> into tensor<384x32xf32>
    %cst_1306 = arith.constant dense_resource<__elided__> : tensor<2xi64>
    %226 = tensor.empty() : tensor<32x384xf32>
    %transposed_1307 = linalg.transpose ins(%collapsed_1304 : tensor<384x32xf32>) outs(%226 : tensor<32x384xf32>) permutation = [1, 0] 
    %227 = tensor.empty() : tensor<384x384xf32>
    %228 = linalg.generic {indexing_maps = [#map8, #map1], iterator_types = ["parallel", "parallel"]} ins(%cst_295 : tensor<384xf32>) outs(%227 : tensor<384x384xf32>) {
    ^bb0(%in: f32, %out: f32):
      linalg.yield %in : f32
    } -> tensor<384x384xf32>
    %229 = linalg.matmul ins(%collapsed_1305, %transposed_1307 : tensor<384x32xf32>, tensor<32x384xf32>) outs(%228 : tensor<384x384xf32>) -> tensor<384x384xf32>
    %collapsed_1308 = tensor.collapse_shape %transposed_1299 [[0], [1, 2]] : tensor<384x32x1xf32> into tensor<384x32xf32>
    %collapsed_1309 = tensor.collapse_shape %extracted_slice_1292 [[0, 1], [2]] : tensor<1x384x32xf32> into tensor<384x32xf32>
    %cst_1310 = arith.constant dense_resource<__elided__> : tensor<2xi64>
    %230 = tensor.empty() : tensor<32x384xf32>
    %transposed_1311 = linalg.transpose ins(%collapsed_1308 : tensor<384x32xf32>) outs(%230 : tensor<32x384xf32>) permutation = [1, 0] 
    %231 = tensor.empty() : tensor<384x384xf32>
    %232 = linalg.generic {indexing_maps = [#map8, #map1], iterator_types = ["parallel", "parallel"]} ins(%cst_295 : tensor<384xf32>) outs(%231 : tensor<384x384xf32>) {
    ^bb0(%in: f32, %out: f32):
      linalg.yield %in : f32
    } -> tensor<384x384xf32>
    %233 = linalg.matmul ins(%collapsed_1309, %transposed_1311 : tensor<384x32xf32>, tensor<32x384xf32>) outs(%232 : tensor<384x384xf32>) -> tensor<384x384xf32>
    %collapsed_1312 = tensor.collapse_shape %transposed_1301 [[0], [1, 2]] : tensor<384x32x1xf32> into tensor<384x32xf32>
    %collapsed_1313 = tensor.collapse_shape %extracted_slice_1293 [[0, 1], [2]] : tensor<1x384x32xf32> into tensor<384x32xf32>
    %cst_1314 = arith.constant dense_resource<__elided__> : tensor<2xi64>
    %234 = tensor.empty() : tensor<32x384xf32>
    %transposed_1315 = linalg.transpose ins(%collapsed_1312 : tensor<384x32xf32>) outs(%234 : tensor<32x384xf32>) permutation = [1, 0] 
    %235 = tensor.empty() : tensor<384x384xf32>
    %236 = linalg.generic {indexing_maps = [#map8, #map1], iterator_types = ["parallel", "parallel"]} ins(%cst_295 : tensor<384xf32>) outs(%235 : tensor<384x384xf32>) {
    ^bb0(%in: f32, %out: f32):
      linalg.yield %in : f32
    } -> tensor<384x384xf32>
    %237 = linalg.matmul ins(%collapsed_1313, %transposed_1315 : tensor<384x32xf32>, tensor<32x384xf32>) outs(%236 : tensor<384x384xf32>) -> tensor<384x384xf32>
    %collapsed_1316 = tensor.collapse_shape %transposed_1303 [[0], [1, 2]] : tensor<384x32x1xf32> into tensor<384x32xf32>
    %collapsed_1317 = tensor.collapse_shape %extracted_slice_1294 [[0, 1], [2]] : tensor<1x384x32xf32> into tensor<384x32xf32>
    %cst_1318 = arith.constant dense_resource<__elided__> : tensor<2xi64>
    %238 = tensor.empty() : tensor<32x384xf32>
    %transposed_1319 = linalg.transpose ins(%collapsed_1316 : tensor<384x32xf32>) outs(%238 : tensor<32x384xf32>) permutation = [1, 0] 
    %239 = tensor.empty() : tensor<384x384xf32>
    %240 = linalg.generic {indexing_maps = [#map8, #map1], iterator_types = ["parallel", "parallel"]} ins(%cst_295 : tensor<384xf32>) outs(%239 : tensor<384x384xf32>) {
    ^bb0(%in: f32, %out: f32):
      linalg.yield %in : f32
    } -> tensor<384x384xf32>
    %241 = linalg.matmul ins(%collapsed_1317, %transposed_1319 : tensor<384x32xf32>, tensor<32x384xf32>) outs(%240 : tensor<384x384xf32>) -> tensor<384x384xf32>
    %c0_1320 = arith.constant 0 : index
    %c384_1321 = arith.constant 384 : index
    %c384_1322 = arith.constant 384 : index
    %c768_1323 = arith.constant 768 : index
    %c384_1324 = arith.constant 384 : index
    %c768_1325 = arith.constant 768 : index
    %c1152_1326 = arith.constant 1152 : index
    %c384_1327 = arith.constant 384 : index
    %c1152_1328 = arith.constant 1152 : index
    %c1536_1329 = arith.constant 1536 : index
    %242 = tensor.empty() : tensor<1536x384xf32>
    %inserted_slice_1330 = tensor.insert_slice %229 into %242[0, 0] [384, 384] [1, 1] : tensor<384x384xf32> into tensor<1536x384xf32>
    %inserted_slice_1331 = tensor.insert_slice %233 into %inserted_slice_1330[384, 0] [384, 384] [1, 1] : tensor<384x384xf32> into tensor<1536x384xf32>
    %inserted_slice_1332 = tensor.insert_slice %237 into %inserted_slice_1331[768, 0] [384, 384] [1, 1] : tensor<384x384xf32> into tensor<1536x384xf32>
    %inserted_slice_1333 = tensor.insert_slice %241 into %inserted_slice_1332[1152, 0] [384, 384] [1, 1] : tensor<384x384xf32> into tensor<1536x384xf32>
    %expanded_1334 = tensor.expand_shape %inserted_slice_1333 [[0, 1], [2]] : tensor<1536x384xf32> into tensor<4x384x384xf32>
    %243 = tensor.empty() : tensor<4x384x384xf32>
    %244 = linalg.generic {indexing_maps = [#map3, #map7, #map3], iterator_types = ["parallel", "parallel", "parallel"]} ins(%expanded_1334, %cst_289 : tensor<4x384x384xf32>, tensor<1x1x1xf32>) outs(%243 : tensor<4x384x384xf32>) {
    ^bb0(%in: f32, %in_4773: f32, %out: f32):
      %4110 = arith.mulf %in, %in_4773 : f32
      linalg.yield %4110 : f32
    } -> tensor<4x384x384xf32>
    %expanded_1335 = tensor.expand_shape %244 [[0, 1], [2], [3]] : tensor<4x384x384xf32> into tensor<1x4x384x384xf32>
    %245 = tensor.empty() : tensor<1x4x384x384xf32>
    %246 = linalg.generic {indexing_maps = [#map9, #map10, #map11], iterator_types = ["parallel", "parallel", "parallel", "parallel"]} ins(%expanded_1335, %expanded_1079 : tensor<1x4x384x384xf32>, tensor<1x1x384x384xf32>) outs(%245 : tensor<1x4x384x384xf32>) {
    ^bb0(%in: f32, %in_4773: f32, %out: f32):
      %4110 = arith.addf %in, %in_4773 : f32
      linalg.yield %4110 : f32
    } -> tensor<1x4x384x384xf32>
    %247 = tensor.empty() : tensor<1x4x384xf32>
    %cst_1336 = arith.constant -3.40282347E+38 : f32
    %248 = linalg.fill ins(%cst_1336 : f32) outs(%247 : tensor<1x4x384xf32>) -> tensor<1x4x384xf32>
    %reduced_1337 = linalg.reduce ins(%246 : tensor<1x4x384x384xf32>) outs(%248 : tensor<1x4x384xf32>) dimensions = [3] 
      (%in: f32, %init: f32) {
…
    %3911 = linalg.generic {indexing_maps = [#map8, #map1], iterator_types = ["parallel", "parallel"]} ins(%cst_337 : tensor<512xf32>) outs(%3910 : tensor<384x512xf32>) {
    ^bb0(%in: f32, %out: f32):
      linalg.yield %in : f32
    } -> tensor<384x512xf32>
    %3912 = linalg.matmul ins(%collapsed_4602, %transposed_4604 : tensor<384x128xf32>, tensor<128x512xf32>) outs(%3911 : tensor<384x512xf32>) -> tensor<384x512xf32>
    %3913 = tensor.empty() : tensor<384x512xf32>
    %3914 = linalg.generic {indexing_maps = [#map1, #map1], iterator_types = ["parallel", "parallel"]} ins(%3912 : tensor<384x512xf32>) outs(%3913 : tensor<384x512xf32>) {
    ^bb0(%in: f32, %out: f32):
      %cst_4773 = arith.constant 0.000000e+00 : f32
      %cst_4774 = arith.constant 3.40282347E+38 : f32
      %4110 = arith.minimumf %in, %cst_4774 : f32
      %4111 = arith.maximumf %4110, %cst_4773 : f32
      linalg.yield %4111 : f32
    } -> tensor<384x512xf32>
    %cst_4605 = arith.constant dense_resource<__elided__> : tensor<2xi64>
    %3915 = tensor.empty() : tensor<512x128xf32>
    %transposed_4606 = linalg.transpose ins(%cst_336 : tensor<128x512xf32>) outs(%3915 : tensor<512x128xf32>) permutation = [1, 0] 
    %3916 = tensor.empty() : tensor<384x128xf32>
    %3917 = linalg.generic {indexing_maps = [#map8, #map1], iterator_types = ["parallel", "parallel"]} ins(%cst_335 : tensor<128xf32>) outs(%3916 : tensor<384x128xf32>) {
    ^bb0(%in: f32, %out: f32):
      linalg.yield %in : f32
    } -> tensor<384x128xf32>
    %3918 = linalg.matmul ins(%3914, %transposed_4606 : tensor<384x512xf32>, tensor<512x128xf32>) outs(%3917 : tensor<384x128xf32>) -> tensor<384x128xf32>
    %expanded_4607 = tensor.expand_shape %3918 [[0, 1], [2]] : tensor<384x128xf32> into tensor<1x384x128xf32>
    %3919 = tensor.empty() : tensor<1x384x128xf32>
    %3920 = linalg.generic {indexing_maps = [#map6, #map6, #map3], iterator_types = ["parallel", "parallel", "parallel"]} ins(%expanded_4607, %3908 : tensor<1x384x128xf32>, tensor<1x384x128xf32>) outs(%3919 : tensor<1x384x128xf32>) {
    ^bb0(%in: f32, %in_4773: f32, %out: f32):
      %4110 = arith.addf %in, %in_4773 : f32
      linalg.yield %4110 : f32
    } -> tensor<1x384x128xf32>
    %3921 = tensor.empty() : tensor<1x384x128xf32>
    %3922 = linalg.generic {indexing_maps = [#map6, #map4, #map3], iterator_types = ["parallel", "parallel", "parallel"]} ins(%3920, %cst_16 : tensor<1x384x128xf32>, tensor<1x1x128xf32>) outs(%3921 : tensor<1x384x128xf32>) {
    ^bb0(%in: f32, %in_4773: f32, %out: f32):
      %4110 = arith.mulf %in, %in_4773 : f32
      linalg.yield %4110 : f32
    } -> tensor<1x384x128xf32>
    %3923 = tensor.empty() : tensor<1x384x128xf32>
    %3924 = linalg.generic {indexing_maps = [#map6, #map4, #map3], iterator_types = ["parallel", "parallel", "parallel"]} ins(%3922, %cst_15 : tensor<1x384x128xf32>, tensor<1x1x128xf32>) outs(%3923 : tensor<1x384x128xf32>) {
    ^bb0(%in: f32, %in_4773: f32, %out: f32):
      %4110 = arith.addf %in, %in_4773 : f32
      linalg.yield %4110 : f32
    } -> tensor<1x384x128xf32>
    %collapsed_4608 = tensor.collapse_shape %3924 [[0, 1], [2]] : tensor<1x384x128xf32> into tensor<384x128xf32>
    %cst_4609 = arith.constant dense_resource<__elided__> : tensor<2xi64>
    %3925 = tensor.empty() : tensor<128x512xf32>
    %transposed_4610 = linalg.transpose ins(%cst_334 : tensor<512x128xf32>) outs(%3925 : tensor<128x512xf32>) permutation = [1, 0] 
    %3926 = tensor.empty() : tensor<384x512xf32>
    %3927 = linalg.generic {indexing_maps = [#map8, #map1], iterator_types = ["parallel", "parallel"]} ins(%cst_333 : tensor<512xf32>) outs(%3926 : tensor<384x512xf32>) {
    ^bb0(%in: f32, %out: f32):
      linalg.yield %in : f32
    } -> tensor<384x512xf32>
    %3928 = linalg.matmul ins(%collapsed_4608, %transposed_4610 : tensor<384x128xf32>, tensor<128x512xf32>) outs(%3927 : tensor<384x512xf32>) -> tensor<384x512xf32>
    %expanded_4611 = tensor.expand_shape %3928 [[0, 1], [2]] : tensor<384x512xf32> into tensor<1x384x512xf32>
    %3929 = tensor.empty() : tensor<1x384x512xf32>
    %3930 = linalg.generic {indexing_maps = [#map6, #map6, #map3], iterator_types = ["parallel", "parallel", "parallel"]} ins(%expanded_4611, %3764 : tensor<1x384x512xf32>, tensor<1x384x512xf32>) outs(%3929 : tensor<1x384x512xf32>) {
    ^bb0(%in: f32, %in_4773: f32, %out: f32):
      %4110 = arith.addf %in, %in_4773 : f32
      linalg.yield %4110 : f32
    } -> tensor<1x384x512xf32>
    %3931 = tensor.empty() : tensor<1x384x512xf32>
    %3932 = linalg.generic {indexing_maps = [#map6, #map4, #map3], iterator_types = ["parallel", "parallel", "parallel"]} ins(%3930, %cst_14 : tensor<1x384x512xf32>, tensor<1x1x512xf32>) outs(%3931 : tensor<1x384x512xf32>) {
    ^bb0(%in: f32, %in_4773: f32, %out: f32):
      %4110 = arith.mulf %in, %in_4773 : f32
      linalg.yield %4110 : f32
    } -> tensor<1x384x512xf32>
    %3933 = tensor.empty() : tensor<1x384x512xf32>
    %3934 = linalg.generic {indexing_maps = [#map6, #map4, #map3], iterator_types = ["parallel", "parallel", "parallel"]} ins(%3932, %cst_13 : tensor<1x384x512xf32>, tensor<1x1x512xf32>) outs(%3933 : tensor<1x384x512xf32>) {
    ^bb0(%in: f32, %in_4773: f32, %out: f32):
      %4110 = arith.addf %in, %in_4773 : f32
      linalg.yield %4110 : f32
    } -> tensor<1x384x512xf32>
    %collapsed_4612 = tensor.collapse_shape %3934 [[0, 1], [2]] : tensor<1x384x512xf32> into tensor<384x512xf32>
    %cst_4613 = arith.constant dense_resource<__elided__> : tensor<2xi64>
    %3935 = tensor.empty() : tensor<512x128xf32>
    %transposed_4614 = linalg.transpose ins(%cst_332 : tensor<128x512xf32>) outs(%3935 : tensor<512x128xf32>) permutation = [1, 0] 
    %3936 = tensor.empty() : tensor<384x128xf32>
    %3937 = linalg.generic {indexing_maps = [#map8, #map1], iterator_types = ["parallel", "parallel"]} ins(%cst_331 : tensor<128xf32>) outs(%3936 : tensor<384x128xf32>) {
    ^bb0(%in: f32, %out: f32):
      linalg.yield %in : f32
    } -> tensor<384x128xf32>
    %3938 = linalg.matmul ins(%collapsed_4612, %transposed_4614 : tensor<384x512xf32>, tensor<512x128xf32>) outs(%3937 : tensor<384x128xf32>) -> tensor<384x128xf32>
    %collapsed_4615 = tensor.collapse_shape %3934 [[0, 1], [2]] : tensor<1x384x512xf32> into tensor<384x512xf32>
    %cst_4616 = arith.constant dense_resource<__elided__> : tensor<2xi64>
    %3939 = tensor.empty() : tensor<512x128xf32>
    %transposed_4617 = linalg.transpose ins(%cst_330 : tensor<128x512xf32>) outs(%3939 : tensor<512x128xf32>) permutation = [1, 0] 
    %3940 = tensor.empty() : tensor<384x128xf32>
    %3941 = linalg.generic {indexing_maps = [#map8, #map1], iterator_types = ["parallel", "parallel"]} ins(%cst_329 : tensor<128xf32>) outs(%3940 : tensor<384x128xf32>) {
    ^bb0(%in: f32, %out: f32):
      linalg.yield %in : f32
    } -> tensor<384x128xf32>
    %3942 = linalg.matmul ins(%collapsed_4615, %transposed_4617 : tensor<384x512xf32>, tensor<512x128xf32>) outs(%3941 : tensor<384x128xf32>) -> tensor<384x128xf32>
    %collapsed_4618 = tensor.collapse_shape %3934 [[0, 1], [2]] : tensor<1x384x512xf32> into tensor<384x512xf32>
    %cst_4619 = arith.constant dense_resource<__elided__> : tensor<2xi64>
    %3943 = tensor.empty() : tensor<512x128xf32>
    %transposed_4620 = linalg.transpose ins(%cst_328 : tensor<128x512xf32>) outs(%3943 : tensor<512x128xf32>) permutation = [1, 0] 
    %3944 = tensor.empty() : tensor<384x128xf32>
    %3945 = linalg.generic {indexing_maps = [#map8, #map1], iterator_types = ["parallel", "parallel"]} ins(%cst_327 : tensor<128xf32>) outs(%3944 : tensor<384x128xf32>) {
    ^bb0(%in: f32, %out: f32):
      linalg.yield %in : f32
    } -> tensor<384x128xf32>
    %3946 = linalg.matmul ins(%collapsed_4618, %transposed_4620 : tensor<384x512xf32>, tensor<512x128xf32>) outs(%3945 : tensor<384x128xf32>) -> tensor<384x128xf32>
    %expanded_4621 = tensor.expand_shape %3938 [[0, 1], [2]] : tensor<384x128xf32> into tensor<1x384x128xf32>
    %cst_4622 = arith.constant dense_resource<__elided__> : tensor<2xi64>
    %3947 = tensor.empty() : tensor<128x128xf32>
    %transposed_4623 = linalg.transpose ins(%cst_326 : tensor<128x128xf32>) outs(%3947 : tensor<128x128xf32>) permutation = [1, 0] 
    %3948 = tensor.empty() : tensor<384x128xf32>
    %3949 = linalg.generic {indexing_maps = [#map8, #map1], iterator_types = ["parallel", "parallel"]} ins(%cst_325 : tensor<128xf32>) outs(%3948 : tensor<384x128xf32>) {
    ^bb0(%in: f32, %out: f32):
      linalg.yield %in : f32
    } -> tensor<384x128xf32>
    %3950 = linalg.matmul ins(%3942, %transposed_4623 : tensor<384x128xf32>, tensor<128x128xf32>) outs(%3949 : tensor<384x128xf32>) -> tensor<384x128xf32>
    %cst_4624 = arith.constant dense_resource<__elided__> : tensor<2xi64>
    %3951 = tensor.empty() : tensor<128x128xf32>
    %transposed_4625 = linalg.transpose ins(%cst_324 : tensor<128x128xf32>) outs(%3951 : tensor<128x128xf32>) permutation = [1, 0] 
    %3952 = tensor.empty() : tensor<384x128xf32>
    %3953 = linalg.generic {indexing_maps = [#map8, #map1], iterator_types = ["parallel", "parallel"]} ins(%cst_323 : tensor<128xf32>) outs(%3952 : tensor<384x128xf32>) {
    ^bb0(%in: f32, %out: f32):
      linalg.yield %in : f32
    } -> tensor<384x128xf32>
    %3954 = linalg.matmul ins(%3942, %transposed_4625 : tensor<384x128xf32>, tensor<128x128xf32>) outs(%3953 : tensor<384x128xf32>) -> tensor<384x128xf32>
    %cst_4626 = arith.constant dense_resource<__elided__> : tensor<2xi64>
    %3955 = tensor.empty() : tensor<128x128xf32>
    %transposed_4627 = linalg.transpose ins(%cst_322 : tensor<128x128xf32>) outs(%3955 : tensor<128x128xf32>) permutation = [1, 0] 
    %3956 = tensor.empty() : tensor<384x128xf32>
    %3957 = linalg.generic {indexing_maps = [#map8, #map1], iterator_types = ["parallel", "parallel"]} ins(%cst_321 : tensor<128xf32>) outs(%3956 : tensor<384x128xf32>) {
    ^bb0(%in: f32, %out: f32):
      linalg.yield %in : f32
    } -> tensor<384x128xf32>
    %3958 = linalg.matmul ins(%3946, %transposed_4627 : tensor<384x128xf32>, tensor<128x128xf32>) outs(%3957 : tensor<384x128xf32>) -> tensor<384x128xf32>
    %expanded_4628 = tensor.expand_shape %3950 [[0, 1], [2, 3]] : tensor<384x128xf32> into tensor<1x384x4x32xf32>
    %expanded_4629 = tensor.expand_shape %3954 [[0, 1], [2, 3]] : tensor<384x128xf32> into tensor<1x384x4x32xf32>
    %expanded_4630 = tensor.expand_shape %3958 [[0, 1], [2, 3]] : tensor<384x128xf32> into tensor<1x384x4x32xf32>
    %3959 = tensor.empty() : tensor<1x4x384x32xf32>
    %transposed_4631 = linalg.transpose ins(%expanded_4628 : tensor<1x384x4x32xf32>) outs(%3959 : tensor<1x4x384x32xf32>) permutation = [0, 2, 1, 3] 
    %3960 = tensor.empty() : tensor<1x4x384x32xf32>
    %transposed_4632 = linalg.transpose ins(%expanded_4630 : tensor<1x384x4x32xf32>) outs(%3960 : tensor<1x4x384x32xf32>) permutation = [0, 2, 1, 3] 
    %3961 = tensor.empty() : tensor<1x4x32x384xf32>
    %transposed_4633 = linalg.transpose ins(%expanded_4629 : tensor<1x384x4x32xf32>) outs(%3961 : tensor<1x4x32x384xf32>) permutation = [0, 2, 3, 1] 
    %collapsed_4634 = tensor.collapse_shape %transposed_4631 [[0, 1], [2], [3]] : tensor<1x4x384x32xf32> into tensor<4x384x32xf32>
    %extracted_slice_4635 = tensor.extract_slice %collapsed_4634[0, 0, 0] [1, 384, 32] [1, 1, 1] : tensor<4x384x32xf32> to tensor<1x384x32xf32>
    %extracted_slice_4636 = tensor.extract_slice %collapsed_4634[1, 0, 0] [1, 384, 32] [1, 1, 1] : tensor<4x384x32xf32> to tensor<1x384x32xf32>
    %extracted_slice_4637 = tensor.extract_slice %collapsed_4634[2, 0, 0] [1, 384, 32] [1, 1, 1] : tensor<4x384x32xf32> to tensor<1x384x32xf32>
    %extracted_slice_4638 = tensor.extract_slice %collapsed_4634[3, 0, 0] [1, 384, 32] [1, 1, 1] : tensor<4x384x32xf32> to tensor<1x384x32xf32>
    %collapsed_4639 = tensor.collapse_shape %transposed_4633 [[0, 1], [2], [3]] : tensor<1x4x32x384xf32> into tensor<4x32x384xf32>
    %extracted_slice_4640 = tensor.extract_slice %collapsed_4639[0, 0, 0] [1, 32, 384] [1, 1, 1] : tensor<4x32x384xf32> to tensor<1x32x384xf32>
    %3962 = tensor.empty() : tensor<384x32x1xf32>
    %transposed_4641 = linalg.transpose ins(%extracted_slice_4640 : tensor<1x32x384xf32>) outs(%3962 : tensor<384x32x1xf32>) permutation = [2, 1, 0] 
    %extracted_slice_4642 = tensor.extract_slice %collapsed_4639[1, 0, 0] [1, 32, 384] [1, 1, 1] : tensor<4x32x384xf32> to tensor<1x32x384xf32>
    %3963 = tensor.empty() : tensor<384x32x1xf32>
    %transposed_4643 = linalg.transpose ins(%extracted_slice_4642 : tensor<1x32x384xf32>) outs(%3963 : tensor<384x32x1xf32>) permutation = [2, 1, 0] 
    %extracted_slice_4644 = tensor.extract_slice %collapsed_4639[2, 0, 0] [1, 32, 384] [1, 1, 1] : tensor<4x32x384xf32> to tensor<1x32x384xf32>
    %3964 = tensor.empty() : tensor<384x32x1xf32>
    %transposed_4645 = linalg.transpose ins(%extracted_slice_4644 : tensor<1x32x384xf32>) outs(%3964 : tensor<384x32x1xf32>) permutation = [2, 1, 0] 
    %extracted_slice_4646 = tensor.extract_slice %collapsed_4639[3, 0, 0] [1, 32, 384] [1, 1, 1] : tensor<4x32x384xf32> to tensor<1x32x384xf32>
    %3965 = tensor.empty() : tensor<384x32x1xf32>
    %transposed_4647 = linalg.transpose ins(%extracted_slice_4646 : tensor<1x32x384xf32>) outs(%3965 : tensor<384x32x1xf32>) permutation = [2, 1, 0] 
    %collapsed_4648 = tensor.collapse_shape %transposed_4641 [[0], [1, 2]] : tensor<384x32x1xf32> into tensor<384x32xf32>
    %collapsed_4649 = tensor.collapse_shape %extracted_slice_4635 [[0, 1], [2]] : tensor<1x384x32xf32> into tensor<384x32xf32>
    %cst_4650 = arith.constant dense_resource<__elided__> : tensor<2xi64>
    %3966 = tensor.empty() : tensor<32x384xf32>
    %transposed_4651 = linalg.transpose ins(%collapsed_4648 : tensor<384x32xf32>) outs(%3966 : tensor<32x384xf32>) permutation = [1, 0] 
    %3967 = tensor.empty() : tensor<384x384xf32>
    %3968 = linalg.generic {indexing_maps = [#map8, #map1], iterator_types = ["parallel", "parallel"]} ins(%cst_295 : tensor<384xf32>) outs(%3967 : tensor<384x384xf32>) {
    ^bb0(%in: f32, %out: f32):
      linalg.yield %in : f32
    } -> tensor<384x384xf32>
    %3969 = linalg.matmul ins(%collapsed_4649, %transposed_4651 : tensor<384x32xf32>, tensor<32x384xf32>) outs(%3968 : tensor<384x384xf32>) -> tensor<384x384xf32>
    %collapsed_4652 = tensor.collapse_shape %transposed_4643 [[0], [1, 2]] : tensor<384x32x1xf32> into tensor<384x32xf32>
    %collapsed_4653 = tensor.collapse_shape %extracted_slice_4636 [[0, 1], [2]] : tensor<1x384x32xf32> into tensor<384x32xf32>
    %cst_4654 = arith.constant dense_resource<__elided__> : tensor<2xi64>
    %3970 = tensor.empty() : tensor<32x384xf32>
    %transposed_4655 = linalg.transpose ins(%collapsed_4652 : tensor<384x32xf32>) outs(%3970 : tensor<32x384xf32>) permutation = [1, 0] 
    %3971 = tensor.empty() : tensor<384x384xf32>
    %3972 = linalg.generic {indexing_maps = [#map8, #map1], iterator_types = ["parallel", "parallel"]} ins(%cst_295 : tensor<384xf32>) outs(%3971 : tensor<384x384xf32>) {
    ^bb0(%in: f32, %out: f32):
      linalg.yield %in : f32
    } -> tensor<384x384xf32>
    %3973 = linalg.matmul ins(%collapsed_4653, %transposed_4655 : tensor<384x32xf32>, tensor<32x384xf32>) outs(%3972 : tensor<384x384xf32>) -> tensor<384x384xf32>
    %collapsed_4656 = tensor.collapse_shape %transposed_4645 [[0], [1, 2]] : tensor<384x32x1xf32> into tensor<384x32xf32>
    %collapsed_4657 = tensor.collapse_shape %extracted_slice_4637 [[0, 1], [2]] : tensor<1x384x32xf32> into tensor<384x32xf32>
    %cst_4658 = arith.constant dense_resource<__elided__> : tensor<2xi64>
    %3974 = tensor.empty() : tensor<32x384xf32>
    %transposed_4659 = linalg.transpose ins(%collapsed_4656 : tensor<384x32xf32>) outs(%3974 : tensor<32x384xf32>) permutation = [1, 0] 
    %3975 = tensor.empty() : tensor<384x384xf32>
    %3976 = linalg.generic {indexing_maps = [#map8, #map1], iterator_types = ["parallel", "parallel"]} ins(%cst_295 : tensor<384xf32>) outs(%3975 : tensor<384x384xf32>) {
    ^bb0(%in: f32, %out: f32):
      linalg.yield %in : f32
    } -> tensor<384x384xf32>
    %3977 = linalg.matmul ins(%collapsed_4657, %transposed_4659 : tensor<384x32xf32>, tensor<32x384xf32>) outs(%3976 : tensor<384x384xf32>) -> tensor<384x384xf32>
    %collapsed_4660 = tensor.collapse_shape %transposed_4647 [[0], [1, 2]] : tensor<384x32x1xf32> into tensor<384x32xf32>
    %collapsed_4661 = tensor.collapse_shape %extracted_slice_4638 [[0, 1], [2]] : tensor<1x384x32xf32> into tensor<384x32xf32>
    %cst_4662 = arith.constant dense_resource<__elided__> : tensor<2xi64>
    %3978 = tensor.empty() : tensor<32x384xf32>
    %transposed_4663 = linalg.transpose ins(%collapsed_4660 : tensor<384x32xf32>) outs(%3978 : tensor<32x384xf32>) permutation = [1, 0] 
    %3979 = tensor.empty() : tensor<384x384xf32>
    %3980 = linalg.generic {indexing_maps = [#map8, #map1], iterator_types = ["parallel", "parallel"]} ins(%cst_295 : tensor<384xf32>) outs(%3979 : tensor<384x384xf32>) {
    ^bb0(%in: f32, %out: f32):
      linalg.yield %in : f32
    } -> tensor<384x384xf32>
    %3981 = linalg.matmul ins(%collapsed_4661, %transposed_4663 : tensor<384x32xf32>, tensor<32x384xf32>) outs(%3980 : tensor<384x384xf32>) -> tensor<384x384xf32>
    %c0_4664 = arith.constant 0 : index
    %c384_4665 = arith.constant 384 : index
    %c384_4666 = arith.constant 384 : index
    %c768_4667 = arith.constant 768 : index
    %c384_4668 = arith.constant 384 : index
    %c768_4669 = arith.constant 768 : index
    %c1152_4670 = arith.constant 1152 : index
    %c384_4671 = arith.constant 384 : index
    %c1152_4672 = arith.constant 1152 : index
    %c1536_4673 = arith.constant 1536 : index
    %3982 = tensor.empty() : tensor<1536x384xf32>
    %inserted_slice_4674 = tensor.insert_slice %3969 into %3982[0, 0] [384, 384] [1, 1] : tensor<384x384xf32> into tensor<1536x384xf32>
    %inserted_slice_4675 = tensor.insert_slice %3973 into %inserted_slice_4674[384, 0] [384, 384] [1, 1] : tensor<384x384xf32> into tensor<1536x384xf32>
    %inserted_slice_4676 = tensor.insert_slice %3977 into %inserted_slice_4675[768, 0] [384, 384] [1, 1] : tensor<384x384xf32> into tensor<1536x384xf32>
    %inserted_slice_4677 = tensor.insert_slice %3981 into %inserted_slice_4676[1152, 0] [384, 384] [1, 1] : tensor<384x384xf32> into tensor<1536x384xf32>
    %expanded_4678 = tensor.expand_shape %inserted_slice_4677 [[0, 1], [2]] : tensor<1536x384xf32> into tensor<4x384x384xf32>
    %3983 = tensor.empty() : tensor<4x384x384xf32>
    %3984 = linalg.generic {indexing_maps = [#map3, #map7, #map3], iterator_types = ["parallel", "parallel", "parallel"]} ins(%expanded_4678, %cst_289 : tensor<4x384x384xf32>, tensor<1x1x1xf32>) outs(%3983 : tensor<4x384x384xf32>) {
    ^bb0(%in: f32, %in_4773: f32, %out: f32):
      %4110 = arith.mulf %in, %in_4773 : f32
      linalg.yield %4110 : f32
    } -> tensor<4x384x384xf32>
    %expanded_4679 = tensor.expand_shape %3984 [[0, 1], [2], [3]] : tensor<4x384x384xf32> into tensor<1x4x384x384xf32>
    %3985 = tensor.empty() : tensor<1x4x384x384xf32>
    %3986 = linalg.generic {indexing_maps = [#map9, #map10, #map11], iterator_types = ["parallel", "parallel", "parallel", "parallel"]} ins(%expanded_4679, %expanded_1079 : tensor<1x4x384x384xf32>, tensor<1x1x384x384xf32>) outs(%3985 : tensor<1x4x384x384xf32>) {
    ^bb0(%in: f32, %in_4773: f32, %out: f32):
      %4110 = arith.addf %in, %in_4773 : f32
      linalg.yield %4110 : f32
    } -> tensor<1x4x384x384xf32>
    %3987 = tensor.empty() : tensor<1x4x384xf32>
    %cst_4680 = arith.constant -3.40282347E+38 : f32
    %3988 = linalg.fill ins(%cst_4680 : f32) outs(%3987 : tensor<1x4x384xf32>) -> tensor<1x4x384xf32>
    %reduced_4681 = linalg.reduce ins(%3986 : tensor<1x4x384x384xf32>) outs(%3988 : tensor<1x4x384xf32>) dimensions = [3] 
      (%in: f32, %init: f32) {
        %4110 = arith.maximumf %in, %init : f32
        linalg.yield %4110 : f32
      }
    %expanded_4682 = tensor.expand_shape %reduced_4681 [[0], [1], [2, 3]] : tensor<1x4x384xf32> into tensor<1x4x384x1xf32>
    %3989 = tensor.empty() : tensor<1x4x384x384xf32>
    %3990 = linalg.generic {indexing_maps = [#map9, #map12, #map11], iterator_types = ["parallel", "parallel", "parallel", "parallel"]} ins(%3986, %expanded_4682 : tensor<1x4x384x384xf32>, tensor<1x4x384x1xf32>) outs(%3989 : tensor<1x4x384x384xf32>) {
    ^bb0(%in: f32, %in_4773: f32, %out: f32):
      %4110 = arith.subf %in, %in_4773 : f32
      linalg.yield %4110 : f32
    } -> tensor<1x4x384x384xf32>
    %3991 = tensor.empty() : tensor<1x4x384x384xf32>
    %3992 = linalg.generic {indexing_maps = [#map9, #map11], iterator_types = ["parallel", "parallel", "parallel", "parallel"]} ins(%3990 : tensor<1x4x384x384xf32>) outs(%3991 : tensor<1x4x384x384xf32>) {
    ^bb0(%in: f32, %out: f32):
      %4110 = math.exp %in : f32
      linalg.yield %4110 : f32
    } -> tensor<1x4x384x384xf32>
    %3993 = tensor.empty() : tensor<1x4x384xf32>
    %cst_4683 = arith.constant 0.000000e+00 : f32
    %3994 = linalg.fill ins(%cst_4683 : f32) outs(%3993 : tensor<1x4x384xf32>) -> tensor<1x4x384xf32>
    %reduced_4684 = linalg.reduce ins(%3992 : tensor<1x4x384x384xf32>) outs(%3994 : tensor<1x4x384xf32>) dimensions = [3] 
      (%in: f32, %init: f32) {
        %4110 = arith.addf %in, %init : f32
        linalg.yield %4110 : f32
      }
    %expanded_4685 = tensor.expand_shape %reduced_4684 [[0], [1], [2, 3]] : tensor<1x4x384xf32> into tensor<1x4x384x1xf32>
    %3995 = tensor.empty() : tensor<1x4x384x1xf32>
    %3996 = linalg.generic {indexing_maps = [#map12, #map11], iterator_types = ["parallel", "parallel", "parallel", "parallel"]} ins(%expanded_4685 : tensor<1x4x384x1xf32>) outs(%3995 : tensor<1x4x384x1xf32>) {
    ^bb0(%in: f32, %out: f32):
      %cst_4773 = arith.constant 1.000000e+00 : f32
      %4110 = arith.divf %cst_4773, %in : f32
      linalg.yield %4110 : f32
    } -> tensor<1x4x384x1xf32>
    %3997 = tensor.empty() : tensor<1x4x384x384xf32>
    %3998 = linalg.generic {indexing_maps = [#map9, #map12, #map11], iterator_types = ["parallel", "parallel", "parallel", "parallel"]} ins(%3992, %3996 : tensor<1x4x384x384xf32>, tensor<1x4x384x1xf32>) outs(%3997 : tensor<1x4x384x384xf32>) {
    ^bb0(%in: f32, %in_4773: f32, %out: f32):
      %4110 = arith.mulf %in, %in_4773 : f32
      linalg.yield %4110 : f32
    } -> tensor<1x4x384x384xf32>
    %collapsed_4686 = tensor.collapse_shape %3998 [[0, 1], [2], [3]] : tensor<1x4x384x384xf32> into tensor<4x384x384xf32>
    %extracted_slice_4687 = tensor.extract_slice %collapsed_4686[0, 0, 0] [1, 384, 384] [1, 1, 1] : tensor<4x384x384xf32> to tensor<1x384x384xf32>
    %extracted_slice_4688 = tensor.extract_slice %collapsed_4686[1, 0, 0] [1, 384, 384] [1, 1, 1] : tensor<4x384x384xf32> to tensor<1x384x384xf32>
    %extracted_slice_4689 = tensor.extract_slice %collapsed_4686[2, 0, 0] [1, 384, 384] [1, 1, 1] : tensor<4x384x384xf32> to tensor<1x384x384xf32>
    %extracted_slice_4690 = tensor.extract_slice %collapsed_4686[3, 0, 0] [1, 384, 384] [1, 1, 1] : tensor<4x384x384xf32> to tensor<1x384x384xf32>
    %collapsed_4691 = tensor.collapse_shape %transposed_4632 [[0, 1], [2], [3]] : tensor<1x4x384x32xf32> into tensor<4x384x32xf32>
    %extracted_slice_4692 = tensor.extract_slice %collapsed_4691[0, 0, 0] [1, 384, 32] [1, 1, 1] : tensor<4x384x32xf32> to tensor<1x384x32xf32>
    %3999 = tensor.empty() : tensor<32x384x1xf32>
    %transposed_4693 = linalg.transpose ins(%extracted_slice_4692 : tensor<1x384x32xf32>) outs(%3999 : tensor<32x384x1xf32>) permutation = [2, 1, 0] 
    %extracted_slice_4694 = tensor.extract_slice %collapsed_4691[1, 0, 0] [1, 384, 32] [1, 1, 1] : tensor<4x384x32xf32> to tensor<1x384x32xf32>
    %4000 = tensor.empty() : tensor<32x384x1xf32>
    %transposed_4695 = linalg.transpose ins(%extracted_slice_4694 : tensor<1x384x32xf32>) outs(%4000 : tensor<32x384x1xf32>) permutation = [2, 1, 0] 
    %extracted_slice_4696 = tensor.extract_slice %collapsed_4691[2, 0, 0] [1, 384, 32] [1, 1, 1] : tensor<4x384x32xf32> to tensor<1x384x32xf32>
    %4001 = tensor.empty() : tensor<32x384x1xf32>
    %transposed_4697 = linalg.transpose ins(%extracted_slice_4696 : tensor<1x384x32xf32>) outs(%4001 : tensor<32x384x1xf32>) permutation = [2, 1, 0] 
    %extracted_slice_4698 = tensor.extract_slice %collapsed_4691[3, 0, 0] [1, 384, 32] [1, 1, 1] : tensor<4x384x32xf32> to tensor<1x384x32xf32>
    %4002 = tensor.empty() : tensor<32x384x1xf32>
    %transposed_4699 = linalg.transpose ins(%extracted_slice_4698 : tensor<1x384x32xf32>) outs(%4002 : tensor<32x384x1xf32>) permutation = [2, 1, 0] 
    %collapsed_4700 = tensor.collapse_shape %transposed_4693 [[0], [1, 2]] : tensor<32x384x1xf32> into tensor<32x384xf32>
    %collapsed_4701 = tensor.collapse_shape %extracted_slice_4687 [[0, 1], [2]] : tensor<1x384x384xf32> into tensor<384x384xf32>
    %cst_4702 = arith.constant dense_resource<__elided__> : tensor<2xi64>
    %4003 = tensor.empty() : tensor<384x32xf32>
    %transposed_4703 = linalg.transpose ins(%collapsed_4700 : tensor<32x384xf32>) outs(%4003 : tensor<384x32xf32>) permutation = [1, 0] 
    %4004 = tensor.empty() : tensor<384x32xf32>
    %4005 = linalg.generic {indexing_maps = [#map8, #map1], iterator_types = ["parallel", "parallel"]} ins(%cst_294 : tensor<32xf32>) outs(%4004 : tensor<384x32xf32>) {
    ^bb0(%in: f32, %out: f32):
      linalg.yield %in : f32
    } -> tensor<384x32xf32>
    %4006 = linalg.matmul ins(%collapsed_4701, %transposed_4703 : tensor<384x384xf32>, tensor<384x32xf32>) outs(%4005 : tensor<384x32xf32>) -> tensor<384x32xf32>
    %collapsed_4704 = tensor.collapse_shape %transposed_4695 [[0], [1, 2]] : tensor<32x384x1xf32> into tensor<32x384xf32>
    %collapsed_4705 = tensor.collapse_shape %extracted_slice_4688 [[0, 1], [2]] : tensor<1x384x384xf32> into tensor<384x384xf32>
    %cst_4706 = arith.constant dense_resource<__elided__> : tensor<2xi64>
    %4007 = tensor.empty() : tensor<384x32xf32>
    %transposed_4707 = linalg.transpose ins(%collapsed_4704 : tensor<32x384xf32>) outs(%4007 : tensor<384x32xf32>) permutation = [1, 0] 
    %4008 = tensor.empty() : tensor<384x32xf32>
    %4009 = linalg.generic {indexing_maps = [#map8, #map1], iterator_types = ["parallel", "parallel"]} ins(%cst_294 : tensor<32xf32>) outs(%4008 : tensor<384x32xf32>) {
    ^bb0(%in: f32, %out: f32):
      linalg.yield %in : f32
    } -> tensor<384x32xf32>
    %4010 = linalg.matmul ins(%collapsed_4705, %transposed_4707 : tensor<384x384xf32>, tensor<384x32xf32>) outs(%4009 : tensor<384x32xf32>) -> tensor<384x32xf32>
    %collapsed_4708 = tensor.collapse_shape %transposed_4697 [[0], [1, 2]] : tensor<32x384x1xf32> into tensor<32x384xf32>
    %collapsed_4709 = tensor.collapse_shape %extracted_slice_4689 [[0, 1], [2]] : tensor<1x384x384xf32> into tensor<384x384xf32>
    %cst_4710 = arith.constant dense_resource<__elided__> : tensor<2xi64>
    %4011 = tensor.empty() : tensor<384x32xf32>
    %transposed_4711 = linalg.transpose ins(%collapsed_4708 : tensor<32x384xf32>) outs(%4011 : tensor<384x32xf32>) permutation = [1, 0] 
    %4012 = tensor.empty() : tensor<384x32xf32>
    %4013 = linalg.generic {indexing_maps = [#map8, #map1], iterator_types = ["parallel", "parallel"]} ins(%cst_294 : tensor<32xf32>) outs(%4012 : tensor<384x32xf32>) {
    ^bb0(%in: f32, %out: f32):
      linalg.yield %in : f32
    } -> tensor<384x32xf32>
    %4014 = linalg.matmul ins(%collapsed_4709, %transposed_4711 : tensor<384x384xf32>, tensor<384x32xf32>) outs(%4013 : tensor<384x32xf32>) -> tensor<384x32xf32>
    %collapsed_4712 = tensor.collapse_shape %transposed_4699 [[0], [1, 2]] : tensor<32x384x1xf32> into tensor<32x384xf32>
    %collapsed_4713 = tensor.collapse_shape %extracted_slice_4690 [[0, 1], [2]] : tensor<1x384x384xf32> into tensor<384x384xf32>
    %cst_4714 = arith.constant dense_resource<__elided__> : tensor<2xi64>
    %4015 = tensor.empty() : tensor<384x32xf32>
    %transposed_4715 = linalg.transpose ins(%collapsed_4712 : tensor<32x384xf32>) outs(%4015 : tensor<384x32xf32>) permutation = [1, 0] 
    %4016 = tensor.empty() : tensor<384x32xf32>
    %4017 = linalg.generic {indexing_maps = [#map8, #map1], iterator_types = ["parallel", "parallel"]} ins(%cst_294 : tensor<32xf32>) outs(%4016 : tensor<384x32xf32>) {
    ^bb0(%in: f32, %out: f32):
      linalg.yield %in : f32
    } -> tensor<384x32xf32>
    %4018 = linalg.matmul ins(%collapsed_4713, %transposed_4715 : tensor<384x384xf32>, tensor<384x32xf32>) outs(%4017 : tensor<384x32xf32>) -> tensor<384x32xf32>
    %c0_4716 = arith.constant 0 : index
    %c384_4717 = arith.constant 384 : index
    %c384_4718 = arith.constant 384 : index
    %c768_4719 = arith.constant 768 : index
    %c384_4720 = arith.constant 384 : index
    %c768_4721 = arith.constant 768 : index
    %c1152_4722 = arith.constant 1152 : index
    %c384_4723 = arith.constant 384 : index
    %c1152_4724 = arith.constant 1152 : index
    %c1536_4725 = arith.constant 1536 : index
    %4019 = tensor.empty() : tensor<1536x32xf32>
    %inserted_slice_4726 = tensor.insert_slice %4006 into %4019[0, 0] [384, 32] [1, 1] : tensor<384x32xf32> into tensor<1536x32xf32>
    %inserted_slice_4727 = tensor.insert_slice %4010 into %inserted_slice_4726[384, 0] [384, 32] [1, 1] : tensor<384x32xf32> into tensor<1536x32xf32>
    %inserted_slice_4728 = tensor.insert_slice %4014 into %inserted_slice_4727[768, 0] [384, 32] [1, 1] : tensor<384x32xf32> into tensor<1536x32xf32>
    %inserted_slice_4729 = tensor.insert_slice %4018 into %inserted_slice_4728[1152, 0] [384, 32] [1, 1] : tensor<384x32xf32> into tensor<1536x32xf32>
    %expanded_4730 = tensor.expand_shape %inserted_slice_4729 [[0, 1], [2]] : tensor<1536x32xf32> into tensor<4x384x32xf32>
    %4020 = tensor.empty() : tensor<384x4x32xf32>
    %transposed_4731 = linalg.transpose ins(%expanded_4730 : tensor<4x384x32xf32>) outs(%4020 : tensor<384x4x32xf32>) permutation = [1, 0, 2] 
    %collapsed_4732 = tensor.collapse_shape %transposed_4731 [[0], [1, 2]] : tensor<384x4x32xf32> into tensor<384x128xf32>
    %cst_4733 = arith.constant dense_resource<__elided__> : tensor<2xi64>
    %4021 = tensor.empty() : tensor<128x128xf32>
    %transposed_4734 = linalg.transpose ins(%cst_320 : tensor<128x128xf32>) outs(%4021 : tensor<128x128xf32>) permutation = [1, 0] 
    %4022 = tensor.empty() : tensor<384x128xf32>
    %4023 = linalg.generic {indexing_maps = [#map8, #map1], iterator_types = ["parallel", "parallel"]} ins(%cst_319 : tensor<128xf32>) outs(%4022 : tensor<384x128xf32>) {
    ^bb0(%in: f32, %out: f32):
      linalg.yield %in : f32
    } -> tensor<384x128xf32>
    %4024 = linalg.matmul ins(%collapsed_4732, %transposed_4734 : tensor<384x128xf32>, tensor<128x128xf32>) outs(%4023 : tensor<384x128xf32>) -> tensor<384x128xf32>
    %expanded_4735 = tensor.expand_shape %4024 [[0, 1], [2]] : tensor<384x128xf32> into tensor<1x384x128xf32>
    %4025 = tensor.empty() : tensor<1x384x128xf32>
    %4026 = linalg.generic {indexing_maps = [#map6, #map6, #map3], iterator_types = ["parallel", "parallel", "parallel"]} ins(%expanded_4735, %expanded_4621 : tensor<1x384x128xf32>, tensor<1x384x128xf32>) outs(%4025 : tensor<1x384x128xf32>) {
    ^bb0(%in: f32, %in_4773: f32, %out: f32):
      %4110 = arith.addf %in, %in_4773 : f32
      linalg.yield %4110 : f32
    } -> tensor<1x384x128xf32>
    %4027 = tensor.empty() : tensor<1x384x128xf32>
    %4028 = linalg.generic {indexing_maps = [#map6, #map4, #map3], iterator_types = ["parallel", "parallel", "parallel"]} ins(%4026, %cst_12 : tensor<1x384x128xf32>, tensor<1x1x128xf32>) outs(%4027 : tensor<1x384x128xf32>) {
    ^bb0(%in: f32, %in_4773: f32, %out: f32):
      %4110 = arith.mulf %in, %in_4773 : f32
      linalg.yield %4110 : f32
    } -> tensor<1x384x128xf32>
    %4029 = tensor.empty() : tensor<1x384x128xf32>
    %4030 = linalg.generic {indexing_maps = [#map6, #map4, #map3], iterator_types = ["parallel", "parallel", "parallel"]} ins(%4028, %cst_11 : tensor<1x384x128xf32>, tensor<1x1x128xf32>) outs(%4029 : tensor<1x384x128xf32>) {
    ^bb0(%in: f32, %in_4773: f32, %out: f32):
      %4110 = arith.addf %in, %in_4773 : f32
      linalg.yield %4110 : f32
    } -> tensor<1x384x128xf32>
    %collapsed_4736 = tensor.collapse_shape %4030 [[0, 1], [2]] : tensor<1x384x128xf32> into tensor<384x128xf32>
    %cst_4737 = arith.constant dense_resource<__elided__> : tensor<2xi64>
    %4031 = tensor.empty() : tensor<128x512xf32>
    %transposed_4738 = linalg.transpose ins(%cst_318 : tensor<512x128xf32>) outs(%4031 : tensor<128x512xf32>) permutation = [1, 0] 
    %4032 = tensor.empty() : tensor<384x512xf32>
    %4033 = linalg.generic {indexing_maps = [#map8, #map1], iterator_types = ["parallel", "parallel"]} ins(%cst_317 : tensor<512xf32>) outs(%4032 : tensor<384x512xf32>) {
    ^bb0(%in: f32, %out: f32):
      linalg.yield %in : f32
    } -> tensor<384x512xf32>
    %4034 = linalg.matmul ins(%collapsed_4736, %transposed_4738 : tensor<384x128xf32>, tensor<128x512xf32>) outs(%4033 : tensor<384x512xf32>) -> tensor<384x512xf32>
    %4035 = tensor.empty() : tensor<384x512xf32>
    %4036 = linalg.generic {indexing_maps = [#map1, #map1], iterator_types = ["parallel", "parallel"]} ins(%4034 : tensor<384x512xf32>) outs(%4035 : tensor<384x512xf32>) {
    ^bb0(%in: f32, %out: f32):
      %cst_4773 = arith.constant 0.000000e+00 : f32
      %cst_4774 = arith.constant 3.40282347E+38 : f32
      %4110 = arith.minimumf %in, %cst_4774 : f32
      %4111 = arith.maximumf %4110, %cst_4773 : f32
      linalg.yield %4111 : f32
    } -> tensor<384x512xf32>
    %cst_4739 = arith.constant dense_resource<__elided__> : tensor<2xi64>
    %4037 = tensor.empty() : tensor<512x128xf32>
    %transposed_4740 = linalg.transpose ins(%cst_316 : tensor<128x512xf32>) outs(%4037 : tensor<512x128xf32>) permutation = [1, 0] 
    %4038 = tensor.empty() : tensor<384x128xf32>
    %4039 = linalg.generic {indexing_maps = [#map8, #map1], iterator_types = ["parallel", "parallel"]} ins(%cst_315 : tensor<128xf32>) outs(%4038 : tensor<384x128xf32>) {
    ^bb0(%in: f32, %out: f32):
      linalg.yield %in : f32
    } -> tensor<384x128xf32>
    %4040 = linalg.matmul ins(%4036, %transposed_4740 : tensor<384x512xf32>, tensor<512x128xf32>) outs(%4039 : tensor<384x128xf32>) -> tensor<384x128xf32>
    %expanded_4741 = tensor.expand_shape %4040 [[0, 1], [2]] : tensor<384x128xf32> into tensor<1x384x128xf32>
    %4041 = tensor.empty() : tensor<1x384x128xf32>
    %4042 = linalg.generic {indexing_maps = [#map6, #map6, #map3], iterator_types = ["parallel", "parallel", "parallel"]} ins(%expanded_4741, %4030 : tensor<1x384x128xf32>, tensor<1x384x128xf32>) outs(%4041 : tensor<1x384x128xf32>) {
    ^bb0(%in: f32, %in_4773: f32, %out: f32):
      %4110 = arith.addf %in, %in_4773 : f32
      linalg.yield %4110 : f32
    } -> tensor<1x384x128xf32>
    %4043 = tensor.empty() : tensor<1x384x128xf32>
    %4044 = linalg.generic {indexing_maps = [#map6, #map4, #map3], iterator_types = ["parallel", "parallel", "parallel"]} ins(%4042, %cst_10 : tensor<1x384x128xf32>, tensor<1x1x128xf32>) outs(%4043 : tensor<1x384x128xf32>) {
    ^bb0(%in: f32, %in_4773: f32, %out: f32):
      %4110 = arith.mulf %in, %in_4773 : f32
      linalg.yield %4110 : f32
    } -> tensor<1x384x128xf32>
    %4045 = tensor.empty() : tensor<1x384x128xf32>
    %4046 = linalg.generic {indexing_maps = [#map6, #map4, #map3], iterator_types = ["parallel", "parallel", "parallel"]} ins(%4044, %cst_9 : tensor<1x384x128xf32>, tensor<1x1x128xf32>) outs(%4045 : tensor<1x384x128xf32>) {
    ^bb0(%in: f32, %in_4773: f32, %out: f32):
      %4110 = arith.addf %in, %in_4773 : f32
      linalg.yield %4110 : f32
    } -> tensor<1x384x128xf32>
    %collapsed_4742 = tensor.collapse_shape %4046 [[0, 1], [2]] : tensor<1x384x128xf32> into tensor<384x128xf32>
    %cst_4743 = arith.constant dense_resource<__elided__> : tensor<2xi64>
    %4047 = tensor.empty() : tensor<128x512xf32>
    %transposed_4744 = linalg.transpose ins(%cst_314 : tensor<512x128xf32>) outs(%4047 : tensor<128x512xf32>) permutation = [1, 0] 
    %4048 = tensor.empty() : tensor<384x512xf32>
    %4049 = linalg.generic {indexing_maps = [#map8, #map1], iterator_types = ["parallel", "parallel"]} ins(%cst_313 : tensor<512xf32>) outs(%4048 : tensor<384x512xf32>) {
    ^bb0(%in: f32, %out: f32):
      linalg.yield %in : f32
    } -> tensor<384x512xf32>
    %4050 = linalg.matmul ins(%collapsed_4742, %transposed_4744 : tensor<384x128xf32>, tensor<128x512xf32>) outs(%4049 : tensor<384x512xf32>) -> tensor<384x512xf32>
    %4051 = tensor.empty() : tensor<384x512xf32>
    %4052 = linalg.generic {indexing_maps = [#map1, #map1], iterator_types = ["parallel", "parallel"]} ins(%4050 : tensor<384x512xf32>) outs(%4051 : tensor<384x512xf32>) {
    ^bb0(%in: f32, %out: f32):
      %cst_4773 = arith.constant 0.000000e+00 : f32
      %cst_4774 = arith.constant 3.40282347E+38 : f32
      %4110 = arith.minimumf %in, %cst_4774 : f32
      %4111 = arith.maximumf %4110, %cst_4773 : f32
      linalg.yield %4111 : f32
    } -> tensor<384x512xf32>
    %cst_4745 = arith.constant dense_resource<__elided__> : tensor<2xi64>
    %4053 = tensor.empty() : tensor<512x128xf32>
    %transposed_4746 = linalg.transpose ins(%cst_312 : tensor<128x512xf32>) outs(%4053 : tensor<512x128xf32>) permutation = [1, 0] 
    %4054 = tensor.empty() : tensor<384x128xf32>
    %4055 = linalg.generic {indexing_maps = [#map8, #map1], iterator_types = ["parallel", "parallel"]} ins(%cst_311 : tensor<128xf32>) outs(%4054 : tensor<384x128xf32>) {
    ^bb0(%in: f32, %out: f32):
      linalg.yield %in : f32
    } -> tensor<384x128xf32>
    %4056 = linalg.matmul ins(%4052, %transposed_4746 : tensor<384x512xf32>, tensor<512x128xf32>) outs(%4055 : tensor<384x128xf32>) -> tensor<384x128xf32>
    %expanded_4747 = tensor.expand_shape %4056 [[0, 1], [2]] : tensor<384x128xf32> into tensor<1x384x128xf32>
    %4057 = tensor.empty() : tensor<1x384x128xf32>
    %4058 = linalg.generic {indexing_maps = [#map6, #map6, #map3], iterator_types = ["parallel", "parallel", "parallel"]} ins(%expanded_4747, %4046 : tensor<1x384x128xf32>, tensor<1x384x128xf32>) outs(%4057 : tensor<1x384x128xf32>) {
    ^bb0(%in: f32, %in_4773: f32, %out: f32):
      %4110 = arith.addf %in, %in_4773 : f32
      linalg.yield %4110 : f32
    } -> tensor<1x384x128xf32>
    %4059 = tensor.empty() : tensor<1x384x128xf32>
    %4060 = linalg.generic {indexing_maps = [#map6, #map4, #map3], iterator_types = ["parallel", "parallel", "parallel"]} ins(%4058, %cst_8 : tensor<1x384x128xf32>, tensor<1x1x128xf32>) outs(%4059 : tensor<1x384x128xf32>) {
    ^bb0(%in: f32, %in_4773: f32, %out: f32):
      %4110 = arith.mulf %in, %in_4773 : f32
      linalg.yield %4110 : f32
    } -> tensor<1x384x128xf32>
    %4061 = tensor.empty() : tensor<1x384x128xf32>
    %4062 = linalg.generic {indexing_maps = [#map6, #map4, #map3], iterator_types = ["parallel", "parallel", "parallel"]} ins(%4060, %cst_7 : tensor<1x384x128xf32>, tensor<1x1x128xf32>) outs(%4061 : tensor<1x384x128xf32>) {
    ^bb0(%in: f32, %in_4773: f32, %out: f32):
      %4110 = arith.addf %in, %in_4773 : f32
      linalg.yield %4110 : f32
    } -> tensor<1x384x128xf32>
    %collapsed_4748 = tensor.collapse_shape %4062 [[0, 1], [2]] : tensor<1x384x128xf32> into tensor<384x128xf32>
    %cst_4749 = arith.constant dense_resource<__elided__> : tensor<2xi64>
    %4063 = tensor.empty() : tensor<128x512xf32>
    %transposed_4750 = linalg.transpose ins(%cst_310 : tensor<512x128xf32>) outs(%4063 : tensor<128x512xf32>) permutation = [1, 0] 
    %4064 = tensor.empty() : tensor<384x512xf32>
    %4065 = linalg.generic {indexing_maps = [#map8, #map1], iterator_types = ["parallel", "parallel"]} ins(%cst_309 : tensor<512xf32>) outs(%4064 : tensor<384x512xf32>) {
    ^bb0(%in: f32, %out: f32):
      linalg.yield %in : f32
    } -> tensor<384x512xf32>
    %4066 = linalg.matmul ins(%collapsed_4748, %transposed_4750 : tensor<384x128xf32>, tensor<128x512xf32>) outs(%4065 : tensor<384x512xf32>) -> tensor<384x512xf32>
    %4067 = tensor.empty() : tensor<384x512xf32>
    %4068 = linalg.generic {indexing_maps = [#map1, #map1], iterator_types = ["parallel", "parallel"]} ins(%4066 : tensor<384x512xf32>) outs(%4067 : tensor<384x512xf32>) {
    ^bb0(%in: f32, %out: f32):
      %cst_4773 = arith.constant 0.000000e+00 : f32
      %cst_4774 = arith.constant 3.40282347E+38 : f32
      %4110 = arith.minimumf %in, %cst_4774 : f32
      %4111 = arith.maximumf %4110, %cst_4773 : f32
      linalg.yield %4111 : f32
    } -> tensor<384x512xf32>
    %cst_4751 = arith.constant dense_resource<__elided__> : tensor<2xi64>
    %4069 = tensor.empty() : tensor<512x128xf32>
    %transposed_4752 = linalg.transpose ins(%cst_308 : tensor<128x512xf32>) outs(%4069 : tensor<512x128xf32>) permutation = [1, 0] 
    %4070 = tensor.empty() : tensor<384x128xf32>
    %4071 = linalg.generic {indexing_maps = [#map8, #map1], iterator_types = ["parallel", "parallel"]} ins(%cst_307 : tensor<128xf32>) outs(%4070 : tensor<384x128xf32>) {
    ^bb0(%in: f32, %out: f32):
      linalg.yield %in : f32
    } -> tensor<384x128xf32>
    %4072 = linalg.matmul ins(%4068, %transposed_4752 : tensor<384x512xf32>, tensor<512x128xf32>) outs(%4071 : tensor<384x128xf32>) -> tensor<384x128xf32>
    %expanded_4753 = tensor.expand_shape %4072 [[0, 1], [2]] : tensor<384x128xf32> into tensor<1x384x128xf32>
    %4073 = tensor.empty() : tensor<1x384x128xf32>
    %4074 = linalg.generic {indexing_maps = [#map6, #map6, #map3], iterator_types = ["parallel", "parallel", "parallel"]} ins(%expanded_4753, %4062 : tensor<1x384x128xf32>, tensor<1x384x128xf32>) outs(%4073 : tensor<1x384x128xf32>) {
    ^bb0(%in: f32, %in_4773: f32, %out: f32):
      %4110 = arith.addf %in, %in_4773 : f32
      linalg.yield %4110 : f32
    } -> tensor<1x384x128xf32>
    %4075 = tensor.empty() : tensor<1x384x128xf32>
    %4076 = linalg.generic {indexing_maps = [#map6, #map4, #map3], iterator_types = ["parallel", "parallel", "parallel"]} ins(%4074, %cst_6 : tensor<1x384x128xf32>, tensor<1x1x128xf32>) outs(%4075 : tensor<1x384x128xf32>) {
    ^bb0(%in: f32, %in_4773: f32, %out: f32):
      %4110 = arith.mulf %in, %in_4773 : f32
      linalg.yield %4110 : f32
    } -> tensor<1x384x128xf32>
    %4077 = tensor.empty() : tensor<1x384x128xf32>
    %4078 = linalg.generic {indexing_maps = [#map6, #map4, #map3], iterator_types = ["parallel", "parallel", "parallel"]} ins(%4076, %cst_5 : tensor<1x384x128xf32>, tensor<1x1x128xf32>) outs(%4077 : tensor<1x384x128xf32>) {
    ^bb0(%in: f32, %in_4773: f32, %out: f32):
      %4110 = arith.addf %in, %in_4773 : f32
      linalg.yield %4110 : f32
    } -> tensor<1x384x128xf32>
    %collapsed_4754 = tensor.collapse_shape %4078 [[0, 1], [2]] : tensor<1x384x128xf32> into tensor<384x128xf32>
    %cst_4755 = arith.constant dense_resource<__elided__> : tensor<2xi64>
    %4079 = tensor.empty() : tensor<128x512xf32>
    %transposed_4756 = linalg.transpose ins(%cst_306 : tensor<512x128xf32>) outs(%4079 : tensor<128x512xf32>) permutation = [1, 0] 
    %4080 = tensor.empty() : tensor<384x512xf32>
    %4081 = linalg.generic {indexing_maps = [#map8, #map1], iterator_types = ["parallel", "parallel"]} ins(%cst_305 : tensor<512xf32>) outs(%4080 : tensor<384x512xf32>) {
    ^bb0(%in: f32, %out: f32):
      linalg.yield %in : f32
    } -> tensor<384x512xf32>
    %4082 = linalg.matmul ins(%collapsed_4754, %transposed_4756 : tensor<384x128xf32>, tensor<128x512xf32>) outs(%4081 : tensor<384x512xf32>) -> tensor<384x512xf32>
    %4083 = tensor.empty() : tensor<384x512xf32>
    %4084 = linalg.generic {indexing_maps = [#map1, #map1], iterator_types = ["parallel", "parallel"]} ins(%4082 : tensor<384x512xf32>) outs(%4083 : tensor<384x512xf32>) {
    ^bb0(%in: f32, %out: f32):
      %cst_4773 = arith.constant 0.000000e+00 : f32
      %cst_4774 = arith.constant 3.40282347E+38 : f32
      %4110 = arith.minimumf %in, %cst_4774 : f32
      %4111 = arith.maximumf %4110, %cst_4773 : f32
      linalg.yield %4111 : f32
    } -> tensor<384x512xf32>
    %cst_4757 = arith.constant dense_resource<__elided__> : tensor<2xi64>
    %4085 = tensor.empty() : tensor<512x128xf32>
    %transposed_4758 = linalg.transpose ins(%cst_304 : tensor<128x512xf32>) outs(%4085 : tensor<512x128xf32>) permutation = [1, 0] 
    %4086 = tensor.empty() : tensor<384x128xf32>
    %4087 = linalg.generic {indexing_maps = [#map8, #map1], iterator_types = ["parallel", "parallel"]} ins(%cst_303 : tensor<128xf32>) outs(%4086 : tensor<384x128xf32>) {
    ^bb0(%in: f32, %out: f32):
      linalg.yield %in : f32
    } -> tensor<384x128xf32>
    %4088 = linalg.matmul ins(%4084, %transposed_4758 : tensor<384x512xf32>, tensor<512x128xf32>) outs(%4087 : tensor<384x128xf32>) -> tensor<384x128xf32>
    %expanded_4759 = tensor.expand_shape %4088 [[0, 1], [2]] : tensor<384x128xf32> into tensor<1x384x128xf32>
    %4089 = tensor.empty() : tensor<1x384x128xf32>
    %4090 = linalg.generic {indexing_maps = [#map6, #map6, #map3], iterator_types = ["parallel", "parallel", "parallel"]} ins(%expanded_4759, %4078 : tensor<1x384x128xf32>, tensor<1x384x128xf32>) outs(%4089 : tensor<1x384x128xf32>) {
    ^bb0(%in: f32, %in_4773: f32, %out: f32):
      %4110 = arith.addf %in, %in_4773 : f32
      linalg.yield %4110 : f32
    } -> tensor<1x384x128xf32>
    %4091 = tensor.empty() : tensor<1x384x128xf32>
    %4092 = linalg.generic {indexing_maps = [#map6, #map4, #map3], iterator_types = ["parallel", "parallel", "parallel"]} ins(%4090, %cst_4 : tensor<1x384x128xf32>, tensor<1x1x128xf32>) outs(%4091 : tensor<1x384x128xf32>) {
    ^bb0(%in: f32, %in_4773: f32, %out: f32):
      %4110 = arith.mulf %in, %in_4773 : f32
      linalg.yield %4110 : f32
    } -> tensor<1x384x128xf32>
    %4093 = tensor.empty() : tensor<1x384x128xf32>
    %4094 = linalg.generic {indexing_maps = [#map6, #map4, #map3], iterator_types = ["parallel", "parallel", "parallel"]} ins(%4092, %cst_3 : tensor<1x384x128xf32>, tensor<1x1x128xf32>) outs(%4093 : tensor<1x384x128xf32>) {
    ^bb0(%in: f32, %in_4773: f32, %out: f32):
      %4110 = arith.addf %in, %in_4773 : f32
      linalg.yield %4110 : f32
    } -> tensor<1x384x128xf32>
    %collapsed_4760 = tensor.collapse_shape %4094 [[0, 1], [2]] : tensor<1x384x128xf32> into tensor<384x128xf32>
    %cst_4761 = arith.constant dense_resource<__elided__> : tensor<2xi64>
    %4095 = tensor.empty() : tensor<128x512xf32>
    %transposed_4762 = linalg.transpose ins(%cst_302 : tensor<512x128xf32>) outs(%4095 : tensor<128x512xf32>) permutation = [1, 0] 
    %4096 = tensor.empty() : tensor<384x512xf32>
    %4097 = linalg.generic {indexing_maps = [#map8, #map1], iterator_types = ["parallel", "parallel"]} ins(%cst_301 : tensor<512xf32>) outs(%4096 : tensor<384x512xf32>) {
    ^bb0(%in: f32, %out: f32):
      linalg.yield %in : f32
    } -> tensor<384x512xf32>
    %4098 = linalg.matmul ins(%collapsed_4760, %transposed_4762 : tensor<384x128xf32>, tensor<128x512xf32>) outs(%4097 : tensor<384x512xf32>) -> tensor<384x512xf32>
    %expanded_4763 = tensor.expand_shape %4098 [[0, 1], [2]] : tensor<384x512xf32> into tensor<1x384x512xf32>
    %4099 = tensor.empty() : tensor<1x384x512xf32>
    %4100 = linalg.generic {indexing_maps = [#map6, #map6, #map3], iterator_types = ["parallel", "parallel", "parallel"]} ins(%expanded_4763, %3934 : tensor<1x384x512xf32>, tensor<1x384x512xf32>) outs(%4099 : tensor<1x384x512xf32>) {
    ^bb0(%in: f32, %in_4773: f32, %out: f32):
      %4110 = arith.addf %in, %in_4773 : f32
      linalg.yield %4110 : f32
    } -> tensor<1x384x512xf32>
    %4101 = tensor.empty() : tensor<1x384x512xf32>
    %4102 = linalg.generic {indexing_maps = [#map6, #map4, #map3], iterator_types = ["parallel", "parallel", "parallel"]} ins(%4100, %cst_2 : tensor<1x384x512xf32>, tensor<1x1x512xf32>) outs(%4101 : tensor<1x384x512xf32>) {
    ^bb0(%in: f32, %in_4773: f32, %out: f32):
      %4110 = arith.mulf %in, %in_4773 : f32
      linalg.yield %4110 : f32
    } -> tensor<1x384x512xf32>
    %4103 = tensor.empty() : tensor<1x384x512xf32>
    %4104 = linalg.generic {indexing_maps = [#map6, #map4, #map3], iterator_types = ["parallel", "parallel", "parallel"]} ins(%4102, %cst_1 : tensor<1x384x512xf32>, tensor<1x1x512xf32>) outs(%4103 : tensor<1x384x512xf32>) {
    ^bb0(%in: f32, %in_4773: f32, %out: f32):
      %4110 = arith.addf %in, %in_4773 : f32
      linalg.yield %4110 : f32
    } -> tensor<1x384x512xf32>
    %collapsed_4764 = tensor.collapse_shape %4104 [[0, 1], [2]] : tensor<1x384x512xf32> into tensor<384x512xf32>
    %cst_4765 = arith.constant dense_resource<__elided__> : tensor<2xi64>
    %4105 = tensor.empty() : tensor<512x2xf32>
    %transposed_4766 = linalg.transpose ins(%cst_300 : tensor<2x512xf32>) outs(%4105 : tensor<512x2xf32>) permutation = [1, 0] 
    %4106 = tensor.empty() : tensor<384x2xf32>
    %4107 = linalg.generic {indexing_maps = [#map8, #map1], iterator_types = ["parallel", "parallel"]} ins(%cst_299 : tensor<2xf32>) outs(%4106 : tensor<384x2xf32>) {
    ^bb0(%in: f32, %out: f32):
      linalg.yield %in : f32
    } -> tensor<384x2xf32>
    %4108 = linalg.matmul ins(%collapsed_4764, %transposed_4766 : tensor<384x512xf32>, tensor<512x2xf32>) outs(%4107 : tensor<384x2xf32>) -> tensor<384x2xf32>
    %4109 = tensor.empty() : tensor<2x384xf32>
    %transposed_4767 = linalg.transpose ins(%4108 : tensor<384x2xf32>) outs(%4109 : tensor<2x384xf32>) permutation = [1, 0] 
    %expanded_4768 = tensor.expand_shape %transposed_4767 [[0, 1], [2]] : tensor<2x384xf32> into tensor<2x1x384xf32>
    %extracted_slice_4769 = tensor.extract_slice %expanded_4768[0, 0, 0] [1, 1, 384] [1, 1, 1] : tensor<2x1x384xf32> to tensor<1x1x384xf32>
    %collapsed_4770 = tensor.collapse_shape %extracted_slice_4769 [[0, 1], [2]] : tensor<1x1x384xf32> into tensor<1x384xf32>
    %extracted_slice_4771 = tensor.extract_slice %expanded_4768[1, 0, 0] [1, 1, 384] [1, 1, 1] : tensor<2x1x384xf32> to tensor<1x1x384xf32>
    %collapsed_4772 = tensor.collapse_shape %extracted_slice_4771 [[0, 1], [2]] : tensor<1x1x384xf32> into tensor<1x384xf32>
    return %collapsed_4772, %collapsed_4770 : tensor<1x384xf32>, tensor<1x384xf32>
  }
}

