module attributes {tfl.description = "TOCO Converted.", tfl.schema_version = 3 : i32} {
  func.func @main(%arg0: tensor<1x384xi32>, %arg1: tensor<1x384xi32>, %arg2: tensor<1x384xi32>) -> (tensor<1x384xf32>, tensor<1x384xf32>) attributes {tf.entry_function = {inputs = "input_ids,input_mask,segment_ids", outputs = "end_logits,start_logits"}} {
    %0 = "tfl.cast"(%arg1) : (tensor<1x384xi32>) -> tensor<1x384xf32>
    %1 = "tfl.pseudo_const"() {value = dense_resource<__elided__> : tensor<1x3xi32>} : () -> tensor<1x3xi32>
    %2 = "tfl.pseudo_const"() {value = dense_resource<__elided__> : tensor<3xi32>} : () -> tensor<3xi32>
    %3 = "tfl.reshape"(%arg0, %2) : (tensor<1x384xi32>, tensor<3xi32>) -> tensor<1x384x1xi32>
    %4 = "tfl.pseudo_const"() {value = dense_resource<__elided__> : tensor<2x512xf32>} : () -> tensor<2x512xf32>
    %5 = "tfl.gather"(%4, %arg2) {axis = 0 : i32, batch_dims = 0 : i32} : (tensor<2x512xf32>, tensor<1x384xi32>) -> tensor<1x384x512xf32>
    %6 = "tfl.pseudo_const"() {value = dense_resource<__elided__> : tensor<3xi32>} : () -> tensor<3xi32>
    %7 = "tfl.reshape"(%0, %6) : (tensor<1x384xf32>, tensor<3xi32>) -> tensor<1x1x384xf32>
    %8 = "tfl.pseudo_const"() {value = dense_resource<__elided__> : tensor<30522x128xf32>} : () -> tensor<30522x128xf32>
    %9 = "tfl.gather"(%8, %3) {axis = 0 : i32, batch_dims = 0 : i32} : (tensor<30522x128xf32>, tensor<1x384x1xi32>) -> tensor<1x384x1x128xf32>
    %10 = "tfl.pseudo_const"() {value = dense<1.000000e+00> : tensor<1x384x1xf32>} : () -> tensor<1x384x1xf32>
    %11 = tfl.mul(%10, %7) {fused_activation_function = "NONE"} : (tensor<1x384x1xf32>, tensor<1x1x384xf32>) -> tensor<1x384x384xf32>
    %12 = "tfl.pseudo_const"() {value = dense_resource<__elided__> : tensor<1x384x512xf32>} : () -> tensor<1x384x512xf32>
    %13 = tfl.add %12, %5 {fused_activation_function = "NONE"} : tensor<1x384x512xf32>
    %14 = "tfl.pseudo_const"() {value = dense<1.000000e+00> : tensor<f32>} : () -> tensor<f32>
    %15 = tfl.sub(%14, %11) {fused_activation_function = "NONE"} : (tensor<f32>, tensor<1x384x384xf32>) -> tensor<1x384x384xf32>
    %16 = "tfl.pseudo_const"() {value = dense<1.000000e+00> : tensor<f32>} : () -> tensor<f32>
    %17 = tfl.sub(%16, %11) {fused_activation_function = "NONE"} : (tensor<f32>, tensor<1x384x384xf32>) -> tensor<1x384x384xf32>
    %18 = "tfl.pseudo_const"() {value = dense<1.000000e+00> : tensor<f32>} : () -> tensor<f32>
    %19 = tfl.sub(%18, %11) {fused_activation_function = "NONE"} : (tensor<f32>, tensor<1x384x384xf32>) -> tensor<1x384x384xf32>
    %20 = "tfl.pseudo_const"() {value = dense<1.000000e+00> : tensor<f32>} : () -> tensor<f32>
    %21 = tfl.sub(%20, %11) {fused_activation_function = "NONE"} : (tensor<f32>, tensor<1x384x384xf32>) -> tensor<1x384x384xf32>
    %22 = "tfl.pseudo_const"() {value = dense<1.000000e+00> : tensor<f32>} : () -> tensor<f32>
    %23 = tfl.sub(%22, %11) {fused_activation_function = "NONE"} : (tensor<f32>, tensor<1x384x384xf32>) -> tensor<1x384x384xf32>
    %24 = "tfl.pseudo_const"() {value = dense<1.000000e+00> : tensor<f32>} : () -> tensor<f32>
    %25 = tfl.sub(%24, %11) {fused_activation_function = "NONE"} : (tensor<f32>, tensor<1x384x384xf32>) -> tensor<1x384x384xf32>
    %26 = "tfl.pseudo_const"() {value = dense<1.000000e+00> : tensor<f32>} : () -> tensor<f32>
    %27 = tfl.sub(%26, %11) {fused_activation_function = "NONE"} : (tensor<f32>, tensor<1x384x384xf32>) -> tensor<1x384x384xf32>
    %28 = "tfl.pseudo_const"() {value = dense<1.000000e+00> : tensor<f32>} : () -> tensor<f32>
    %29 = tfl.sub(%28, %11) {fused_activation_function = "NONE"} : (tensor<f32>, tensor<1x384x384xf32>) -> tensor<1x384x384xf32>
    %30 = "tfl.pseudo_const"() {value = dense<1.000000e+00> : tensor<f32>} : () -> tensor<f32>
    %31 = tfl.sub(%30, %11) {fused_activation_function = "NONE"} : (tensor<f32>, tensor<1x384x384xf32>) -> tensor<1x384x384xf32>
    %32 = "tfl.pseudo_const"() {value = dense<1.000000e+00> : tensor<f32>} : () -> tensor<f32>
    %33 = tfl.sub(%32, %11) {fused_activation_function = "NONE"} : (tensor<f32>, tensor<1x384x384xf32>) -> tensor<1x384x384xf32>
    %34 = "tfl.pseudo_const"() {value = dense<1.000000e+00> : tensor<f32>} : () -> tensor<f32>
    %35 = tfl.sub(%34, %11) {fused_activation_function = "NONE"} : (tensor<f32>, tensor<1x384x384xf32>) -> tensor<1x384x384xf32>
    %36 = "tfl.pseudo_const"() {value = dense<1.000000e+00> : tensor<f32>} : () -> tensor<f32>
    %37 = tfl.sub(%36, %11) {fused_activation_function = "NONE"} : (tensor<f32>, tensor<1x384x384xf32>) -> tensor<1x384x384xf32>
    %38 = "tfl.pseudo_const"() {value = dense<1.000000e+00> : tensor<f32>} : () -> tensor<f32>
    %39 = tfl.sub(%38, %11) {fused_activation_function = "NONE"} : (tensor<f32>, tensor<1x384x384xf32>) -> tensor<1x384x384xf32>
    %40 = "tfl.pseudo_const"() {value = dense<1.000000e+00> : tensor<f32>} : () -> tensor<f32>
    %41 = tfl.sub(%40, %11) {fused_activation_function = "NONE"} : (tensor<f32>, tensor<1x384x384xf32>) -> tensor<1x384x384xf32>
    %42 = "tfl.pseudo_const"() {value = dense<1.000000e+00> : tensor<f32>} : () -> tensor<f32>
    %43 = tfl.sub(%42, %11) {fused_activation_function = "NONE"} : (tensor<f32>, tensor<1x384x384xf32>) -> tensor<1x384x384xf32>
    %44 = "tfl.pseudo_const"() {value = dense<1.000000e+00> : tensor<f32>} : () -> tensor<f32>
    %45 = tfl.sub(%44, %11) {fused_activation_function = "NONE"} : (tensor<f32>, tensor<1x384x384xf32>) -> tensor<1x384x384xf32>
    %46 = "tfl.pseudo_const"() {value = dense<1.000000e+00> : tensor<f32>} : () -> tensor<f32>
    %47 = tfl.sub(%46, %11) {fused_activation_function = "NONE"} : (tensor<f32>, tensor<1x384x384xf32>) -> tensor<1x384x384xf32>
    %48 = "tfl.pseudo_const"() {value = dense<1.000000e+00> : tensor<f32>} : () -> tensor<f32>
    %49 = tfl.sub(%48, %11) {fused_activation_function = "NONE"} : (tensor<f32>, tensor<1x384x384xf32>) -> tensor<1x384x384xf32>
    %50 = "tfl.pseudo_const"() {value = dense<1.000000e+00> : tensor<f32>} : () -> tensor<f32>
    %51 = tfl.sub(%50, %11) {fused_activation_function = "NONE"} : (tensor<f32>, tensor<1x384x384xf32>) -> tensor<1x384x384xf32>
    %52 = "tfl.pseudo_const"() {value = dense<1.000000e+00> : tensor<f32>} : () -> tensor<f32>
    %53 = tfl.sub(%52, %11) {fused_activation_function = "NONE"} : (tensor<f32>, tensor<1x384x384xf32>) -> tensor<1x384x384xf32>
    %54 = "tfl.pseudo_const"() {value = dense<1.000000e+00> : tensor<f32>} : () -> tensor<f32>
    %55 = tfl.sub(%54, %11) {fused_activation_function = "NONE"} : (tensor<f32>, tensor<1x384x384xf32>) -> tensor<1x384x384xf32>
    %56 = "tfl.pseudo_const"() {value = dense<1.000000e+00> : tensor<f32>} : () -> tensor<f32>
    %57 = tfl.sub(%56, %11) {fused_activation_function = "NONE"} : (tensor<f32>, tensor<1x384x384xf32>) -> tensor<1x384x384xf32>
    %58 = "tfl.pseudo_const"() {value = dense<1.000000e+00> : tensor<f32>} : () -> tensor<f32>
    %59 = tfl.sub(%58, %11) {fused_activation_function = "NONE"} : (tensor<f32>, tensor<1x384x384xf32>) -> tensor<1x384x384xf32>
    %60 = "tfl.pseudo_const"() {value = dense<1.000000e+00> : tensor<f32>} : () -> tensor<f32>
    %61 = tfl.sub(%60, %11) {fused_activation_function = "NONE"} : (tensor<f32>, tensor<1x384x384xf32>) -> tensor<1x384x384xf32>
    %62 = "tfl.pseudo_const"() {value = dense_resource<__elided__> : tensor<3xi32>} : () -> tensor<3xi32>
    %63 = "tfl.reshape"(%9, %62) : (tensor<1x384x1x128xf32>, tensor<3xi32>) -> tensor<1x384x128xf32>
    %64 = "tfl.pseudo_const"() {value = dense<-1.000000e+04> : tensor<f32>} : () -> tensor<f32>
    %65 = tfl.mul(%15, %64) {fused_activation_function = "NONE"} : (tensor<1x384x384xf32>, tensor<f32>) -> tensor<1x384x384xf32>
    %66 = "tfl.pseudo_const"() {value = dense<-1.000000e+04> : tensor<f32>} : () -> tensor<f32>
    %67 = tfl.mul(%17, %66) {fused_activation_function = "NONE"} : (tensor<1x384x384xf32>, tensor<f32>) -> tensor<1x384x384xf32>
    %68 = "tfl.pseudo_const"() {value = dense<-1.000000e+04> : tensor<f32>} : () -> tensor<f32>
    %69 = tfl.mul(%19, %68) {fused_activation_function = "NONE"} : (tensor<1x384x384xf32>, tensor<f32>) -> tensor<1x384x384xf32>
    %70 = "tfl.pseudo_const"() {value = dense<-1.000000e+04> : tensor<f32>} : () -> tensor<f32>
    %71 = tfl.mul(%21, %70) {fused_activation_function = "NONE"} : (tensor<1x384x384xf32>, tensor<f32>) -> tensor<1x384x384xf32>
    %72 = "tfl.pseudo_const"() {value = dense<-1.000000e+04> : tensor<f32>} : () -> tensor<f32>
    %73 = tfl.mul(%23, %72) {fused_activation_function = "NONE"} : (tensor<1x384x384xf32>, tensor<f32>) -> tensor<1x384x384xf32>
    %74 = "tfl.pseudo_const"() {value = dense<-1.000000e+04> : tensor<f32>} : () -> tensor<f32>
    %75 = tfl.mul(%25, %74) {fused_activation_function = "NONE"} : (tensor<1x384x384xf32>, tensor<f32>) -> tensor<1x384x384xf32>
    %76 = "tfl.pseudo_const"() {value = dense<-1.000000e+04> : tensor<f32>} : () -> tensor<f32>
    %77 = tfl.mul(%27, %76) {fused_activation_function = "NONE"} : (tensor<1x384x384xf32>, tensor<f32>) -> tensor<1x384x384xf32>
    %78 = "tfl.pseudo_const"() {value = dense<-1.000000e+04> : tensor<f32>} : () -> tensor<f32>
    %79 = tfl.mul(%29, %78) {fused_activation_function = "NONE"} : (tensor<1x384x384xf32>, tensor<f32>) -> tensor<1x384x384xf32>
    %80 = "tfl.pseudo_const"() {value = dense<-1.000000e+04> : tensor<f32>} : () -> tensor<f32>
    %81 = tfl.mul(%31, %80) {fused_activation_function = "NONE"} : (tensor<1x384x384xf32>, tensor<f32>) -> tensor<1x384x384xf32>
    %82 = "tfl.pseudo_const"() {value = dense<-1.000000e+04> : tensor<f32>} : () -> tensor<f32>
    %83 = tfl.mul(%33, %82) {fused_activation_function = "NONE"} : (tensor<1x384x384xf32>, tensor<f32>) -> tensor<1x384x384xf32>
    %84 = "tfl.pseudo_const"() {value = dense<-1.000000e+04> : tensor<f32>} : () -> tensor<f32>
    %85 = tfl.mul(%35, %84) {fused_activation_function = "NONE"} : (tensor<1x384x384xf32>, tensor<f32>) -> tensor<1x384x384xf32>
    %86 = "tfl.pseudo_const"() {value = dense<-1.000000e+04> : tensor<f32>} : () -> tensor<f32>
    %87 = tfl.mul(%37, %86) {fused_activation_function = "NONE"} : (tensor<1x384x384xf32>, tensor<f32>) -> tensor<1x384x384xf32>
    %88 = "tfl.pseudo_const"() {value = dense<-1.000000e+04> : tensor<f32>} : () -> tensor<f32>
    %89 = tfl.mul(%39, %88) {fused_activation_function = "NONE"} : (tensor<1x384x384xf32>, tensor<f32>) -> tensor<1x384x384xf32>
    %90 = "tfl.pseudo_const"() {value = dense<-1.000000e+04> : tensor<f32>} : () -> tensor<f32>
    %91 = tfl.mul(%41, %90) {fused_activation_function = "NONE"} : (tensor<1x384x384xf32>, tensor<f32>) -> tensor<1x384x384xf32>
    %92 = "tfl.pseudo_const"() {value = dense<-1.000000e+04> : tensor<f32>} : () -> tensor<f32>
    %93 = tfl.mul(%43, %92) {fused_activation_function = "NONE"} : (tensor<1x384x384xf32>, tensor<f32>) -> tensor<1x384x384xf32>
    %94 = "tfl.pseudo_const"() {value = dense<-1.000000e+04> : tensor<f32>} : () -> tensor<f32>
    %95 = tfl.mul(%45, %94) {fused_activation_function = "NONE"} : (tensor<1x384x384xf32>, tensor<f32>) -> tensor<1x384x384xf32>
    %96 = "tfl.pseudo_const"() {value = dense<-1.000000e+04> : tensor<f32>} : () -> tensor<f32>
    %97 = tfl.mul(%47, %96) {fused_activation_function = "NONE"} : (tensor<1x384x384xf32>, tensor<f32>) -> tensor<1x384x384xf32>
    %98 = "tfl.pseudo_const"() {value = dense<-1.000000e+04> : tensor<f32>} : () -> tensor<f32>
    %99 = tfl.mul(%49, %98) {fused_activation_function = "NONE"} : (tensor<1x384x384xf32>, tensor<f32>) -> tensor<1x384x384xf32>
    %100 = "tfl.pseudo_const"() {value = dense<-1.000000e+04> : tensor<f32>} : () -> tensor<f32>
    %101 = tfl.mul(%51, %100) {fused_activation_function = "NONE"} : (tensor<1x384x384xf32>, tensor<f32>) -> tensor<1x384x384xf32>
    %102 = "tfl.pseudo_const"() {value = dense<-1.000000e+04> : tensor<f32>} : () -> tensor<f32>
    %103 = tfl.mul(%53, %102) {fused_activation_function = "NONE"} : (tensor<1x384x384xf32>, tensor<f32>) -> tensor<1x384x384xf32>
    %104 = "tfl.pseudo_const"() {value = dense<-1.000000e+04> : tensor<f32>} : () -> tensor<f32>
    %105 = tfl.mul(%55, %104) {fused_activation_function = "NONE"} : (tensor<1x384x384xf32>, tensor<f32>) -> tensor<1x384x384xf32>
    %106 = "tfl.pseudo_const"() {value = dense<-1.000000e+04> : tensor<f32>} : () -> tensor<f32>
    %107 = tfl.mul(%57, %106) {fused_activation_function = "NONE"} : (tensor<1x384x384xf32>, tensor<f32>) -> tensor<1x384x384xf32>
    %108 = "tfl.pseudo_const"() {value = dense<-1.000000e+04> : tensor<f32>} : () -> tensor<f32>
    %109 = tfl.mul(%59, %108) {fused_activation_function = "NONE"} : (tensor<1x384x384xf32>, tensor<f32>) -> tensor<1x384x384xf32>
    %110 = "tfl.pseudo_const"() {value = dense<-1.000000e+04> : tensor<f32>} : () -> tensor<f32>
    %111 = tfl.mul(%61, %110) {fused_activation_function = "NONE"} : (tensor<1x384x384xf32>, tensor<f32>) -> tensor<1x384x384xf32>
    %112 = "tfl.pseudo_const"() {value = dense_resource<__elided__> : tensor<3xi32>} : () -> tensor<3xi32>
    %113 = "tfl.pseudo_const"() {value = dense_resource<__elided__> : tensor<3xi32>} : () -> tensor<3xi32>
    %114 = "tfl.pseudo_const"() {value = dense<1> : tensor<3xi32>} : () -> tensor<3xi32>
    %115 = "tfl.strided_slice"(%63, %112, %113, %114) {begin_mask = 5 : i32, ellipsis_mask = 0 : i32, end_mask = 7 : i32, new_axis_mask = 0 : i32, offset = false, shrink_axis_mask = 0 : i32} : (tensor<1x384x128xf32>, tensor<3xi32>, tensor<3xi32>, tensor<3xi32>) -> tensor<1x383x128xf32>
    %116 = "tfl.pseudo_const"() {value = dense<0> : tensor<3xi32>} : () -> tensor<3xi32>
    %117 = "tfl.pseudo_const"() {value = dense_resource<__elided__> : tensor<3xi32>} : () -> tensor<3xi32>
    %118 = "tfl.pseudo_const"() {value = dense<1> : tensor<3xi32>} : () -> tensor<3xi32>
    %119 = "tfl.strided_slice"(%63, %116, %117, %118) {begin_mask = 7 : i32, ellipsis_mask = 0 : i32, end_mask = 5 : i32, new_axis_mask = 0 : i32, offset = false, shrink_axis_mask = 0 : i32} : (tensor<1x384x128xf32>, tensor<3xi32>, tensor<3xi32>, tensor<3xi32>) -> tensor<1x383x128xf32>
    %120 = "tfl.pseudo_const"() {value = dense_resource<__elided__> : tensor<1x4xi32>} : () -> tensor<1x4xi32>
    %121 = "tfl.pseudo_const"() {value = dense_resource<__elided__> : tensor<4xi32>} : () -> tensor<4xi32>
    %122 = "tfl.reshape"(%65, %121) : (tensor<1x384x384xf32>, tensor<4xi32>) -> tensor<1x1x384x384xf32>
    %123 = "tfl.pseudo_const"() {value = dense_resource<__elided__> : tensor<1x4xi32>} : () -> tensor<1x4xi32>
    %124 = "tfl.pseudo_const"() {value = dense_resource<__elided__> : tensor<4xi32>} : () -> tensor<4xi32>
    %125 = "tfl.reshape"(%67, %124) : (tensor<1x384x384xf32>, tensor<4xi32>) -> tensor<1x1x384x384xf32>
    %126 = "tfl.pseudo_const"() {value = dense_resource<__elided__> : tensor<1x4xi32>} : () -> tensor<1x4xi32>
    %127 = "tfl.pseudo_const"() {value = dense_resource<__elided__> : tensor<4xi32>} : () -> tensor<4xi32>
    %128 = "tfl.reshape"(%69, %127) : (tensor<1x384x384xf32>, tensor<4xi32>) -> tensor<1x1x384x384xf32>
    %129 = "tfl.pseudo_const"() {value = dense_resource<__elided__> : tensor<1x4xi32>} : () -> tensor<1x4xi32>
    %130 = "tfl.pseudo_const"() {value = dense_resource<__elided__> : tensor<4xi32>} : () -> tensor<4xi32>
    %131 = "tfl.reshape"(%71, %130) : (tensor<1x384x384xf32>, tensor<4xi32>) -> tensor<1x1x384x384xf32>
    %132 = "tfl.pseudo_const"() {value = dense_resource<__elided__> : tensor<1x4xi32>} : () -> tensor<1x4xi32>
    %133 = "tfl.pseudo_const"() {value = dense_resource<__elided__> : tensor<4xi32>} : () -> tensor<4xi32>
    %134 = "tfl.reshape"(%73, %133) : (tensor<1x384x384xf32>, tensor<4xi32>) -> tensor<1x1x384x384xf32>
    %135 = "tfl.pseudo_const"() {value = dense_resource<__elided__> : tensor<1x4xi32>} : () -> tensor<1x4xi32>
    %136 = "tfl.pseudo_const"() {value = dense_resource<__elided__> : tensor<4xi32>} : () -> tensor<4xi32>
    %137 = "tfl.reshape"(%75, %136) : (tensor<1x384x384xf32>, tensor<4xi32>) -> tensor<1x1x384x384xf32>
    %138 = "tfl.pseudo_const"() {value = dense_resource<__elided__> : tensor<1x4xi32>} : () -> tensor<1x4xi32>
    %139 = "tfl.pseudo_const"() {value = dense_resource<__elided__> : tensor<4xi32>} : () -> tensor<4xi32>
    %140 = "tfl.reshape"(%77, %139) : (tensor<1x384x384xf32>, tensor<4xi32>) -> tensor<1x1x384x384xf32>
    %141 = "tfl.pseudo_const"() {value = dense_resource<__elided__> : tensor<1x4xi32>} : () -> tensor<1x4xi32>
    %142 = "tfl.pseudo_const"() {value = dense_resource<__elided__> : tensor<4xi32>} : () -> tensor<4xi32>
    %143 = "tfl.reshape"(%79, %142) : (tensor<1x384x384xf32>, tensor<4xi32>) -> tensor<1x1x384x384xf32>
    %144 = "tfl.pseudo_const"() {value = dense_resource<__elided__> : tensor<1x4xi32>} : () -> tensor<1x4xi32>
    %145 = "tfl.pseudo_const"() {value = dense_resource<__elided__> : tensor<4xi32>} : () -> tensor<4xi32>
    %146 = "tfl.reshape"(%81, %145) : (tensor<1x384x384xf32>, tensor<4xi32>) -> tensor<1x1x384x384xf32>
    %147 = "tfl.pseudo_const"() {value = dense_resource<__elided__> : tensor<1x4xi32>} : () -> tensor<1x4xi32>
    %148 = "tfl.pseudo_const"() {value = dense_resource<__elided__> : tensor<4xi32>} : () -> tensor<4xi32>
    %149 = "tfl.reshape"(%83, %148) : (tensor<1x384x384xf32>, tensor<4xi32>) -> tensor<1x1x384x384xf32>
    %150 = "tfl.pseudo_const"() {value = dense_resource<__elided__> : tensor<1x4xi32>} : () -> tensor<1x4xi32>
    %151 = "tfl.pseudo_const"() {value = dense_resource<__elided__> : tensor<4xi32>} : () -> tensor<4xi32>
    %152 = "tfl.reshape"(%85, %151) : (tensor<1x384x384xf32>, tensor<4xi32>) -> tensor<1x1x384x384xf32>
    %153 = "tfl.pseudo_const"() {value = dense_resource<__elided__> : tensor<1x4xi32>} : () -> tensor<1x4xi32>
    %154 = "tfl.pseudo_const"() {value = dense_resource<__elided__> : tensor<4xi32>} : () -> tensor<4xi32>
    %155 = "tfl.reshape"(%87, %154) : (tensor<1x384x384xf32>, tensor<4xi32>) -> tensor<1x1x384x384xf32>
    %156 = "tfl.pseudo_const"() {value = dense_resource<__elided__> : tensor<1x4xi32>} : () -> tensor<1x4xi32>
    %157 = "tfl.pseudo_const"() {value = dense_resource<__elided__> : tensor<4xi32>} : () -> tensor<4xi32>
    %158 = "tfl.reshape"(%89, %157) : (tensor<1x384x384xf32>, tensor<4xi32>) -> tensor<1x1x384x384xf32>
    %159 = "tfl.pseudo_const"() {value = dense_resource<__elided__> : tensor<1x4xi32>} : () -> tensor<1x4xi32>
    %160 = "tfl.pseudo_const"() {value = dense_resource<__elided__> : tensor<4xi32>} : () -> tensor<4xi32>
    %161 = "tfl.reshape"(%91, %160) : (tensor<1x384x384xf32>, tensor<4xi32>) -> tensor<1x1x384x384xf32>
    %162 = "tfl.pseudo_const"() {value = dense_resource<__elided__> : tensor<1x4xi32>} : () -> tensor<1x4xi32>
    %163 = "tfl.pseudo_const"() {value = dense_resource<__elided__> : tensor<4xi32>} : () -> tensor<4xi32>
    %164 = "tfl.reshape"(%93, %163) : (tensor<1x384x384xf32>, tensor<4xi32>) -> tensor<1x1x384x384xf32>
    %165 = "tfl.pseudo_const"() {value = dense_resource<__elided__> : tensor<1x4xi32>} : () -> tensor<1x4xi32>
    %166 = "tfl.pseudo_const"() {value = dense_resource<__elided__> : tensor<4xi32>} : () -> tensor<4xi32>
    %167 = "tfl.reshape"(%95, %166) : (tensor<1x384x384xf32>, tensor<4xi32>) -> tensor<1x1x384x384xf32>
    %168 = "tfl.pseudo_const"() {value = dense_resource<__elided__> : tensor<1x4xi32>} : () -> tensor<1x4xi32>
    %169 = "tfl.pseudo_const"() {value = dense_resource<__elided__> : tensor<4xi32>} : () -> tensor<4xi32>
    %170 = "tfl.reshape"(%97, %169) : (tensor<1x384x384xf32>, tensor<4xi32>) -> tensor<1x1x384x384xf32>
    %171 = "tfl.pseudo_const"() {value = dense_resource<__elided__> : tensor<1x4xi32>} : () -> tensor<1x4xi32>
    %172 = "tfl.pseudo_const"() {value = dense_resource<__elided__> : tensor<4xi32>} : () -> tensor<4xi32>
    %173 = "tfl.reshape"(%99, %172) : (tensor<1x384x384xf32>, tensor<4xi32>) -> tensor<1x1x384x384xf32>
    %174 = "tfl.pseudo_const"() {value = dense_resource<__elided__> : tensor<1x4xi32>} : () -> tensor<1x4xi32>
    %175 = "tfl.pseudo_const"() {value = dense_resource<__elided__> : tensor<4xi32>} : () -> tensor<4xi32>
    %176 = "tfl.reshape"(%101, %175) : (tensor<1x384x384xf32>, tensor<4xi32>) -> tensor<1x1x384x384xf32>
    %177 = "tfl.pseudo_const"() {value = dense_resource<__elided__> : tensor<1x4xi32>} : () -> tensor<1x4xi32>
    %178 = "tfl.pseudo_const"() {value = dense_resource<__elided__> : tensor<4xi32>} : () -> tensor<4xi32>
    %179 = "tfl.reshape"(%103, %178) : (tensor<1x384x384xf32>, tensor<4xi32>) -> tensor<1x1x384x384xf32>
    %180 = "tfl.pseudo_const"() {value = dense_resource<__elided__> : tensor<1x4xi32>} : () -> tensor<1x4xi32>
    %181 = "tfl.pseudo_const"() {value = dense_resource<__elided__> : tensor<4xi32>} : () -> tensor<4xi32>
    %182 = "tfl.reshape"(%105, %181) : (tensor<1x384x384xf32>, tensor<4xi32>) -> tensor<1x1x384x384xf32>
    %183 = "tfl.pseudo_const"() {value = dense_resource<__elided__> : tensor<1x4xi32>} : () -> tensor<1x4xi32>
    %184 = "tfl.pseudo_const"() {value = dense_resource<__elided__> : tensor<4xi32>} : () -> tensor<4xi32>
    %185 = "tfl.reshape"(%107, %184) : (tensor<1x384x384xf32>, tensor<4xi32>) -> tensor<1x1x384x384xf32>
    %186 = "tfl.pseudo_const"() {value = dense_resource<__elided__> : tensor<1x4xi32>} : () -> tensor<1x4xi32>
    %187 = "tfl.pseudo_const"() {value = dense_resource<__elided__> : tensor<4xi32>} : () -> tensor<4xi32>
    %188 = "tfl.reshape"(%109, %187) : (tensor<1x384x384xf32>, tensor<4xi32>) -> tensor<1x1x384x384xf32>
    %189 = "tfl.pseudo_const"() {value = dense_resource<__elided__> : tensor<1x4xi32>} : () -> tensor<1x4xi32>
    %190 = "tfl.pseudo_const"() {value = dense_resource<__elided__> : tensor<4xi32>} : () -> tensor<4xi32>
    %191 = "tfl.reshape"(%111, %190) : (tensor<1x384x384xf32>, tensor<4xi32>) -> tensor<1x1x384x384xf32>
    %192 = "tfl.pseudo_const"() {value = dense_resource<__elided__> : tensor<3x2xi32>} : () -> tensor<3x2xi32>
    %193 = "tfl.pad"(%115, %192) : (tensor<1x383x128xf32>, tensor<3x2xi32>) -> tensor<1x384x128xf32>
    %194 = "tfl.pseudo_const"() {value = dense_resource<__elided__> : tensor<3x2xi32>} : () -> tensor<3x2xi32>
    %195 = "tfl.pad"(%119, %194) : (tensor<1x383x128xf32>, tensor<3x2xi32>) -> tensor<1x384x128xf32>
    %196 = "tfl.concatenation"(%193, %63, %195) {axis = 2 : i32, fused_activation_function = "NONE"} : (tensor<1x384x128xf32>, tensor<1x384x128xf32>, tensor<1x384x128xf32>) -> tensor<1x384x384xf32>
    %197 = "tfl.pseudo_const"() {value = dense_resource<__elided__> : tensor<512x384xf32>} : () -> tensor<512x384xf32>
    %198 = "tfl.pseudo_const"() {value = dense_resource<__elided__> : tensor<512xf32>} : () -> tensor<512xf32>
    %199 = "tfl.fully_connected"(%196, %197, %198) {asymmetric_quantize_inputs = false, fused_activation_function = "NONE", keep_num_dims = false, weights_format = "DEFAULT"} : (tensor<1x384x384xf32>, tensor<512x384xf32>, tensor<512xf32>) -> tensor<384x512xf32>
    %200 = "tfl.pseudo_const"() {value = dense_resource<__elided__> : tensor<3xi32>} : () -> tensor<3xi32>
    %201 = "tfl.reshape"(%199, %200) : (tensor<384x512xf32>, tensor<3xi32>) -> tensor<1x384x512xf32>
    %202 = tfl.add %201, %13 {fused_activation_function = "NONE"} : tensor<1x384x512xf32>
    %203 = "tfl.pseudo_const"() {value = dense_resource<__elided__> : tensor<512xf32>} : () -> tensor<512xf32>
    %204 = tfl.mul(%202, %203) {fused_activation_function = "NONE"} : (tensor<1x384x512xf32>, tensor<512xf32>) -> tensor<1x384x512xf32>
    %205 = "tfl.pseudo_const"() {value = dense_resource<__elided__> : tensor<512xf32>} : () -> tensor<512xf32>
    %206 = tfl.add(%204, %205) {fused_activation_function = "NONE"} : (tensor<1x384x512xf32>, tensor<512xf32>) -> tensor<1x384x512xf32>
    %207 = "tfl.pseudo_const"() {value = dense_resource<__elided__> : tensor<128x512xf32>} : () -> tensor<128x512xf32>
    %208 = "tfl.pseudo_const"() {value = dense_resource<__elided__> : tensor<128xf32>} : () -> tensor<128xf32>
    %209 = "tfl.fully_connected"(%206, %207, %208) {asymmetric_quantize_inputs = false, fused_activation_function = "NONE", keep_num_dims = false, weights_format = "DEFAULT"} : (tensor<1x384x512xf32>, tensor<128x512xf32>, tensor<128xf32>) -> tensor<384x128xf32>
    %210 = "tfl.pseudo_const"() {value = dense_resource<__elided__> : tensor<128x512xf32>} : () -> tensor<128x512xf32>
    %211 = "tfl.pseudo_const"() {value = dense_resource<__elided__> : tensor<128xf32>} : () -> tensor<128xf32>
    %212 = "tfl.fully_connected"(%206, %210, %211) {asymmetric_quantize_inputs = false, fused_activation_function = "NONE", keep_num_dims = false, weights_format = "DEFAULT"} : (tensor<1x384x512xf32>, tensor<128x512xf32>, tensor<128xf32>) -> tensor<384x128xf32>
    %213 = "tfl.pseudo_const"() {value = dense_resource<__elided__> : tensor<128x512xf32>} : () -> tensor<128x512xf32>
    %214 = "tfl.pseudo_const"() {value = dense_resource<__elided__> : tensor<128xf32>} : () -> tensor<128xf32>
    %215 = "tfl.fully_connected"(%206, %213, %214) {asymmetric_quantize_inputs = false, fused_activation_function = "NONE", keep_num_dims = false, weights_format = "DEFAULT"} : (tensor<1x384x512xf32>, tensor<128x512xf32>, tensor<128xf32>) -> tensor<384x128xf32>
    %216 = "tfl.pseudo_const"() {value = dense_resource<__elided__> : tensor<3xi32>} : () -> tensor<3xi32>
    %217 = "tfl.reshape"(%209, %216) : (tensor<384x128xf32>, tensor<3xi32>) -> tensor<1x384x128xf32>
    %218 = "tfl.pseudo_const"() {value = dense_resource<__elided__> : tensor<3xi32>} : () -> tensor<3xi32>
    %219 = "tfl.reshape"(%212, %218) : (tensor<384x128xf32>, tensor<3xi32>) -> tensor<1x384x128xf32>
    %220 = "tfl.pseudo_const"() {value = dense_resource<__elided__> : tensor<3xi32>} : () -> tensor<3xi32>
    %221 = "tfl.reshape"(%215, %220) : (tensor<384x128xf32>, tensor<3xi32>) -> tensor<1x384x128xf32>
    %222 = "tfl.pseudo_const"() {value = dense_resource<__elided__> : tensor<128x128xf32>} : () -> tensor<128x128xf32>
    %223 = "tfl.pseudo_const"() {value = dense_resource<__elided__> : tensor<128xf32>} : () -> tensor<128xf32>
    %224 = "tfl.fully_connected"(%219, %222, %223) {asymmetric_quantize_inputs = false, fused_activation_function = "NONE", keep_num_dims = false, weights_format = "DEFAULT"} : (tensor<1x384x128xf32>, tensor<128x128xf32>, tensor<128xf32>) -> tensor<384x128xf32>
    %225 = "tfl.pseudo_const"() {value = dense_resource<__elided__> : tensor<128x128xf32>} : () -> tensor<128x128xf32>
    %226 = "tfl.pseudo_const"() {value = dense_resource<__elided__> : tensor<128xf32>} : () -> tensor<128xf32>
    %227 = "tfl.fully_connected"(%219, %225, %226) {asymmetric_quantize_inputs = false, fused_activation_function = "NONE", keep_num_dims = false, weights_format = "DEFAULT"} : (tensor<1x384x128xf32>, tensor<128x128xf32>, tensor<128xf32>) -> tensor<384x128xf32>
    %228 = "tfl.pseudo_const"() {value = dense_resource<__elided__> : tensor<128x128xf32>} : () -> tensor<128x128xf32>
    %229 = "tfl.pseudo_const"() {value = dense_resource<__elided__> : tensor<128xf32>} : () -> tensor<128xf32>
    %230 = "tfl.fully_connected"(%221, %228, %229) {asymmetric_quantize_inputs = false, fused_activation_function = "NONE", keep_num_dims = false, weights_format = "DEFAULT"} : (tensor<1x384x128xf32>, tensor<128x128xf32>, tensor<128xf32>) -> tensor<384x128xf32>
    %231 = "tfl.pseudo_const"() {value = dense_resource<__elided__> : tensor<4xi32>} : () -> tensor<4xi32>
    %232 = "tfl.reshape"(%224, %231) : (tensor<384x128xf32>, tensor<4xi32>) -> tensor<1x384x4x32xf32>
    %233 = "tfl.pseudo_const"() {value = dense_resource<__elided__> : tensor<4xi32>} : () -> tensor<4xi32>
    %234 = "tfl.reshape"(%227, %233) : (tensor<384x128xf32>, tensor<4xi32>) -> tensor<1x384x4x32xf32>
    %235 = "tfl.pseudo_const"() {value = dense_resource<__elided__> : tensor<4xi32>} : () -> tensor<4xi32>
    %236 = "tfl.reshape"(%230, %235) : (tensor<384x128xf32>, tensor<4xi32>) -> tensor<1x384x4x32xf32>
    %237 = "tfl.pseudo_const"() {value = dense_resource<__elided__> : tensor<4xi32>} : () -> tensor<4xi32>
    %238 = "tfl.transpose"(%232, %237) : (tensor<1x384x4x32xf32>, tensor<4xi32>) -> tensor<1x4x384x32xf32>
    %239 = "tfl.pseudo_const"() {value = dense_resource<__elided__> : tensor<4xi32>} : () -> tensor<4xi32>
    %240 = "tfl.transpose"(%234, %239) : (tensor<1x384x4x32xf32>, tensor<4xi32>) -> tensor<1x4x384x32xf32>
    %241 = "tfl.pseudo_const"() {value = dense_resource<__elided__> : tensor<4xi32>} : () -> tensor<4xi32>
    %242 = "tfl.transpose"(%236, %241) : (tensor<1x384x4x32xf32>, tensor<4xi32>) -> tensor<1x4x384x32xf32>
    %243 = "tfl.pseudo_const"() {value = dense_resource<__elided__> : tensor<4xi32>} : () -> tensor<4xi32>
    %244 = "tfl.transpose"(%240, %243) : (tensor<1x4x384x32xf32>, tensor<4xi32>) -> tensor<1x4x32x384xf32>
    %245 = "tfl.pseudo_const"() {value = dense_resource<__elided__> : tensor<3xi32>} : () -> tensor<3xi32>
    %246 = "tfl.reshape"(%238, %245) : (tensor<1x4x384x32xf32>, tensor<3xi32>) -> tensor<4x384x32xf32>
    %247 = "tfl.pseudo_const"() {value = dense<0> : tensor<3xi32>} : () -> tensor<3xi32>
    %248 = "tfl.pseudo_const"() {value = dense_resource<__elided__> : tensor<3xi32>} : () -> tensor<3xi32>
    %249 = "tfl.slice"(%246, %247, %248) : (tensor<4x384x32xf32>, tensor<3xi32>, tensor<3xi32>) -> tensor<1x384x32xf32>
    %250 = "tfl.pseudo_const"() {value = dense_resource<__elided__> : tensor<3xi32>} : () -> tensor<3xi32>
    %251 = "tfl.pseudo_const"() {value = dense_resource<__elided__> : tensor<3xi32>} : () -> tensor<3xi32>
    %252 = "tfl.slice"(%246, %250, %251) : (tensor<4x384x32xf32>, tensor<3xi32>, tensor<3xi32>) -> tensor<1x384x32xf32>
    %253 = "tfl.pseudo_const"() {value = dense_resource<__elided__> : tensor<3xi32>} : () -> tensor<3xi32>
    %254 = "tfl.pseudo_const"() {value = dense_resource<__elided__> : tensor<3xi32>} : () -> tensor<3xi32>
    %255 = "tfl.slice"(%246, %253, %254) : (tensor<4x384x32xf32>, tensor<3xi32>, tensor<3xi32>) -> tensor<1x384x32xf32>
    %256 = "tfl.pseudo_const"() {value = dense_resource<__elided__> : tensor<3xi32>} : () -> tensor<3xi32>
    %257 = "tfl.pseudo_const"() {value = dense_resource<__elided__> : tensor<3xi32>} : () -> tensor<3xi32>
    %258 = "tfl.slice"(%246, %256, %257) : (tensor<4x384x32xf32>, tensor<3xi32>, tensor<3xi32>) -> tensor<1x384x32xf32>
    %259 = "tfl.pseudo_const"() {value = dense_resource<__elided__> : tensor<3xi32>} : () -> tensor<3xi32>
    %260 = "tfl.reshape"(%244, %259) : (tensor<1x4x32x384xf32>, tensor<3xi32>) -> tensor<4x32x384xf32>
    %261 = "tfl.pseudo_const"() {value = dense<0> : tensor<3xi32>} : () -> tensor<3xi32>
    %262 = "tfl.pseudo_const"() {value = dense_resource<__elided__> : tensor<3xi32>} : () -> tensor<3xi32>
    %263 = "tfl.slice"(%260, %261, %262) : (tensor<4x32x384xf32>, tensor<3xi32>, tensor<3xi32>) -> tensor<1x32x384xf32>
    %264 = "tfl.pseudo_const"() {value = dense_resource<__elided__> : tensor<3xi32>} : () -> tensor<3xi32>
    %265 = "tfl.transpose"(%263, %264) : (tensor<1x32x384xf32>, tensor<3xi32>) -> tensor<384x32x1xf32>
    %266 = "tfl.pseudo_const"() {value = dense_resource<__elided__> : tensor<3xi32>} : () -> tensor<3xi32>
    %267 = "tfl.pseudo_const"() {value = dense_resource<__elided__> : tensor<3xi32>} : () -> tensor<3xi32>
    %268 = "tfl.slice"(%260, %266, %267) : (tensor<4x32x384xf32>, tensor<3xi32>, tensor<3xi32>) -> tensor<1x32x384xf32>
    %269 = "tfl.pseudo_const"() {value = dense_resource<__elided__> : tensor<3xi32>} : () -> tensor<3xi32>
    %270 = "tfl.transpose"(%268, %269) : (tensor<1x32x384xf32>, tensor<3xi32>) -> tensor<384x32x1xf32>
    %271 = "tfl.pseudo_const"() {value = dense_resource<__elided__> : tensor<3xi32>} : () -> tensor<3xi32>
    %272 = "tfl.pseudo_const"() {value = dense_resource<__elided__> : tensor<3xi32>} : () -> tensor<3xi32>
    %273 = "tfl.slice"(%260, %271, %272) : (tensor<4x32x384xf32>, tensor<3xi32>, tensor<3xi32>) -> tensor<1x32x384xf32>
    %274 = "tfl.pseudo_const"() {value = dense_resource<__elided__> : tensor<3xi32>} : () -> tensor<3xi32>
    %275 = "tfl.transpose"(%273, %274) : (tensor<1x32x384xf32>, tensor<3xi32>) -> tensor<384x32x1xf32>
    %276 = "tfl.pseudo_const"() {value = dense_resource<__elided__> : tensor<3xi32>} : () -> tensor<3xi32>
    %277 = "tfl.pseudo_const"() {value = dense_resource<__elided__> : tensor<3xi32>} : () -> tensor<3xi32>
    %278 = "tfl.slice"(%260, %276, %277) : (tensor<4x32x384xf32>, tensor<3xi32>, tensor<3xi32>) -> tensor<1x32x384xf32>
    %279 = "tfl.pseudo_const"() {value = dense_resource<__elided__> : tensor<3xi32>} : () -> tensor<3xi32>
    %280 = "tfl.transpose"(%278, %279) : (tensor<1x32x384xf32>, tensor<3xi32>) -> tensor<384x32x1xf32>
    %281 = "tfl.pseudo_const"() {value = dense_resource<__elided__> : tensor<2xi32>} : () -> tensor<2xi32>
    %282 = "tfl.reshape"(%265, %281) : (tensor<384x32x1xf32>, tensor<2xi32>) -> tensor<384x32xf32>
    %283 = "tfl.pseudo_const"() {value = dense<0.000000e+00> : tensor<384xf32>} : () -> tensor<384xf32>
    %284 = "tfl.fully_connected"(%249, %282, %283) {asymmetric_quantize_inputs = false, fused_activation_function = "NONE", keep_num_dims = false, weights_format = "DEFAULT"} : (tensor<1x384x32xf32>, tensor<384x32xf32>, tensor<384xf32>) -> tensor<384x384xf32>
    %285 = "tfl.pseudo_const"() {value = dense_resource<__elided__> : tensor<2xi32>} : () -> tensor<2xi32>
    %286 = "tfl.reshape"(%270, %285) : (tensor<384x32x1xf32>, tensor<2xi32>) -> tensor<384x32xf32>
    %287 = "tfl.fully_connected"(%252, %286, %283) {asymmetric_quantize_inputs = false, fused_activation_function = "NONE", keep_num_dims = false, weights_format = "DEFAULT"} : (tensor<1x384x32xf32>, tensor<384x32xf32>, tensor<384xf32>) -> tensor<384x384xf32>
    %288 = "tfl.pseudo_const"() {value = dense_resource<__elided__> : tensor<2xi32>} : () -> tensor<2xi32>
    %289 = "tfl.reshape"(%275, %288) : (tensor<384x32x1xf32>, tensor<2xi32>) -> tensor<384x32xf32>
    %290 = "tfl.fully_connected"(%255, %289, %283) {asymmetric_quantize_inputs = false, fused_activation_function = "NONE", keep_num_dims = false, weights_format = "DEFAULT"} : (tensor<1x384x32xf32>, tensor<384x32xf32>, tensor<384xf32>) -> tensor<384x384xf32>
    %291 = "tfl.pseudo_const"() {value = dense_resource<__elided__> : tensor<2xi32>} : () -> tensor<2xi32>
    %292 = "tfl.reshape"(%280, %291) : (tensor<384x32x1xf32>, tensor<2xi32>) -> tensor<384x32xf32>
    %293 = "tfl.fully_connected"(%258, %292, %283) {asymmetric_quantize_inputs = false, fused_activation_function = "NONE", keep_num_dims = false, weights_format = "DEFAULT"} : (tensor<1x384x32xf32>, tensor<384x32xf32>, tensor<384xf32>) -> tensor<384x384xf32>
    %294 = "tfl.pack"(%284, %287, %290, %293) {axis = 0 : i32, values_count = 4 : i32} : (tensor<384x384xf32>, tensor<384x384xf32>, tensor<384x384xf32>, tensor<384x384xf32>) -> tensor<4x384x384xf32>
    %295 = "tfl.pseudo_const"() {value = dense<0.176776692> : tensor<f32>} : () -> tensor<f32>
    %296 = tfl.mul(%294, %295) {fused_activation_function = "NONE"} : (tensor<4x384x384xf32>, tensor<f32>) -> tensor<4x384x384xf32>
    %297 = "tfl.pseudo_const"() {value = dense_resource<__elided__> : tensor<4xi32>} : () -> tensor<4xi32>
    %298 = "tfl.reshape"(%296, %297) : (tensor<4x384x384xf32>, tensor<4xi32>) -> tensor<1x4x384x384xf32>
    %299 = tfl.add(%298, %122) {fused_activation_function = "NONE"} : (tensor<1x4x384x384xf32>, tensor<1x1x384x384xf32>) -> tensor<1x4x384x384xf32>
    %300 = "tfl.softmax"(%299) {beta = 1.000000e+00 : f32} : (tensor<1x4x384x384xf32>) -> tensor<1x4x384x384xf32>
    %301 = "tfl.pseudo_const"() {value = dense_resource<__elided__> : tensor<3xi32>} : () -> tensor<3xi32>
    %302 = "tfl.reshape"(%300, %301) : (tensor<1x4x384x384xf32>, tensor<3xi32>) -> tensor<4x384x384xf32>
    %303 = "tfl.pseudo_const"() {value = dense<0> : tensor<3xi32>} : () -> tensor<3xi32>
    %304 = "tfl.pseudo_const"() {value = dense_resource<__elided__> : tensor<3xi32>} : () -> tensor<3xi32>
    %305 = "tfl.slice"(%302, %303, %304) : (tensor<4x384x384xf32>, tensor<3xi32>, tensor<3xi32>) -> tensor<1x384x384xf32>
    %306 = "tfl.pseudo_const"() {value = dense_resource<__elided__> : tensor<3xi32>} : () -> tensor<3xi32>
    %307 = "tfl.pseudo_const"() {value = dense_resource<__elided__> : tensor<3xi32>} : () -> tensor<3xi32>
    %308 = "tfl.slice"(%302, %306, %307) : (tensor<4x384x384xf32>, tensor<3xi32>, tensor<3xi32>) -> tensor<1x384x384xf32>
    %309 = "tfl.pseudo_const"() {value = dense_resource<__elided__> : tensor<3xi32>} : () -> tensor<3xi32>
    %310 = "tfl.pseudo_const"() {value = dense_resource<__elided__> : tensor<3xi32>} : () -> tensor<3xi32>
    %311 = "tfl.slice"(%302, %309, %310) : (tensor<4x384x384xf32>, tensor<3xi32>, tensor<3xi32>) -> tensor<1x384x384xf32>
    %312 = "tfl.pseudo_const"() {value = dense_resource<__elided__> : tensor<3xi32>} : () -> tensor<3xi32>
    %313 = "tfl.pseudo_const"() {value = dense_resource<__elided__> : tensor<3xi32>} : () -> tensor<3xi32>
    %314 = "tfl.slice"(%302, %312, %313) : (tensor<4x384x384xf32>, tensor<3xi32>, tensor<3xi32>) -> tensor<1x384x384xf32>
    %315 = "tfl.pseudo_const"() {value = dense_resource<__elided__> : tensor<3xi32>} : () -> tensor<3xi32>
    %316 = "tfl.reshape"(%242, %315) : (tensor<1x4x384x32xf32>, tensor<3xi32>) -> tensor<4x384x32xf32>
    %317 = "tfl.pseudo_const"() {value = dense<0> : tensor<3xi32>} : () -> tensor<3xi32>
    %318 = "tfl.pseudo_const"() {value = dense_resource<__elided__> : tensor<3xi32>} : () -> tensor<3xi32>
    %319 = "tfl.slice"(%316, %317, %318) : (tensor<4x384x32xf32>, tensor<3xi32>, tensor<3xi32>) -> tensor<1x384x32xf32>
    %320 = "tfl.pseudo_const"() {value = dense_resource<__elided__> : tensor<3xi32>} : () -> tensor<3xi32>
    %321 = "tfl.transpose"(%319, %320) : (tensor<1x384x32xf32>, tensor<3xi32>) -> tensor<32x384x1xf32>
    %322 = "tfl.pseudo_const"() {value = dense_resource<__elided__> : tensor<3xi32>} : () -> tensor<3xi32>
    %323 = "tfl.pseudo_const"() {value = dense_resource<__elided__> : tensor<3xi32>} : () -> tensor<3xi32>
    %324 = "tfl.slice"(%316, %322, %323) : (tensor<4x384x32xf32>, tensor<3xi32>, tensor<3xi32>) -> tensor<1x384x32xf32>
    %325 = "tfl.pseudo_const"() {value = dense_resource<__elided__> : tensor<3xi32>} : () -> tensor<3xi32>
    %326 = "tfl.transpose"(%324, %325) : (tensor<1x384x32xf32>, tensor<3xi32>) -> tensor<32x384x1xf32>
    %327 = "tfl.pseudo_const"() {value = dense_resource<__elided__> : tensor<3xi32>} : () -> tensor<3xi32>
    %328 = "tfl.pseudo_const"() {value = dense_resource<__elided__> : tensor<3xi32>} : () -> tensor<3xi32>
    %329 = "tfl.slice"(%316, %327, %328) : (tensor<4x384x32xf32>, tensor<3xi32>, tensor<3xi32>) -> tensor<1x384x32xf32>
    %330 = "tfl.pseudo_const"() {value = dense_resource<__elided__> : tensor<3xi32>} : () -> tensor<3xi32>
    %331 = "tfl.transpose"(%329, %330) : (tensor<1x384x32xf32>, tensor<3xi32>) -> tensor<32x384x1xf32>
    %332 = "tfl.pseudo_const"() {value = dense_resource<__elided__> : tensor<3xi32>} : () -> tensor<3xi32>
    %333 = "tfl.pseudo_const"() {value = dense_resource<__elided__> : tensor<3xi32>} : () -> tensor<3xi32>
    %334 = "tfl.slice"(%316, %332, %333) : (tensor<4x384x32xf32>, tensor<3xi32>, tensor<3xi32>) -> tensor<1x384x32xf32>
    %335 = "tfl.pseudo_const"() {value = dense_resource<__elided__> : tensor<3xi32>} : () -> tensor<3xi32>
    %336 = "tfl.transpose"(%334, %335) : (tensor<1x384x32xf32>, tensor<3xi32>) -> tensor<32x384x1xf32>
    %337 = "tfl.pseudo_const"() {value = dense_resource<__elided__> : tensor<2xi32>} : () -> tensor<2xi32>
    %338 = "tfl.reshape"(%321, %337) : (tensor<32x384x1xf32>, tensor<2xi32>) -> tensor<32x384xf32>
    %339 = "tfl.pseudo_const"() {value = dense<0.000000e+00> : tensor<32xf32>} : () -> tensor<32xf32>
    %340 = "tfl.fully_connected"(%305, %338, %339) {asymmetric_quantize_inputs = false, fused_activation_function = "NONE", keep_num_dims = false, weights_format = "DEFAULT"} : (tensor<1x384x384xf32>, tensor<32x384xf32>, tensor<32xf32>) -> tensor<384x32xf32>
    %341 = "tfl.pseudo_const"() {value = dense_resource<__elided__> : tensor<2xi32>} : () -> tensor<2xi32>
    %342 = "tfl.reshape"(%326, %341) : (tensor<32x384x1xf32>, tensor<2xi32>) -> tensor<32x384xf32>
    %343 = "tfl.fully_connected"(%308, %342, %339) {asymmetric_quantize_inputs = false, fused_activation_function = "NONE", keep_num_dims = false, weights_format = "DEFAULT"} : (tensor<1x384x384xf32>, tensor<32x384xf32>, tensor<32xf32>) -> tensor<384x32xf32>
    %344 = "tfl.pseudo_const"() {value = dense_resource<__elided__> : tensor<2xi32>} : () -> tensor<2xi32>
    %345 = "tfl.reshape"(%331, %344) : (tensor<32x384x1xf32>, tensor<2xi32>) -> tensor<32x384xf32>
    %346 = "tfl.fully_connected"(%311, %345, %339) {asymmetric_quantize_inputs = false, fused_activation_function = "NONE", keep_num_dims = false, weights_format = "DEFAULT"} : (tensor<1x384x384xf32>, tensor<32x384xf32>, tensor<32xf32>) -> tensor<384x32xf32>
    %347 = "tfl.pseudo_const"() {value = dense_resource<__elided__> : tensor<2xi32>} : () -> tensor<2xi32>
    %348 = "tfl.reshape"(%336, %347) : (tensor<32x384x1xf32>, tensor<2xi32>) -> tensor<32x384xf32>
    %349 = "tfl.fully_connected"(%314, %348, %339) {asymmetric_quantize_inputs = false, fused_activation_function = "NONE", keep_num_dims = false, weights_format = "DEFAULT"} : (tensor<1x384x384xf32>, tensor<32x384xf32>, tensor<32xf32>) -> tensor<384x32xf32>
    %350 = "tfl.pack"(%340, %343, %346, %349) {axis = 0 : i32, values_count = 4 : i32} : (tensor<384x32xf32>, tensor<384x32xf32>, tensor<384x32xf32>, tensor<384x32xf32>) -> tensor<4x384x32xf32>
    %351 = "tfl.pseudo_const"() {value = dense_resource<__elided__> : tensor<3xi32>} : () -> tensor<3xi32>
    %352 = "tfl.transpose"(%350, %351) : (tensor<4x384x32xf32>, tensor<3xi32>) -> tensor<384x4x32xf32>
    %353 = "tfl.pseudo_const"() {value = dense_resource<__elided__> : tensor<4xi32>} : () -> tensor<4xi32>
    %354 = "tfl.reshape"(%352, %353) : (tensor<384x4x32xf32>, tensor<4xi32>) -> tensor<1x384x4x32xf32>
    %355 = "tfl.pseudo_const"() {value = dense_resource<__elided__> : tensor<128x128xf32>} : () -> tensor<128x128xf32>
    %356 = "tfl.pseudo_const"() {value = dense_resource<__elided__> : tensor<128xf32>} : () -> tensor<128xf32>
    %357 = "tfl.fully_connected"(%354, %355, %356) {asymmetric_quantize_inputs = false, fused_activation_function = "NONE", keep_num_dims = false, weights_format = "DEFAULT"} : (tensor<1x384x4x32xf32>, tensor<128x128xf32>, tensor<128xf32>) -> tensor<384x128xf32>
    %358 = "tfl.pseudo_const"() {value = dense_resource<__elided__> : tensor<3xi32>} : () -> tensor<3xi32>
    %359 = "tfl.reshape"(%357, %358) : (tensor<384x128xf32>, tensor<3xi32>) -> tensor<1x384x128xf32>
    %360 = tfl.add %359, %217 {fused_activation_function = "NONE"} : tensor<1x384x128xf32>
    %361 = "tfl.pseudo_const"() {value = dense_resource<__elided__> : tensor<128xf32>} : () -> tensor<128xf32>
    %362 = tfl.mul(%360, %361) {fused_activation_function = "NONE"} : (tensor<1x384x128xf32>, tensor<128xf32>) -> tensor<1x384x128xf32>
    %363 = "tfl.pseudo_const"() {value = dense_resource<__elided__> : tensor<128xf32>} : () -> tensor<128xf32>
    %364 = tfl.add(%362, %363) {fused_activation_function = "NONE"} : (tensor<1x384x128xf32>, tensor<128xf32>) -> tensor<1x384x128xf32>
    %365 = "tfl.pseudo_const"() {value = dense_resource<__elided__> : tensor<512x128xf32>} : () -> tensor<512x128xf32>
    %366 = "tfl.pseudo_const"() {value = dense_resource<__elided__> : tensor<512xf32>} : () -> tensor<512xf32>
    %367 = "tfl.fully_connected"(%364, %365, %366) {asymmetric_quantize_inputs = false, fused_activation_function = "RELU", keep_num_dims = false, weights_format = "DEFAULT"} : (tensor<1x384x128xf32>, tensor<512x128xf32>, tensor<512xf32>) -> tensor<384x512xf32>
    %368 = "tfl.pseudo_const"() {value = dense_resource<__elided__> : tensor<128x512xf32>} : () -> tensor<128x512xf32>
    %369 = "tfl.pseudo_const"() {value = dense_resource<__elided__> : tensor<128xf32>} : () -> tensor<128xf32>
    %370 = "tfl.fully_connected"(%367, %368, %369) {asymmetric_quantize_inputs = false, fused_activation_function = "NONE", keep_num_dims = false, weights_format = "DEFAULT"} : (tensor<384x512xf32>, tensor<128x512xf32>, tensor<128xf32>) -> tensor<384x128xf32>
    %371 = "tfl.pseudo_const"() {value = dense_resource<__elided__> : tensor<3xi32>} : () -> tensor<3xi32>
    %372 = "tfl.reshape"(%370, %371) : (tensor<384x128xf32>, tensor<3xi32>) -> tensor<1x384x128xf32>
    %373 = tfl.add %372, %364 {fused_activation_function = "NONE"} : tensor<1x384x128xf32>
    %374 = "tfl.pseudo_const"() {value = dense_resource<__elided__> : tensor<128xf32>} : () -> tensor<128xf32>
    %375 = tfl.mul(%373, %374) {fused_activation_function = "NONE"} : (tensor<1x384x128xf32>, tensor<128xf32>) -> tensor<1x384x128xf32>
    %376 = "tfl.pseudo_const"() {value = dense_resource<__elided__> : tensor<128xf32>} : () -> tensor<128xf32>
    %377 = tfl.add(%375, %376) {fused_activation_function = "NONE"} : (tensor<1x384x128xf32>, tensor<128xf32>) -> tensor<1x384x128xf32>
    %378 = "tfl.pseudo_const"() {value = dense_resource<__elided__> : tensor<512x128xf32>} : () -> tensor<512x128xf32>
    %379 = "tfl.pseudo_const"() {value = dense_resource<__elided__> : tensor<512xf32>} : () -> tensor<512xf32>
    %380 = "tfl.fully_connected"(%377, %378, %379) {asymmetric_quantize_inputs = false, fused_activation_function = "RELU", keep_num_dims = false, weights_format = "DEFAULT"} : (tensor<1x384x128xf32>, tensor<512x128xf32>, tensor<512xf32>) -> tensor<384x512xf32>
    %381 = "tfl.pseudo_const"() {value = dense_resource<__elided__> : tensor<128x512xf32>} : () -> tensor<128x512xf32>
    %382 = "tfl.pseudo_const"() {value = dense_resource<__elided__> : tensor<128xf32>} : () -> tensor<128xf32>
    %383 = "tfl.fully_connected"(%380, %381, %382) {asymmetric_quantize_inputs = false, fused_activation_function = "NONE", keep_num_dims = false, weights_format = "DEFAULT"} : (tensor<384x512xf32>, tensor<128x512xf32>, tensor<128xf32>) -> tensor<384x128xf32>
    %384 = "tfl.pseudo_const"() {value = dense_resource<__elided__> : tensor<3xi32>} : () -> tensor<3xi32>
    %385 = "tfl.reshape"(%383, %384) : (tensor<384x128xf32>, tensor<3xi32>) -> tensor<1x384x128xf32>
    %386 = tfl.add %385, %377 {fused_activation_function = "NONE"} : tensor<1x384x128xf32>
    %387 = "tfl.pseudo_const"() {value = dense_resource<__elided__> : tensor<128xf32>} : () -> tensor<128xf32>
    %388 = tfl.mul(%386, %387) {fused_activation_function = "NONE"} : (tensor<1x384x128xf32>, tensor<128xf32>) -> tensor<1x384x128xf32>
    %389 = "tfl.pseudo_const"() {value = dense_resource<__elided__> : tensor<128xf32>} : () -> tensor<128xf32>
    %390 = tfl.add(%388, %389) {fused_activation_function = "NONE"} : (tensor<1x384x128xf32>, tensor<128xf32>) -> tensor<1x384x128xf32>
    %391 = "tfl.pseudo_const"() {value = dense_resource<__elided__> : tensor<512x128xf32>} : () -> tensor<512x128xf32>
    %392 = "tfl.pseudo_const"() {value = dense_resource<__elided__> : tensor<512xf32>} : () -> tensor<512xf32>
    %393 = "tfl.fully_connected"(%390, %391, %392) {asymmetric_quantize_inputs = false, fused_activation_function = "RELU", keep_num_dims = false, weights_format = "DEFAULT"} : (tensor<1x384x128xf32>, tensor<512x128xf32>, tensor<512xf32>) -> tensor<384x512xf32>
    %394 = "tfl.pseudo_const"() {value = dense_resource<__elided__> : tensor<128x512xf32>} : () -> tensor<128x512xf32>
    %395 = "tfl.pseudo_const"() {value = dense_resource<__elided__> : tensor<128xf32>} : () -> tensor<128xf32>
    %396 = "tfl.fully_connected"(%393, %394, %395) {asymmetric_quantize_inputs = false, fused_activation_function = "NONE", keep_num_dims = false, weights_format = "DEFAULT"} : (tensor<384x512xf32>, tensor<128x512xf32>, tensor<128xf32>) -> tensor<384x128xf32>
    %397 = "tfl.pseudo_const"() {value = dense_resource<__elided__> : tensor<3xi32>} : () -> tensor<3xi32>
    %398 = "tfl.reshape"(%396, %397) : (tensor<384x128xf32>, tensor<3xi32>) -> tensor<1x384x128xf32>
    %399 = tfl.add %398, %390 {fused_activation_function = "NONE"} : tensor<1x384x128xf32>
    %400 = "tfl.pseudo_const"() {value = dense_resource<__elided__> : tensor<128xf32>} : () -> tensor<128xf32>
    %401 = tfl.mul(%399, %400) {fused_activation_function = "NONE"} : (tensor<1x384x128xf32>, tensor<128xf32>) -> tensor<1x384x128xf32>
    %402 = "tfl.pseudo_const"() {value = dense_resource<__elided__> : tensor<128xf32>} : () -> tensor<128xf32>
    %403 = tfl.add(%401, %402) {fused_activation_function = "NONE"} : (tensor<1x384x128xf32>, tensor<128xf32>) -> tensor<1x384x128xf32>
    %404 = "tfl.pseudo_const"() {value = dense_resource<__elided__> : tensor<512x128xf32>} : () -> tensor<512x128xf32>
    %405 = "tfl.pseudo_const"() {value = dense_resource<__elided__> : tensor<512xf32>} : () -> tensor<512xf32>
    %406 = "tfl.fully_connected"(%403, %404, %405) {asymmetric_quantize_inputs = false, fused_activation_function = "RELU", keep_num_dims = false, weights_format = "DEFAULT"} : (tensor<1x384x128xf32>, tensor<512x128xf32>, tensor<512xf32>) -> tensor<384x512xf32>
    %407 = "tfl.pseudo_const"() {value = dense_resource<__elided__> : tensor<128x512xf32>} : () -> tensor<128x512xf32>
    %408 = "tfl.pseudo_const"() {value = dense_resource<__elided__> : tensor<128xf32>} : () -> tensor<128xf32>
    %409 = "tfl.fully_connected"(%406, %407, %408) {asymmetric_quantize_inputs = false, fused_activation_function = "NONE", keep_num_dims = false, weights_format = "DEFAULT"} : (tensor<384x512xf32>, tensor<128x512xf32>, tensor<128xf32>) -> tensor<384x128xf32>
    %410 = "tfl.pseudo_const"() {value = dense_resource<__elided__> : tensor<3xi32>} : () -> tensor<3xi32>
    %411 = "tfl.reshape"(%409, %410) : (tensor<384x128xf32>, tensor<3xi32>) -> tensor<1x384x128xf32>
    %412 = tfl.add %411, %403 {fused_activation_function = "NONE"} : tensor<1x384x128xf32>
    %413 = "tfl.pseudo_const"() {value = dense_resource<__elided__> : tensor<128xf32>} : () -> tensor<128xf32>
    %414 = tfl.mul(%412, %413) {fused_activation_function = "NONE"} : (tensor<1x384x128xf32>, tensor<128xf32>) -> tensor<1x384x128xf32>
    %415 = "tfl.pseudo_const"() {value = dense_resource<__elided__> : tensor<128xf32>} : () -> tensor<128xf32>
    %416 = tfl.add(%414, %415) {fused_activation_function = "NONE"} : (tensor<1x384x128xf32>, tensor<128xf32>) -> tensor<1x384x128xf32>
    %417 = "tfl.pseudo_const"() {value = dense_resource<__elided__> : tensor<512x128xf32>} : () -> tensor<512x128xf32>
    %418 = "tfl.pseudo_const"() {value = dense_resource<__elided__> : tensor<512xf32>} : () -> tensor<512xf32>
    %419 = "tfl.fully_connected"(%416, %417, %418) {asymmetric_quantize_inputs = false, fused_activation_function = "NONE", keep_num_dims = false, weights_format = "DEFAULT"} : (tensor<1x384x128xf32>, tensor<512x128xf32>, tensor<512xf32>) -> tensor<384x512xf32>
    %420 = "tfl.pseudo_const"() {value = dense_resource<__elided__> : tensor<3xi32>} : () -> tensor<3xi32>
    %421 = "tfl.reshape"(%419, %420) : (tensor<384x512xf32>, tensor<3xi32>) -> tensor<1x384x512xf32>
    %422 = tfl.add %421, %206 {fused_activation_function = "NONE"} : tensor<1x384x512xf32>
    %423 = "tfl.pseudo_const"() {value = dense_resource<__elided__> : tensor<512xf32>} : () -> tensor<512xf32>
    %424 = tfl.mul(%422, %423) {fused_activation_function = "NONE"} : (tensor<1x384x512xf32>, tensor<512xf32>) -> tensor<1x384x512xf32>
    %425 = "tfl.pseudo_const"() {value = dense_resource<__elided__> : tensor<512xf32>} : () -> tensor<512xf32>
    %426 = tfl.add(%424, %425) {fused_activation_function = "NONE"} : (tensor<1x384x512xf32>, tensor<512xf32>) -> tensor<1x384x512xf32>
    %427 = "tfl.pseudo_const"() {value = dense_resource<__elided__> : tensor<128x512xf32>} : () -> tensor<128x512xf32>
    %428 = "tfl.pseudo_const"() {value = dense_resource<__elided__> : tensor<128xf32>} : () -> tensor<128xf32>
    %429 = "tfl.fully_connected"(%426, %427, %428) {asymmetric_quantize_inputs = false, fused_activation_function = "NONE", keep_num_dims = false, weights_format = "DEFAULT"} : (tensor<1x384x512xf32>, tensor<128x512xf32>, tensor<128xf32>) -> tensor<384x128xf32>
    %430 = "tfl.pseudo_const"() {value = dense_resource<__elided__> : tensor<128x512xf32>} : () -> tensor<128x512xf32>
    %431 = "tfl.pseudo_const"() {value = dense_resource<__elided__> : tensor<128xf32>} : () -> tensor<128xf32>
    %432 = "tfl.fully_connected"(%426, %430, %431) {asymmetric_quantize_inputs = false, fused_activation_function = "NONE", keep_num_dims = false, weights_format = "DEFAULT"} : (tensor<1x384x512xf32>, tensor<128x512xf32>, tensor<128xf32>) -> tensor<384x128xf32>
    %433 = "tfl.pseudo_const"() {value = dense_resource<__elided__> : tensor<128x512xf32>} : () -> tensor<128x512xf32>
    %434 = "tfl.pseudo_const"() {value = dense_resource<__elided__> : tensor<128xf32>} : () -> tensor<128xf32>
    %435 = "tfl.fully_connected"(%426, %433, %434) {asymmetric_quantize_inputs = false, fused_activation_function = "NONE", keep_num_dims = false, weights_format = "DEFAULT"} : (tensor<1x384x512xf32>, tensor<128x512xf32>, tensor<128xf32>) -> tensor<384x128xf32>
    %436 = "tfl.pseudo_const"() {value = dense_resource<__elided__> : tensor<3xi32>} : () -> tensor<3xi32>
    %437 = "tfl.reshape"(%429, %436) : (tensor<384x128xf32>, tensor<3xi32>) -> tensor<1x384x128xf32>
    %438 = "tfl.pseudo_const"() {value = dense_resource<__elided__> : tensor<3xi32>} : () -> tensor<3xi32>
    %439 = "tfl.reshape"(%432, %438) : (tensor<384x128xf32>, tensor<3xi32>) -> tensor<1x384x128xf32>
    %440 = "tfl.pseudo_const"() {value = dense_resource<__elided__> : tensor<3xi32>} : () -> tensor<3xi32>
    %441 = "tfl.reshape"(%435, %440) : (tensor<384x128xf32>, tensor<3xi32>) -> tensor<1x384x128xf32>
    %442 = "tfl.pseudo_const"() {value = dense_resource<__elided__> : tensor<128x128xf32>} : () -> tensor<128x128xf32>
    %443 = "tfl.pseudo_const"() {value = dense_resource<__elided__> : tensor<128xf32>} : () -> tensor<128xf32>
    %444 = "tfl.fully_connected"(%439, %442, %443) {asymmetric_quantize_inputs = false, fused_activation_function = "NONE", keep_num_dims = false, weights_format = "DEFAULT"} : (tensor<1x384x128xf32>, tensor<128x128xf32>, tensor<128xf32>) -> tensor<384x128xf32>
    %445 = "tfl.pseudo_const"() {value = dense_resource<__elided__> : tensor<128x128xf32>} : () -> tensor<128x128xf32>
    %446 = "tfl.pseudo_const"() {value = dense_resource<__elided__> : tensor<128xf32>} : () -> tensor<128xf32>
    %447 = "tfl.fully_connected"(%439, %445, %446) {asymmetric_quantize_inputs = false, fused_activation_function = "NONE", keep_num_dims = false, weights_format = "DEFAULT"} : (tensor<1x384x128xf32>, tensor<128x128xf32>, tensor<128xf32>) -> tensor<384x128xf32>
    %448 = "tfl.pseudo_const"() {value = dense_resource<__elided__> : tensor<128x128xf32>} : () -> tensor<128x128xf32>
    %449 = "tfl.pseudo_const"() {value = dense_resource<__elided__> : tensor<128xf32>} : () -> tensor<128xf32>
    %450 = "tfl.fully_connected"(%441, %448, %449) {asymmetric_quantize_inputs = false, fused_activation_function = "NONE", keep_num_dims = false, weights_format = "DEFAULT"} : (tensor<1x384x128xf32>, tensor<128x128xf32>, tensor<128xf32>) -> tensor<384x128xf32>
    %451 = "tfl.pseudo_const"() {value = dense_resource<__elided__> : tensor<4xi32>} : () -> tensor<4xi32>
    %452 = "tfl.reshape"(%444, %451) : (tensor<384x128xf32>, tensor<4xi32>) -> tensor<1x384x4x32xf32>
    %453 = "tfl.pseudo_const"() {value = dense_resource<__elided__> : tensor<4xi32>} : () -> tensor<4xi32>
    %454 = "tfl.reshape"(%447, %453) : (tensor<384x128xf32>, tensor<4xi32>) -> tensor<1x384x4x32xf32>
    %455 = "tfl.pseudo_const"() {value = dense_resource<__elided__> : tensor<4xi32>} : () -> tensor<4xi32>
    %456 = "tfl.reshape"(%450, %455) : (tensor<384x128xf32>, tensor<4xi32>) -> tensor<1x384x4x32xf32>
    %457 = "tfl.pseudo_const"() {value = dense_resource<__elided__> : tensor<4xi32>} : () -> tensor<4xi32>
    %458 = "tfl.transpose"(%452, %457) : (tensor<1x384x4x32xf32>, tensor<4xi32>) -> tensor<1x4x384x32xf32>
    %459 = "tfl.pseudo_const"() {value = dense_resource<__elided__> : tensor<4xi32>} : () -> tensor<4xi32>
    %460 = "tfl.transpose"(%454, %459) : (tensor<1x384x4x32xf32>, tensor<4xi32>) -> tensor<1x4x384x32xf32>
    %461 = "tfl.pseudo_const"() {value = dense_resource<__elided__> : tensor<4xi32>} : () -> tensor<4xi32>
    %462 = "tfl.transpose"(%456, %461) : (tensor<1x384x4x32xf32>, tensor<4xi32>) -> tensor<1x4x384x32xf32>
    %463 = "tfl.pseudo_const"() {value = dense_resource<__elided__> : tensor<4xi32>} : () -> tensor<4xi32>
    %464 = "tfl.transpose"(%460, %463) : (tensor<1x4x384x32xf32>, tensor<4xi32>) -> tensor<1x4x32x384xf32>
    %465 = "tfl.pseudo_const"() {value = dense_resource<__elided__> : tensor<3xi32>} : () -> tensor<3xi32>
    %466 = "tfl.reshape"(%458, %465) : (tensor<1x4x384x32xf32>, tensor<3xi32>) -> tensor<4x384x32xf32>
    %467 = "tfl.pseudo_const"() {value = dense<0> : tensor<3xi32>} : () -> tensor<3xi32>
    %468 = "tfl.pseudo_const"() {value = dense_resource<__elided__> : tensor<3xi32>} : () -> tensor<3xi32>
    %469 = "tfl.slice"(%466, %467, %468) : (tensor<4x384x32xf32>, tensor<3xi32>, tensor<3xi32>) -> tensor<1x384x32xf32>
    %470 = "tfl.pseudo_const"() {value = dense_resource<__elided__> : tensor<3xi32>} : () -> tensor<3xi32>
    %471 = "tfl.pseudo_const"() {value = dense_resource<__elided__> : tensor<3xi32>} : () -> tensor<3xi32>
    %472 = "tfl.slice"(%466, %470, %471) : (tensor<4x384x32xf32>, tensor<3xi32>, tensor<3xi32>) -> tensor<1x384x32xf32>
    %473 = "tfl.pseudo_const"() {value = dense_resource<__elided__> : tensor<3xi32>} : () -> tensor<3xi32>
    %474 = "tfl.pseudo_const"() {value = dense_resource<__elided__> : tensor<3xi32>} : () -> tensor<3xi32>
    %475 = "tfl.slice"(%466, %473, %474) : (tensor<4x384x32xf32>, tensor<3xi32>, tensor<3xi32>) -> tensor<1x384x32xf32>
    %476 = "tfl.pseudo_const"() {value = dense_resource<__elided__> : tensor<3xi32>} : () -> tensor<3xi32>
    %477 = "tfl.pseudo_const"() {value = dense_resource<__elided__> : tensor<3xi32>} : () -> tensor<3xi32>
    %478 = "tfl.slice"(%466, %476, %477) : (tensor<4x384x32xf32>, tensor<3xi32>, tensor<3xi32>) -> tensor<1x384x32xf32>
    %479 = "tfl.pseudo_const"() {value = dense_resource<__elided__> : tensor<3xi32>} : () -> tensor<3xi32>
    %480 = "tfl.reshape"(%464, %479) : (tensor<1x4x32x384xf32>, tensor<3xi32>) -> tensor<4x32x384xf32>
    %481 = "tfl.pseudo_const"() {value = dense<0> : tensor<3xi32>} : () -> tensor<3xi32>
    %482 = "tfl.pseudo_const"() {value = dense_resource<__elided__> : tensor<3xi32>} : () -> tensor<3xi32>
    %483 = "tfl.slice"(%480, %481, %482) : (tensor<4x32x384xf32>, tensor<3xi32>, tensor<3xi32>) -> tensor<1x32x384xf32>
    %484 = "tfl.pseudo_const"() {value = dense_resource<__elided__> : tensor<3xi32>} : () -> tensor<3xi32>
    %485 = "tfl.transpose"(%483, %484) : (tensor<1x32x384xf32>, tensor<3xi32>) -> tensor<384x32x1xf32>
    %486 = "tfl.pseudo_const"() {value = dense_resource<__elided__> : tensor<3xi32>} : () -> tensor<3xi32>
    %487 = "tfl.pseudo_const"() {value = dense_resource<__elided__> : tensor<3xi32>} : () -> tensor<3xi32>
    %488 = "tfl.slice"(%480, %486, %487) : (tensor<4x32x384xf32>, tensor<3xi32>, tensor<3xi32>) -> tensor<1x32x384xf32>
    %489 = "tfl.pseudo_const"() {value = dense_resource<__elided__> : tensor<3xi32>} : () -> tensor<3xi32>
    %490 = "tfl.transpose"(%488, %489) : (tensor<1x32x384xf32>, tensor<3xi32>) -> tensor<384x32x1xf32>
    %491 = "tfl.pseudo_const"() {value = dense_resource<__elided__> : tensor<3xi32>} : () -> tensor<3xi32>
    %492 = "tfl.pseudo_const"() {value = dense_resource<__elided__> : tensor<3xi32>} : () -> tensor<3xi32>
    %493 = "tfl.slice"(%480, %491, %492) : (tensor<4x32x384xf32>, tensor<3xi32>, tensor<3xi32>) -> tensor<1x32x384xf32>
    %494 = "tfl.pseudo_const"() {value = dense_resource<__elided__> : tensor<3xi32>} : () -> tensor<3xi32>
    %495 = "tfl.transpose"(%493, %494) : (tensor<1x32x384xf32>, tensor<3xi32>) -> tensor<384x32x1xf32>
    %496 = "tfl.pseudo_const"() {value = dense_resource<__elided__> : tensor<3xi32>} : () -> tensor<3xi32>
    %497 = "tfl.pseudo_const"() {value = dense_resource<__elided__> : tensor<3xi32>} : () -> tensor<3xi32>
    %498 = "tfl.slice"(%480, %496, %497) : (tensor<4x32x384xf32>, tensor<3xi32>, tensor<3xi32>) -> tensor<1x32x384xf32>
    %499 = "tfl.pseudo_const"() {value = dense_resource<__elided__> : tensor<3xi32>} : () -> tensor<3xi32>
    %500 = "tfl.transpose"(%498, %499) : (tensor<1x32x384xf32>, tensor<3xi32>) -> tensor<384x32x1xf32>
    %501 = "tfl.pseudo_const"() {value = dense_resource<__elided__> : tensor<2xi32>} : () -> tensor<2xi32>
    %502 = "tfl.reshape"(%485, %501) : (tensor<384x32x1xf32>, tensor<2xi32>) -> tensor<384x32xf32>
    %503 = "tfl.fully_connected"(%469, %502, %283) {asymmetric_quantize_inputs = false, fused_activation_function = "NONE", keep_num_dims = false, weights_format = "DEFAULT"} : (tensor<1x384x32xf32>, tensor<384x32xf32>, tensor<384xf32>) -> tensor<384x384xf32>
    %504 = "tfl.pseudo_const"() {value = dense_resource<__elided__> : tensor<2xi32>} : () -> tensor<2xi32>
    %505 = "tfl.reshape"(%490, %504) : (tensor<384x32x1xf32>, tensor<2xi32>) -> tensor<384x32xf32>
    %506 = "tfl.fully_connected"(%472, %505, %283) {asymmetric_quantize_inputs = false, fused_activation_function = "NONE", keep_num_dims = false, weights_format = "DEFAULT"} : (tensor<1x384x32xf32>, tensor<384x32xf32>, tensor<384xf32>) -> tensor<384x384xf32>
    %507 = "tfl.pseudo_const"() {value = dense_resource<__elided__> : tensor<2xi32>} : () -> tensor<2xi32>
    %508 = "tfl.reshape"(%495, %507) : (tensor<384x32x1xf32>, tensor<2xi32>) -> tensor<384x32xf32>
    %509 = "tfl.fully_connected"(%475, %508, %283) {asymmetric_quantize_inputs = false, fused_activation_function = "NONE", keep_num_dims = false, weights_format = "DEFAULT"} : (tensor<1x384x32xf32>, tensor<384x32xf32>, tensor<384xf32>) -> tensor<384x384xf32>
    %510 = "tfl.pseudo_const"() {value = dense_resource<__elided__> : tensor<2xi32>} : () -> tensor<2xi32>
    %511 = "tfl.reshape"(%500, %510) : (tensor<384x32x1xf32>, tensor<2xi32>) -> tensor<384x32xf32>
    %512 = "tfl.fully_connected"(%478, %511, %283) {asymmetric_quantize_inputs = false, fused_activation_function = "NONE", keep_num_dims = false, weights_format = "DEFAULT"} : (tensor<1x384x32xf32>, tensor<384x32xf32>, tensor<384xf32>) -> tensor<384x384xf32>
    %513 = "tfl.pack"(%503, %506, %509, %512) {axis = 0 : i32, values_count = 4 : i32} : (tensor<384x384xf32>, tensor<384x384xf32>, tensor<384x384xf32>, tensor<384x384xf32>) -> tensor<4x384x384xf32>
    %514 = "tfl.pseudo_const"() {value = dense<0.176776692> : tensor<f32>} : () -> tensor<f32>
    %515 = tfl.mul(%513, %514) {fused_activation_function = "NONE"} : (tensor<4x384x384xf32>, tensor<f32>) -> tensor<4x384x384xf32>
    %516 = "tfl.pseudo_const"() {value = dense_resource<__elided__> : tensor<4xi32>} : () -> tensor<4xi32>
    %517 = "tfl.reshape"(%515, %516) : (tensor<4x384x384xf32>, tensor<4xi32>) -> tensor<1x4x384x384xf32>
    %518 = tfl.add(%517, %125) {fused_activation_function = "NONE"} : (tensor<1x4x384x384xf32>, tensor<1x1x384x384xf32>) -> tensor<1x4x384x384xf32>
    %519 = "tfl.softmax"(%518) {beta = 1.000000e+00 : f32} : (tensor<1x4x384x384xf32>) -> tensor<1x4x384x384xf32>
    %520 = "tfl.pseudo_const"() {value = dense_resource<__elided__> : tensor<3xi32>} : () -> tensor<3xi32>
    %521 = "tfl.reshape"(%519, %520) : (tensor<1x4x384x384xf32>, tensor<3xi32>) -> tensor<4x384x384xf32>
    %522 = "tfl.pseudo_const"() {value = dense<0> : tensor<3xi32>} : () -> tensor<3xi32>
    %523 = "tfl.pseudo_const"() {value = dense_resource<__elided__> : tensor<3xi32>} : () -> tensor<3xi32>
    %524 = "tfl.slice"(%521, %522, %523) : (tensor<4x384x384xf32>, tensor<3xi32>, tensor<3xi32>) -> tensor<1x384x384xf32>
    %525 = "tfl.pseudo_const"() {value = dense_resource<__elided__> : tensor<3xi32>} : () -> tensor<3xi32>
    %526 = "tfl.pseudo_const"() {value = dense_resource<__elided__> : tensor<3xi32>} : () -> tensor<3xi32>
    %527 = "tfl.slice"(%521, %525, %526) : (tensor<4x384x384xf32>, tensor<3xi32>, tensor<3xi32>) -> tensor<1x384x384xf32>
    %528 = "tfl.pseudo_const"() {value = dense_resource<__elided__> : tensor<3xi32>} : () -> tensor<3xi32>
    %529 = "tfl.pseudo_const"() {value = dense_resource<__elided__> : tensor<3xi32>} : () -> tensor<3xi32>
    %530 = "tfl.slice"(%521, %528, %529) : (tensor<4x384x384xf32>, tensor<3xi32>, tensor<3xi32>) -> tensor<1x384x384xf32>
    %531 = "tfl.pseudo_const"() {value = dense_resource<__elided__> : tensor<3xi32>} : () -> tensor<3xi32>
    %532 = "tfl.pseudo_const"() {value = dense_resource<__elided__> : tensor<3xi32>} : () -> tensor<3xi32>
    %533 = "tfl.slice"(%521, %531, %532) : (tensor<4x384x384xf32>, tensor<3xi32>, tensor<3xi32>) -> tensor<1x384x384xf32>
    %534 = "tfl.pseudo_const"() {value = dense_resource<__elided__> : tensor<3xi32>} : () -> tensor<3xi32>
    %535 = "tfl.reshape"(%462, %534) : (tensor<1x4x384x32xf32>, tensor<3xi32>) -> tensor<4x384x32xf32>
    %536 = "tfl.pseudo_const"() {value = dense<0> : tensor<3xi32>} : () -> tensor<3xi32>
    %537 = "tfl.pseudo_const"() {value = dense_resource<__elided__> : tensor<3xi32>} : () -> tensor<3xi32>
    %538 = "tfl.slice"(%535, %536, %537) : (tensor<4x384x32xf32>, tensor<3xi32>, tensor<3xi32>) -> tensor<1x384x32xf32>
    %539 = "tfl.pseudo_const"() {value = dense_resource<__elided__> : tensor<3xi32>} : () -> tensor<3xi32>
    %540 = "tfl.transpose"(%538, %539) : (tensor<1x384x32xf32>, tensor<3xi32>) -> tensor<32x384x1xf32>
    %541 = "tfl.pseudo_const"() {value = dense_resource<__elided__> : tensor<3xi32>} : () -> tensor<3xi32>
    %542 = "tfl.pseudo_const"() {value = dense_resource<__elided__> : tensor<3xi32>} : () -> tensor<3xi32>
    %543 = "tfl.slice"(%535, %541, %542) : (tensor<4x384x32xf32>, tensor<3xi32>, tensor<3xi32>) -> tensor<1x384x32xf32>
    %544 = "tfl.pseudo_const"() {value = dense_resource<__elided__> : tensor<3xi32>} : () -> tensor<3xi32>
    %545 = "tfl.transpose"(%543, %544) : (tensor<1x384x32xf32>, tensor<3xi32>) -> tensor<32x384x1xf32>
    %546 = "tfl.pseudo_const"() {value = dense_resource<__elided__> : tensor<3xi32>} : () -> tensor<3xi32>
    %547 = "tfl.pseudo_const"() {value = dense_resource<__elided__> : tensor<3xi32>} : () -> tensor<3xi32>
    %548 = "tfl.slice"(%535, %546, %547) : (tensor<4x384x32xf32>, tensor<3xi32>, tensor<3xi32>) -> tensor<1x384x32xf32>
    %549 = "tfl.pseudo_const"() {value = dense_resource<__elided__> : tensor<3xi32>} : () -> tensor<3xi32>
    %550 = "tfl.transpose"(%548, %549) : (tensor<1x384x32xf32>, tensor<3xi32>) -> tensor<32x384x1xf32>
    %551 = "tfl.pseudo_const"() {value = dense_resource<__elided__> : tensor<3xi32>} : () -> tensor<3xi32>
    %552 = "tfl.pseudo_const"() {value = dense_resource<__elided__> : tensor<3xi32>} : () -> tensor<3xi32>
    %553 = "tfl.slice"(%535, %551, %552) : (tensor<4x384x32xf32>, tensor<3xi32>, tensor<3xi32>) -> tensor<1x384x32xf32>
    %554 = "tfl.pseudo_const"() {value = dense_resource<__elided__> : tensor<3xi32>} : () -> tensor<3xi32>
    %555 = "tfl.transpose"(%553, %554) : (tensor<1x384x32xf32>, tensor<3xi32>) -> tensor<32x384x1xf32>
    %556 = "tfl.pseudo_const"() {value = dense_resource<__elided__> : tensor<2xi32>} : () -> tensor<2xi32>
    %557 = "tfl.reshape"(%540, %556) : (tensor<32x384x1xf32>, tensor<2xi32>) -> tensor<32x384xf32>
    %558 = "tfl.fully_connected"(%524, %557, %339) {asymmetric_quantize_inputs = false, fused_activation_function = "NONE", keep_num_dims = false, weights_format = "DEFAULT"} : (tensor<1x384x384xf32>, tensor<32x384xf32>, tensor<32xf32>) -> tensor<384x32xf32>
    %559 = "tfl.pseudo_const"() {value = dense_resource<__elided__> : tensor<2xi32>} : () -> tensor<2xi32>
    %560 = "tfl.reshape"(%545, %559) : (tensor<32x384x1xf32>, tensor<2xi32>) -> tensor<32x384xf32>
    %561 = "tfl.fully_connected"(%527, %560, %339) {asymmetric_quantize_inputs = false, fused_activation_function = "NONE", keep_num_dims = false, weights_format = "DEFAULT"} : (tensor<1x384x384xf32>, tensor<32x384xf32>, tensor<32xf32>) -> tensor<384x32xf32>
    %562 = "tfl.pseudo_const"() {value = dense_resource<__elided__> : tensor<2xi32>} : () -> tensor<2xi32>
    %563 = "tfl.reshape"(%550, %562) : (tensor<32x384x1xf32>, tensor<2xi32>) -> tensor<32x384xf32>
    %564 = "tfl.fully_connected"(%530, %563, %339) {asymmetric_quantize_inputs = false, fused_activation_function = "NONE", keep_num_dims = false, weights_format = "DEFAULT"} : (tensor<1x384x384xf32>, tensor<32x384xf32>, tensor<32xf32>) -> tensor<384x32xf32>
    %565 = "tfl.pseudo_const"() {value = dense_resource<__elided__> : tensor<2xi32>} : () -> tensor<2xi32>
    %566 = "tfl.reshape"(%555, %565) : (tensor<32x384x1xf32>, tensor<2xi32>) -> tensor<32x384xf32>
    %567 = "tfl.fully_connected"(%533, %566, %339) {asymmetric_quantize_inputs = false, fused_activation_function = "NONE", keep_num_dims = false, weights_format = "DEFAULT"} : (tensor<1x384x384xf32>, tensor<32x384xf32>, tensor<32xf32>) -> tensor<384x32xf32>
    %568 = "tfl.pack"(%558, %561, %564, %567) {axis = 0 : i32, values_count = 4 : i32} : (tensor<384x32xf32>, tensor<384x32xf32>, tensor<384x32xf32>, tensor<384x32xf32>) -> tensor<4x384x32xf32>
    %569 = "tfl.pseudo_const"() {value = dense_resource<__elided__> : tensor<3xi32>} : () -> tensor<3xi32>
    %570 = "tfl.transpose"(%568, %569) : (tensor<4x384x32xf32>, tensor<3xi32>) -> tensor<384x4x32xf32>
    %571 = "tfl.pseudo_const"() {value = dense_resource<__elided__> : tensor<4xi32>} : () -> tensor<4xi32>
    %572 = "tfl.reshape"(%570, %571) : (tensor<384x4x32xf32>, tensor<4xi32>) -> tensor<1x384x4x32xf32>
    %573 = "tfl.pseudo_const"() {value = dense_resource<__elided__> : tensor<128x128xf32>} : () -> tensor<128x128xf32>
    %574 = "tfl.pseudo_const"() {value = dense_resource<__elided__> : tensor<128xf32>} : () -> tensor<128xf32>
    %575 = "tfl.fully_connected"(%572, %573, %574) {asymmetric_quantize_inputs = false, fused_activation_function = "NONE", keep_num_dims = false, weights_format = "DEFAULT"} : (tensor<1x384x4x32xf32>, tensor<128x128xf32>, tensor<128xf32>) -> tensor<384x128xf32>
    %576 = "tfl.pseudo_const"() {value = dense_resource<__elided__> : tensor<3xi32>} : () -> tensor<3xi32>
    %577 = "tfl.reshape"(%575, %576) : (tensor<384x128xf32>, tensor<3xi32>) -> tensor<1x384x128xf32>
    %578 = tfl.add %577, %437 {fused_activation_function = "NONE"} : tensor<1x384x128xf32>
    %579 = "tfl.pseudo_const"() {value = dense_resource<__elided__> : tensor<128xf32>} : () -> tensor<128xf32>
    %580 = tfl.mul(%578, %579) {fused_activation_function = "NONE"} : (tensor<1x384x128xf32>, tensor<128xf32>) -> tensor<1x384x128xf32>
    %581 = "tfl.pseudo_const"() {value = dense_resource<__elided__> : tensor<128xf32>} : () -> tensor<128xf32>
    %582 = tfl.add(%580, %581) {fused_activation_function = "NONE"} : (tensor<1x384x128xf32>, tensor<128xf32>) -> tensor<1x384x128xf32>
    %583 = "tfl.pseudo_const"() {value = dense_resource<__elided__> : tensor<512x128xf32>} : () -> tensor<512x128xf32>
    %584 = "tfl.pseudo_const"() {value = dense_resource<__elided__> : tensor<512xf32>} : () -> tensor<512xf32>
    %585 = "tfl.fully_connected"(%582, %583, %584) {asymmetric_quantize_inputs = false, fused_activation_function = "RELU", keep_num_dims = false, weights_format = "DEFAULT"} : (tensor<1x384x128xf32>, tensor<512x128xf32>, tensor<512xf32>) -> tensor<384x512xf32>
    %586 = "tfl.pseudo_const"() {value = dense_resource<__elided__> : tensor<128x512xf32>} : () -> tensor<128x512xf32>
    %587 = "tfl.pseudo_const"() {value = dense_resource<__elided__> : tensor<128xf32>} : () -> tensor<128xf32>
    %588 = "tfl.fully_connected"(%585, %586, %587) {asymmetric_quantize_inputs = false, fused_activation_function = "NONE", keep_num_dims = false, weights_format = "DEFAULT"} : (tensor<384x512xf32>, tensor<128x512xf32>, tensor<128xf32>) -> tensor<384x128xf32>
    %589 = "tfl.pseudo_const"() {value = dense_resource<__elided__> : tensor<3xi32>} : () -> tensor<3xi32>
    %590 = "tfl.reshape"(%588, %589) : (tensor<384x128xf32>, tensor<3xi32>) -> tensor<1x384x128xf32>
    %591 = tfl.add %590, %582 {fused_activation_function = "NONE"} : tensor<1x384x128xf32>
    %592 = "tfl.pseudo_const"() {value = dense_resource<__elided__> : tensor<128xf32>} : () -> tensor<128xf32>
    %593 = tfl.mul(%591, %592) {fused_activation_function = "NONE"} : (tensor<1x384x128xf32>, tensor<128xf32>) -> tensor<1x384x128xf32>
    %594 = "tfl.pseudo_const"() {value = dense_resource<__elided__> : tensor<128xf32>} : () -> tensor<128xf32>
    %595 = tfl.add(%593, %594) {fused_activation_function = "NONE"} : (tensor<1x384x128xf32>, tensor<128xf32>) -> tensor<1x384x128xf32>
    %596 = "tfl.pseudo_const"() {value = dense_resource<__elided__> : tensor<512x128xf32>} : () -> tensor<512x128xf32>
    %597 = "tfl.pseudo_const"() {value = dense_resource<__elided__> : tensor<512xf32>} : () -> tensor<512xf32>
    %598 = "tfl.fully_connected"(%595, %596, %597) {asymmetric_quantize_inputs = false, fused_activation_function = "RELU", keep_num_dims = false, weights_format = "DEFAULT"} : (tensor<1x384x128xf32>, tensor<512x128xf32>, tensor<512xf32>) -> tensor<384x512xf32>
    %599 = "tfl.pseudo_const"() {value = dense_resource<__elided__> : tensor<128x512xf32>} : () -> tensor<128x512xf32>
    %600 = "tfl.pseudo_const"() {value = dense_resource<__elided__> : tensor<128xf32>} : () -> tensor<128xf32>
    %601 = "tfl.fully_connected"(%598, %599, %600) {asymmetric_quantize_inputs = false, fused_activation_function = "NONE", keep_num_dims = false, weights_format = "DEFAULT"} : (tensor<384x512xf32>, tensor<128x512xf32>, tensor<128xf32>) -> tensor<384x128xf32>
    %602 = "tfl.pseudo_const"() {value = dense_resource<__elided__> : tensor<3xi32>} : () -> tensor<3xi32>
    %603 = "tfl.reshape"(%601, %602) : (tensor<384x128xf32>, tensor<3xi32>) -> tensor<1x384x128xf32>
    %604 = tfl.add %603, %595 {fused_activation_function = "NONE"} : tensor<1x384x128xf32>
    %605 = "tfl.pseudo_const"() {value = dense_resource<__elided__> : tensor<128xf32>} : () -> tensor<128xf32>
    %606 = tfl.mul(%604, %605) {fused_activation_function = "NONE"} : (tensor<1x384x128xf32>, tensor<128xf32>) -> tensor<1x384x128xf32>
    %607 = "tfl.pseudo_const"() {value = dense_resource<__elided__> : tensor<128xf32>} : () -> tensor<128xf32>
    %608 = tfl.add(%606, %607) {fused_activation_function = "NONE"} : (tensor<1x384x128xf32>, tensor<128xf32>) -> tensor<1x384x128xf32>
    %609 = "tfl.pseudo_const"() {value = dense_resource<__elided__> : tensor<512x128xf32>} : () -> tensor<512x128xf32>
    %610 = "tfl.pseudo_const"() {value = dense_resource<__elided__> : tensor<512xf32>} : () -> tensor<512xf32>
    %611 = "tfl.fully_connected"(%608, %609, %610) {asymmetric_quantize_inputs = false, fused_activation_function = "RELU", keep_num_dims = false, weights_format = "DEFAULT"} : (tensor<1x384x128xf32>, tensor<512x128xf32>, tensor<512xf32>) -> tensor<384x512xf32>
    %612 = "tfl.pseudo_const"() {value = dense_resource<__elided__> : tensor<128x512xf32>} : () -> tensor<128x512xf32>
    %613 = "tfl.pseudo_const"() {value = dense_resource<__elided__> : tensor<128xf32>} : () -> tensor<128xf32>
    %614 = "tfl.fully_connected"(%611, %612, %613) {asymmetric_quantize_inputs = false, fused_activation_function = "NONE", keep_num_dims = false, weights_format = "DEFAULT"} : (tensor<384x512xf32>, tensor<128x512xf32>, tensor<128xf32>) -> tensor<384x128xf32>
    %615 = "tfl.pseudo_const"() {value = dense_resource<__elided__> : tensor<3xi32>} : () -> tensor<3xi32>
    %616 = "tfl.reshape"(%614, %615) : (tensor<384x128xf32>, tensor<3xi32>) -> tensor<1x384x128xf32>
    %617 = tfl.add %616, %608 {fused_activation_function = "NONE"} : tensor<1x384x128xf32>
    %618 = "tfl.pseudo_const"() {value = dense_resource<__elided__> : tensor<128xf32>} : () -> tensor<128xf32>
    %619 = tfl.mul(%617, %618) {fused_activation_function = "NONE"} : (tensor<1x384x128xf32>, tensor<128xf32>) -> tensor<1x384x128xf32>
    %620 = "tfl.pseudo_const"() {value = dense_resource<__elided__> : tensor<128xf32>} : () -> tensor<128xf32>
    %621 = tfl.add(%619, %620) {fused_activation_function = "NONE"} : (tensor<1x384x128xf32>, tensor<128xf32>) -> tensor<1x384x128xf32>
    %622 = "tfl.pseudo_const"() {value = dense_resource<__elided__> : tensor<512x128xf32>} : () -> tensor<512x128xf32>
    %623 = "tfl.pseudo_const"() {value = dense_resource<__elided__> : tensor<512xf32>} : () -> tensor<512xf32>
    %624 = "tfl.fully_connected"(%621, %622, %623) {asymmetric_quantize_inputs = false, fused_activation_function = "RELU", keep_num_dims = false, weights_format = "DEFAULT"} : (tensor<1x384x128xf32>, tensor<512x128xf32>, tensor<512xf32>) -> tensor<384x512xf32>
    %625 = "tfl.pseudo_const"() {value = dense_resource<__elided__> : tensor<128x512xf32>} : () -> tensor<128x512xf32>
    %626 = "tfl.pseudo_const"() {value = dense_resource<__elided__> : tensor<128xf32>} : () -> tensor<128xf32>
    %627 = "tfl.fully_connected"(%624, %625, %626) {asymmetric_quantize_inputs = false, fused_activation_function = "NONE", keep_num_dims = false, weights_format = "DEFAULT"} : (tensor<384x512xf32>, tensor<128x512xf32>, tensor<128xf32>) -> tensor<384x128xf32>
    %628 = "tfl.pseudo_const"() {value = dense_resource<__elided__> : tensor<3xi32>} : () -> tensor<3xi32>
    %629 = "tfl.reshape"(%627, %628) : (tensor<384x128xf32>, tensor<3xi32>) -> tensor<1x384x128xf32>
    %630 = tfl.add %629, %621 {fused_activation_function = "NONE"} : tensor<1x384x128xf32>
    %631 = "tfl.pseudo_const"() {value = dense_resource<__elided__> : tensor<128xf32>} : () -> tensor<128xf32>
    %632 = tfl.mul(%630, %631) {fused_activation_function = "NONE"} : (tensor<1x384x128xf32>, tensor<128xf32>) -> tensor<1x384x128xf32>
    %633 = "tfl.pseudo_const"() {value = dense_resource<__elided__> : tensor<128xf32>} : () -> tensor<128xf32>
    %634 = tfl.add(%632, %633) {fused_activation_function = "NONE"} : (tensor<1x384x128xf32>, tensor<128xf32>) -> tensor<1x384x128xf32>
    %635 = "tfl.pseudo_const"() {value = dense_resource<__elided__> : tensor<512x128xf32>} : () -> tensor<512x128xf32>
    %636 = "tfl.pseudo_const"() {value = dense_resource<__elided__> : tensor<512xf32>} : () -> tensor<512xf32>
    %637 = "tfl.fully_connected"(%634, %635, %636) {asymmetric_quantize_inputs = false, fused_activation_function = "NONE", keep_num_dims = false, weights_format = "DEFAULT"} : (tensor<1x384x128xf32>, tensor<512x128xf32>, tensor<512xf32>) -> tensor<384x512xf32>
    %638 = "tfl.pseudo_const"() {value = dense_resource<__elided__> : tensor<3xi32>} : () -> tensor<3xi32>
    %639 = "tfl.reshape"(%637, %638) : (tensor<384x512xf32>, tensor<3xi32>) -> tensor<1x384x512xf32>
    %640 = tfl.add %639, %426 {fused_activation_function = "NONE"} : tensor<1x384x512xf32>
    %641 = "tfl.pseudo_const"() {value = dense_resource<__elided__> : tensor<512xf32>} : () -> tensor<512xf32>
    %642 = tfl.mul(%640, %641) {fused_activation_function = "NONE"} : (tensor<1x384x512xf32>, tensor<512xf32>) -> tensor<1x384x512xf32>
    %643 = "tfl.pseudo_const"() {value = dense_resource<__elided__> : tensor<512xf32>} : () -> tensor<512xf32>
    %644 = tfl.add(%642, %643) {fused_activation_function = "NONE"} : (tensor<1x384x512xf32>, tensor<512xf32>) -> tensor<1x384x512xf32>
    %645 = "tfl.pseudo_const"() {value = dense_resource<__elided__> : tensor<128x512xf32>} : () -> tensor<128x512xf32>
    %646 = "tfl.pseudo_const"() {value = dense_resource<__elided__> : tensor<128xf32>} : () -> tensor<128xf32>
    %647 = "tfl.fully_connected"(%644, %645, %646) {asymmetric_quantize_inputs = false, fused_activation_function = "NONE", keep_num_dims = false, weights_format = "DEFAULT"} : (tensor<1x384x512xf32>, tensor<128x512xf32>, tensor<128xf32>) -> tensor<384x128xf32>
    %648 = "tfl.pseudo_const"() {value = dense_resource<__elided__> : tensor<128x512xf32>} : () -> tensor<128x512xf32>
    %649 = "tfl.pseudo_const"() {value = dense_resource<__elided__> : tensor<128xf32>} : () -> tensor<128xf32>
    %650 = "tfl.fully_connected"(%644, %648, %649) {asymmetric_quantize_inputs = false, fused_activation_function = "NONE", keep_num_dims = false, weights_format = "DEFAULT"} : (tensor<1x384x512xf32>, tensor<128x512xf32>, tensor<128xf32>) -> tensor<384x128xf32>
    %651 = "tfl.pseudo_const"() {value = dense_resource<__elided__> : tensor<128x512xf32>} : () -> tensor<128x512xf32>
    %652 = "tfl.pseudo_const"() {value = dense_resource<__elided__> : tensor<128xf32>} : () -> tensor<128xf32>
    %653 = "tfl.fully_connected"(%644, %651, %652) {asymmetric_quantize_inputs = false, fused_activation_function = "NONE", keep_num_dims = false, weights_format = "DEFAULT"} : (tensor<1x384x512xf32>, tensor<128x512xf32>, tensor<128xf32>) -> tensor<384x128xf32>
    %654 = "tfl.pseudo_const"() {value = dense_resource<__elided__> : tensor<3xi32>} : () -> tensor<3xi32>
    %655 = "tfl.reshape"(%647, %654) : (tensor<384x128xf32>, tensor<3xi32>) -> tensor<1x384x128xf32>
    %656 = "tfl.pseudo_const"() {value = dense_resource<__elided__> : tensor<3xi32>} : () -> tensor<3xi32>
    %657 = "tfl.reshape"(%650, %656) : (tensor<384x128xf32>, tensor<3xi32>) -> tensor<1x384x128xf32>
    %658 = "tfl.pseudo_const"() {value = dense_resource<__elided__> : tensor<3xi32>} : () -> tensor<3xi32>
    %659 = "tfl.reshape"(%653, %658) : (tensor<384x128xf32>, tensor<3xi32>) -> tensor<1x384x128xf32>
    %660 = "tfl.pseudo_const"() {value = dense_resource<__elided__> : tensor<128x128xf32>} : () -> tensor<128x128xf32>
    %661 = "tfl.pseudo_const"() {value = dense_resource<__elided__> : tensor<128xf32>} : () -> tensor<128xf32>
    %662 = "tfl.fully_connected"(%657, %660, %661) {asymmetric_quantize_inputs = false, fused_activation_function = "NONE", keep_num_dims = false, weights_format = "DEFAULT"} : (tensor<1x384x128xf32>, tensor<128x128xf32>, tensor<128xf32>) -> tensor<384x128xf32>
    %663 = "tfl.pseudo_const"() {value = dense_resource<__elided__> : tensor<128x128xf32>} : () -> tensor<128x128xf32>
    %664 = "tfl.pseudo_const"() {value = dense_resource<__elided__> : tensor<128xf32>} : () -> tensor<128xf32>
    %665 = "tfl.fully_connected"(%657, %663, %664) {asymmetric_quantize_inputs = false, fused_activation_function = "NONE", keep_num_dims = false, weights_format = "DEFAULT"} : (tensor<1x384x128xf32>, tensor<128x128xf32>, tensor<128xf32>) -> tensor<384x128xf32>
    %666 = "tfl.pseudo_const"() {value = dense_resource<__elided__> : tensor<128x128xf32>} : () -> tensor<128x128xf32>
    %667 = "tfl.pseudo_const"() {value = dense_resource<__elided__> : tensor<128xf32>} : () -> tensor<128xf32>
    %668 = "tfl.fully_connected"(%659, %666, %667) {asymmetric_quantize_inputs = false, fused_activation_function = "NONE", keep_num_dims = false, weights_format = "DEFAULT"} : (tensor<1x384x128xf32>, tensor<128x128xf32>, tensor<128xf32>) -> tensor<384x128xf32>
    %669 = "tfl.pseudo_const"() {value = dense_resource<__elided__> : tensor<4xi32>} : () -> tensor<4xi32>
    %670 = "tfl.reshape"(%662, %669) : (tensor<384x128xf32>, tensor<4xi32>) -> tensor<1x384x4x32xf32>
    %671 = "tfl.pseudo_const"() {value = dense_resource<__elided__> : tensor<4xi32>} : () -> tensor<4xi32>
    %672 = "tfl.reshape"(%665, %671) : (tensor<384x128xf32>, tensor<4xi32>) -> tensor<1x384x4x32xf32>
    %673 = "tfl.pseudo_const"() {value = dense_resource<__elided__> : tensor<4xi32>} : () -> tensor<4xi32>
    %674 = "tfl.reshape"(%668, %673) : (tensor<384x128xf32>, tensor<4xi32>) -> tensor<1x384x4x32xf32>
    %675 = "tfl.pseudo_const"() {value = dense_resource<__elided__> : tensor<4xi32>} : () -> tensor<4xi32>
    %676 = "tfl.transpose"(%670, %675) : (tensor<1x384x4x32xf32>, tensor<4xi32>) -> tensor<1x4x384x32xf32>
    %677 = "tfl.pseudo_const"() {value = dense_resource<__elided__> : tensor<4xi32>} : () -> tensor<4xi32>
    %678 = "tfl.transpose"(%672, %677) : (tensor<1x384x4x32xf32>, tensor<4xi32>) -> tensor<1x4x384x32xf32>
    %679 = "tfl.pseudo_const"() {value = dense_resource<__elided__> : tensor<4xi32>} : () -> tensor<4xi32>
    %680 = "tfl.transpose"(%674, %679) : (tensor<1x384x4x32xf32>, tensor<4xi32>) -> tensor<1x4x384x32xf32>
    %681 = "tfl.pseudo_const"() {value = dense_resource<__elided__> : tensor<4xi32>} : () -> tensor<4xi32>
    %682 = "tfl.transpose"(%678, %681) : (tensor<1x4x384x32xf32>, tensor<4xi32>) -> tensor<1x4x32x384xf32>
    %683 = "tfl.pseudo_const"() {value = dense_resource<__elided__> : tensor<3xi32>} : () -> tensor<3xi32>
    %684 = "tfl.reshape"(%676, %683) : (tensor<1x4x384x32xf32>, tensor<3xi32>) -> tensor<4x384x32xf32>
    %685 = "tfl.pseudo_const"() {value = dense<0> : tensor<3xi32>} : () -> tensor<3xi32>
    %686 = "tfl.pseudo_const"() {value = dense_resource<__elided__> : tensor<3xi32>} : () -> tensor<3xi32>
    %687 = "tfl.slice"(%684, %685, %686) : (tensor<4x384x32xf32>, tensor<3xi32>, tensor<3xi32>) -> tensor<1x384x32xf32>
    %688 = "tfl.pseudo_const"() {value = dense_resource<__elided__> : tensor<3xi32>} : () -> tensor<3xi32>
    %689 = "tfl.pseudo_const"() {value = dense_resource<__elided__> : tensor<3xi32>} : () -> tensor<3xi32>
    %690 = "tfl.slice"(%684, %688, %689) : (tensor<4x384x32xf32>, tensor<3xi32>, tensor<3xi32>) -> tensor<1x384x32xf32>
    %691 = "tfl.pseudo_const"() {value = dense_resource<__elided__> : tensor<3xi32>} : () -> tensor<3xi32>
    %692 = "tfl.pseudo_const"() {value = dense_resource<__elided__> : tensor<3xi32>} : () -> tensor<3xi32>
    %693 = "tfl.slice"(%684, %691, %692) : (tensor<4x384x32xf32>, tensor<3xi32>, tensor<3xi32>) -> tensor<1x384x32xf32>
    %694 = "tfl.pseudo_const"() {value = dense_resource<__elided__> : tensor<3xi32>} : () -> tensor<3xi32>
    %695 = "tfl.pseudo_const"() {value = dense_resource<__elided__> : tensor<3xi32>} : () -> tensor<3xi32>
    %696 = "tfl.slice"(%684, %694, %695) : (tensor<4x384x32xf32>, tensor<3xi32>, tensor<3xi32>) -> tensor<1x384x32xf32>
    %697 = "tfl.pseudo_const"() {value = dense_resource<__elided__> : tensor<3xi32>} : () -> tensor<3xi32>
    %698 = "tfl.reshape"(%682, %697) : (tensor<1x4x32x384xf32>, tensor<3xi32>) -> tensor<4x32x384xf32>
    %699 = "tfl.pseudo_const"() {value = dense<0> : tensor<3xi32>} : () -> tensor<3xi32>
    %700 = "tfl.pseudo_const"() {value = dense_resource<__elided__> : tensor<3xi32>} : () -> tensor<3xi32>
    %701 = "tfl.slice"(%698, %699, %700) : (tensor<4x32x384xf32>, tensor<3xi32>, tensor<3xi32>) -> tensor<1x32x384xf32>
    %702 = "tfl.pseudo_const"() {value = dense_resource<__elided__> : tensor<3xi32>} : () -> tensor<3xi32>
    %703 = "tfl.transpose"(%701, %702) : (tensor<1x32x384xf32>, tensor<3xi32>) -> tensor<384x32x1xf32>
    %704 = "tfl.pseudo_const"() {value = dense_resource<__elided__> : tensor<3xi32>} : () -> tensor<3xi32>
    %705 = "tfl.pseudo_const"() {value = dense_resource<__elided__> : tensor<3xi32>} : () -> tensor<3xi32>
    %706 = "tfl.slice"(%698, %704, %705) : (tensor<4x32x384xf32>, tensor<3xi32>, tensor<3xi32>) -> tensor<1x32x384xf32>
    %707 = "tfl.pseudo_const"() {value = dense_resource<__elided__> : tensor<3xi32>} : () -> tensor<3xi32>
    %708 = "tfl.transpose"(%706, %707) : (tensor<1x32x384xf32>, tensor<3xi32>) -> tensor<384x32x1xf32>
    %709 = "tfl.pseudo_const"() {value = dense_resource<__elided__> : tensor<3xi32>} : () -> tensor<3xi32>
    %710 = "tfl.pseudo_const"() {value = dense_resource<__elided__> : tensor<3xi32>} : () -> tensor<3xi32>
    %711 = "tfl.slice"(%698, %709, %710) : (tensor<4x32x384xf32>, tensor<3xi32>, tensor<3xi32>) -> tensor<1x32x384xf32>
    %712 = "tfl.pseudo_const"() {value = dense_resource<__elided__> : tensor<3xi32>} : () -> tensor<3xi32>
    %713 = "tfl.transpose"(%711, %712) : (tensor<1x32x384xf32>, tensor<3xi32>) -> tensor<384x32x1xf32>
    %714 = "tfl.pseudo_const"() {value = dense_resource<__elided__> : tensor<3xi32>} : () -> tensor<3xi32>
    %715 = "tfl.pseudo_const"() {value = dense_resource<__elided__> : tensor<3xi32>} : () -> tensor<3xi32>
    %716 = "tfl.slice"(%698, %714, %715) : (tensor<4x32x384xf32>, tensor<3xi32>, tensor<3xi32>) -> tensor<1x32x384xf32>
    %717 = "tfl.pseudo_const"() {value = dense_resource<__elided__> : tensor<3xi32>} : () -> tensor<3xi32>
    %718 = "tfl.transpose"(%716, %717) : (tensor<1x32x384xf32>, tensor<3xi32>) -> tensor<384x32x1xf32>
    %719 = "tfl.pseudo_const"() {value = dense_resource<__elided__> : tensor<2xi32>} : () -> tensor<2xi32>
    %720 = "tfl.reshape"(%703, %719) : (tensor<384x32x1xf32>, tensor<2xi32>) -> tensor<384x32xf32>
    %721 = "tfl.fully_connected"(%687, %720, %283) {asymmetric_quantize_inputs = false, fused_activation_function = "NONE", keep_num_dims = false, weights_format = "DEFAULT"} : (tensor<1x384x32xf32>, tensor<384x32xf32>, tensor<384xf32>) -> tensor<384x384xf32>
    %722 = "tfl.pseudo_const"() {value = dense_resource<__elided__> : tensor<2xi32>} : () -> tensor<2xi32>
    %723 = "tfl.reshape"(%708, %722) : (tensor<384x32x1xf32>, tensor<2xi32>) -> tensor<384x32xf32>
    %724 = "tfl.fully_connected"(%690, %723, %283) {asymmetric_quantize_inputs = false, fused_activation_function = "NONE", keep_num_dims = false, weights_format = "DEFAULT"} : (tensor<1x384x32xf32>, tensor<384x32xf32>, tensor<384xf32>) -> tensor<384x384xf32>
    %725 = "tfl.pseudo_const"() {value = dense_resource<__elided__> : tensor<2xi32>} : () -> tensor<2xi32>
    %726 = "tfl.reshape"(%713, %725) : (tensor<384x32x1xf32>, tensor<2xi32>) -> tensor<384x32xf32>
    %727 = "tfl.fully_connected"(%693, %726, %283) {asymmetric_quantize_inputs = false, fused_activation_function = "NONE", keep_num_dims = false, weights_format = "DEFAULT"} : (tensor<1x384x32xf32>, tensor<384x32xf32>, tensor<384xf32>) -> tensor<384x384xf32>
    %728 = "tfl.pseudo_const"() {value = dense_resource<__elided__> : tensor<2xi32>} : () -> tensor<2xi32>
    %729 = "tfl.reshape"(%718, %728) : (tensor<384x32x1xf32>, tensor<2xi32>) -> tensor<384x32xf32>
    %730 = "tfl.fully_connected"(%696, %729, %283) {asymmetric_quantize_inputs = false, fused_activation_function = "NONE", keep_num_dims = false, weights_format = "DEFAULT"} : (tensor<1x384x32xf32>, tensor<384x32xf32>, tensor<384xf32>) -> tensor<384x384xf32>
    %731 = "tfl.pack"(%721, %724, %727, %730) {axis = 0 : i32, values_count = 4 : i32} : (tensor<384x384xf32>, tensor<384x384xf32>, tensor<384x384xf32>, tensor<384x384xf32>) -> tensor<4x384x384xf32>
    %732 = "tfl.pseudo_const"() {value = dense<0.176776692> : tensor<f32>} : () -> tensor<f32>
    %733 = tfl.mul(%731, %732) {fused_activation_function = "NONE"} : (tensor<4x384x384xf32>, tensor<f32>) -> tensor<4x384x384xf32>
    %734 = "tfl.pseudo_const"() {value = dense_resource<__elided__> : tensor<4xi32>} : () -> tensor<4xi32>
    %735 = "tfl.reshape"(%733, %734) : (tensor<4x384x384xf32>, tensor<4xi32>) -> tensor<1x4x384x384xf32>
    %736 = tfl.add(%735, %128) {fused_activation_function = "NONE"} : (tensor<1x4x384x384xf32>, tensor<1x1x384x384xf32>) -> tensor<1x4x384x384xf32>
    %737 = "tfl.softmax"(%736) {beta = 1.000000e+00 : f32} : (tensor<1x4x384x384xf32>) -> tensor<1x4x384x384xf32>
    %738 = "tfl.pseudo_const"() {value = dense_resource<__elided__> : tensor<3xi32>} : () -> tensor<3xi32>
    %739 = "tfl.reshape"(%737, %738) : (tensor<1x4x384x384xf32>, tensor<3xi32>) -> tensor<4x384x384xf32>
    %740 = "tfl.pseudo_const"() {value = dense<0> : tensor<3xi32>} : () -> tensor<3xi32>
    %741 = "tfl.pseudo_const"() {value = dense_resource<__elided__> : tensor<3xi32>} : () -> tensor<3xi32>
    %742 = "tfl.slice"(%739, %740, %741) : (tensor<4x384x384xf32>, tensor<3xi32>, tensor<3xi32>) -> tensor<1x384x384xf32>
    %743 = "tfl.pseudo_const"() {value = dense_resource<__elided__> : tensor<3xi32>} : () -> tensor<3xi32>
    %744 = "tfl.pseudo_const"() {value = dense_resource<__elided__> : tensor<3xi32>} : () -> tensor<3xi32>
    %745 = "tfl.slice"(%739, %743, %744) : (tensor<4x384x384xf32>, tensor<3xi32>, tensor<3xi32>) -> tensor<1x384x384xf32>
    %746 = "tfl.pseudo_const"() {value = dense_resource<__elided__> : tensor<3xi32>} : () -> tensor<3xi32>
    %747 = "tfl.pseudo_const"() {value = dense_resource<__elided__> : tensor<3xi32>} : () -> tensor<3xi32>
    %748 = "tfl.slice"(%739, %746, %747) : (tensor<4x384x384xf32>, tensor<3xi32>, tensor<3xi32>) -> tensor<1x384x384xf32>
    %749 = "tfl.pseudo_const"() {value = dense_resource<__elided__> : tensor<3xi32>} : () -> tensor<3xi32>
    %750 = "tfl.pseudo_const"() {value = dense_resource<__elided__> : tensor<3xi32>} : () -> tensor<3xi32>
    %751 = "tfl.slice"(%739, %749, %750) : (tensor<4x384x384xf32>, tensor<3xi32>, tensor<3xi32>) -> tensor<1x384x384xf32>
    %752 = "tfl.pseudo_const"() {value = dense_resource<__elided__> : tensor<3xi32>} : () -> tensor<3xi32>
    %753 = "tfl.reshape"(%680, %752) : (tensor<1x4x384x32xf32>, tensor<3xi32>) -> tensor<4x384x32xf32>
    %754 = "tfl.pseudo_const"() {value = dense<0> : tensor<3xi32>} : () -> tensor<3xi32>
    %755 = "tfl.pseudo_const"() {value = dense_resource<__elided__> : tensor<3xi32>} : () -> tensor<3xi32>
    %756 = "tfl.slice"(%753, %754, %755) : (tensor<4x384x32xf32>, tensor<3xi32>, tensor<3xi32>) -> tensor<1x384x32xf32>
    %757 = "tfl.pseudo_const"() {value = dense_resource<__elided__> : tensor<3xi32>} : () -> tensor<3xi32>
    %758 = "tfl.transpose"(%756, %757) : (tensor<1x384x32xf32>, tensor<3xi32>) -> tensor<32x384x1xf32>
    %759 = "tfl.pseudo_const"() {value = dense_resource<__elided__> : tensor<3xi32>} : () -> tensor<3xi32>
    %760 = "tfl.pseudo_const"() {value = dense_resource<__elided__> : tensor<3xi32>} : () -> tensor<3xi32>
    %761 = "tfl.slice"(%753, %759, %760) : (tensor<4x384x32xf32>, tensor<3xi32>, tensor<3xi32>) -> tensor<1x384x32xf32>
    %762 = "tfl.pseudo_const"() {value = dense_resource<__elided__> : tensor<3xi32>} : () -> tensor<3xi32>
    %763 = "tfl.transpose"(%761, %762) : (tensor<1x384x32xf32>, tensor<3xi32>) -> tensor<32x384x1xf32>
    %764 = "tfl.pseudo_const"() {value = dense_resource<__elided__> : tensor<3xi32>} : () -> tensor<3xi32>
    %765 = "tfl.pseudo_const"() {value = dense_resource<__elided__> : tensor<3xi32>} : () -> tensor<3xi32>
    %766 = "tfl.slice"(%753, %764, %765) : (tensor<4x384x32xf32>, tensor<3xi32>, tensor<3xi32>) -> tensor<1x384x32xf32>
    %767 = "tfl.pseudo_const"() {value = dense_resource<__elided__> : tensor<3xi32>} : () -> tensor<3xi32>
    %768 = "tfl.transpose"(%766, %767) : (tensor<1x384x32xf32>, tensor<3xi32>) -> tensor<32x384x1xf32>
    %769 = "tfl.pseudo_const"() {value = dense_resource<__elided__> : tensor<3xi32>} : () -> tensor<3xi32>
    %770 = "tfl.pseudo_const"() {value = dense_resource<__elided__> : tensor<3xi32>} : () -> tensor<3xi32>
    %771 = "tfl.slice"(%753, %769, %770) : (tensor<4x384x32xf32>, tensor<3xi32>, tensor<3xi32>) -> tensor<1x384x32xf32>
    %772 = "tfl.pseudo_const"() {value = dense_resource<__elided__> : tensor<3xi32>} : () -> tensor<3xi32>
    %773 = "tfl.transpose"(%771, %772) : (tensor<1x384x32xf32>, tensor<3xi32>) -> tensor<32x384x1xf32>
    %774 = "tfl.pseudo_const"() {value = dense_resource<__elided__> : tensor<2xi32>} : () -> tensor<2xi32>
    %775 = "tfl.reshape"(%758, %774) : (tensor<32x384x1xf32>, tensor<2xi32>) -> tensor<32x384xf32>
    %776 = "tfl.fully_connected"(%742, %775, %339) {asymmetric_quantize_inputs = false, fused_activation_function = "NONE", keep_num_dims = false, weights_format = "DEFAULT"} : (tensor<1x384x384xf32>, tensor<32x384xf32>, tensor<32xf32>) -> tensor<384x32xf32>
    %777 = "tfl.pseudo_const"() {value = dense_resource<__elided__> : tensor<2xi32>} : () -> tensor<2xi32>
    %778 = "tfl.reshape"(%763, %777) : (tensor<32x384x1xf32>, tensor<2xi32>) -> tensor<32x384xf32>
    %779 = "tfl.fully_connected"(%745, %778, %339) {asymmetric_quantize_inputs = false, fused_activation_function = "NONE", keep_num_dims = false, weights_format = "DEFAULT"} : (tensor<1x384x384xf32>, tensor<32x384xf32>, tensor<32xf32>) -> tensor<384x32xf32>
    %780 = "tfl.pseudo_const"() {value = dense_resource<__elided__> : tensor<2xi32>} : () -> tensor<2xi32>
    %781 = "tfl.reshape"(%768, %780) : (tensor<32x384x1xf32>, tensor<2xi32>) -> tensor<32x384xf32>
    %782 = "tfl.fully_connected"(%748, %781, %339) {asymmetric_quantize_inputs = false, fused_activation_function = "NONE", keep_num_dims = false, weights_format = "DEFAULT"} : (tensor<1x384x384xf32>, tensor<32x384xf32>, tensor<32xf32>) -> tensor<384x32xf32>
    %783 = "tfl.pseudo_const"() {value = dense_resource<__elided__> : tensor<2xi32>} : () -> tensor<2xi32>
    %784 = "tfl.reshape"(%773, %783) : (tensor<32x384x1xf32>, tensor<2xi32>) -> tensor<32x384xf32>
    %785 = "tfl.fully_connected"(%751, %784, %339) {asymmetric_quantize_inputs = false, fused_activation_function = "NONE", keep_num_dims = false, weights_format = "DEFAULT"} : (tensor<1x384x384xf32>, tensor<32x384xf32>, tensor<32xf32>) -> tensor<384x32xf32>
    %786 = "tfl.pack"(%776, %779, %782, %785) {axis = 0 : i32, values_count = 4 : i32} : (tensor<384x32xf32>, tensor<384x32xf32>, tensor<384x32xf32>, tensor<384x32xf32>) -> tensor<4x384x32xf32>
    %787 = "tfl.pseudo_const"() {value = dense_resource<__elided__> : tensor<3xi32>} : () -> tensor<3xi32>
    %788 = "tfl.transpose"(%786, %787) : (tensor<4x384x32xf32>, tensor<3xi32>) -> tensor<384x4x32xf32>
    %789 = "tfl.pseudo_const"() {value = dense_resource<__elided__> : tensor<4xi32>} : () -> tensor<4xi32>
    %790 = "tfl.reshape"(%788, %789) : (tensor<384x4x32xf32>, tensor<4xi32>) -> tensor<1x384x4x32xf32>
    %791 = "tfl.pseudo_const"() {value = dense_resource<__elided__> : tensor<128x128xf32>} : () -> tensor<128x128xf32>
    %792 = "tfl.pseudo_const"() {value = dense_resource<__elided__> : tensor<128xf32>} : () -> tensor<128xf32>
    %793 = "tfl.fully_connected"(%790, %791, %792) {asymmetric_quantize_inputs = false, fused_activation_function = "NONE", keep_num_dims = false, weights_format = "DEFAULT"} : (tensor<1x384x4x32xf32>, tensor<128x128xf32>, tensor<128xf32>) -> tensor<384x128xf32>
    %794 = "tfl.pseudo_const"() {value = dense_resource<__elided__> : tensor<3xi32>} : () -> tensor<3xi32>
    %795 = "tfl.reshape"(%793, %794) : (tensor<384x128xf32>, tensor<3xi32>) -> tensor<1x384x128xf32>
    %796 = tfl.add %795, %655 {fused_activation_function = "NONE"} : tensor<1x384x128xf32>
    %797 = "tfl.pseudo_const"() {value = dense_resource<__elided__> : tensor<128xf32>} : () -> tensor<128xf32>
    %798 = tfl.mul(%796, %797) {fused_activation_function = "NONE"} : (tensor<1x384x128xf32>, tensor<128xf32>) -> tensor<1x384x128xf32>
    %799 = "tfl.pseudo_const"() {value = dense_resource<__elided__> : tensor<128xf32>} : () -> tensor<128xf32>
    %800 = tfl.add(%798, %799) {fused_activation_function = "NONE"} : (tensor<1x384x128xf32>, tensor<128xf32>) -> tensor<1x384x128xf32>
    %801 = "tfl.pseudo_const"() {value = dense_resource<__elided__> : tensor<512x128xf32>} : () -> tensor<512x128xf32>
    %802 = "tfl.pseudo_const"() {value = dense_resource<__elided__> : tensor<512xf32>} : () -> tensor<512xf32>
    %803 = "tfl.fully_connected"(%800, %801, %802) {asymmetric_quantize_inputs = false, fused_activation_function = "RELU", keep_num_dims = false, weights_format = "DEFAULT"} : (tensor<1x384x128xf32>, tensor<512x128xf32>, tensor<512xf32>) -> tensor<384x512xf32>
    %804 = "tfl.pseudo_const"() {value = dense_resource<__elided__> : tensor<128x512xf32>} : () -> tensor<128x512xf32>
    %805 = "tfl.pseudo_const"() {value = dense_resource<__elided__> : tensor<128xf32>} : () -> tensor<128xf32>
    %806 = "tfl.fully_connected"(%803, %804, %805) {asymmetric_quantize_inputs = false, fused_activation_function = "NONE", keep_num_dims = false, weights_format = "DEFAULT"} : (tensor<384x512xf32>, tensor<128x512xf32>, tensor<128xf32>) -> tensor<384x128xf32>
    %807 = "tfl.pseudo_const"() {value = dense_resource<__elided__> : tensor<3xi32>} : () -> tensor<3xi32>
    %808 = "tfl.reshape"(%806, %807) : (tensor<384x128xf32>, tensor<3xi32>) -> tensor<1x384x128xf32>
    %809 = tfl.add %808, %800 {fused_activation_function = "NONE"} : tensor<1x384x128xf32>
    %810 = "tfl.pseudo_const"() {value = dense_resource<__elided__> : tensor<128xf32>} : () -> tensor<128xf32>
    %811 = tfl.mul(%809, %810) {fused_activation_function = "NONE"} : (tensor<1x384x128xf32>, tensor<128xf32>) -> tensor<1x384x128xf32>
    %812 = "tfl.pseudo_const"() {value = dense_resource<__elided__> : tensor<128xf32>} : () -> tensor<128xf32>
    %813 = tfl.add(%811, %812) {fused_activation_function = "NONE"} : (tensor<1x384x128xf32>, tensor<128xf32>) -> tensor<1x384x128xf32>
    %814 = "tfl.pseudo_const"() {value = dense_resource<__elided__> : tensor<512x128xf32>} : () -> tensor<512x128xf32>
    %815 = "tfl.pseudo_const"() {value = dense_resource<__elided__> : tensor<512xf32>} : () -> tensor<512xf32>
    %816 = "tfl.fully_connected"(%813, %814, %815) {asymmetric_quantize_inputs = false, fused_activation_function = "RELU", keep_num_dims = false, weights_format = "DEFAULT"} : (tensor<1x384x128xf32>, tensor<512x128xf32>, tensor<512xf32>) -> tensor<384x512xf32>
    %817 = "tfl.pseudo_const"() {value = dense_resource<__elided__> : tensor<128x512xf32>} : () -> tensor<128x512xf32>
    %818 = "tfl.pseudo_const"() {value = dense_resource<__elided__> : tensor<128xf32>} : () -> tensor<128xf32>
    %819 = "tfl.fully_connected"(%816, %817, %818) {asymmetric_quantize_inputs = false, fused_activation_function = "NONE", keep_num_dims = false, weights_format = "DEFAULT"} : (tensor<384x512xf32>, tensor<128x512xf32>, tensor<128xf32>) -> tensor<384x128xf32>
    %820 = "tfl.pseudo_const"() {value = dense_resource<__elided__> : tensor<3xi32>} : () -> tensor<3xi32>
    %821 = "tfl.reshape"(%819, %820) : (tensor<384x128xf32>, tensor<3xi32>) -> tensor<1x384x128xf32>
    %822 = tfl.add %821, %813 {fused_activation_function = "NONE"} : tensor<1x384x128xf32>
    %823 = "tfl.pseudo_const"() {value = dense_resource<__elided__> : tensor<128xf32>} : () -> tensor<128xf32>
    %824 = tfl.mul(%822, %823) {fused_activation_function = "NONE"} : (tensor<1x384x128xf32>, tensor<128xf32>) -> tensor<1x384x128xf32>
    %825 = "tfl.pseudo_const"() {value = dense_resource<__elided__> : tensor<128xf32>} : () -> tensor<128xf32>
    %826 = tfl.add(%824, %825) {fused_activation_function = "NONE"} : (tensor<1x384x128xf32>, tensor<128xf32>) -> tensor<1x384x128xf32>
    %827 = "tfl.pseudo_const"() {value = dense_resource<__elided__> : tensor<512x128xf32>} : () -> tensor<512x128xf32>
    %828 = "tfl.pseudo_const"() {value = dense_resource<__elided__> : tensor<512xf32>} : () -> tensor<512xf32>
    %829 = "tfl.fully_connected"(%826, %827, %828) {asymmetric_quantize_inputs = false, fused_activation_function = "RELU", keep_num_dims = false, weights_format = "DEFAULT"} : (tensor<1x384x128xf32>, tensor<512x128xf32>, tensor<512xf32>) -> tensor<384x512xf32>
    %830 = "tfl.pseudo_const"() {value = dense_resource<__elided__> : tensor<128x512xf32>} : () -> tensor<128x512xf32>
    %831 = "tfl.pseudo_const"() {value = dense_resource<__elided__> : tensor<128xf32>} : () -> tensor<128xf32>
    %832 = "tfl.fully_connected"(%829, %830, %831) {asymmetric_quantize_inputs = false, fused_activation_function = "NONE", keep_num_dims = false, weights_format = "DEFAULT"} : (tensor<384x512xf32>, tensor<128x512xf32>, tensor<128xf32>) -> tensor<384x128xf32>
    %833 = "tfl.pseudo_const"() {value = dense_resource<__elided__> : tensor<3xi32>} : () -> tensor<3xi32>
    %834 = "tfl.reshape"(%832, %833) : (tensor<384x128xf32>, tensor<3xi32>) -> tensor<1x384x128xf32>
    %835 = tfl.add %834, %826 {fused_activation_function = "NONE"} : tensor<1x384x128xf32>
    %836 = "tfl.pseudo_const"() {value = dense_resource<__elided__> : tensor<128xf32>} : () -> tensor<128xf32>
    %837 = tfl.mul(%835, %836) {fused_activation_function = "NONE"} : (tensor<1x384x128xf32>, tensor<128xf32>) -> tensor<1x384x128xf32>
    %838 = "tfl.pseudo_const"() {value = dense_resource<__elided__> : tensor<128xf32>} : () -> tensor<128xf32>
    %839 = tfl.add(%837, %838) {fused_activation_function = "NONE"} : (tensor<1x384x128xf32>, tensor<128xf32>) -> tensor<1x384x128xf32>
    %840 = "tfl.pseudo_const"() {value = dense_resource<__elided__> : tensor<512x128xf32>} : () -> tensor<512x128xf32>
    %841 = "tfl.pseudo_const"() {value = dense_resource<__elided__> : tensor<512xf32>} : () -> tensor<512xf32>
    %842 = "tfl.fully_connected"(%839, %840, %841) {asymmetric_quantize_inputs = false, fused_activation_function = "RELU", keep_num_dims = false, weights_format = "DEFAULT"} : (tensor<1x384x128xf32>, tensor<512x128xf32>, tensor<512xf32>) -> tensor<384x512xf32>
    %843 = "tfl.pseudo_const"() {value = dense_resource<__elided__> : tensor<128x512xf32>} : () -> tensor<128x512xf32>
    %844 = "tfl.pseudo_const"() {value = dense_resource<__elided__> : tensor<128xf32>} : () -> tensor<128xf32>
    %845 = "tfl.fully_connected"(%842, %843, %844) {asymmetric_quantize_inputs = false, fused_activation_function = "NONE", keep_num_dims = false, weights_format = "DEFAULT"} : (tensor<384x512xf32>, tensor<128x512xf32>, tensor<128xf32>) -> tensor<384x128xf32>
    %846 = "tfl.pseudo_const"() {value = dense_resource<__elided__> : tensor<3xi32>} : () -> tensor<3xi32>
    %847 = "tfl.reshape"(%845, %846) : (tensor<384x128xf32>, tensor<3xi32>) -> tensor<1x384x128xf32>
    %848 = tfl.add %847, %839 {fused_activation_function = "NONE"} : tensor<1x384x128xf32>
    %849 = "tfl.pseudo_const"() {value = dense_resource<__elided__> : tensor<128xf32>} : () -> tensor<128xf32>
    %850 = tfl.mul(%848, %849) {fused_activation_function = "NONE"} : (tensor<1x384x128xf32>, tensor<128xf32>) -> tensor<1x384x128xf32>
    %851 = "tfl.pseudo_const"() {value = dense_resource<__elided__> : tensor<128xf32>} : () -> tensor<128xf32>
    %852 = tfl.add(%850, %851) {fused_activation_function = "NONE"} : (tensor<1x384x128xf32>, tensor<128xf32>) -> tensor<1x384x128xf32>
    %853 = "tfl.pseudo_const"() {value = dense_resource<__elided__> : tensor<512x128xf32>} : () -> tensor<512x128xf32>
    %854 = "tfl.pseudo_const"() {value = dense_resource<__elided__> : tensor<512xf32>} : () -> tensor<512xf32>
    %855 = "tfl.fully_connected"(%852, %853, %854) {asymmetric_quantize_inputs = false, fused_activation_function = "NONE", keep_num_dims = false, weights_format = "DEFAULT"} : (tensor<1x384x128xf32>, tensor<512x128xf32>, tensor<512xf32>) -> tensor<384x512xf32>
    %856 = "tfl.pseudo_const"() {value = dense_resource<__elided__> : tensor<3xi32>} : () -> tensor<3xi32>
    %857 = "tfl.reshape"(%855, %856) : (tensor<384x512xf32>, tensor<3xi32>) -> tensor<1x384x512xf32>
    %858 = tfl.add %857, %644 {fused_activation_function = "NONE"} : tensor<1x384x512xf32>
    %859 = "tfl.pseudo_const"() {value = dense_resource<__elided__> : tensor<512xf32>} : () -> tensor<512xf32>
    %860 = tfl.mul(%858, %859) {fused_activation_function = "NONE"} : (tensor<1x384x512xf32>, tensor<512xf32>) -> tensor<1x384x512xf32>
    %861 = "tfl.pseudo_const"() {value = dense_resource<__elided__> : tensor<512xf32>} : () -> tensor<512xf32>
    %862 = tfl.add(%860, %861) {fused_activation_function = "NONE"} : (tensor<1x384x512xf32>, tensor<512xf32>) -> tensor<1x384x512xf32>
    %863 = "tfl.pseudo_const"() {value = dense_resource<__elided__> : tensor<128x512xf32>} : () -> tensor<128x512xf32>
    %864 = "tfl.pseudo_const"() {value = dense_resource<__elided__> : tensor<128xf32>} : () -> tensor<128xf32>
    %865 = "tfl.fully_connected"(%862, %863, %864) {asymmetric_quantize_inputs = false, fused_activation_function = "NONE", keep_num_dims = false, weights_format = "DEFAULT"} : (tensor<1x384x512xf32>, tensor<128x512xf32>, tensor<128xf32>) -> tensor<384x128xf32>
    %866 = "tfl.pseudo_const"() {value = dense_resource<__elided__> : tensor<128x512xf32>} : () -> tensor<128x512xf32>
    %867 = "tfl.pseudo_const"() {value = dense_resource<__elided__> : tensor<128xf32>} : () -> tensor<128xf32>
    %868 = "tfl.fully_connected"(%862, %866, %867) {asymmetric_quantize_inputs = false, fused_activation_function = "NONE", keep_num_dims = false, weights_format = "DEFAULT"} : (tensor<1x384x512xf32>, tensor<128x512xf32>, tensor<128xf32>) -> tensor<384x128xf32>
    %869 = "tfl.pseudo_const"() {value = dense_resource<__elided__> : tensor<128x512xf32>} : () -> tensor<128x512xf32>
    %870 = "tfl.pseudo_const"() {value = dense_resource<__elided__> : tensor<128xf32>} : () -> tensor<128xf32>
    %871 = "tfl.fully_connected"(%862, %869, %870) {asymmetric_quantize_inputs = false, fused_activation_function = "NONE", keep_num_dims = false, weights_format = "DEFAULT"} : (tensor<1x384x512xf32>, tensor<128x512xf32>, tensor<128xf32>) -> tensor<384x128xf32>
    %872 = "tfl.pseudo_const"() {value = dense_resource<__elided__> : tensor<3xi32>} : () -> tensor<3xi32>
    %873 = "tfl.reshape"(%865, %872) : (tensor<384x128xf32>, tensor<3xi32>) -> tensor<1x384x128xf32>
    %874 = "tfl.pseudo_const"() {value = dense_resource<__elided__> : tensor<3xi32>} : () -> tensor<3xi32>
    %875 = "tfl.reshape"(%868, %874) : (tensor<384x128xf32>, tensor<3xi32>) -> tensor<1x384x128xf32>
    %876 = "tfl.pseudo_const"() {value = dense_resource<__elided__> : tensor<3xi32>} : () -> tensor<3xi32>
    %877 = "tfl.reshape"(%871, %876) : (tensor<384x128xf32>, tensor<3xi32>) -> tensor<1x384x128xf32>
    %878 = "tfl.pseudo_const"() {value = dense_resource<__elided__> : tensor<128x128xf32>} : () -> tensor<128x128xf32>
    %879 = "tfl.pseudo_const"() {value = dense_resource<__elided__> : tensor<128xf32>} : () -> tensor<128xf32>
    %880 = "tfl.fully_connected"(%875, %878, %879) {asymmetric_quantize_inputs = false, fused_activation_function = "NONE", keep_num_dims = false, weights_format = "DEFAULT"} : (tensor<1x384x128xf32>, tensor<128x128xf32>, tensor<128xf32>) -> tensor<384x128xf32>
    %881 = "tfl.pseudo_const"() {value = dense_resource<__elided__> : tensor<128x128xf32>} : () -> tensor<128x128xf32>
    %882 = "tfl.pseudo_const"() {value = dense_resource<__elided__> : tensor<128xf32>} : () -> tensor<128xf32>
    %883 = "tfl.fully_connected"(%875, %881, %882) {asymmetric_quantize_inputs = false, fused_activation_function = "NONE", keep_num_dims = false, weights_format = "DEFAULT"} : (tensor<1x384x128xf32>, tensor<128x128xf32>, tensor<128xf32>) -> tensor<384x128xf32>
    %884 = "tfl.pseudo_const"() {value = dense_resource<__elided__> : tensor<128x128xf32>} : () -> tensor<128x128xf32>
    %885 = "tfl.pseudo_const"() {value = dense_resource<__elided__> : tensor<128xf32>} : () -> tensor<128xf32>
    %886 = "tfl.fully_connected"(%877, %884, %885) {asymmetric_quantize_inputs = false, fused_activation_function = "NONE", keep_num_dims = false, weights_format = "DEFAULT"} : (tensor<1x384x128xf32>, tensor<128x128xf32>, tensor<128xf32>) -> tensor<384x128xf32>
    %887 = "tfl.pseudo_const"() {value = dense_resource<__elided__> : tensor<4xi32>} : () -> tensor<4xi32>
    %888 = "tfl.reshape"(%880, %887) : (tensor<384x128xf32>, tensor<4xi32>) -> tensor<1x384x4x32xf32>
    %889 = "tfl.pseudo_const"() {value = dense_resource<__elided__> : tensor<4xi32>} : () -> tensor<4xi32>
    %890 = "tfl.reshape"(%883, %889) : (tensor<384x128xf32>, tensor<4xi32>) -> tensor<1x384x4x32xf32>
    %891 = "tfl.pseudo_const"() {value = dense_resource<__elided__> : tensor<4xi32>} : () -> tensor<4xi32>
    %892 = "tfl.reshape"(%886, %891) : (tensor<384x128xf32>, tensor<4xi32>) -> tensor<1x384x4x32xf32>
    %893 = "tfl.pseudo_const"() {value = dense_resource<__elided__> : tensor<4xi32>} : () -> tensor<4xi32>
    %894 = "tfl.transpose"(%888, %893) : (tensor<1x384x4x32xf32>, tensor<4xi32>) -> tensor<1x4x384x32xf32>
    %895 = "tfl.pseudo_const"() {value = dense_resource<__elided__> : tensor<4xi32>} : () -> tensor<4xi32>
    %896 = "tfl.transpose"(%890, %895) : (tensor<1x384x4x32xf32>, tensor<4xi32>) -> tensor<1x4x384x32xf32>
    %897 = "tfl.pseudo_const"() {value = dense_resource<__elided__> : tensor<4xi32>} : () -> tensor<4xi32>
    %898 = "tfl.transpose"(%892, %897) : (tensor<1x384x4x32xf32>, tensor<4xi32>) -> tensor<1x4x384x32xf32>
    %899 = "tfl.pseudo_const"() {value = dense_resource<__elided__> : tensor<4xi32>} : () -> tensor<4xi32>
    %900 = "tfl.transpose"(%896, %899) : (tensor<1x4x384x32xf32>, tensor<4xi32>) -> tensor<1x4x32x384xf32>
    %901 = "tfl.pseudo_const"() {value = dense_resource<__elided__> : tensor<3xi32>} : () -> tensor<3xi32>
    %902 = "tfl.reshape"(%894, %901) : (tensor<1x4x384x32xf32>, tensor<3xi32>) -> tensor<4x384x32xf32>
    %903 = "tfl.pseudo_const"() {value = dense<0> : tensor<3xi32>} : () -> tensor<3xi32>
    %904 = "tfl.pseudo_const"() {value = dense_resource<__elided__> : tensor<3xi32>} : () -> tensor<3xi32>
    %905 = "tfl.slice"(%902, %903, %904) : (tensor<4x384x32xf32>, tensor<3xi32>, tensor<3xi32>) -> tensor<1x384x32xf32>
    %906 = "tfl.pseudo_const"() {value = dense_resource<__elided__> : tensor<3xi32>} : () -> tensor<3xi32>
    %907 = "tfl.pseudo_const"() {value = dense_resource<__elided__> : tensor<3xi32>} : () -> tensor<3xi32>
    %908 = "tfl.slice"(%902, %906, %907) : (tensor<4x384x32xf32>, tensor<3xi32>, tensor<3xi32>) -> tensor<1x384x32xf32>
    %909 = "tfl.pseudo_const"() {value = dense_resource<__elided__> : tensor<3xi32>} : () -> tensor<3xi32>
    %910 = "tfl.pseudo_const"() {value = dense_resource<__elided__> : tensor<3xi32>} : () -> tensor<3xi32>
    %911 = "tfl.slice"(%902, %909, %910) : (tensor<4x384x32xf32>, tensor<3xi32>, tensor<3xi32>) -> tensor<1x384x32xf32>
    %912 = "tfl.pseudo_const"() {value = dense_resource<__elided__> : tensor<3xi32>} : () -> tensor<3xi32>
    %913 = "tfl.pseudo_const"() {value = dense_resource<__elided__> : tensor<3xi32>} : () -> tensor<3xi32>
    %914 = "tfl.slice"(%902, %912, %913) : (tensor<4x384x32xf32>, tensor<3xi32>, tensor<3xi32>) -> tensor<1x384x32xf32>
    %915 = "tfl.pseudo_const"() {value = dense_resource<__elided__> : tensor<3xi32>} : () -> tensor<3xi32>
    %916 = "tfl.reshape"(%900, %915) : (tensor<1x4x32x384xf32>, tensor<3xi32>) -> tensor<4x32x384xf32>
    %917 = "tfl.pseudo_const"() {value = dense<0> : tensor<3xi32>} : () -> tensor<3xi32>
    %918 = "tfl.pseudo_const"() {value = dense_resource<__elided__> : tensor<3xi32>} : () -> tensor<3xi32>
    %919 = "tfl.slice"(%916, %917, %918) : (tensor<4x32x384xf32>, tensor<3xi32>, tensor<3xi32>) -> tensor<1x32x384xf32>
    %920 = "tfl.pseudo_const"() {value = dense_resource<__elided__> : tensor<3xi32>} : () -> tensor<3xi32>
    %921 = "tfl.transpose"(%919, %920) : (tensor<1x32x384xf32>, tensor<3xi32>) -> tensor<384x32x1xf32>
    %922 = "tfl.pseudo_const"() {value = dense_resource<__elided__> : tensor<3xi32>} : () -> tensor<3xi32>
    %923 = "tfl.pseudo_const"() {value = dense_resource<__elided__> : tensor<3xi32>} : () -> tensor<3xi32>
    %924 = "tfl.slice"(%916, %922, %923) : (tensor<4x32x384xf32>, tensor<3xi32>, tensor<3xi32>) -> tensor<1x32x384xf32>
    %925 = "tfl.pseudo_const"() {value = dense_resource<__elided__> : tensor<3xi32>} : () -> tensor<3xi32>
    %926 = "tfl.transpose"(%924, %925) : (tensor<1x32x384xf32>, tensor<3xi32>) -> tensor<384x32x1xf32>
    %927 = "tfl.pseudo_const"() {value = dense_resource<__elided__> : tensor<3xi32>} : () -> tensor<3xi32>
    %928 = "tfl.pseudo_const"() {value = dense_resource<__elided__> : tensor<3xi32>} : () -> tensor<3xi32>
    %929 = "tfl.slice"(%916, %927, %928) : (tensor<4x32x384xf32>, tensor<3xi32>, tensor<3xi32>) -> tensor<1x32x384xf32>
    %930 = "tfl.pseudo_const"() {value = dense_resource<__elided__> : tensor<3xi32>} : () -> tensor<3xi32>
    %931 = "tfl.transpose"(%929, %930) : (tensor<1x32x384xf32>, tensor<3xi32>) -> tensor<384x32x1xf32>
    %932 = "tfl.pseudo_const"() {value = dense_resource<__elided__> : tensor<3xi32>} : () -> tensor<3xi32>
    %933 = "tfl.pseudo_const"() {value = dense_resource<__elided__> : tensor<3xi32>} : () -> tensor<3xi32>
    %934 = "tfl.slice"(%916, %932, %933) : (tensor<4x32x384xf32>, tensor<3xi32>, tensor<3xi32>) -> tensor<1x32x384xf32>
    %935 = "tfl.pseudo_const"() {value = dense_resource<__elided__> : tensor<3xi32>} : () -> tensor<3xi32>
    %936 = "tfl.transpose"(%934, %935) : (tensor<1x32x384xf32>, tensor<3xi32>) -> tensor<384x32x1xf32>
    %937 = "tfl.pseudo_const"() {value = dense_resource<__elided__> : tensor<2xi32>} : () -> tensor<2xi32>
    %938 = "tfl.reshape"(%921, %937) : (tensor<384x32x1xf32>, tensor<2xi32>) -> tensor<384x32xf32>
    %939 = "tfl.fully_connected"(%905, %938, %283) {asymmetric_quantize_inputs = false, fused_activation_function = "NONE", keep_num_dims = false, weights_format = "DEFAULT"} : (tensor<1x384x32xf32>, tensor<384x32xf32>, tensor<384xf32>) -> tensor<384x384xf32>
    %940 = "tfl.pseudo_const"() {value = dense_resource<__elided__> : tensor<2xi32>} : () -> tensor<2xi32>
    %941 = "tfl.reshape"(%926, %940) : (tensor<384x32x1xf32>, tensor<2xi32>) -> tensor<384x32xf32>
    %942 = "tfl.fully_connected"(%908, %941, %283) {asymmetric_quantize_inputs = false, fused_activation_function = "NONE", keep_num_dims = false, weights_format = "DEFAULT"} : (tensor<1x384x32xf32>, tensor<384x32xf32>, tensor<384xf32>) -> tensor<384x384xf32>
    %943 = "tfl.pseudo_const"() {value = dense_resource<__elided__> : tensor<2xi32>} : () -> tensor<2xi32>
    %944 = "tfl.reshape"(%931, %943) : (tensor<384x32x1xf32>, tensor<2xi32>) -> tensor<384x32xf32>
    %945 = "tfl.fully_connected"(%911, %944, %283) {asymmetric_quantize_inputs = false, fused_activation_function = "NONE", keep_num_dims = false, weights_format = "DEFAULT"} : (tensor<1x384x32xf32>, tensor<384x32xf32>, tensor<384xf32>) -> tensor<384x384xf32>
    %946 = "tfl.pseudo_const"() {value = dense_resource<__elided__> : tensor<2xi32>} : () -> tensor<2xi32>
    %947 = "tfl.reshape"(%936, %946) : (tensor<384x32x1xf32>, tensor<2xi32>) -> tensor<384x32xf32>
    %948 = "tfl.fully_connected"(%914, %947, %283) {asymmetric_quantize_inputs = false, fused_activation_function = "NONE", keep_num_dims = false, weights_format = "DEFAULT"} : (tensor<1x384x32xf32>, tensor<384x32xf32>, tensor<384xf32>) -> tensor<384x384xf32>
    %949 = "tfl.pack"(%939, %942, %945, %948) {axis = 0 : i32, values_count = 4 : i32} : (tensor<384x384xf32>, tensor<384x384xf32>, tensor<384x384xf32>, tensor<384x384xf32>) -> tensor<4x384x384xf32>
    %950 = "tfl.pseudo_const"() {value = dense<0.176776692> : tensor<f32>} : () -> tensor<f32>
    %951 = tfl.mul(%949, %950) {fused_activation_function = "NONE"} : (tensor<4x384x384xf32>, tensor<f32>) -> tensor<4x384x384xf32>
    %952 = "tfl.pseudo_const"() {value = dense_resource<__elided__> : tensor<4xi32>} : () -> tensor<4xi32>
    %953 = "tfl.reshape"(%951, %952) : (tensor<4x384x384xf32>, tensor<4xi32>) -> tensor<1x4x384x384xf32>
    %954 = tfl.add(%953, %131) {fused_activation_function = "NONE"} : (tensor<1x4x384x384xf32>, tensor<1x1x384x384xf32>) -> tensor<1x4x384x384xf32>
    %955 = "tfl.softmax"(%954) {beta = 1.000000e+00 : f32} : (tensor<1x4x384x384xf32>) -> tensor<1x4x384x384xf32>
    %956 = "tfl.pseudo_const"() {value = dense_resource<__elided__> : tensor<3xi32>} : () -> tensor<3xi32>
    %957 = "tfl.reshape"(%955, %956) : (tensor<1x4x384x384xf32>, tensor<3xi32>) -> tensor<4x384x384xf32>
    %958 = "tfl.pseudo_const"() {value = dense<0> : tensor<3xi32>} : () -> tensor<3xi32>
    %959 = "tfl.pseudo_const"() {value = dense_resource<__elided__> : tensor<3xi32>} : () -> tensor<3xi32>
    %960 = "tfl.slice"(%957, %958, %959) : (tensor<4x384x384xf32>, tensor<3xi32>, tensor<3xi32>) -> tensor<1x384x384xf32>
    %961 = "tfl.pseudo_const"() {value = dense_resource<__elided__> : tensor<3xi32>} : () -> tensor<3xi32>
    %962 = "tfl.pseudo_const"() {value = dense_resource<__elided__> : tensor<3xi32>} : () -> tensor<3xi32>
    %963 = "tfl.slice"(%957, %961, %962) : (tensor<4x384x384xf32>, tensor<3xi32>, tensor<3xi32>) -> tensor<1x384x384xf32>
    %964 = "tfl.pseudo_const"() {value = dense_resource<__elided__> : tensor<3xi32>} : () -> tensor<3xi32>
    %965 = "tfl.pseudo_const"() {value = dense_resource<__elided__> : tensor<3xi32>} : () -> tensor<3xi32>
    %966 = "tfl.slice"(%957, %964, %965) : (tensor<4x384x384xf32>, tensor<3xi32>, tensor<3xi32>) -> tensor<1x384x384xf32>
    %967 = "tfl.pseudo_const"() {value = dense_resource<__elided__> : tensor<3xi32>} : () -> tensor<3xi32>
    %968 = "tfl.pseudo_const"() {value = dense_resource<__elided__> : tensor<3xi32>} : () -> tensor<3xi32>
    %969 = "tfl.slice"(%957, %967, %968) : (tensor<4x384x384xf32>, tensor<3xi32>, tensor<3xi32>) -> tensor<1x384x384xf32>
    %970 = "tfl.pseudo_const"() {value = dense_resource<__elided__> : tensor<3xi32>} : () -> tensor<3xi32>
    %971 = "tfl.reshape"(%898, %970) : (tensor<1x4x384x32xf32>, tensor<3xi32>) -> tensor<4x384x32xf32>
    %972 = "tfl.pseudo_const"() {value = dense<0> : tensor<3xi32>} : () -> tensor<3xi32>
    %973 = "tfl.pseudo_const"() {value = dense_resource<__elided__> : tensor<3xi32>} : () -> tensor<3xi32>
    %974 = "tfl.slice"(%971, %972, %973) : (tensor<4x384x32xf32>, tensor<3xi32>, tensor<3xi32>) -> tensor<1x384x32xf32>
    %975 = "tfl.pseudo_const"() {value = dense_resource<__elided__> : tensor<3xi32>} : () -> tensor<3xi32>
    %976 = "tfl.transpose"(%974, %975) : (tensor<1x384x32xf32>, tensor<3xi32>) -> tensor<32x384x1xf32>
    %977 = "tfl.pseudo_const"() {value = dense_resource<__elided__> : tensor<3xi32>} : () -> tensor<3xi32>
    %978 = "tfl.pseudo_const"() {value = dense_resource<__elided__> : tensor<3xi32>} : () -> tensor<3xi32>
    %979 = "tfl.slice"(%971, %977, %978) : (tensor<4x384x32xf32>, tensor<3xi32>, tensor<3xi32>) -> tensor<1x384x32xf32>
    %980 = "tfl.pseudo_const"() {value = dense_resource<__elided__> : tensor<3xi32>} : () -> tensor<3xi32>
    %981 = "tfl.transpose"(%979, %980) : (tensor<1x384x32xf32>, tensor<3xi32>) -> tensor<32x384x1xf32>
    %982 = "tfl.pseudo_const"() {value = dense_resource<__elided__> : tensor<3xi32>} : () -> tensor<3xi32>
    %983 = "tfl.pseudo_const"() {value = dense_resource<__elided__> : tensor<3xi32>} : () -> tensor<3xi32>
    %984 = "tfl.slice"(%971, %982, %983) : (tensor<4x384x32xf32>, tensor<3xi32>, tensor<3xi32>) -> tensor<1x384x32xf32>
    %985 = "tfl.pseudo_const"() {value = dense_resource<__elided__> : tensor<3xi32>} : () -> tensor<3xi32>
    %986 = "tfl.transpose"(%984, %985) : (tensor<1x384x32xf32>, tensor<3xi32>) -> tensor<32x384x1xf32>
    %987 = "tfl.pseudo_const"() {value = dense_resource<__elided__> : tensor<3xi32>} : () -> tensor<3xi32>
    %988 = "tfl.pseudo_const"() {value = dense_resource<__elided__> : tensor<3xi32>} : () -> tensor<3xi32>
    %989 = "tfl.slice"(%971, %987, %988) : (tensor<4x384x32xf32>, tensor<3xi32>, tensor<3xi32>) -> tensor<1x384x32xf32>
    %990 = "tfl.pseudo_const"() {value = dense_resource<__elided__> : tensor<3xi32>} : () -> tensor<3xi32>
    %991 = "tfl.transpose"(%989, %990) : (tensor<1x384x32xf32>, tensor<3xi32>) -> tensor<32x384x1xf32>
    %992 = "tfl.pseudo_const"() {value = dense_resource<__elided__> : tensor<2xi32>} : () -> tensor<2xi32>
    %993 = "tfl.reshape"(%976, %992) : (tensor<32x384x1xf32>, tensor<2xi32>) -> tensor<32x384xf32>
    %994 = "tfl.fully_connected"(%960, %993, %339) {asymmetric_quantize_inputs = false, fused_activation_function = "NONE", keep_num_dims = false, weights_format = "DEFAULT"} : (tensor<1x384x384xf32>, tensor<32x384xf32>, tensor<32xf32>) -> tensor<384x32xf32>
    %995 = "tfl.pseudo_const"() {value = dense_resource<__elided__> : tensor<2xi32>} : () -> tensor<2xi32>
    %996 = "tfl.reshape"(%981, %995) : (tensor<32x384x1xf32>, tensor<2xi32>) -> tensor<32x384xf32>
    %997 = "tfl.fully_connected"(%963, %996, %339) {asymmetric_quantize_inputs = false, fused_activation_function = "NONE", keep_num_dims = false, weights_format = "DEFAULT"} : (tensor<1x384x384xf32>, tensor<32x384xf32>, tensor<32xf32>) -> tensor<384x32xf32>
    %998 = "tfl.pseudo_const"() {value = dense_resource<__elided__> : tensor<2xi32>} : () -> tensor<2xi32>
    %999 = "tfl.reshape"(%986, %998) : (tensor<32x384x1xf32>, tensor<2xi32>) -> tensor<32x384xf32>
    %1000 = "tfl.fully_connected"(%966, %999, %339) {asymmetric_quantize_inputs = false, fused_activation_function = "NONE", keep_num_dims = false, weights_format = "DEFAULT"} : (tensor<1x384x384xf32>, tensor<32x384xf32>, tensor<32xf32>) -> tensor<384x32xf32>
    %1001 = "tfl.pseudo_const"() {value = dense_resource<__elided__> : tensor<2xi32>} : () -> tensor<2xi32>
    %1002 = "tfl.reshape"(%991, %1001) : (tensor<32x384x1xf32>, tensor<2xi32>) -> tensor<32x384xf32>
    %1003 = "tfl.fully_connected"(%969, %1002, %339) {asymmetric_quantize_inputs = false, fused_activation_function = "NONE", keep_num_dims = false, weights_format = "DEFAULT"} : (tensor<1x384x384xf32>, tensor<32x384xf32>, tensor<32xf32>) -> tensor<384x32xf32>
    %1004 = "tfl.pack"(%994, %997, %1000, %1003) {axis = 0 : i32, values_count = 4 : i32} : (tensor<384x32xf32>, tensor<384x32xf32>, tensor<384x32xf32>, tensor<384x32xf32>) -> tensor<4x384x32xf32>
    %1005 = "tfl.pseudo_const"() {value = dense_resource<__elided__> : tensor<3xi32>} : () -> tensor<3xi32>
    %1006 = "tfl.transpose"(%1004, %1005) : (tensor<4x384x32xf32>, tensor<3xi32>) -> tensor<384x4x32xf32>
    %1007 = "tfl.pseudo_const"() {value = dense_resource<__elided__> : tensor<4xi32>} : () -> tensor<4xi32>
    %1008 = "tfl.reshape"(%1006, %1007) : (tensor<384x4x32xf32>, tensor<4xi32>) -> tensor<1x384x4x32xf32>
    %1009 = "tfl.pseudo_const"() {value = dense_resource<__elided__> : tensor<128x128xf32>} : () -> tensor<128x128xf32>
    %1010 = "tfl.pseudo_const"() {value = dense_resource<__elided__> : tensor<128xf32>} : () -> tensor<128xf32>
    %1011 = "tfl.fully_connected"(%1008, %1009, %1010) {asymmetric_quantize_inputs = false, fused_activation_function = "NONE", keep_num_dims = false, weights_format = "DEFAULT"} : (tensor<1x384x4x32xf32>, tensor<128x128xf32>, tensor<128xf32>) -> tensor<384x128xf32>
    %1012 = "tfl.pseudo_const"() {value = dense_resource<__elided__> : tensor<3xi32>} : () -> tensor<3xi32>
    %1013 = "tfl.reshape"(%1011, %1012) : (tensor<384x128xf32>, tensor<3xi32>) -> tensor<1x384x128xf32>
    %1014 = tfl.add %1013, %873 {fused_activation_function = "NONE"} : tensor<1x384x128xf32>
    %1015 = "tfl.pseudo_const"() {value = dense_resource<__elided__> : tensor<128xf32>} : () -> tensor<128xf32>
    %1016 = tfl.mul(%1014, %1015) {fused_activation_function = "NONE"} : (tensor<1x384x128xf32>, tensor<128xf32>) -> tensor<1x384x128xf32>
    %1017 = "tfl.pseudo_const"() {value = dense_resource<__elided__> : tensor<128xf32>} : () -> tensor<128xf32>
    %1018 = tfl.add(%1016, %1017) {fused_activation_function = "NONE"} : (tensor<1x384x128xf32>, tensor<128xf32>) -> tensor<1x384x128xf32>
    %1019 = "tfl.pseudo_const"() {value = dense_resource<__elided__> : tensor<512x128xf32>} : () -> tensor<512x128xf32>
    %1020 = "tfl.pseudo_const"() {value = dense_resource<__elided__> : tensor<512xf32>} : () -> tensor<512xf32>
    %1021 = "tfl.fully_connected"(%1018, %1019, %1020) {asymmetric_quantize_inputs = false, fused_activation_function = "RELU", keep_num_dims = false, weights_format = "DEFAULT"} : (tensor<1x384x128xf32>, tensor<512x128xf32>, tensor<512xf32>) -> tensor<384x512xf32>
    %1022 = "tfl.pseudo_const"() {value = dense_resource<__elided__> : tensor<128x512xf32>} : () -> tensor<128x512xf32>
    %1023 = "tfl.pseudo_const"() {value = dense_resource<__elided__> : tensor<128xf32>} : () -> tensor<128xf32>
    %1024 = "tfl.fully_connected"(%1021, %1022, %1023) {asymmetric_quantize_inputs = false, fused_activation_function = "NONE", keep_num_dims = false, weights_format = "DEFAULT"} : (tensor<384x512xf32>, tensor<128x512xf32>, tensor<128xf32>) -> tensor<384x128xf32>
    %1025 = "tfl.pseudo_const"() {value = dense_resource<__elided__> : tensor<3xi32>} : () -> tensor<3xi32>
    %1026 = "tfl.reshape"(%1024, %1025) : (tensor<384x128xf32>, tensor<3xi32>) -> tensor<1x384x128xf32>
    %1027 = tfl.add %1026, %1018 {fused_activation_function = "NONE"} : tensor<1x384x128xf32>
    %1028 = "tfl.pseudo_const"() {value = dense_resource<__elided__> : tensor<128xf32>} : () -> tensor<128xf32>
    %1029 = tfl.mul(%1027, %1028) {fused_activation_function = "NONE"} : (tensor<1x384x128xf32>, tensor<128xf32>) -> tensor<1x384x128xf32>
    %1030 = "tfl.pseudo_const"() {value = dense_resource<__elided__> : tensor<128xf32>} : () -> tensor<128xf32>
    %1031 = tfl.add(%1029, %1030) {fused_activation_function = "NONE"} : (tensor<1x384x128xf32>, tensor<128xf32>) -> tensor<1x384x128xf32>
    %1032 = "tfl.pseudo_const"() {value = dense_resource<__elided__> : tensor<512x128xf32>} : () -> tensor<512x128xf32>
    %1033 = "tfl.pseudo_const"() {value = dense_resource<__elided__> : tensor<512xf32>} : () -> tensor<512xf32>
    %1034 = "tfl.fully_connected"(%1031, %1032, %1033) {asymmetric_quantize_inputs = false, fused_activation_function = "RELU", keep_num_dims = false, weights_format = "DEFAULT"} : (tensor<1x384x128xf32>, tensor<512x128xf32>, tensor<512xf32>) -> tensor<384x512xf32>
    %1035 = "tfl.pseudo_const"() {value = dense_resource<__elided__> : tensor<128x512xf32>} : () -> tensor<128x512xf32>
    %1036 = "tfl.pseudo_const"() {value = dense_resource<__elided__> : tensor<128xf32>} : () -> tensor<128xf32>
    %1037 = "tfl.fully_connected"(%1034, %1035, %1036) {asymmetric_quantize_inputs = false, fused_activation_function = "NONE", keep_num_dims = false, weights_format = "DEFAULT"} : (tensor<384x512xf32>, tensor<128x512xf32>, tensor<128xf32>) -> tensor<384x128xf32>
    %1038 = "tfl.pseudo_const"() {value = dense_resource<__elided__> : tensor<3xi32>} : () -> tensor<3xi32>
    %1039 = "tfl.reshape"(%1037, %1038) : (tensor<384x128xf32>, tensor<3xi32>) -> tensor<1x384x128xf32>
    %1040 = tfl.add %1039, %1031 {fused_activation_function = "NONE"} : tensor<1x384x128xf32>
    %1041 = "tfl.pseudo_const"() {value = dense_resource<__elided__> : tensor<128xf32>} : () -> tensor<128xf32>
    %1042 = tfl.mul(%1040, %1041) {fused_activation_function = "NONE"} : (tensor<1x384x128xf32>, tensor<128xf32>) -> tensor<1x384x128xf32>
    %1043 = "tfl.pseudo_const"() {value = dense_resource<__elided__> : tensor<128xf32>} : () -> tensor<128xf32>
    %1044 = tfl.add(%1042, %1043) {fused_activation_function = "NONE"} : (tensor<1x384x128xf32>, tensor<128xf32>) -> tensor<1x384x128xf32>
    %1045 = "tfl.pseudo_const"() {value = dense_resource<__elided__> : tensor<512x128xf32>} : () -> tensor<512x128xf32>
    %1046 = "tfl.pseudo_const"() {value = dense_resource<__elided__> : tensor<512xf32>} : () -> tensor<512xf32>
    %1047 = "tfl.fully_connected"(%1044, %1045, %1046) {asymmetric_quantize_inputs = false, fused_activation_function = "RELU", keep_num_dims = false, weights_format = "DEFAULT"} : (tensor<1x384x128xf32>, tensor<512x128xf32>, tensor<512xf32>) -> tensor<384x512xf32>
    %1048 = "tfl.pseudo_const"() {value = dense_resource<__elided__> : tensor<128x512xf32>} : () -> tensor<128x512xf32>
    %1049 = "tfl.pseudo_const"() {value = dense_resource<__elided__> : tensor<128xf32>} : () -> tensor<128xf32>
    %1050 = "tfl.fully_connected"(%1047, %1048, %1049) {asymmetric_quantize_inputs = false, fused_activation_function = "NONE", keep_num_dims = false, weights_format = "DEFAULT"} : (tensor<384x512xf32>, tensor<128x512xf32>, tensor<128xf32>) -> tensor<384x128xf32>
    %1051 = "tfl.pseudo_const"() {value = dense_resource<__elided__> : tensor<3xi32>} : () -> tensor<3xi32>
    %1052 = "tfl.reshape"(%1050, %1051) : (tensor<384x128xf32>, tensor<3xi32>) -> tensor<1x384x128xf32>
    %1053 = tfl.add %1052, %1044 {fused_activation_function = "NONE"} : tensor<1x384x128xf32>
    %1054 = "tfl.pseudo_const"() {value = dense_resource<__elided__> : tensor<128xf32>} : () -> tensor<128xf32>
    %1055 = tfl.mul(%1053, %1054) {fused_activation_function = "NONE"} : (tensor<1x384x128xf32>, tensor<128xf32>) -> tensor<1x384x128xf32>
    %1056 = "tfl.pseudo_const"() {value = dense_resource<__elided__> : tensor<128xf32>} : () -> tensor<128xf32>
    %1057 = tfl.add(%1055, %1056) {fused_activation_function = "NONE"} : (tensor<1x384x128xf32>, tensor<128xf32>) -> tensor<1x384x128xf32>
    %1058 = "tfl.pseudo_const"() {value = dense_resource<__elided__> : tensor<512x128xf32>} : () -> tensor<512x128xf32>
    %1059 = "tfl.pseudo_const"() {value = dense_resource<__elided__> : tensor<512xf32>} : () -> tensor<512xf32>
    %1060 = "tfl.fully_connected"(%1057, %1058, %1059) {asymmetric_quantize_inputs = false, fused_activation_function = "RELU", keep_num_dims = false, weights_format = "DEFAULT"} : (tensor<1x384x128xf32>, tensor<512x128xf32>, tensor<512xf32>) -> tensor<384x512xf32>
    %1061 = "tfl.pseudo_const"() {value = dense_resource<__elided__> : tensor<128x512xf32>} : () -> tensor<128x512xf32>
    %1062 = "tfl.pseudo_const"() {value = dense_resource<__elided__> : tensor<128xf32>} : () -> tensor<128xf32>
    %1063 = "tfl.fully_connected"(%1060, %1061, %1062) {asymmetric_quantize_inputs = false, fused_activation_function = "NONE", keep_num_dims = false, weights_format = "DEFAULT"} : (tensor<384x512xf32>, tensor<128x512xf32>, tensor<128xf32>) -> tensor<384x128xf32>
    %1064 = "tfl.pseudo_const"() {value = dense_resource<__elided__> : tensor<3xi32>} : () -> tensor<3xi32>
    %1065 = "tfl.reshape"(%1063, %1064) : (tensor<384x128xf32>, tensor<3xi32>) -> tensor<1x384x128xf32>
    %1066 = tfl.add %1065, %1057 {fused_activation_function = "NONE"} : tensor<1x384x128xf32>
    %1067 = "tfl.pseudo_const"() {value = dense_resource<__elided__> : tensor<128xf32>} : () -> tensor<128xf32>
    %1068 = tfl.mul(%1066, %1067) {fused_activation_function = "NONE"} : (tensor<1x384x128xf32>, tensor<128xf32>) -> tensor<1x384x128xf32>
    %1069 = "tfl.pseudo_const"() {value = dense_resource<__elided__> : tensor<128xf32>} : () -> tensor<128xf32>
    %1070 = tfl.add(%1068, %1069) {fused_activation_function = "NONE"} : (tensor<1x384x128xf32>, tensor<128xf32>) -> tensor<1x384x128xf32>
    %1071 = "tfl.pseudo_const"() {value = dense_resource<__elided__> : tensor<512x128xf32>} : () -> tensor<512x128xf32>
    %1072 = "tfl.pseudo_const"() {value = dense_resource<__elided__> : tensor<512xf32>} : () -> tensor<512xf32>
    %1073 = "tfl.fully_connected"(%1070, %1071, %1072) {asymmetric_quantize_inputs = false, fused_activation_function = "NONE", keep_num_dims = false, weights_format = "DEFAULT"} : (tensor<1x384x128xf32>, tensor<512x128xf32>, tensor<512xf32>) -> tensor<384x512xf32>
    %1074 = "tfl.pseudo_const"() {value = dense_resource<__elided__> : tensor<3xi32>} : () -> tensor<3xi32>
    %1075 = "tfl.reshape"(%1073, %1074) : (tensor<384x512xf32>, tensor<3xi32>) -> tensor<1x384x512xf32>
    %1076 = tfl.add %1075, %862 {fused_activation_function = "NONE"} : tensor<1x384x512xf32>
    %1077 = "tfl.pseudo_const"() {value = dense_resource<__elided__> : tensor<512xf32>} : () -> tensor<512xf32>
    %1078 = tfl.mul(%1076, %1077) {fused_activation_function = "NONE"} : (tensor<1x384x512xf32>, tensor<512xf32>) -> tensor<1x384x512xf32>
    %1079 = "tfl.pseudo_const"() {value = dense_resource<__elided__> : tensor<512xf32>} : () -> tensor<512xf32>
    %1080 = tfl.add(%1078, %1079) {fused_activation_function = "NONE"} : (tensor<1x384x512xf32>, tensor<512xf32>) -> tensor<1x384x512xf32>
    %1081 = "tfl.pseudo_const"() {value = dense_resource<__elided__> : tensor<128x512xf32>} : () -> tensor<128x512xf32>
    %1082 = "tfl.pseudo_const"() {value = dense_resource<__elided__> : tensor<128xf32>} : () -> tensor<128xf32>
    %1083 = "tfl.fully_connected"(%1080, %1081, %1082) {asymmetric_quantize_inputs = false, fused_activation_function = "NONE", keep_num_dims = false, weights_format = "DEFAULT"} : (tensor<1x384x512xf32>, tensor<128x512xf32>, tensor<128xf32>) -> tensor<384x128xf32>
    %1084 = "tfl.pseudo_const"() {value = dense_resource<__elided__> : tensor<128x512xf32>} : () -> tensor<128x512xf32>
    %1085 = "tfl.pseudo_const"() {value = dense_resource<__elided__> : tensor<128xf32>} : () -> tensor<128xf32>
    %1086 = "tfl.fully_connected"(%1080, %1084, %1085) {asymmetric_quantize_inputs = false, fused_activation_function = "NONE", keep_num_dims = false, weights_format = "DEFAULT"} : (tensor<1x384x512xf32>, tensor<128x512xf32>, tensor<128xf32>) -> tensor<384x128xf32>
    %1087 = "tfl.pseudo_const"() {value = dense_resource<__elided__> : tensor<128x512xf32>} : () -> tensor<128x512xf32>
    %1088 = "tfl.pseudo_const"() {value = dense_resource<__elided__> : tensor<128xf32>} : () -> tensor<128xf32>
    %1089 = "tfl.fully_connected"(%1080, %1087, %1088) {asymmetric_quantize_inputs = false, fused_activation_function = "NONE", keep_num_dims = false, weights_format = "DEFAULT"} : (tensor<1x384x512xf32>, tensor<128x512xf32>, tensor<128xf32>) -> tensor<384x128xf32>
    %1090 = "tfl.pseudo_const"() {value = dense_resource<__elided__> : tensor<3xi32>} : () -> tensor<3xi32>
    %1091 = "tfl.reshape"(%1083, %1090) : (tensor<384x128xf32>, tensor<3xi32>) -> tensor<1x384x128xf32>
    %1092 = "tfl.pseudo_const"() {value = dense_resource<__elided__> : tensor<3xi32>} : () -> tensor<3xi32>
    %1093 = "tfl.reshape"(%1086, %1092) : (tensor<384x128xf32>, tensor<3xi32>) -> tensor<1x384x128xf32>
    %1094 = "tfl.pseudo_const"() {value = dense_resource<__elided__> : tensor<3xi32>} : () -> tensor<3xi32>
    %1095 = "tfl.reshape"(%1089, %1094) : (tensor<384x128xf32>, tensor<3xi32>) -> tensor<1x384x128xf32>
    %1096 = "tfl.pseudo_const"() {value = dense_resource<__elided__> : tensor<128x128xf32>} : () -> tensor<128x128xf32>
    %1097 = "tfl.pseudo_const"() {value = dense_resource<__elided__> : tensor<128xf32>} : () -> tensor<128xf32>
    %1098 = "tfl.fully_connected"(%1093, %1096, %1097) {asymmetric_quantize_inputs = false, fused_activation_function = "NONE", keep_num_dims = false, weights_format = "DEFAULT"} : (tensor<1x384x128xf32>, tensor<128x128xf32>, tensor<128xf32>) -> tensor<384x128xf32>
    %1099 = "tfl.pseudo_const"() {value = dense_resource<__elided__> : tensor<128x128xf32>} : () -> tensor<128x128xf32>
    %1100 = "tfl.pseudo_const"() {value = dense_resource<__elided__> : tensor<128xf32>} : () -> tensor<128xf32>
    %1101 = "tfl.fully_connected"(%1093, %1099, %1100) {asymmetric_quantize_inputs = false, fused_activation_function = "NONE", keep_num_dims = false, weights_format = "DEFAULT"} : (tensor<1x384x128xf32>, tensor<128x128xf32>, tensor<128xf32>) -> tensor<384x128xf32>
    %1102 = "tfl.pseudo_const"() {value = dense_resource<__elided__> : tensor<128x128xf32>} : () -> tensor<128x128xf32>
    %1103 = "tfl.pseudo_const"() {value = dense_resource<__elided__> : tensor<128xf32>} : () -> tensor<128xf32>
    %1104 = "tfl.fully_connected"(%1095, %1102, %1103) {asymmetric_quantize_inputs = false, fused_activation_function = "NONE", keep_num_dims = false, weights_format = "DEFAULT"} : (tensor<1x384x128xf32>, tensor<128x128xf32>, tensor<128xf32>) -> tensor<384x128xf32>
    %1105 = "tfl.pseudo_const"() {value = dense_resource<__elided__> : tensor<4xi32>} : () -> tensor<4xi32>
    %1106 = "tfl.reshape"(%1098, %1105) : (tensor<384x128xf32>, tensor<4xi32>) -> tensor<1x384x4x32xf32>
    %1107 = "tfl.pseudo_const"() {value = dense_resource<__elided__> : tensor<4xi32>} : () -> tensor<4xi32>
    %1108 = "tfl.reshape"(%1101, %1107) : (tensor<384x128xf32>, tensor<4xi32>) -> tensor<1x384x4x32xf32>
    %1109 = "tfl.pseudo_const"() {value = dense_resource<__elided__> : tensor<4xi32>} : () -> tensor<4xi32>
    %1110 = "tfl.reshape"(%1104, %1109) : (tensor<384x128xf32>, tensor<4xi32>) -> tensor<1x384x4x32xf32>
    %1111 = "tfl.pseudo_const"() {value = dense_resource<__elided__> : tensor<4xi32>} : () -> tensor<4xi32>
    %1112 = "tfl.transpose"(%1106, %1111) : (tensor<1x384x4x32xf32>, tensor<4xi32>) -> tensor<1x4x384x32xf32>
    %1113 = "tfl.pseudo_const"() {value = dense_resource<__elided__> : tensor<4xi32>} : () -> tensor<4xi32>
    %1114 = "tfl.transpose"(%1108, %1113) : (tensor<1x384x4x32xf32>, tensor<4xi32>) -> tensor<1x4x384x32xf32>
    %1115 = "tfl.pseudo_const"() {value = dense_resource<__elided__> : tensor<4xi32>} : () -> tensor<4xi32>
    %1116 = "tfl.transpose"(%1110, %1115) : (tensor<1x384x4x32xf32>, tensor<4xi32>) -> tensor<1x4x384x32xf32>
    %1117 = "tfl.pseudo_const"() {value = dense_resource<__elided__> : tensor<4xi32>} : () -> tensor<4xi32>
    %1118 = "tfl.transpose"(%1114, %1117) : (tensor<1x4x384x32xf32>, tensor<4xi32>) -> tensor<1x4x32x384xf32>
    %1119 = "tfl.pseudo_const"() {value = dense_resource<__elided__> : tensor<3xi32>} : () -> tensor<3xi32>
    %1120 = "tfl.reshape"(%1112, %1119) : (tensor<1x4x384x32xf32>, tensor<3xi32>) -> tensor<4x384x32xf32>
    %1121 = "tfl.pseudo_const"() {value = dense<0> : tensor<3xi32>} : () -> tensor<3xi32>
    %1122 = "tfl.pseudo_const"() {value = dense_resource<__elided__> : tensor<3xi32>} : () -> tensor<3xi32>
    %1123 = "tfl.slice"(%1120, %1121, %1122) : (tensor<4x384x32xf32>, tensor<3xi32>, tensor<3xi32>) -> tensor<1x384x32xf32>
    %1124 = "tfl.pseudo_const"() {value = dense_resource<__elided__> : tensor<3xi32>} : () -> tensor<3xi32>
    %1125 = "tfl.pseudo_const"() {value = dense_resource<__elided__> : tensor<3xi32>} : () -> tensor<3xi32>
    %1126 = "tfl.slice"(%1120, %1124, %1125) : (tensor<4x384x32xf32>, tensor<3xi32>, tensor<3xi32>) -> tensor<1x384x32xf32>
    %1127 = "tfl.pseudo_const"() {value = dense_resource<__elided__> : tensor<3xi32>} : () -> tensor<3xi32>
    %1128 = "tfl.pseudo_const"() {value = dense_resource<__elided__> : tensor<3xi32>} : () -> tensor<3xi32>
    %1129 = "tfl.slice"(%1120, %1127, %1128) : (tensor<4x384x32xf32>, tensor<3xi32>, tensor<3xi32>) -> tensor<1x384x32xf32>
    %1130 = "tfl.pseudo_const"() {value = dense_resource<__elided__> : tensor<3xi32>} : () -> tensor<3xi32>
    %1131 = "tfl.pseudo_const"() {value = dense_resource<__elided__> : tensor<3xi32>} : () -> tensor<3xi32>
    %1132 = "tfl.slice"(%1120, %1130, %1131) : (tensor<4x384x32xf32>, tensor<3xi32>, tensor<3xi32>) -> tensor<1x384x32xf32>
    %1133 = "tfl.pseudo_const"() {value = dense_resource<__elided__> : tensor<3xi32>} : () -> tensor<3xi32>
    %1134 = "tfl.reshape"(%1118, %1133) : (tensor<1x4x32x384xf32>, tensor<3xi32>) -> tensor<4x32x384xf32>
    %1135 = "tfl.pseudo_const"() {value = dense<0> : tensor<3xi32>} : () -> tensor<3xi32>
    %1136 = "tfl.pseudo_const"() {value = dense_resource<__elided__> : tensor<3xi32>} : () -> tensor<3xi32>
    %1137 = "tfl.slice"(%1134, %1135, %1136) : (tensor<4x32x384xf32>, tensor<3xi32>, tensor<3xi32>) -> tensor<1x32x384xf32>
    %1138 = "tfl.pseudo_const"() {value = dense_resource<__elided__> : tensor<3xi32>} : () -> tensor<3xi32>
    %1139 = "tfl.transpose"(%1137, %1138) : (tensor<1x32x384xf32>, tensor<3xi32>) -> tensor<384x32x1xf32>
    %1140 = "tfl.pseudo_const"() {value = dense_resource<__elided__> : tensor<3xi32>} : () -> tensor<3xi32>
    %1141 = "tfl.pseudo_const"() {value = dense_resource<__elided__> : tensor<3xi32>} : () -> tensor<3xi32>
    %1142 = "tfl.slice"(%1134, %1140, %1141) : (tensor<4x32x384xf32>, tensor<3xi32>, tensor<3xi32>) -> tensor<1x32x384xf32>
    %1143 = "tfl.pseudo_const"() {value = dense_resource<__elided__> : tensor<3xi32>} : () -> tensor<3xi32>
    %1144 = "tfl.transpose"(%1142, %1143) : (tensor<1x32x384xf32>, tensor<3xi32>) -> tensor<384x32x1xf32>
    %1145 = "tfl.pseudo_const"() {value = dense_resource<__elided__> : tensor<3xi32>} : () -> tensor<3xi32>
    %1146 = "tfl.pseudo_const"() {value = dense_resource<__elided__> : tensor<3xi32>} : () -> tensor<3xi32>
    %1147 = "tfl.slice"(%1134, %1145, %1146) : (tensor<4x32x384xf32>, tensor<3xi32>, tensor<3xi32>) -> tensor<1x32x384xf32>
    %1148 = "tfl.pseudo_const"() {value = dense_resource<__elided__> : tensor<3xi32>} : () -> tensor<3xi32>
    %1149 = "tfl.transpose"(%1147, %1148) : (tensor<1x32x384xf32>, tensor<3xi32>) -> tensor<384x32x1xf32>
    %1150 = "tfl.pseudo_const"() {value = dense_resource<__elided__> : tensor<3xi32>} : () -> tensor<3xi32>
    %1151 = "tfl.pseudo_const"() {value = dense_resource<__elided__> : tensor<3xi32>} : () -> tensor<3xi32>
    %1152 = "tfl.slice"(%1134, %1150, %1151) : (tensor<4x32x384xf32>, tensor<3xi32>, tensor<3xi32>) -> tensor<1x32x384xf32>
    %1153 = "tfl.pseudo_const"() {value = dense_resource<__elided__> : tensor<3xi32>} : () -> tensor<3xi32>
    %1154 = "tfl.transpose"(%1152, %1153) : (tensor<1x32x384xf32>, tensor<3xi32>) -> tensor<384x32x1xf32>
    %1155 = "tfl.pseudo_const"() {value = dense_resource<__elided__> : tensor<2xi32>} : () -> tensor<2xi32>
    %1156 = "tfl.reshape"(%1139, %1155) : (tensor<384x32x1xf32>, tensor<2xi32>) -> tensor<384x32xf32>
    %1157 = "tfl.fully_connected"(%1123, %1156, %283) {asymmetric_quantize_inputs = false, fused_activation_function = "NONE", keep_num_dims = false, weights_format = "DEFAULT"} : (tensor<1x384x32xf32>, tensor<384x32xf32>, tensor<384xf32>) -> tensor<384x384xf32>
    %1158 = "tfl.pseudo_const"() {value = dense_resource<__elided__> : tensor<2xi32>} : () -> tensor<2xi32>
    %1159 = "tfl.reshape"(%1144, %1158) : (tensor<384x32x1xf32>, tensor<2xi32>) -> tensor<384x32xf32>
    %1160 = "tfl.fully_connected"(%1126, %1159, %283) {asymmetric_quantize_inputs = false, fused_activation_function = "NONE", keep_num_dims = false, weights_format = "DEFAULT"} : (tensor<1x384x32xf32>, tensor<384x32xf32>, tensor<384xf32>) -> tensor<384x384xf32>
    %1161 = "tfl.pseudo_const"() {value = dense_resource<__elided__> : tensor<2xi32>} : () -> tensor<2xi32>
    %1162 = "tfl.reshape"(%1149, %1161) : (tensor<384x32x1xf32>, tensor<2xi32>) -> tensor<384x32xf32>
    %1163 = "tfl.fully_connected"(%1129, %1162, %283) {asymmetric_quantize_inputs = false, fused_activation_function = "NONE", keep_num_dims = false, weights_format = "DEFAULT"} : (tensor<1x384x32xf32>, tensor<384x32xf32>, tensor<384xf32>) -> tensor<384x384xf32>
    %1164 = "tfl.pseudo_const"() {value = dense_resource<__elided__> : tensor<2xi32>} : () -> tensor<2xi32>
    %1165 = "tfl.reshape"(%1154, %1164) : (tensor<384x32x1xf32>, tensor<2xi32>) -> tensor<384x32xf32>
    %1166 = "tfl.fully_connected"(%1132, %1165, %283) {asymmetric_quantize_inputs = false, fused_activation_function = "NONE", keep_num_dims = false, weights_format = "DEFAULT"} : (tensor<1x384x32xf32>, tensor<384x32xf32>, tensor<384xf32>) -> tensor<384x384xf32>
    %1167 = "tfl.pack"(%1157, %1160, %1163, %1166) {axis = 0 : i32, values_count = 4 : i32} : (tensor<384x384xf32>, tensor<384x384xf32>, tensor<384x384xf32>, tensor<384x384xf32>) -> tensor<4x384x384xf32>
    %1168 = "tfl.pseudo_const"() {value = dense<0.176776692> : tensor<f32>} : () -> tensor<f32>
    %1169 = tfl.mul(%1167, %1168) {fused_activation_function = "NONE"} : (tensor<4x384x384xf32>, tensor<f32>) -> tensor<4x384x384xf32>
    %1170 = "tfl.pseudo_const"() {value = dense_resource<__elided__> : tensor<4xi32>} : () -> tensor<4xi32>
    %1171 = "tfl.reshape"(%1169, %1170) : (tensor<4x384x384xf32>, tensor<4xi32>) -> tensor<1x4x384x384xf32>
    %1172 = tfl.add(%1171, %134) {fused_activation_function = "NONE"} : (tensor<1x4x384x384xf32>, tensor<1x1x384x384xf32>) -> tensor<1x4x384x384xf32>
    %1173 = "tfl.softmax"(%1172) {beta = 1.000000e+00 : f32} : (tensor<1x4x384x384xf32>) -> tensor<1x4x384x384xf32>
    %1174 = "tfl.pseudo_const"() {value = dense_resource<__elided__> : tensor<3xi32>} : () -> tensor<3xi32>
    %1175 = "tfl.reshape"(%1173, %1174) : (tensor<1x4x384x384xf32>, tensor<3xi32>) -> tensor<4x384x384xf32>
    %1176 = "tfl.pseudo_const"() {value = dense<0> : tensor<3xi32>} : () -> tensor<3xi32>
    %1177 = "tfl.pseudo_const"() {value = dense_resource<__elided__> : tensor<3xi32>} : () -> tensor<3xi32>
    %1178 = "tfl.slice"(%1175, %1176, %1177) : (tensor<4x384x384xf32>, tensor<3xi32>, tensor<3xi32>) -> tensor<1x384x384xf32>
    %1179 = "tfl.pseudo_const"() {value = dense_resource<__elided__> : tensor<3xi32>} : () -> tensor<3xi32>
    %1180 = "tfl.pseudo_const"() {value = dense_resource<__elided__> : tensor<3xi32>} : () -> tensor<3xi32>
    %1181 = "tfl.slice"(%1175, %1179, %1180) : (tensor<4x384x384xf32>, tensor<3xi32>, tensor<3xi32>) -> tensor<1x384x384xf32>
    %1182 = "tfl.pseudo_const"() {value = dense_resource<__elided__> : tensor<3xi32>} : () -> tensor<3xi32>
    %1183 = "tfl.pseudo_const"() {value = dense_resource<__elided__> : tensor<3xi32>} : () -> tensor<3xi32>
    %1184 = "tfl.slice"(%1175, %1182, %1183) : (tensor<4x384x384xf32>, tensor<3xi32>, tensor<3xi32>) -> tensor<1x384x384xf32>
    %1185 = "tfl.pseudo_const"() {value = dense_resource<__elided__> : tensor<3xi32>} : () -> tensor<3xi32>
    %1186 = "tfl.pseudo_const"() {value = dense_resource<__elided__> : tensor<3xi32>} : () -> tensor<3xi32>
    %1187 = "tfl.slice"(%1175, %1185, %1186) : (tensor<4x384x384xf32>, tensor<3xi32>, tensor<3xi32>) -> tensor<1x384x384xf32>
    %1188 = "tfl.pseudo_const"() {value = dense_resource<__elided__> : tensor<3xi32>} : () -> tensor<3xi32>
    %1189 = "tfl.reshape"(%1116, %1188) : (tensor<1x4x384x32xf32>, tensor<3xi32>) -> tensor<4x384x32xf32>
    %1190 = "tfl.pseudo_const"() {value = dense<0> : tensor<3xi32>} : () -> tensor<3xi32>
    %1191 = "tfl.pseudo_const"() {value = dense_resource<__elided__> : tensor<3xi32>} : () -> tensor<3xi32>
    %1192 = "tfl.slice"(%1189, %1190, %1191) : (tensor<4x384x32xf32>, tensor<3xi32>, tensor<3xi32>) -> tensor<1x384x32xf32>
    %1193 = "tfl.pseudo_const"() {value = dense_resource<__elided__> : tensor<3xi32>} : () -> tensor<3xi32>
    %1194 = "tfl.transpose"(%1192, %1193) : (tensor<1x384x32xf32>, tensor<3xi32>) -> tensor<32x384x1xf32>
    %1195 = "tfl.pseudo_const"() {value = dense_resource<__elided__> : tensor<3xi32>} : () -> tensor<3xi32>
    %1196 = "tfl.pseudo_const"() {value = dense_resource<__elided__> : tensor<3xi32>} : () -> tensor<3xi32>
    %1197 = "tfl.slice"(%1189, %1195, %1196) : (tensor<4x384x32xf32>, tensor<3xi32>, tensor<3xi32>) -> tensor<1x384x32xf32>
    %1198 = "tfl.pseudo_const"() {value = dense_resource<__elided__> : tensor<3xi32>} : () -> tensor<3xi32>
    %1199 = "tfl.transpose"(%1197, %1198) : (tensor<1x384x32xf32>, tensor<3xi32>) -> tensor<32x384x1xf32>
…
    %5065 = "tfl.pseudo_const"() {value = dense_resource<__elided__> : tensor<3xi32>} : () -> tensor<3xi32>
    %5066 = "tfl.slice"(%5058, %5064, %5065) : (tensor<4x32x384xf32>, tensor<3xi32>, tensor<3xi32>) -> tensor<1x32x384xf32>
    %5067 = "tfl.pseudo_const"() {value = dense_resource<__elided__> : tensor<3xi32>} : () -> tensor<3xi32>
    %5068 = "tfl.transpose"(%5066, %5067) : (tensor<1x32x384xf32>, tensor<3xi32>) -> tensor<384x32x1xf32>
    %5069 = "tfl.pseudo_const"() {value = dense_resource<__elided__> : tensor<3xi32>} : () -> tensor<3xi32>
    %5070 = "tfl.pseudo_const"() {value = dense_resource<__elided__> : tensor<3xi32>} : () -> tensor<3xi32>
    %5071 = "tfl.slice"(%5058, %5069, %5070) : (tensor<4x32x384xf32>, tensor<3xi32>, tensor<3xi32>) -> tensor<1x32x384xf32>
    %5072 = "tfl.pseudo_const"() {value = dense_resource<__elided__> : tensor<3xi32>} : () -> tensor<3xi32>
    %5073 = "tfl.transpose"(%5071, %5072) : (tensor<1x32x384xf32>, tensor<3xi32>) -> tensor<384x32x1xf32>
    %5074 = "tfl.pseudo_const"() {value = dense_resource<__elided__> : tensor<3xi32>} : () -> tensor<3xi32>
    %5075 = "tfl.pseudo_const"() {value = dense_resource<__elided__> : tensor<3xi32>} : () -> tensor<3xi32>
    %5076 = "tfl.slice"(%5058, %5074, %5075) : (tensor<4x32x384xf32>, tensor<3xi32>, tensor<3xi32>) -> tensor<1x32x384xf32>
    %5077 = "tfl.pseudo_const"() {value = dense_resource<__elided__> : tensor<3xi32>} : () -> tensor<3xi32>
    %5078 = "tfl.transpose"(%5076, %5077) : (tensor<1x32x384xf32>, tensor<3xi32>) -> tensor<384x32x1xf32>
    %5079 = "tfl.pseudo_const"() {value = dense_resource<__elided__> : tensor<2xi32>} : () -> tensor<2xi32>
    %5080 = "tfl.reshape"(%5063, %5079) : (tensor<384x32x1xf32>, tensor<2xi32>) -> tensor<384x32xf32>
    %5081 = "tfl.fully_connected"(%5047, %5080, %283) {asymmetric_quantize_inputs = false, fused_activation_function = "NONE", keep_num_dims = false, weights_format = "DEFAULT"} : (tensor<1x384x32xf32>, tensor<384x32xf32>, tensor<384xf32>) -> tensor<384x384xf32>
    %5082 = "tfl.pseudo_const"() {value = dense_resource<__elided__> : tensor<2xi32>} : () -> tensor<2xi32>
    %5083 = "tfl.reshape"(%5068, %5082) : (tensor<384x32x1xf32>, tensor<2xi32>) -> tensor<384x32xf32>
    %5084 = "tfl.fully_connected"(%5050, %5083, %283) {asymmetric_quantize_inputs = false, fused_activation_function = "NONE", keep_num_dims = false, weights_format = "DEFAULT"} : (tensor<1x384x32xf32>, tensor<384x32xf32>, tensor<384xf32>) -> tensor<384x384xf32>
    %5085 = "tfl.pseudo_const"() {value = dense_resource<__elided__> : tensor<2xi32>} : () -> tensor<2xi32>
    %5086 = "tfl.reshape"(%5073, %5085) : (tensor<384x32x1xf32>, tensor<2xi32>) -> tensor<384x32xf32>
    %5087 = "tfl.fully_connected"(%5053, %5086, %283) {asymmetric_quantize_inputs = false, fused_activation_function = "NONE", keep_num_dims = false, weights_format = "DEFAULT"} : (tensor<1x384x32xf32>, tensor<384x32xf32>, tensor<384xf32>) -> tensor<384x384xf32>
    %5088 = "tfl.pseudo_const"() {value = dense_resource<__elided__> : tensor<2xi32>} : () -> tensor<2xi32>
    %5089 = "tfl.reshape"(%5078, %5088) : (tensor<384x32x1xf32>, tensor<2xi32>) -> tensor<384x32xf32>
    %5090 = "tfl.fully_connected"(%5056, %5089, %283) {asymmetric_quantize_inputs = false, fused_activation_function = "NONE", keep_num_dims = false, weights_format = "DEFAULT"} : (tensor<1x384x32xf32>, tensor<384x32xf32>, tensor<384xf32>) -> tensor<384x384xf32>
    %5091 = "tfl.pack"(%5081, %5084, %5087, %5090) {axis = 0 : i32, values_count = 4 : i32} : (tensor<384x384xf32>, tensor<384x384xf32>, tensor<384x384xf32>, tensor<384x384xf32>) -> tensor<4x384x384xf32>
    %5092 = "tfl.pseudo_const"() {value = dense<0.176776692> : tensor<f32>} : () -> tensor<f32>
    %5093 = tfl.mul(%5091, %5092) {fused_activation_function = "NONE"} : (tensor<4x384x384xf32>, tensor<f32>) -> tensor<4x384x384xf32>
    %5094 = "tfl.pseudo_const"() {value = dense_resource<__elided__> : tensor<4xi32>} : () -> tensor<4xi32>
    %5095 = "tfl.reshape"(%5093, %5094) : (tensor<4x384x384xf32>, tensor<4xi32>) -> tensor<1x4x384x384xf32>
    %5096 = tfl.add(%5095, %188) {fused_activation_function = "NONE"} : (tensor<1x4x384x384xf32>, tensor<1x1x384x384xf32>) -> tensor<1x4x384x384xf32>
    %5097 = "tfl.softmax"(%5096) {beta = 1.000000e+00 : f32} : (tensor<1x4x384x384xf32>) -> tensor<1x4x384x384xf32>
    %5098 = "tfl.pseudo_const"() {value = dense_resource<__elided__> : tensor<3xi32>} : () -> tensor<3xi32>
    %5099 = "tfl.reshape"(%5097, %5098) : (tensor<1x4x384x384xf32>, tensor<3xi32>) -> tensor<4x384x384xf32>
    %5100 = "tfl.pseudo_const"() {value = dense<0> : tensor<3xi32>} : () -> tensor<3xi32>
    %5101 = "tfl.pseudo_const"() {value = dense_resource<__elided__> : tensor<3xi32>} : () -> tensor<3xi32>
    %5102 = "tfl.slice"(%5099, %5100, %5101) : (tensor<4x384x384xf32>, tensor<3xi32>, tensor<3xi32>) -> tensor<1x384x384xf32>
    %5103 = "tfl.pseudo_const"() {value = dense_resource<__elided__> : tensor<3xi32>} : () -> tensor<3xi32>
    %5104 = "tfl.pseudo_const"() {value = dense_resource<__elided__> : tensor<3xi32>} : () -> tensor<3xi32>
    %5105 = "tfl.slice"(%5099, %5103, %5104) : (tensor<4x384x384xf32>, tensor<3xi32>, tensor<3xi32>) -> tensor<1x384x384xf32>
    %5106 = "tfl.pseudo_const"() {value = dense_resource<__elided__> : tensor<3xi32>} : () -> tensor<3xi32>
    %5107 = "tfl.pseudo_const"() {value = dense_resource<__elided__> : tensor<3xi32>} : () -> tensor<3xi32>
    %5108 = "tfl.slice"(%5099, %5106, %5107) : (tensor<4x384x384xf32>, tensor<3xi32>, tensor<3xi32>) -> tensor<1x384x384xf32>
    %5109 = "tfl.pseudo_const"() {value = dense_resource<__elided__> : tensor<3xi32>} : () -> tensor<3xi32>
    %5110 = "tfl.pseudo_const"() {value = dense_resource<__elided__> : tensor<3xi32>} : () -> tensor<3xi32>
    %5111 = "tfl.slice"(%5099, %5109, %5110) : (tensor<4x384x384xf32>, tensor<3xi32>, tensor<3xi32>) -> tensor<1x384x384xf32>
    %5112 = "tfl.pseudo_const"() {value = dense_resource<__elided__> : tensor<3xi32>} : () -> tensor<3xi32>
    %5113 = "tfl.reshape"(%5040, %5112) : (tensor<1x4x384x32xf32>, tensor<3xi32>) -> tensor<4x384x32xf32>
    %5114 = "tfl.pseudo_const"() {value = dense<0> : tensor<3xi32>} : () -> tensor<3xi32>
    %5115 = "tfl.pseudo_const"() {value = dense_resource<__elided__> : tensor<3xi32>} : () -> tensor<3xi32>
    %5116 = "tfl.slice"(%5113, %5114, %5115) : (tensor<4x384x32xf32>, tensor<3xi32>, tensor<3xi32>) -> tensor<1x384x32xf32>
    %5117 = "tfl.pseudo_const"() {value = dense_resource<__elided__> : tensor<3xi32>} : () -> tensor<3xi32>
    %5118 = "tfl.transpose"(%5116, %5117) : (tensor<1x384x32xf32>, tensor<3xi32>) -> tensor<32x384x1xf32>
    %5119 = "tfl.pseudo_const"() {value = dense_resource<__elided__> : tensor<3xi32>} : () -> tensor<3xi32>
    %5120 = "tfl.pseudo_const"() {value = dense_resource<__elided__> : tensor<3xi32>} : () -> tensor<3xi32>
    %5121 = "tfl.slice"(%5113, %5119, %5120) : (tensor<4x384x32xf32>, tensor<3xi32>, tensor<3xi32>) -> tensor<1x384x32xf32>
    %5122 = "tfl.pseudo_const"() {value = dense_resource<__elided__> : tensor<3xi32>} : () -> tensor<3xi32>
    %5123 = "tfl.transpose"(%5121, %5122) : (tensor<1x384x32xf32>, tensor<3xi32>) -> tensor<32x384x1xf32>
    %5124 = "tfl.pseudo_const"() {value = dense_resource<__elided__> : tensor<3xi32>} : () -> tensor<3xi32>
    %5125 = "tfl.pseudo_const"() {value = dense_resource<__elided__> : tensor<3xi32>} : () -> tensor<3xi32>
    %5126 = "tfl.slice"(%5113, %5124, %5125) : (tensor<4x384x32xf32>, tensor<3xi32>, tensor<3xi32>) -> tensor<1x384x32xf32>
    %5127 = "tfl.pseudo_const"() {value = dense_resource<__elided__> : tensor<3xi32>} : () -> tensor<3xi32>
    %5128 = "tfl.transpose"(%5126, %5127) : (tensor<1x384x32xf32>, tensor<3xi32>) -> tensor<32x384x1xf32>
    %5129 = "tfl.pseudo_const"() {value = dense_resource<__elided__> : tensor<3xi32>} : () -> tensor<3xi32>
    %5130 = "tfl.pseudo_const"() {value = dense_resource<__elided__> : tensor<3xi32>} : () -> tensor<3xi32>
    %5131 = "tfl.slice"(%5113, %5129, %5130) : (tensor<4x384x32xf32>, tensor<3xi32>, tensor<3xi32>) -> tensor<1x384x32xf32>
    %5132 = "tfl.pseudo_const"() {value = dense_resource<__elided__> : tensor<3xi32>} : () -> tensor<3xi32>
    %5133 = "tfl.transpose"(%5131, %5132) : (tensor<1x384x32xf32>, tensor<3xi32>) -> tensor<32x384x1xf32>
    %5134 = "tfl.pseudo_const"() {value = dense_resource<__elided__> : tensor<2xi32>} : () -> tensor<2xi32>
    %5135 = "tfl.reshape"(%5118, %5134) : (tensor<32x384x1xf32>, tensor<2xi32>) -> tensor<32x384xf32>
    %5136 = "tfl.fully_connected"(%5102, %5135, %339) {asymmetric_quantize_inputs = false, fused_activation_function = "NONE", keep_num_dims = false, weights_format = "DEFAULT"} : (tensor<1x384x384xf32>, tensor<32x384xf32>, tensor<32xf32>) -> tensor<384x32xf32>
    %5137 = "tfl.pseudo_const"() {value = dense_resource<__elided__> : tensor<2xi32>} : () -> tensor<2xi32>
    %5138 = "tfl.reshape"(%5123, %5137) : (tensor<32x384x1xf32>, tensor<2xi32>) -> tensor<32x384xf32>
    %5139 = "tfl.fully_connected"(%5105, %5138, %339) {asymmetric_quantize_inputs = false, fused_activation_function = "NONE", keep_num_dims = false, weights_format = "DEFAULT"} : (tensor<1x384x384xf32>, tensor<32x384xf32>, tensor<32xf32>) -> tensor<384x32xf32>
    %5140 = "tfl.pseudo_const"() {value = dense_resource<__elided__> : tensor<2xi32>} : () -> tensor<2xi32>
    %5141 = "tfl.reshape"(%5128, %5140) : (tensor<32x384x1xf32>, tensor<2xi32>) -> tensor<32x384xf32>
    %5142 = "tfl.fully_connected"(%5108, %5141, %339) {asymmetric_quantize_inputs = false, fused_activation_function = "NONE", keep_num_dims = false, weights_format = "DEFAULT"} : (tensor<1x384x384xf32>, tensor<32x384xf32>, tensor<32xf32>) -> tensor<384x32xf32>
    %5143 = "tfl.pseudo_const"() {value = dense_resource<__elided__> : tensor<2xi32>} : () -> tensor<2xi32>
    %5144 = "tfl.reshape"(%5133, %5143) : (tensor<32x384x1xf32>, tensor<2xi32>) -> tensor<32x384xf32>
    %5145 = "tfl.fully_connected"(%5111, %5144, %339) {asymmetric_quantize_inputs = false, fused_activation_function = "NONE", keep_num_dims = false, weights_format = "DEFAULT"} : (tensor<1x384x384xf32>, tensor<32x384xf32>, tensor<32xf32>) -> tensor<384x32xf32>
    %5146 = "tfl.pack"(%5136, %5139, %5142, %5145) {axis = 0 : i32, values_count = 4 : i32} : (tensor<384x32xf32>, tensor<384x32xf32>, tensor<384x32xf32>, tensor<384x32xf32>) -> tensor<4x384x32xf32>
    %5147 = "tfl.pseudo_const"() {value = dense_resource<__elided__> : tensor<3xi32>} : () -> tensor<3xi32>
    %5148 = "tfl.transpose"(%5146, %5147) : (tensor<4x384x32xf32>, tensor<3xi32>) -> tensor<384x4x32xf32>
    %5149 = "tfl.pseudo_const"() {value = dense_resource<__elided__> : tensor<4xi32>} : () -> tensor<4xi32>
    %5150 = "tfl.reshape"(%5148, %5149) : (tensor<384x4x32xf32>, tensor<4xi32>) -> tensor<1x384x4x32xf32>
    %5151 = "tfl.pseudo_const"() {value = dense_resource<__elided__> : tensor<128x128xf32>} : () -> tensor<128x128xf32>
    %5152 = "tfl.pseudo_const"() {value = dense_resource<__elided__> : tensor<128xf32>} : () -> tensor<128xf32>
    %5153 = "tfl.fully_connected"(%5150, %5151, %5152) {asymmetric_quantize_inputs = false, fused_activation_function = "NONE", keep_num_dims = false, weights_format = "DEFAULT"} : (tensor<1x384x4x32xf32>, tensor<128x128xf32>, tensor<128xf32>) -> tensor<384x128xf32>
    %5154 = "tfl.pseudo_const"() {value = dense_resource<__elided__> : tensor<3xi32>} : () -> tensor<3xi32>
    %5155 = "tfl.reshape"(%5153, %5154) : (tensor<384x128xf32>, tensor<3xi32>) -> tensor<1x384x128xf32>
    %5156 = tfl.add %5155, %5015 {fused_activation_function = "NONE"} : tensor<1x384x128xf32>
    %5157 = "tfl.pseudo_const"() {value = dense_resource<__elided__> : tensor<128xf32>} : () -> tensor<128xf32>
    %5158 = tfl.mul(%5156, %5157) {fused_activation_function = "NONE"} : (tensor<1x384x128xf32>, tensor<128xf32>) -> tensor<1x384x128xf32>
    %5159 = "tfl.pseudo_const"() {value = dense_resource<__elided__> : tensor<128xf32>} : () -> tensor<128xf32>
    %5160 = tfl.add(%5158, %5159) {fused_activation_function = "NONE"} : (tensor<1x384x128xf32>, tensor<128xf32>) -> tensor<1x384x128xf32>
    %5161 = "tfl.pseudo_const"() {value = dense_resource<__elided__> : tensor<512x128xf32>} : () -> tensor<512x128xf32>
    %5162 = "tfl.pseudo_const"() {value = dense_resource<__elided__> : tensor<512xf32>} : () -> tensor<512xf32>
    %5163 = "tfl.fully_connected"(%5160, %5161, %5162) {asymmetric_quantize_inputs = false, fused_activation_function = "RELU", keep_num_dims = false, weights_format = "DEFAULT"} : (tensor<1x384x128xf32>, tensor<512x128xf32>, tensor<512xf32>) -> tensor<384x512xf32>
    %5164 = "tfl.pseudo_const"() {value = dense_resource<__elided__> : tensor<128x512xf32>} : () -> tensor<128x512xf32>
    %5165 = "tfl.pseudo_const"() {value = dense_resource<__elided__> : tensor<128xf32>} : () -> tensor<128xf32>
    %5166 = "tfl.fully_connected"(%5163, %5164, %5165) {asymmetric_quantize_inputs = false, fused_activation_function = "NONE", keep_num_dims = false, weights_format = "DEFAULT"} : (tensor<384x512xf32>, tensor<128x512xf32>, tensor<128xf32>) -> tensor<384x128xf32>
    %5167 = "tfl.pseudo_const"() {value = dense_resource<__elided__> : tensor<3xi32>} : () -> tensor<3xi32>
    %5168 = "tfl.reshape"(%5166, %5167) : (tensor<384x128xf32>, tensor<3xi32>) -> tensor<1x384x128xf32>
    %5169 = tfl.add %5168, %5160 {fused_activation_function = "NONE"} : tensor<1x384x128xf32>
    %5170 = "tfl.pseudo_const"() {value = dense_resource<__elided__> : tensor<128xf32>} : () -> tensor<128xf32>
    %5171 = tfl.mul(%5169, %5170) {fused_activation_function = "NONE"} : (tensor<1x384x128xf32>, tensor<128xf32>) -> tensor<1x384x128xf32>
    %5172 = "tfl.pseudo_const"() {value = dense_resource<__elided__> : tensor<128xf32>} : () -> tensor<128xf32>
    %5173 = tfl.add(%5171, %5172) {fused_activation_function = "NONE"} : (tensor<1x384x128xf32>, tensor<128xf32>) -> tensor<1x384x128xf32>
    %5174 = "tfl.pseudo_const"() {value = dense_resource<__elided__> : tensor<512x128xf32>} : () -> tensor<512x128xf32>
    %5175 = "tfl.pseudo_const"() {value = dense_resource<__elided__> : tensor<512xf32>} : () -> tensor<512xf32>
    %5176 = "tfl.fully_connected"(%5173, %5174, %5175) {asymmetric_quantize_inputs = false, fused_activation_function = "RELU", keep_num_dims = false, weights_format = "DEFAULT"} : (tensor<1x384x128xf32>, tensor<512x128xf32>, tensor<512xf32>) -> tensor<384x512xf32>
    %5177 = "tfl.pseudo_const"() {value = dense_resource<__elided__> : tensor<128x512xf32>} : () -> tensor<128x512xf32>
    %5178 = "tfl.pseudo_const"() {value = dense_resource<__elided__> : tensor<128xf32>} : () -> tensor<128xf32>
    %5179 = "tfl.fully_connected"(%5176, %5177, %5178) {asymmetric_quantize_inputs = false, fused_activation_function = "NONE", keep_num_dims = false, weights_format = "DEFAULT"} : (tensor<384x512xf32>, tensor<128x512xf32>, tensor<128xf32>) -> tensor<384x128xf32>
    %5180 = "tfl.pseudo_const"() {value = dense_resource<__elided__> : tensor<3xi32>} : () -> tensor<3xi32>
    %5181 = "tfl.reshape"(%5179, %5180) : (tensor<384x128xf32>, tensor<3xi32>) -> tensor<1x384x128xf32>
    %5182 = tfl.add %5181, %5173 {fused_activation_function = "NONE"} : tensor<1x384x128xf32>
    %5183 = "tfl.pseudo_const"() {value = dense_resource<__elided__> : tensor<128xf32>} : () -> tensor<128xf32>
    %5184 = tfl.mul(%5182, %5183) {fused_activation_function = "NONE"} : (tensor<1x384x128xf32>, tensor<128xf32>) -> tensor<1x384x128xf32>
    %5185 = "tfl.pseudo_const"() {value = dense_resource<__elided__> : tensor<128xf32>} : () -> tensor<128xf32>
    %5186 = tfl.add(%5184, %5185) {fused_activation_function = "NONE"} : (tensor<1x384x128xf32>, tensor<128xf32>) -> tensor<1x384x128xf32>
    %5187 = "tfl.pseudo_const"() {value = dense_resource<__elided__> : tensor<512x128xf32>} : () -> tensor<512x128xf32>
    %5188 = "tfl.pseudo_const"() {value = dense_resource<__elided__> : tensor<512xf32>} : () -> tensor<512xf32>
    %5189 = "tfl.fully_connected"(%5186, %5187, %5188) {asymmetric_quantize_inputs = false, fused_activation_function = "RELU", keep_num_dims = false, weights_format = "DEFAULT"} : (tensor<1x384x128xf32>, tensor<512x128xf32>, tensor<512xf32>) -> tensor<384x512xf32>
    %5190 = "tfl.pseudo_const"() {value = dense_resource<__elided__> : tensor<128x512xf32>} : () -> tensor<128x512xf32>
    %5191 = "tfl.pseudo_const"() {value = dense_resource<__elided__> : tensor<128xf32>} : () -> tensor<128xf32>
    %5192 = "tfl.fully_connected"(%5189, %5190, %5191) {asymmetric_quantize_inputs = false, fused_activation_function = "NONE", keep_num_dims = false, weights_format = "DEFAULT"} : (tensor<384x512xf32>, tensor<128x512xf32>, tensor<128xf32>) -> tensor<384x128xf32>
    %5193 = "tfl.pseudo_const"() {value = dense_resource<__elided__> : tensor<3xi32>} : () -> tensor<3xi32>
    %5194 = "tfl.reshape"(%5192, %5193) : (tensor<384x128xf32>, tensor<3xi32>) -> tensor<1x384x128xf32>
    %5195 = tfl.add %5194, %5186 {fused_activation_function = "NONE"} : tensor<1x384x128xf32>
    %5196 = "tfl.pseudo_const"() {value = dense_resource<__elided__> : tensor<128xf32>} : () -> tensor<128xf32>
    %5197 = tfl.mul(%5195, %5196) {fused_activation_function = "NONE"} : (tensor<1x384x128xf32>, tensor<128xf32>) -> tensor<1x384x128xf32>
    %5198 = "tfl.pseudo_const"() {value = dense_resource<__elided__> : tensor<128xf32>} : () -> tensor<128xf32>
    %5199 = tfl.add(%5197, %5198) {fused_activation_function = "NONE"} : (tensor<1x384x128xf32>, tensor<128xf32>) -> tensor<1x384x128xf32>
    %5200 = "tfl.pseudo_const"() {value = dense_resource<__elided__> : tensor<512x128xf32>} : () -> tensor<512x128xf32>
    %5201 = "tfl.pseudo_const"() {value = dense_resource<__elided__> : tensor<512xf32>} : () -> tensor<512xf32>
    %5202 = "tfl.fully_connected"(%5199, %5200, %5201) {asymmetric_quantize_inputs = false, fused_activation_function = "RELU", keep_num_dims = false, weights_format = "DEFAULT"} : (tensor<1x384x128xf32>, tensor<512x128xf32>, tensor<512xf32>) -> tensor<384x512xf32>
    %5203 = "tfl.pseudo_const"() {value = dense_resource<__elided__> : tensor<128x512xf32>} : () -> tensor<128x512xf32>
    %5204 = "tfl.pseudo_const"() {value = dense_resource<__elided__> : tensor<128xf32>} : () -> tensor<128xf32>
    %5205 = "tfl.fully_connected"(%5202, %5203, %5204) {asymmetric_quantize_inputs = false, fused_activation_function = "NONE", keep_num_dims = false, weights_format = "DEFAULT"} : (tensor<384x512xf32>, tensor<128x512xf32>, tensor<128xf32>) -> tensor<384x128xf32>
    %5206 = "tfl.pseudo_const"() {value = dense_resource<__elided__> : tensor<3xi32>} : () -> tensor<3xi32>
    %5207 = "tfl.reshape"(%5205, %5206) : (tensor<384x128xf32>, tensor<3xi32>) -> tensor<1x384x128xf32>
    %5208 = tfl.add %5207, %5199 {fused_activation_function = "NONE"} : tensor<1x384x128xf32>
    %5209 = "tfl.pseudo_const"() {value = dense_resource<__elided__> : tensor<128xf32>} : () -> tensor<128xf32>
    %5210 = tfl.mul(%5208, %5209) {fused_activation_function = "NONE"} : (tensor<1x384x128xf32>, tensor<128xf32>) -> tensor<1x384x128xf32>
    %5211 = "tfl.pseudo_const"() {value = dense_resource<__elided__> : tensor<128xf32>} : () -> tensor<128xf32>
    %5212 = tfl.add(%5210, %5211) {fused_activation_function = "NONE"} : (tensor<1x384x128xf32>, tensor<128xf32>) -> tensor<1x384x128xf32>
    %5213 = "tfl.pseudo_const"() {value = dense_resource<__elided__> : tensor<512x128xf32>} : () -> tensor<512x128xf32>
    %5214 = "tfl.pseudo_const"() {value = dense_resource<__elided__> : tensor<512xf32>} : () -> tensor<512xf32>
    %5215 = "tfl.fully_connected"(%5212, %5213, %5214) {asymmetric_quantize_inputs = false, fused_activation_function = "NONE", keep_num_dims = false, weights_format = "DEFAULT"} : (tensor<1x384x128xf32>, tensor<512x128xf32>, tensor<512xf32>) -> tensor<384x512xf32>
    %5216 = "tfl.pseudo_const"() {value = dense_resource<__elided__> : tensor<3xi32>} : () -> tensor<3xi32>
    %5217 = "tfl.reshape"(%5215, %5216) : (tensor<384x512xf32>, tensor<3xi32>) -> tensor<1x384x512xf32>
    %5218 = tfl.add %5217, %5004 {fused_activation_function = "NONE"} : tensor<1x384x512xf32>
    %5219 = "tfl.pseudo_const"() {value = dense_resource<__elided__> : tensor<512xf32>} : () -> tensor<512xf32>
    %5220 = tfl.mul(%5218, %5219) {fused_activation_function = "NONE"} : (tensor<1x384x512xf32>, tensor<512xf32>) -> tensor<1x384x512xf32>
    %5221 = "tfl.pseudo_const"() {value = dense_resource<__elided__> : tensor<512xf32>} : () -> tensor<512xf32>
    %5222 = tfl.add(%5220, %5221) {fused_activation_function = "NONE"} : (tensor<1x384x512xf32>, tensor<512xf32>) -> tensor<1x384x512xf32>
    %5223 = "tfl.pseudo_const"() {value = dense_resource<__elided__> : tensor<128x512xf32>} : () -> tensor<128x512xf32>
    %5224 = "tfl.pseudo_const"() {value = dense_resource<__elided__> : tensor<128xf32>} : () -> tensor<128xf32>
    %5225 = "tfl.fully_connected"(%5222, %5223, %5224) {asymmetric_quantize_inputs = false, fused_activation_function = "NONE", keep_num_dims = false, weights_format = "DEFAULT"} : (tensor<1x384x512xf32>, tensor<128x512xf32>, tensor<128xf32>) -> tensor<384x128xf32>
    %5226 = "tfl.pseudo_const"() {value = dense_resource<__elided__> : tensor<128x512xf32>} : () -> tensor<128x512xf32>
    %5227 = "tfl.pseudo_const"() {value = dense_resource<__elided__> : tensor<128xf32>} : () -> tensor<128xf32>
    %5228 = "tfl.fully_connected"(%5222, %5226, %5227) {asymmetric_quantize_inputs = false, fused_activation_function = "NONE", keep_num_dims = false, weights_format = "DEFAULT"} : (tensor<1x384x512xf32>, tensor<128x512xf32>, tensor<128xf32>) -> tensor<384x128xf32>
    %5229 = "tfl.pseudo_const"() {value = dense_resource<__elided__> : tensor<128x512xf32>} : () -> tensor<128x512xf32>
    %5230 = "tfl.pseudo_const"() {value = dense_resource<__elided__> : tensor<128xf32>} : () -> tensor<128xf32>
    %5231 = "tfl.fully_connected"(%5222, %5229, %5230) {asymmetric_quantize_inputs = false, fused_activation_function = "NONE", keep_num_dims = false, weights_format = "DEFAULT"} : (tensor<1x384x512xf32>, tensor<128x512xf32>, tensor<128xf32>) -> tensor<384x128xf32>
    %5232 = "tfl.pseudo_const"() {value = dense_resource<__elided__> : tensor<3xi32>} : () -> tensor<3xi32>
    %5233 = "tfl.reshape"(%5225, %5232) : (tensor<384x128xf32>, tensor<3xi32>) -> tensor<1x384x128xf32>
    %5234 = "tfl.pseudo_const"() {value = dense_resource<__elided__> : tensor<3xi32>} : () -> tensor<3xi32>
    %5235 = "tfl.reshape"(%5228, %5234) : (tensor<384x128xf32>, tensor<3xi32>) -> tensor<1x384x128xf32>
    %5236 = "tfl.pseudo_const"() {value = dense_resource<__elided__> : tensor<3xi32>} : () -> tensor<3xi32>
    %5237 = "tfl.reshape"(%5231, %5236) : (tensor<384x128xf32>, tensor<3xi32>) -> tensor<1x384x128xf32>
    %5238 = "tfl.pseudo_const"() {value = dense_resource<__elided__> : tensor<128x128xf32>} : () -> tensor<128x128xf32>
    %5239 = "tfl.pseudo_const"() {value = dense_resource<__elided__> : tensor<128xf32>} : () -> tensor<128xf32>
    %5240 = "tfl.fully_connected"(%5235, %5238, %5239) {asymmetric_quantize_inputs = false, fused_activation_function = "NONE", keep_num_dims = false, weights_format = "DEFAULT"} : (tensor<1x384x128xf32>, tensor<128x128xf32>, tensor<128xf32>) -> tensor<384x128xf32>
    %5241 = "tfl.pseudo_const"() {value = dense_resource<__elided__> : tensor<128x128xf32>} : () -> tensor<128x128xf32>
    %5242 = "tfl.pseudo_const"() {value = dense_resource<__elided__> : tensor<128xf32>} : () -> tensor<128xf32>
    %5243 = "tfl.fully_connected"(%5235, %5241, %5242) {asymmetric_quantize_inputs = false, fused_activation_function = "NONE", keep_num_dims = false, weights_format = "DEFAULT"} : (tensor<1x384x128xf32>, tensor<128x128xf32>, tensor<128xf32>) -> tensor<384x128xf32>
    %5244 = "tfl.pseudo_const"() {value = dense_resource<__elided__> : tensor<128x128xf32>} : () -> tensor<128x128xf32>
    %5245 = "tfl.pseudo_const"() {value = dense_resource<__elided__> : tensor<128xf32>} : () -> tensor<128xf32>
    %5246 = "tfl.fully_connected"(%5237, %5244, %5245) {asymmetric_quantize_inputs = false, fused_activation_function = "NONE", keep_num_dims = false, weights_format = "DEFAULT"} : (tensor<1x384x128xf32>, tensor<128x128xf32>, tensor<128xf32>) -> tensor<384x128xf32>
    %5247 = "tfl.pseudo_const"() {value = dense_resource<__elided__> : tensor<4xi32>} : () -> tensor<4xi32>
    %5248 = "tfl.reshape"(%5240, %5247) : (tensor<384x128xf32>, tensor<4xi32>) -> tensor<1x384x4x32xf32>
    %5249 = "tfl.pseudo_const"() {value = dense_resource<__elided__> : tensor<4xi32>} : () -> tensor<4xi32>
    %5250 = "tfl.reshape"(%5243, %5249) : (tensor<384x128xf32>, tensor<4xi32>) -> tensor<1x384x4x32xf32>
    %5251 = "tfl.pseudo_const"() {value = dense_resource<__elided__> : tensor<4xi32>} : () -> tensor<4xi32>
    %5252 = "tfl.reshape"(%5246, %5251) : (tensor<384x128xf32>, tensor<4xi32>) -> tensor<1x384x4x32xf32>
    %5253 = "tfl.pseudo_const"() {value = dense_resource<__elided__> : tensor<4xi32>} : () -> tensor<4xi32>
    %5254 = "tfl.transpose"(%5248, %5253) : (tensor<1x384x4x32xf32>, tensor<4xi32>) -> tensor<1x4x384x32xf32>
    %5255 = "tfl.pseudo_const"() {value = dense_resource<__elided__> : tensor<4xi32>} : () -> tensor<4xi32>
    %5256 = "tfl.transpose"(%5250, %5255) : (tensor<1x384x4x32xf32>, tensor<4xi32>) -> tensor<1x4x384x32xf32>
    %5257 = "tfl.pseudo_const"() {value = dense_resource<__elided__> : tensor<4xi32>} : () -> tensor<4xi32>
    %5258 = "tfl.transpose"(%5252, %5257) : (tensor<1x384x4x32xf32>, tensor<4xi32>) -> tensor<1x4x384x32xf32>
    %5259 = "tfl.pseudo_const"() {value = dense_resource<__elided__> : tensor<4xi32>} : () -> tensor<4xi32>
    %5260 = "tfl.transpose"(%5256, %5259) : (tensor<1x4x384x32xf32>, tensor<4xi32>) -> tensor<1x4x32x384xf32>
    %5261 = "tfl.pseudo_const"() {value = dense_resource<__elided__> : tensor<3xi32>} : () -> tensor<3xi32>
    %5262 = "tfl.reshape"(%5254, %5261) : (tensor<1x4x384x32xf32>, tensor<3xi32>) -> tensor<4x384x32xf32>
    %5263 = "tfl.pseudo_const"() {value = dense<0> : tensor<3xi32>} : () -> tensor<3xi32>
    %5264 = "tfl.pseudo_const"() {value = dense_resource<__elided__> : tensor<3xi32>} : () -> tensor<3xi32>
    %5265 = "tfl.slice"(%5262, %5263, %5264) : (tensor<4x384x32xf32>, tensor<3xi32>, tensor<3xi32>) -> tensor<1x384x32xf32>
    %5266 = "tfl.pseudo_const"() {value = dense_resource<__elided__> : tensor<3xi32>} : () -> tensor<3xi32>
    %5267 = "tfl.pseudo_const"() {value = dense_resource<__elided__> : tensor<3xi32>} : () -> tensor<3xi32>
    %5268 = "tfl.slice"(%5262, %5266, %5267) : (tensor<4x384x32xf32>, tensor<3xi32>, tensor<3xi32>) -> tensor<1x384x32xf32>
    %5269 = "tfl.pseudo_const"() {value = dense_resource<__elided__> : tensor<3xi32>} : () -> tensor<3xi32>
    %5270 = "tfl.pseudo_const"() {value = dense_resource<__elided__> : tensor<3xi32>} : () -> tensor<3xi32>
    %5271 = "tfl.slice"(%5262, %5269, %5270) : (tensor<4x384x32xf32>, tensor<3xi32>, tensor<3xi32>) -> tensor<1x384x32xf32>
    %5272 = "tfl.pseudo_const"() {value = dense_resource<__elided__> : tensor<3xi32>} : () -> tensor<3xi32>
    %5273 = "tfl.pseudo_const"() {value = dense_resource<__elided__> : tensor<3xi32>} : () -> tensor<3xi32>
    %5274 = "tfl.slice"(%5262, %5272, %5273) : (tensor<4x384x32xf32>, tensor<3xi32>, tensor<3xi32>) -> tensor<1x384x32xf32>
    %5275 = "tfl.pseudo_const"() {value = dense_resource<__elided__> : tensor<3xi32>} : () -> tensor<3xi32>
    %5276 = "tfl.reshape"(%5260, %5275) : (tensor<1x4x32x384xf32>, tensor<3xi32>) -> tensor<4x32x384xf32>
    %5277 = "tfl.pseudo_const"() {value = dense<0> : tensor<3xi32>} : () -> tensor<3xi32>
    %5278 = "tfl.pseudo_const"() {value = dense_resource<__elided__> : tensor<3xi32>} : () -> tensor<3xi32>
    %5279 = "tfl.slice"(%5276, %5277, %5278) : (tensor<4x32x384xf32>, tensor<3xi32>, tensor<3xi32>) -> tensor<1x32x384xf32>
    %5280 = "tfl.pseudo_const"() {value = dense_resource<__elided__> : tensor<3xi32>} : () -> tensor<3xi32>
    %5281 = "tfl.transpose"(%5279, %5280) : (tensor<1x32x384xf32>, tensor<3xi32>) -> tensor<384x32x1xf32>
    %5282 = "tfl.pseudo_const"() {value = dense_resource<__elided__> : tensor<3xi32>} : () -> tensor<3xi32>
    %5283 = "tfl.pseudo_const"() {value = dense_resource<__elided__> : tensor<3xi32>} : () -> tensor<3xi32>
    %5284 = "tfl.slice"(%5276, %5282, %5283) : (tensor<4x32x384xf32>, tensor<3xi32>, tensor<3xi32>) -> tensor<1x32x384xf32>
    %5285 = "tfl.pseudo_const"() {value = dense_resource<__elided__> : tensor<3xi32>} : () -> tensor<3xi32>
    %5286 = "tfl.transpose"(%5284, %5285) : (tensor<1x32x384xf32>, tensor<3xi32>) -> tensor<384x32x1xf32>
    %5287 = "tfl.pseudo_const"() {value = dense_resource<__elided__> : tensor<3xi32>} : () -> tensor<3xi32>
    %5288 = "tfl.pseudo_const"() {value = dense_resource<__elided__> : tensor<3xi32>} : () -> tensor<3xi32>
    %5289 = "tfl.slice"(%5276, %5287, %5288) : (tensor<4x32x384xf32>, tensor<3xi32>, tensor<3xi32>) -> tensor<1x32x384xf32>
    %5290 = "tfl.pseudo_const"() {value = dense_resource<__elided__> : tensor<3xi32>} : () -> tensor<3xi32>
    %5291 = "tfl.transpose"(%5289, %5290) : (tensor<1x32x384xf32>, tensor<3xi32>) -> tensor<384x32x1xf32>
    %5292 = "tfl.pseudo_const"() {value = dense_resource<__elided__> : tensor<3xi32>} : () -> tensor<3xi32>
    %5293 = "tfl.pseudo_const"() {value = dense_resource<__elided__> : tensor<3xi32>} : () -> tensor<3xi32>
    %5294 = "tfl.slice"(%5276, %5292, %5293) : (tensor<4x32x384xf32>, tensor<3xi32>, tensor<3xi32>) -> tensor<1x32x384xf32>
    %5295 = "tfl.pseudo_const"() {value = dense_resource<__elided__> : tensor<3xi32>} : () -> tensor<3xi32>
    %5296 = "tfl.transpose"(%5294, %5295) : (tensor<1x32x384xf32>, tensor<3xi32>) -> tensor<384x32x1xf32>
    %5297 = "tfl.pseudo_const"() {value = dense_resource<__elided__> : tensor<2xi32>} : () -> tensor<2xi32>
    %5298 = "tfl.reshape"(%5281, %5297) : (tensor<384x32x1xf32>, tensor<2xi32>) -> tensor<384x32xf32>
    %5299 = "tfl.fully_connected"(%5265, %5298, %283) {asymmetric_quantize_inputs = false, fused_activation_function = "NONE", keep_num_dims = false, weights_format = "DEFAULT"} : (tensor<1x384x32xf32>, tensor<384x32xf32>, tensor<384xf32>) -> tensor<384x384xf32>
    %5300 = "tfl.pseudo_const"() {value = dense_resource<__elided__> : tensor<2xi32>} : () -> tensor<2xi32>
    %5301 = "tfl.reshape"(%5286, %5300) : (tensor<384x32x1xf32>, tensor<2xi32>) -> tensor<384x32xf32>
    %5302 = "tfl.fully_connected"(%5268, %5301, %283) {asymmetric_quantize_inputs = false, fused_activation_function = "NONE", keep_num_dims = false, weights_format = "DEFAULT"} : (tensor<1x384x32xf32>, tensor<384x32xf32>, tensor<384xf32>) -> tensor<384x384xf32>
    %5303 = "tfl.pseudo_const"() {value = dense_resource<__elided__> : tensor<2xi32>} : () -> tensor<2xi32>
    %5304 = "tfl.reshape"(%5291, %5303) : (tensor<384x32x1xf32>, tensor<2xi32>) -> tensor<384x32xf32>
    %5305 = "tfl.fully_connected"(%5271, %5304, %283) {asymmetric_quantize_inputs = false, fused_activation_function = "NONE", keep_num_dims = false, weights_format = "DEFAULT"} : (tensor<1x384x32xf32>, tensor<384x32xf32>, tensor<384xf32>) -> tensor<384x384xf32>
    %5306 = "tfl.pseudo_const"() {value = dense_resource<__elided__> : tensor<2xi32>} : () -> tensor<2xi32>
    %5307 = "tfl.reshape"(%5296, %5306) : (tensor<384x32x1xf32>, tensor<2xi32>) -> tensor<384x32xf32>
    %5308 = "tfl.fully_connected"(%5274, %5307, %283) {asymmetric_quantize_inputs = false, fused_activation_function = "NONE", keep_num_dims = false, weights_format = "DEFAULT"} : (tensor<1x384x32xf32>, tensor<384x32xf32>, tensor<384xf32>) -> tensor<384x384xf32>
    %5309 = "tfl.pack"(%5299, %5302, %5305, %5308) {axis = 0 : i32, values_count = 4 : i32} : (tensor<384x384xf32>, tensor<384x384xf32>, tensor<384x384xf32>, tensor<384x384xf32>) -> tensor<4x384x384xf32>
    %5310 = "tfl.pseudo_const"() {value = dense<0.176776692> : tensor<f32>} : () -> tensor<f32>
    %5311 = tfl.mul(%5309, %5310) {fused_activation_function = "NONE"} : (tensor<4x384x384xf32>, tensor<f32>) -> tensor<4x384x384xf32>
    %5312 = "tfl.pseudo_const"() {value = dense_resource<__elided__> : tensor<4xi32>} : () -> tensor<4xi32>
    %5313 = "tfl.reshape"(%5311, %5312) : (tensor<4x384x384xf32>, tensor<4xi32>) -> tensor<1x4x384x384xf32>
    %5314 = tfl.add(%5313, %191) {fused_activation_function = "NONE"} : (tensor<1x4x384x384xf32>, tensor<1x1x384x384xf32>) -> tensor<1x4x384x384xf32>
    %5315 = "tfl.softmax"(%5314) {beta = 1.000000e+00 : f32} : (tensor<1x4x384x384xf32>) -> tensor<1x4x384x384xf32>
    %5316 = "tfl.pseudo_const"() {value = dense_resource<__elided__> : tensor<3xi32>} : () -> tensor<3xi32>
    %5317 = "tfl.reshape"(%5315, %5316) : (tensor<1x4x384x384xf32>, tensor<3xi32>) -> tensor<4x384x384xf32>
    %5318 = "tfl.pseudo_const"() {value = dense<0> : tensor<3xi32>} : () -> tensor<3xi32>
    %5319 = "tfl.pseudo_const"() {value = dense_resource<__elided__> : tensor<3xi32>} : () -> tensor<3xi32>
    %5320 = "tfl.slice"(%5317, %5318, %5319) : (tensor<4x384x384xf32>, tensor<3xi32>, tensor<3xi32>) -> tensor<1x384x384xf32>
    %5321 = "tfl.pseudo_const"() {value = dense_resource<__elided__> : tensor<3xi32>} : () -> tensor<3xi32>
    %5322 = "tfl.pseudo_const"() {value = dense_resource<__elided__> : tensor<3xi32>} : () -> tensor<3xi32>
    %5323 = "tfl.slice"(%5317, %5321, %5322) : (tensor<4x384x384xf32>, tensor<3xi32>, tensor<3xi32>) -> tensor<1x384x384xf32>
    %5324 = "tfl.pseudo_const"() {value = dense_resource<__elided__> : tensor<3xi32>} : () -> tensor<3xi32>
    %5325 = "tfl.pseudo_const"() {value = dense_resource<__elided__> : tensor<3xi32>} : () -> tensor<3xi32>
    %5326 = "tfl.slice"(%5317, %5324, %5325) : (tensor<4x384x384xf32>, tensor<3xi32>, tensor<3xi32>) -> tensor<1x384x384xf32>
    %5327 = "tfl.pseudo_const"() {value = dense_resource<__elided__> : tensor<3xi32>} : () -> tensor<3xi32>
    %5328 = "tfl.pseudo_const"() {value = dense_resource<__elided__> : tensor<3xi32>} : () -> tensor<3xi32>
    %5329 = "tfl.slice"(%5317, %5327, %5328) : (tensor<4x384x384xf32>, tensor<3xi32>, tensor<3xi32>) -> tensor<1x384x384xf32>
    %5330 = "tfl.pseudo_const"() {value = dense_resource<__elided__> : tensor<3xi32>} : () -> tensor<3xi32>
    %5331 = "tfl.reshape"(%5258, %5330) : (tensor<1x4x384x32xf32>, tensor<3xi32>) -> tensor<4x384x32xf32>
    %5332 = "tfl.pseudo_const"() {value = dense<0> : tensor<3xi32>} : () -> tensor<3xi32>
    %5333 = "tfl.pseudo_const"() {value = dense_resource<__elided__> : tensor<3xi32>} : () -> tensor<3xi32>
    %5334 = "tfl.slice"(%5331, %5332, %5333) : (tensor<4x384x32xf32>, tensor<3xi32>, tensor<3xi32>) -> tensor<1x384x32xf32>
    %5335 = "tfl.pseudo_const"() {value = dense_resource<__elided__> : tensor<3xi32>} : () -> tensor<3xi32>
    %5336 = "tfl.transpose"(%5334, %5335) : (tensor<1x384x32xf32>, tensor<3xi32>) -> tensor<32x384x1xf32>
    %5337 = "tfl.pseudo_const"() {value = dense_resource<__elided__> : tensor<3xi32>} : () -> tensor<3xi32>
    %5338 = "tfl.pseudo_const"() {value = dense_resource<__elided__> : tensor<3xi32>} : () -> tensor<3xi32>
    %5339 = "tfl.slice"(%5331, %5337, %5338) : (tensor<4x384x32xf32>, tensor<3xi32>, tensor<3xi32>) -> tensor<1x384x32xf32>
    %5340 = "tfl.pseudo_const"() {value = dense_resource<__elided__> : tensor<3xi32>} : () -> tensor<3xi32>
    %5341 = "tfl.transpose"(%5339, %5340) : (tensor<1x384x32xf32>, tensor<3xi32>) -> tensor<32x384x1xf32>
    %5342 = "tfl.pseudo_const"() {value = dense_resource<__elided__> : tensor<3xi32>} : () -> tensor<3xi32>
    %5343 = "tfl.pseudo_const"() {value = dense_resource<__elided__> : tensor<3xi32>} : () -> tensor<3xi32>
    %5344 = "tfl.slice"(%5331, %5342, %5343) : (tensor<4x384x32xf32>, tensor<3xi32>, tensor<3xi32>) -> tensor<1x384x32xf32>
    %5345 = "tfl.pseudo_const"() {value = dense_resource<__elided__> : tensor<3xi32>} : () -> tensor<3xi32>
    %5346 = "tfl.transpose"(%5344, %5345) : (tensor<1x384x32xf32>, tensor<3xi32>) -> tensor<32x384x1xf32>
    %5347 = "tfl.pseudo_const"() {value = dense_resource<__elided__> : tensor<3xi32>} : () -> tensor<3xi32>
    %5348 = "tfl.pseudo_const"() {value = dense_resource<__elided__> : tensor<3xi32>} : () -> tensor<3xi32>
    %5349 = "tfl.slice"(%5331, %5347, %5348) : (tensor<4x384x32xf32>, tensor<3xi32>, tensor<3xi32>) -> tensor<1x384x32xf32>
    %5350 = "tfl.pseudo_const"() {value = dense_resource<__elided__> : tensor<3xi32>} : () -> tensor<3xi32>
    %5351 = "tfl.transpose"(%5349, %5350) : (tensor<1x384x32xf32>, tensor<3xi32>) -> tensor<32x384x1xf32>
    %5352 = "tfl.pseudo_const"() {value = dense_resource<__elided__> : tensor<2xi32>} : () -> tensor<2xi32>
    %5353 = "tfl.reshape"(%5336, %5352) : (tensor<32x384x1xf32>, tensor<2xi32>) -> tensor<32x384xf32>
    %5354 = "tfl.fully_connected"(%5320, %5353, %339) {asymmetric_quantize_inputs = false, fused_activation_function = "NONE", keep_num_dims = false, weights_format = "DEFAULT"} : (tensor<1x384x384xf32>, tensor<32x384xf32>, tensor<32xf32>) -> tensor<384x32xf32>
    %5355 = "tfl.pseudo_const"() {value = dense_resource<__elided__> : tensor<2xi32>} : () -> tensor<2xi32>
    %5356 = "tfl.reshape"(%5341, %5355) : (tensor<32x384x1xf32>, tensor<2xi32>) -> tensor<32x384xf32>
    %5357 = "tfl.fully_connected"(%5323, %5356, %339) {asymmetric_quantize_inputs = false, fused_activation_function = "NONE", keep_num_dims = false, weights_format = "DEFAULT"} : (tensor<1x384x384xf32>, tensor<32x384xf32>, tensor<32xf32>) -> tensor<384x32xf32>
    %5358 = "tfl.pseudo_const"() {value = dense_resource<__elided__> : tensor<2xi32>} : () -> tensor<2xi32>
    %5359 = "tfl.reshape"(%5346, %5358) : (tensor<32x384x1xf32>, tensor<2xi32>) -> tensor<32x384xf32>
    %5360 = "tfl.fully_connected"(%5326, %5359, %339) {asymmetric_quantize_inputs = false, fused_activation_function = "NONE", keep_num_dims = false, weights_format = "DEFAULT"} : (tensor<1x384x384xf32>, tensor<32x384xf32>, tensor<32xf32>) -> tensor<384x32xf32>
    %5361 = "tfl.pseudo_const"() {value = dense_resource<__elided__> : tensor<2xi32>} : () -> tensor<2xi32>
    %5362 = "tfl.reshape"(%5351, %5361) : (tensor<32x384x1xf32>, tensor<2xi32>) -> tensor<32x384xf32>
    %5363 = "tfl.fully_connected"(%5329, %5362, %339) {asymmetric_quantize_inputs = false, fused_activation_function = "NONE", keep_num_dims = false, weights_format = "DEFAULT"} : (tensor<1x384x384xf32>, tensor<32x384xf32>, tensor<32xf32>) -> tensor<384x32xf32>
    %5364 = "tfl.pack"(%5354, %5357, %5360, %5363) {axis = 0 : i32, values_count = 4 : i32} : (tensor<384x32xf32>, tensor<384x32xf32>, tensor<384x32xf32>, tensor<384x32xf32>) -> tensor<4x384x32xf32>
    %5365 = "tfl.pseudo_const"() {value = dense_resource<__elided__> : tensor<3xi32>} : () -> tensor<3xi32>
    %5366 = "tfl.transpose"(%5364, %5365) : (tensor<4x384x32xf32>, tensor<3xi32>) -> tensor<384x4x32xf32>
    %5367 = "tfl.pseudo_const"() {value = dense_resource<__elided__> : tensor<4xi32>} : () -> tensor<4xi32>
    %5368 = "tfl.reshape"(%5366, %5367) : (tensor<384x4x32xf32>, tensor<4xi32>) -> tensor<1x384x4x32xf32>
    %5369 = "tfl.pseudo_const"() {value = dense_resource<__elided__> : tensor<128x128xf32>} : () -> tensor<128x128xf32>
    %5370 = "tfl.pseudo_const"() {value = dense_resource<__elided__> : tensor<128xf32>} : () -> tensor<128xf32>
    %5371 = "tfl.fully_connected"(%5368, %5369, %5370) {asymmetric_quantize_inputs = false, fused_activation_function = "NONE", keep_num_dims = false, weights_format = "DEFAULT"} : (tensor<1x384x4x32xf32>, tensor<128x128xf32>, tensor<128xf32>) -> tensor<384x128xf32>
    %5372 = "tfl.pseudo_const"() {value = dense_resource<__elided__> : tensor<3xi32>} : () -> tensor<3xi32>
    %5373 = "tfl.reshape"(%5371, %5372) : (tensor<384x128xf32>, tensor<3xi32>) -> tensor<1x384x128xf32>
    %5374 = tfl.add %5373, %5233 {fused_activation_function = "NONE"} : tensor<1x384x128xf32>
    %5375 = "tfl.pseudo_const"() {value = dense_resource<__elided__> : tensor<128xf32>} : () -> tensor<128xf32>
    %5376 = tfl.mul(%5374, %5375) {fused_activation_function = "NONE"} : (tensor<1x384x128xf32>, tensor<128xf32>) -> tensor<1x384x128xf32>
    %5377 = "tfl.pseudo_const"() {value = dense_resource<__elided__> : tensor<128xf32>} : () -> tensor<128xf32>
    %5378 = tfl.add(%5376, %5377) {fused_activation_function = "NONE"} : (tensor<1x384x128xf32>, tensor<128xf32>) -> tensor<1x384x128xf32>
    %5379 = "tfl.pseudo_const"() {value = dense_resource<__elided__> : tensor<512x128xf32>} : () -> tensor<512x128xf32>
    %5380 = "tfl.pseudo_const"() {value = dense_resource<__elided__> : tensor<512xf32>} : () -> tensor<512xf32>
    %5381 = "tfl.fully_connected"(%5378, %5379, %5380) {asymmetric_quantize_inputs = false, fused_activation_function = "RELU", keep_num_dims = false, weights_format = "DEFAULT"} : (tensor<1x384x128xf32>, tensor<512x128xf32>, tensor<512xf32>) -> tensor<384x512xf32>
    %5382 = "tfl.pseudo_const"() {value = dense_resource<__elided__> : tensor<128x512xf32>} : () -> tensor<128x512xf32>
    %5383 = "tfl.pseudo_const"() {value = dense_resource<__elided__> : tensor<128xf32>} : () -> tensor<128xf32>
    %5384 = "tfl.fully_connected"(%5381, %5382, %5383) {asymmetric_quantize_inputs = false, fused_activation_function = "NONE", keep_num_dims = false, weights_format = "DEFAULT"} : (tensor<384x512xf32>, tensor<128x512xf32>, tensor<128xf32>) -> tensor<384x128xf32>
    %5385 = "tfl.pseudo_const"() {value = dense_resource<__elided__> : tensor<3xi32>} : () -> tensor<3xi32>
    %5386 = "tfl.reshape"(%5384, %5385) : (tensor<384x128xf32>, tensor<3xi32>) -> tensor<1x384x128xf32>
    %5387 = tfl.add %5386, %5378 {fused_activation_function = "NONE"} : tensor<1x384x128xf32>
    %5388 = "tfl.pseudo_const"() {value = dense_resource<__elided__> : tensor<128xf32>} : () -> tensor<128xf32>
    %5389 = tfl.mul(%5387, %5388) {fused_activation_function = "NONE"} : (tensor<1x384x128xf32>, tensor<128xf32>) -> tensor<1x384x128xf32>
    %5390 = "tfl.pseudo_const"() {value = dense_resource<__elided__> : tensor<128xf32>} : () -> tensor<128xf32>
    %5391 = tfl.add(%5389, %5390) {fused_activation_function = "NONE"} : (tensor<1x384x128xf32>, tensor<128xf32>) -> tensor<1x384x128xf32>
    %5392 = "tfl.pseudo_const"() {value = dense_resource<__elided__> : tensor<512x128xf32>} : () -> tensor<512x128xf32>
    %5393 = "tfl.pseudo_const"() {value = dense_resource<__elided__> : tensor<512xf32>} : () -> tensor<512xf32>
    %5394 = "tfl.fully_connected"(%5391, %5392, %5393) {asymmetric_quantize_inputs = false, fused_activation_function = "RELU", keep_num_dims = false, weights_format = "DEFAULT"} : (tensor<1x384x128xf32>, tensor<512x128xf32>, tensor<512xf32>) -> tensor<384x512xf32>
    %5395 = "tfl.pseudo_const"() {value = dense_resource<__elided__> : tensor<128x512xf32>} : () -> tensor<128x512xf32>
    %5396 = "tfl.pseudo_const"() {value = dense_resource<__elided__> : tensor<128xf32>} : () -> tensor<128xf32>
    %5397 = "tfl.fully_connected"(%5394, %5395, %5396) {asymmetric_quantize_inputs = false, fused_activation_function = "NONE", keep_num_dims = false, weights_format = "DEFAULT"} : (tensor<384x512xf32>, tensor<128x512xf32>, tensor<128xf32>) -> tensor<384x128xf32>
    %5398 = "tfl.pseudo_const"() {value = dense_resource<__elided__> : tensor<3xi32>} : () -> tensor<3xi32>
    %5399 = "tfl.reshape"(%5397, %5398) : (tensor<384x128xf32>, tensor<3xi32>) -> tensor<1x384x128xf32>
    %5400 = tfl.add %5399, %5391 {fused_activation_function = "NONE"} : tensor<1x384x128xf32>
    %5401 = "tfl.pseudo_const"() {value = dense_resource<__elided__> : tensor<128xf32>} : () -> tensor<128xf32>
    %5402 = tfl.mul(%5400, %5401) {fused_activation_function = "NONE"} : (tensor<1x384x128xf32>, tensor<128xf32>) -> tensor<1x384x128xf32>
    %5403 = "tfl.pseudo_const"() {value = dense_resource<__elided__> : tensor<128xf32>} : () -> tensor<128xf32>
    %5404 = tfl.add(%5402, %5403) {fused_activation_function = "NONE"} : (tensor<1x384x128xf32>, tensor<128xf32>) -> tensor<1x384x128xf32>
    %5405 = "tfl.pseudo_const"() {value = dense_resource<__elided__> : tensor<512x128xf32>} : () -> tensor<512x128xf32>
    %5406 = "tfl.pseudo_const"() {value = dense_resource<__elided__> : tensor<512xf32>} : () -> tensor<512xf32>
    %5407 = "tfl.fully_connected"(%5404, %5405, %5406) {asymmetric_quantize_inputs = false, fused_activation_function = "RELU", keep_num_dims = false, weights_format = "DEFAULT"} : (tensor<1x384x128xf32>, tensor<512x128xf32>, tensor<512xf32>) -> tensor<384x512xf32>
    %5408 = "tfl.pseudo_const"() {value = dense_resource<__elided__> : tensor<128x512xf32>} : () -> tensor<128x512xf32>
    %5409 = "tfl.pseudo_const"() {value = dense_resource<__elided__> : tensor<128xf32>} : () -> tensor<128xf32>
    %5410 = "tfl.fully_connected"(%5407, %5408, %5409) {asymmetric_quantize_inputs = false, fused_activation_function = "NONE", keep_num_dims = false, weights_format = "DEFAULT"} : (tensor<384x512xf32>, tensor<128x512xf32>, tensor<128xf32>) -> tensor<384x128xf32>
    %5411 = "tfl.pseudo_const"() {value = dense_resource<__elided__> : tensor<3xi32>} : () -> tensor<3xi32>
    %5412 = "tfl.reshape"(%5410, %5411) : (tensor<384x128xf32>, tensor<3xi32>) -> tensor<1x384x128xf32>
    %5413 = tfl.add %5412, %5404 {fused_activation_function = "NONE"} : tensor<1x384x128xf32>
    %5414 = "tfl.pseudo_const"() {value = dense_resource<__elided__> : tensor<128xf32>} : () -> tensor<128xf32>
    %5415 = tfl.mul(%5413, %5414) {fused_activation_function = "NONE"} : (tensor<1x384x128xf32>, tensor<128xf32>) -> tensor<1x384x128xf32>
    %5416 = "tfl.pseudo_const"() {value = dense_resource<__elided__> : tensor<128xf32>} : () -> tensor<128xf32>
    %5417 = tfl.add(%5415, %5416) {fused_activation_function = "NONE"} : (tensor<1x384x128xf32>, tensor<128xf32>) -> tensor<1x384x128xf32>
    %5418 = "tfl.pseudo_const"() {value = dense_resource<__elided__> : tensor<512x128xf32>} : () -> tensor<512x128xf32>
    %5419 = "tfl.pseudo_const"() {value = dense_resource<__elided__> : tensor<512xf32>} : () -> tensor<512xf32>
    %5420 = "tfl.fully_connected"(%5417, %5418, %5419) {asymmetric_quantize_inputs = false, fused_activation_function = "RELU", keep_num_dims = false, weights_format = "DEFAULT"} : (tensor<1x384x128xf32>, tensor<512x128xf32>, tensor<512xf32>) -> tensor<384x512xf32>
    %5421 = "tfl.pseudo_const"() {value = dense_resource<__elided__> : tensor<128x512xf32>} : () -> tensor<128x512xf32>
    %5422 = "tfl.pseudo_const"() {value = dense_resource<__elided__> : tensor<128xf32>} : () -> tensor<128xf32>
    %5423 = "tfl.fully_connected"(%5420, %5421, %5422) {asymmetric_quantize_inputs = false, fused_activation_function = "NONE", keep_num_dims = false, weights_format = "DEFAULT"} : (tensor<384x512xf32>, tensor<128x512xf32>, tensor<128xf32>) -> tensor<384x128xf32>
    %5424 = "tfl.pseudo_const"() {value = dense_resource<__elided__> : tensor<3xi32>} : () -> tensor<3xi32>
    %5425 = "tfl.reshape"(%5423, %5424) : (tensor<384x128xf32>, tensor<3xi32>) -> tensor<1x384x128xf32>
    %5426 = tfl.add %5425, %5417 {fused_activation_function = "NONE"} : tensor<1x384x128xf32>
    %5427 = "tfl.pseudo_const"() {value = dense_resource<__elided__> : tensor<128xf32>} : () -> tensor<128xf32>
    %5428 = tfl.mul(%5426, %5427) {fused_activation_function = "NONE"} : (tensor<1x384x128xf32>, tensor<128xf32>) -> tensor<1x384x128xf32>
    %5429 = "tfl.pseudo_const"() {value = dense_resource<__elided__> : tensor<128xf32>} : () -> tensor<128xf32>
    %5430 = tfl.add(%5428, %5429) {fused_activation_function = "NONE"} : (tensor<1x384x128xf32>, tensor<128xf32>) -> tensor<1x384x128xf32>
    %5431 = "tfl.pseudo_const"() {value = dense_resource<__elided__> : tensor<512x128xf32>} : () -> tensor<512x128xf32>
    %5432 = "tfl.pseudo_const"() {value = dense_resource<__elided__> : tensor<512xf32>} : () -> tensor<512xf32>
    %5433 = "tfl.fully_connected"(%5430, %5431, %5432) {asymmetric_quantize_inputs = false, fused_activation_function = "NONE", keep_num_dims = false, weights_format = "DEFAULT"} : (tensor<1x384x128xf32>, tensor<512x128xf32>, tensor<512xf32>) -> tensor<384x512xf32>
    %5434 = "tfl.pseudo_const"() {value = dense_resource<__elided__> : tensor<3xi32>} : () -> tensor<3xi32>
    %5435 = "tfl.reshape"(%5433, %5434) : (tensor<384x512xf32>, tensor<3xi32>) -> tensor<1x384x512xf32>
    %5436 = tfl.add %5435, %5222 {fused_activation_function = "NONE"} : tensor<1x384x512xf32>
    %5437 = "tfl.pseudo_const"() {value = dense_resource<__elided__> : tensor<512xf32>} : () -> tensor<512xf32>
    %5438 = tfl.mul(%5436, %5437) {fused_activation_function = "NONE"} : (tensor<1x384x512xf32>, tensor<512xf32>) -> tensor<1x384x512xf32>
    %5439 = "tfl.pseudo_const"() {value = dense_resource<__elided__> : tensor<512xf32>} : () -> tensor<512xf32>
    %5440 = tfl.add(%5438, %5439) {fused_activation_function = "NONE"} : (tensor<1x384x512xf32>, tensor<512xf32>) -> tensor<1x384x512xf32>
    %5441 = "tfl.pseudo_const"() {value = dense_resource<__elided__> : tensor<2x512xf32>} : () -> tensor<2x512xf32>
    %5442 = "tfl.pseudo_const"() {value = dense_resource<__elided__> : tensor<2xf32>} : () -> tensor<2xf32>
    %5443 = "tfl.fully_connected"(%5440, %5441, %5442) {asymmetric_quantize_inputs = false, fused_activation_function = "NONE", keep_num_dims = false, weights_format = "DEFAULT"} : (tensor<1x384x512xf32>, tensor<2x512xf32>, tensor<2xf32>) -> tensor<384x2xf32>
    %5444 = "tfl.pseudo_const"() {value = dense_resource<__elided__> : tensor<2xi32>} : () -> tensor<2xi32>
    %5445 = "tfl.transpose"(%5443, %5444) : (tensor<384x2xf32>, tensor<2xi32>) -> tensor<2x384xf32>
    %5446 = "tfl.pseudo_const"() {value = dense_resource<__elided__> : tensor<3xi32>} : () -> tensor<3xi32>
    %5447 = "tfl.reshape"(%5445, %5446) : (tensor<2x384xf32>, tensor<3xi32>) -> tensor<2x1x384xf32>
    %5448:2 = "tfl.unpack"(%5447) {axis = 0 : i32, num = 2 : i32} : (tensor<2x1x384xf32>) -> (tensor<1x384xf32>, tensor<1x384xf32>)
    return %5448#1, %5448#0 : tensor<1x384xf32>, tensor<1x384xf32>
  }
}

