module attributes {tfl.description = "TOCO Converted.", tfl.schema_version = 3 : i32} {
  func.func @main(%arg0: tensor<1x384xi32>, %arg1: tensor<1x384xi32>, %arg2: tensor<1x384xi32>) -> (tensor<1x384xf32>, tensor<1x384xf32>) attributes {tf.entry_function = {inputs = "input_ids,input_mask,segment_ids", outputs = "end_logits,start_logits"}} {
    %cst = arith.constant dense_resource<__elided__> : tensor<4xi32>
    %0 = "tosa.const"() <{value = dense<0.000000e+00> : tensor<f32>}> : () -> tensor<f32>
    %1 = "tosa.const"() <{value = dense_resource<__elided__> : tensor<1x1x512xf32>}> : () -> tensor<1x1x512xf32>
    %2 = "tosa.const"() <{value = dense_resource<__elided__> : tensor<1x1x512xf32>}> : () -> tensor<1x1x512xf32>
    %3 = "tosa.const"() <{value = dense_resource<__elided__> : tensor<1x1x128xf32>}> : () -> tensor<1x1x128xf32>
    %4 = "tosa.const"() <{value = dense_resource<__elided__> : tensor<1x1x128xf32>}> : () -> tensor<1x1x128xf32>
    %5 = "tosa.const"() <{value = dense_resource<__elided__> : tensor<1x1x128xf32>}> : () -> tensor<1x1x128xf32>
    %6 = "tosa.const"() <{value = dense_resource<__elided__> : tensor<1x1x128xf32>}> : () -> tensor<1x1x128xf32>
    %7 = "tosa.const"() <{value = dense_resource<__elided__> : tensor<1x1x128xf32>}> : () -> tensor<1x1x128xf32>
    %8 = "tosa.const"() <{value = dense_resource<__elided__> : tensor<1x1x128xf32>}> : () -> tensor<1x1x128xf32>
    %9 = "tosa.const"() <{value = dense_resource<__elided__> : tensor<1x1x128xf32>}> : () -> tensor<1x1x128xf32>
    %10 = "tosa.const"() <{value = dense_resource<__elided__> : tensor<1x1x128xf32>}> : () -> tensor<1x1x128xf32>
    %11 = "tosa.const"() <{value = dense_resource<__elided__> : tensor<1x1x128xf32>}> : () -> tensor<1x1x128xf32>
    %12 = "tosa.const"() <{value = dense_resource<__elided__> : tensor<1x1x128xf32>}> : () -> tensor<1x1x128xf32>
    %13 = "tosa.const"() <{value = dense_resource<__elided__> : tensor<1x1x512xf32>}> : () -> tensor<1x1x512xf32>
    %14 = "tosa.const"() <{value = dense_resource<__elided__> : tensor<1x1x512xf32>}> : () -> tensor<1x1x512xf32>
    %15 = "tosa.const"() <{value = dense_resource<__elided__> : tensor<1x1x128xf32>}> : () -> tensor<1x1x128xf32>
    %16 = "tosa.const"() <{value = dense_resource<__elided__> : tensor<1x1x128xf32>}> : () -> tensor<1x1x128xf32>
    %17 = "tosa.const"() <{value = dense_resource<__elided__> : tensor<1x1x128xf32>}> : () -> tensor<1x1x128xf32>
    %18 = "tosa.const"() <{value = dense_resource<__elided__> : tensor<1x1x128xf32>}> : () -> tensor<1x1x128xf32>
    %19 = "tosa.const"() <{value = dense_resource<__elided__> : tensor<1x1x128xf32>}> : () -> tensor<1x1x128xf32>
    %20 = "tosa.const"() <{value = dense_resource<__elided__> : tensor<1x1x128xf32>}> : () -> tensor<1x1x128xf32>
    %21 = "tosa.const"() <{value = dense_resource<__elided__> : tensor<1x1x128xf32>}> : () -> tensor<1x1x128xf32>
    %22 = "tosa.const"() <{value = dense_resource<__elided__> : tensor<1x1x128xf32>}> : () -> tensor<1x1x128xf32>
    %23 = "tosa.const"() <{value = dense_resource<__elided__> : tensor<1x1x128xf32>}> : () -> tensor<1x1x128xf32>
    %24 = "tosa.const"() <{value = dense_resource<__elided__> : tensor<1x1x128xf32>}> : () -> tensor<1x1x128xf32>
    %25 = "tosa.const"() <{value = dense_resource<__elided__> : tensor<1x1x512xf32>}> : () -> tensor<1x1x512xf32>
    %26 = "tosa.const"() <{value = dense_resource<__elided__> : tensor<1x1x512xf32>}> : () -> tensor<1x1x512xf32>
    %27 = "tosa.const"() <{value = dense_resource<__elided__> : tensor<1x1x128xf32>}> : () -> tensor<1x1x128xf32>
    %28 = "tosa.const"() <{value = dense_resource<__elided__> : tensor<1x1x128xf32>}> : () -> tensor<1x1x128xf32>
    %29 = "tosa.const"() <{value = dense_resource<__elided__> : tensor<1x1x128xf32>}> : () -> tensor<1x1x128xf32>
    %30 = "tosa.const"() <{value = dense_resource<__elided__> : tensor<1x1x128xf32>}> : () -> tensor<1x1x128xf32>
    %31 = "tosa.const"() <{value = dense_resource<__elided__> : tensor<1x1x128xf32>}> : () -> tensor<1x1x128xf32>
    %32 = "tosa.const"() <{value = dense_resource<__elided__> : tensor<1x1x128xf32>}> : () -> tensor<1x1x128xf32>
    %33 = "tosa.const"() <{value = dense_resource<__elided__> : tensor<1x1x128xf32>}> : () -> tensor<1x1x128xf32>
    %34 = "tosa.const"() <{value = dense_resource<__elided__> : tensor<1x1x128xf32>}> : () -> tensor<1x1x128xf32>
    %35 = "tosa.const"() <{value = dense_resource<__elided__> : tensor<1x1x128xf32>}> : () -> tensor<1x1x128xf32>
    %36 = "tosa.const"() <{value = dense_resource<__elided__> : tensor<1x1x128xf32>}> : () -> tensor<1x1x128xf32>
    %37 = "tosa.const"() <{value = dense_resource<__elided__> : tensor<1x1x512xf32>}> : () -> tensor<1x1x512xf32>
    %38 = "tosa.const"() <{value = dense_resource<__elided__> : tensor<1x1x512xf32>}> : () -> tensor<1x1x512xf32>
    %39 = "tosa.const"() <{value = dense_resource<__elided__> : tensor<1x1x128xf32>}> : () -> tensor<1x1x128xf32>
    %40 = "tosa.const"() <{value = dense_resource<__elided__> : tensor<1x1x128xf32>}> : () -> tensor<1x1x128xf32>
    %41 = "tosa.const"() <{value = dense_resource<__elided__> : tensor<1x1x128xf32>}> : () -> tensor<1x1x128xf32>
    %42 = "tosa.const"() <{value = dense_resource<__elided__> : tensor<1x1x128xf32>}> : () -> tensor<1x1x128xf32>
    %43 = "tosa.const"() <{value = dense_resource<__elided__> : tensor<1x1x128xf32>}> : () -> tensor<1x1x128xf32>
    %44 = "tosa.const"() <{value = dense_resource<__elided__> : tensor<1x1x128xf32>}> : () -> tensor<1x1x128xf32>
    %45 = "tosa.const"() <{value = dense_resource<__elided__> : tensor<1x1x128xf32>}> : () -> tensor<1x1x128xf32>
    %46 = "tosa.const"() <{value = dense_resource<__elided__> : tensor<1x1x128xf32>}> : () -> tensor<1x1x128xf32>
    %47 = "tosa.const"() <{value = dense_resource<__elided__> : tensor<1x1x128xf32>}> : () -> tensor<1x1x128xf32>
    %48 = "tosa.const"() <{value = dense_resource<__elided__> : tensor<1x1x128xf32>}> : () -> tensor<1x1x128xf32>
    %49 = "tosa.const"() <{value = dense_resource<__elided__> : tensor<1x1x512xf32>}> : () -> tensor<1x1x512xf32>
    %50 = "tosa.const"() <{value = dense_resource<__elided__> : tensor<1x1x512xf32>}> : () -> tensor<1x1x512xf32>
    %51 = "tosa.const"() <{value = dense_resource<__elided__> : tensor<1x1x128xf32>}> : () -> tensor<1x1x128xf32>
    %52 = "tosa.const"() <{value = dense_resource<__elided__> : tensor<1x1x128xf32>}> : () -> tensor<1x1x128xf32>
    %53 = "tosa.const"() <{value = dense_resource<__elided__> : tensor<1x1x128xf32>}> : () -> tensor<1x1x128xf32>
    %54 = "tosa.const"() <{value = dense_resource<__elided__> : tensor<1x1x128xf32>}> : () -> tensor<1x1x128xf32>
    %55 = "tosa.const"() <{value = dense_resource<__elided__> : tensor<1x1x128xf32>}> : () -> tensor<1x1x128xf32>
    %56 = "tosa.const"() <{value = dense_resource<__elided__> : tensor<1x1x128xf32>}> : () -> tensor<1x1x128xf32>
    %57 = "tosa.const"() <{value = dense_resource<__elided__> : tensor<1x1x128xf32>}> : () -> tensor<1x1x128xf32>
    %58 = "tosa.const"() <{value = dense_resource<__elided__> : tensor<1x1x128xf32>}> : () -> tensor<1x1x128xf32>
    %59 = "tosa.const"() <{value = dense_resource<__elided__> : tensor<1x1x128xf32>}> : () -> tensor<1x1x128xf32>
    %60 = "tosa.const"() <{value = dense_resource<__elided__> : tensor<1x1x128xf32>}> : () -> tensor<1x1x128xf32>
    %61 = "tosa.const"() <{value = dense_resource<__elided__> : tensor<1x1x512xf32>}> : () -> tensor<1x1x512xf32>
    %62 = "tosa.const"() <{value = dense_resource<__elided__> : tensor<1x1x512xf32>}> : () -> tensor<1x1x512xf32>
    %63 = "tosa.const"() <{value = dense_resource<__elided__> : tensor<1x1x128xf32>}> : () -> tensor<1x1x128xf32>
    %64 = "tosa.const"() <{value = dense_resource<__elided__> : tensor<1x1x128xf32>}> : () -> tensor<1x1x128xf32>
    %65 = "tosa.const"() <{value = dense_resource<__elided__> : tensor<1x1x128xf32>}> : () -> tensor<1x1x128xf32>
    %66 = "tosa.const"() <{value = dense_resource<__elided__> : tensor<1x1x128xf32>}> : () -> tensor<1x1x128xf32>
    %67 = "tosa.const"() <{value = dense_resource<__elided__> : tensor<1x1x128xf32>}> : () -> tensor<1x1x128xf32>
    %68 = "tosa.const"() <{value = dense_resource<__elided__> : tensor<1x1x128xf32>}> : () -> tensor<1x1x128xf32>
    %69 = "tosa.const"() <{value = dense_resource<__elided__> : tensor<1x1x128xf32>}> : () -> tensor<1x1x128xf32>
    %70 = "tosa.const"() <{value = dense_resource<__elided__> : tensor<1x1x128xf32>}> : () -> tensor<1x1x128xf32>
    %71 = "tosa.const"() <{value = dense_resource<__elided__> : tensor<1x1x128xf32>}> : () -> tensor<1x1x128xf32>
    %72 = "tosa.const"() <{value = dense_resource<__elided__> : tensor<1x1x128xf32>}> : () -> tensor<1x1x128xf32>
    %73 = "tosa.const"() <{value = dense_resource<__elided__> : tensor<1x1x512xf32>}> : () -> tensor<1x1x512xf32>
    %74 = "tosa.const"() <{value = dense_resource<__elided__> : tensor<1x1x512xf32>}> : () -> tensor<1x1x512xf32>
    %75 = "tosa.const"() <{value = dense_resource<__elided__> : tensor<1x1x128xf32>}> : () -> tensor<1x1x128xf32>
    %76 = "tosa.const"() <{value = dense_resource<__elided__> : tensor<1x1x128xf32>}> : () -> tensor<1x1x128xf32>
    %77 = "tosa.const"() <{value = dense_resource<__elided__> : tensor<1x1x128xf32>}> : () -> tensor<1x1x128xf32>
    %78 = "tosa.const"() <{value = dense_resource<__elided__> : tensor<1x1x128xf32>}> : () -> tensor<1x1x128xf32>
    %79 = "tosa.const"() <{value = dense_resource<__elided__> : tensor<1x1x128xf32>}> : () -> tensor<1x1x128xf32>
    %80 = "tosa.const"() <{value = dense_resource<__elided__> : tensor<1x1x128xf32>}> : () -> tensor<1x1x128xf32>
    %81 = "tosa.const"() <{value = dense_resource<__elided__> : tensor<1x1x128xf32>}> : () -> tensor<1x1x128xf32>
    %82 = "tosa.const"() <{value = dense_resource<__elided__> : tensor<1x1x128xf32>}> : () -> tensor<1x1x128xf32>
    %83 = "tosa.const"() <{value = dense_resource<__elided__> : tensor<1x1x128xf32>}> : () -> tensor<1x1x128xf32>
    %84 = "tosa.const"() <{value = dense_resource<__elided__> : tensor<1x1x128xf32>}> : () -> tensor<1x1x128xf32>
    %85 = "tosa.const"() <{value = dense_resource<__elided__> : tensor<1x1x512xf32>}> : () -> tensor<1x1x512xf32>
    %86 = "tosa.const"() <{value = dense_resource<__elided__> : tensor<1x1x512xf32>}> : () -> tensor<1x1x512xf32>
    %87 = "tosa.const"() <{value = dense_resource<__elided__> : tensor<1x1x128xf32>}> : () -> tensor<1x1x128xf32>
    %88 = "tosa.const"() <{value = dense_resource<__elided__> : tensor<1x1x128xf32>}> : () -> tensor<1x1x128xf32>
    %89 = "tosa.const"() <{value = dense_resource<__elided__> : tensor<1x1x128xf32>}> : () -> tensor<1x1x128xf32>
    %90 = "tosa.const"() <{value = dense_resource<__elided__> : tensor<1x1x128xf32>}> : () -> tensor<1x1x128xf32>
    %91 = "tosa.const"() <{value = dense_resource<__elided__> : tensor<1x1x128xf32>}> : () -> tensor<1x1x128xf32>
    %92 = "tosa.const"() <{value = dense_resource<__elided__> : tensor<1x1x128xf32>}> : () -> tensor<1x1x128xf32>
    %93 = "tosa.const"() <{value = dense_resource<__elided__> : tensor<1x1x128xf32>}> : () -> tensor<1x1x128xf32>
    %94 = "tosa.const"() <{value = dense_resource<__elided__> : tensor<1x1x128xf32>}> : () -> tensor<1x1x128xf32>
    %95 = "tosa.const"() <{value = dense_resource<__elided__> : tensor<1x1x128xf32>}> : () -> tensor<1x1x128xf32>
    %96 = "tosa.const"() <{value = dense_resource<__elided__> : tensor<1x1x128xf32>}> : () -> tensor<1x1x128xf32>
    %97 = "tosa.const"() <{value = dense_resource<__elided__> : tensor<1x1x512xf32>}> : () -> tensor<1x1x512xf32>
    %98 = "tosa.const"() <{value = dense_resource<__elided__> : tensor<1x1x512xf32>}> : () -> tensor<1x1x512xf32>
    %99 = "tosa.const"() <{value = dense_resource<__elided__> : tensor<1x1x128xf32>}> : () -> tensor<1x1x128xf32>
    %100 = "tosa.const"() <{value = dense_resource<__elided__> : tensor<1x1x128xf32>}> : () -> tensor<1x1x128xf32>
    %101 = "tosa.const"() <{value = dense_resource<__elided__> : tensor<1x1x128xf32>}> : () -> tensor<1x1x128xf32>
    %102 = "tosa.const"() <{value = dense_resource<__elided__> : tensor<1x1x128xf32>}> : () -> tensor<1x1x128xf32>
    %103 = "tosa.const"() <{value = dense_resource<__elided__> : tensor<1x1x128xf32>}> : () -> tensor<1x1x128xf32>
    %104 = "tosa.const"() <{value = dense_resource<__elided__> : tensor<1x1x128xf32>}> : () -> tensor<1x1x128xf32>
    %105 = "tosa.const"() <{value = dense_resource<__elided__> : tensor<1x1x128xf32>}> : () -> tensor<1x1x128xf32>
    %106 = "tosa.const"() <{value = dense_resource<__elided__> : tensor<1x1x128xf32>}> : () -> tensor<1x1x128xf32>
    %107 = "tosa.const"() <{value = dense_resource<__elided__> : tensor<1x1x128xf32>}> : () -> tensor<1x1x128xf32>
    %108 = "tosa.const"() <{value = dense_resource<__elided__> : tensor<1x1x128xf32>}> : () -> tensor<1x1x128xf32>
    %109 = "tosa.const"() <{value = dense_resource<__elided__> : tensor<1x1x512xf32>}> : () -> tensor<1x1x512xf32>
    %110 = "tosa.const"() <{value = dense_resource<__elided__> : tensor<1x1x512xf32>}> : () -> tensor<1x1x512xf32>
    %111 = "tosa.const"() <{value = dense_resource<__elided__> : tensor<1x1x128xf32>}> : () -> tensor<1x1x128xf32>
    %112 = "tosa.const"() <{value = dense_resource<__elided__> : tensor<1x1x128xf32>}> : () -> tensor<1x1x128xf32>
    %113 = "tosa.const"() <{value = dense_resource<__elided__> : tensor<1x1x128xf32>}> : () -> tensor<1x1x128xf32>
    %114 = "tosa.const"() <{value = dense_resource<__elided__> : tensor<1x1x128xf32>}> : () -> tensor<1x1x128xf32>
    %115 = "tosa.const"() <{value = dense_resource<__elided__> : tensor<1x1x128xf32>}> : () -> tensor<1x1x128xf32>
    %116 = "tosa.const"() <{value = dense_resource<__elided__> : tensor<1x1x128xf32>}> : () -> tensor<1x1x128xf32>
    %117 = "tosa.const"() <{value = dense_resource<__elided__> : tensor<1x1x128xf32>}> : () -> tensor<1x1x128xf32>
    %118 = "tosa.const"() <{value = dense_resource<__elided__> : tensor<1x1x128xf32>}> : () -> tensor<1x1x128xf32>
    %119 = "tosa.const"() <{value = dense_resource<__elided__> : tensor<1x1x128xf32>}> : () -> tensor<1x1x128xf32>
    %120 = "tosa.const"() <{value = dense_resource<__elided__> : tensor<1x1x128xf32>}> : () -> tensor<1x1x128xf32>
    %121 = "tosa.const"() <{value = dense_resource<__elided__> : tensor<1x1x512xf32>}> : () -> tensor<1x1x512xf32>
    %122 = "tosa.const"() <{value = dense_resource<__elided__> : tensor<1x1x512xf32>}> : () -> tensor<1x1x512xf32>
    %123 = "tosa.const"() <{value = dense_resource<__elided__> : tensor<1x1x128xf32>}> : () -> tensor<1x1x128xf32>
    %124 = "tosa.const"() <{value = dense_resource<__elided__> : tensor<1x1x128xf32>}> : () -> tensor<1x1x128xf32>
    %125 = "tosa.const"() <{value = dense_resource<__elided__> : tensor<1x1x128xf32>}> : () -> tensor<1x1x128xf32>
    %126 = "tosa.const"() <{value = dense_resource<__elided__> : tensor<1x1x128xf32>}> : () -> tensor<1x1x128xf32>
    %127 = "tosa.const"() <{value = dense_resource<__elided__> : tensor<1x1x128xf32>}> : () -> tensor<1x1x128xf32>
    %128 = "tosa.const"() <{value = dense_resource<__elided__> : tensor<1x1x128xf32>}> : () -> tensor<1x1x128xf32>
    %129 = "tosa.const"() <{value = dense_resource<__elided__> : tensor<1x1x128xf32>}> : () -> tensor<1x1x128xf32>
    %130 = "tosa.const"() <{value = dense_resource<__elided__> : tensor<1x1x128xf32>}> : () -> tensor<1x1x128xf32>
    %131 = "tosa.const"() <{value = dense_resource<__elided__> : tensor<1x1x128xf32>}> : () -> tensor<1x1x128xf32>
    %132 = "tosa.const"() <{value = dense_resource<__elided__> : tensor<1x1x128xf32>}> : () -> tensor<1x1x128xf32>
    %133 = "tosa.const"() <{value = dense_resource<__elided__> : tensor<1x1x512xf32>}> : () -> tensor<1x1x512xf32>
    %134 = "tosa.const"() <{value = dense_resource<__elided__> : tensor<1x1x512xf32>}> : () -> tensor<1x1x512xf32>
    %135 = "tosa.const"() <{value = dense_resource<__elided__> : tensor<1x1x128xf32>}> : () -> tensor<1x1x128xf32>
    %136 = "tosa.const"() <{value = dense_resource<__elided__> : tensor<1x1x128xf32>}> : () -> tensor<1x1x128xf32>
    %137 = "tosa.const"() <{value = dense_resource<__elided__> : tensor<1x1x128xf32>}> : () -> tensor<1x1x128xf32>
    %138 = "tosa.const"() <{value = dense_resource<__elided__> : tensor<1x1x128xf32>}> : () -> tensor<1x1x128xf32>
    %139 = "tosa.const"() <{value = dense_resource<__elided__> : tensor<1x1x128xf32>}> : () -> tensor<1x1x128xf32>
    %140 = "tosa.const"() <{value = dense_resource<__elided__> : tensor<1x1x128xf32>}> : () -> tensor<1x1x128xf32>
    %141 = "tosa.const"() <{value = dense_resource<__elided__> : tensor<1x1x128xf32>}> : () -> tensor<1x1x128xf32>
    %142 = "tosa.const"() <{value = dense_resource<__elided__> : tensor<1x1x128xf32>}> : () -> tensor<1x1x128xf32>
    %143 = "tosa.const"() <{value = dense_resource<__elided__> : tensor<1x1x128xf32>}> : () -> tensor<1x1x128xf32>
    %144 = "tosa.const"() <{value = dense_resource<__elided__> : tensor<1x1x128xf32>}> : () -> tensor<1x1x128xf32>
    %145 = "tosa.const"() <{value = dense_resource<__elided__> : tensor<1x1x512xf32>}> : () -> tensor<1x1x512xf32>
    %146 = "tosa.const"() <{value = dense_resource<__elided__> : tensor<1x1x512xf32>}> : () -> tensor<1x1x512xf32>
    %147 = "tosa.const"() <{value = dense_resource<__elided__> : tensor<1x1x128xf32>}> : () -> tensor<1x1x128xf32>
    %148 = "tosa.const"() <{value = dense_resource<__elided__> : tensor<1x1x128xf32>}> : () -> tensor<1x1x128xf32>
    %149 = "tosa.const"() <{value = dense_resource<__elided__> : tensor<1x1x128xf32>}> : () -> tensor<1x1x128xf32>
    %150 = "tosa.const"() <{value = dense_resource<__elided__> : tensor<1x1x128xf32>}> : () -> tensor<1x1x128xf32>
    %151 = "tosa.const"() <{value = dense_resource<__elided__> : tensor<1x1x128xf32>}> : () -> tensor<1x1x128xf32>
    %152 = "tosa.const"() <{value = dense_resource<__elided__> : tensor<1x1x128xf32>}> : () -> tensor<1x1x128xf32>
    %153 = "tosa.const"() <{value = dense_resource<__elided__> : tensor<1x1x128xf32>}> : () -> tensor<1x1x128xf32>
    %154 = "tosa.const"() <{value = dense_resource<__elided__> : tensor<1x1x128xf32>}> : () -> tensor<1x1x128xf32>
    %155 = "tosa.const"() <{value = dense_resource<__elided__> : tensor<1x1x128xf32>}> : () -> tensor<1x1x128xf32>
    %156 = "tosa.const"() <{value = dense_resource<__elided__> : tensor<1x1x128xf32>}> : () -> tensor<1x1x128xf32>
    %157 = "tosa.const"() <{value = dense_resource<__elided__> : tensor<1x1x512xf32>}> : () -> tensor<1x1x512xf32>
    %158 = "tosa.const"() <{value = dense_resource<__elided__> : tensor<1x1x512xf32>}> : () -> tensor<1x1x512xf32>
    %159 = "tosa.const"() <{value = dense_resource<__elided__> : tensor<1x1x128xf32>}> : () -> tensor<1x1x128xf32>
    %160 = "tosa.const"() <{value = dense_resource<__elided__> : tensor<1x1x128xf32>}> : () -> tensor<1x1x128xf32>
    %161 = "tosa.const"() <{value = dense_resource<__elided__> : tensor<1x1x128xf32>}> : () -> tensor<1x1x128xf32>
    %162 = "tosa.const"() <{value = dense_resource<__elided__> : tensor<1x1x128xf32>}> : () -> tensor<1x1x128xf32>
    %163 = "tosa.const"() <{value = dense_resource<__elided__> : tensor<1x1x128xf32>}> : () -> tensor<1x1x128xf32>
    %164 = "tosa.const"() <{value = dense_resource<__elided__> : tensor<1x1x128xf32>}> : () -> tensor<1x1x128xf32>
    %165 = "tosa.const"() <{value = dense_resource<__elided__> : tensor<1x1x128xf32>}> : () -> tensor<1x1x128xf32>
    %166 = "tosa.const"() <{value = dense_resource<__elided__> : tensor<1x1x128xf32>}> : () -> tensor<1x1x128xf32>
    %167 = "tosa.const"() <{value = dense_resource<__elided__> : tensor<1x1x128xf32>}> : () -> tensor<1x1x128xf32>
    %168 = "tosa.const"() <{value = dense_resource<__elided__> : tensor<1x1x128xf32>}> : () -> tensor<1x1x128xf32>
    %169 = "tosa.const"() <{value = dense_resource<__elided__> : tensor<1x1x512xf32>}> : () -> tensor<1x1x512xf32>
    %170 = "tosa.const"() <{value = dense_resource<__elided__> : tensor<1x1x512xf32>}> : () -> tensor<1x1x512xf32>
    %171 = "tosa.const"() <{value = dense_resource<__elided__> : tensor<1x1x128xf32>}> : () -> tensor<1x1x128xf32>
    %172 = "tosa.const"() <{value = dense_resource<__elided__> : tensor<1x1x128xf32>}> : () -> tensor<1x1x128xf32>
    %173 = "tosa.const"() <{value = dense_resource<__elided__> : tensor<1x1x128xf32>}> : () -> tensor<1x1x128xf32>
    %174 = "tosa.const"() <{value = dense_resource<__elided__> : tensor<1x1x128xf32>}> : () -> tensor<1x1x128xf32>
    %175 = "tosa.const"() <{value = dense_resource<__elided__> : tensor<1x1x128xf32>}> : () -> tensor<1x1x128xf32>
    %176 = "tosa.const"() <{value = dense_resource<__elided__> : tensor<1x1x128xf32>}> : () -> tensor<1x1x128xf32>
    %177 = "tosa.const"() <{value = dense_resource<__elided__> : tensor<1x1x128xf32>}> : () -> tensor<1x1x128xf32>
    %178 = "tosa.const"() <{value = dense_resource<__elided__> : tensor<1x1x128xf32>}> : () -> tensor<1x1x128xf32>
    %179 = "tosa.const"() <{value = dense_resource<__elided__> : tensor<1x1x128xf32>}> : () -> tensor<1x1x128xf32>
    %180 = "tosa.const"() <{value = dense_resource<__elided__> : tensor<1x1x128xf32>}> : () -> tensor<1x1x128xf32>
    %181 = "tosa.const"() <{value = dense_resource<__elided__> : tensor<1x1x512xf32>}> : () -> tensor<1x1x512xf32>
    %182 = "tosa.const"() <{value = dense_resource<__elided__> : tensor<1x1x512xf32>}> : () -> tensor<1x1x512xf32>
    %183 = "tosa.const"() <{value = dense_resource<__elided__> : tensor<1x1x128xf32>}> : () -> tensor<1x1x128xf32>
    %184 = "tosa.const"() <{value = dense_resource<__elided__> : tensor<1x1x128xf32>}> : () -> tensor<1x1x128xf32>
    %185 = "tosa.const"() <{value = dense_resource<__elided__> : tensor<1x1x128xf32>}> : () -> tensor<1x1x128xf32>
    %186 = "tosa.const"() <{value = dense_resource<__elided__> : tensor<1x1x128xf32>}> : () -> tensor<1x1x128xf32>
    %187 = "tosa.const"() <{value = dense_resource<__elided__> : tensor<1x1x128xf32>}> : () -> tensor<1x1x128xf32>
    %188 = "tosa.const"() <{value = dense_resource<__elided__> : tensor<1x1x128xf32>}> : () -> tensor<1x1x128xf32>
    %189 = "tosa.const"() <{value = dense_resource<__elided__> : tensor<1x1x128xf32>}> : () -> tensor<1x1x128xf32>
    %190 = "tosa.const"() <{value = dense_resource<__elided__> : tensor<1x1x128xf32>}> : () -> tensor<1x1x128xf32>
    %191 = "tosa.const"() <{value = dense_resource<__elided__> : tensor<1x1x128xf32>}> : () -> tensor<1x1x128xf32>
    %192 = "tosa.const"() <{value = dense_resource<__elided__> : tensor<1x1x128xf32>}> : () -> tensor<1x1x128xf32>
    %193 = "tosa.const"() <{value = dense_resource<__elided__> : tensor<1x1x512xf32>}> : () -> tensor<1x1x512xf32>
    %194 = "tosa.const"() <{value = dense_resource<__elided__> : tensor<1x1x512xf32>}> : () -> tensor<1x1x512xf32>
    %195 = "tosa.const"() <{value = dense_resource<__elided__> : tensor<1x1x128xf32>}> : () -> tensor<1x1x128xf32>
    %196 = "tosa.const"() <{value = dense_resource<__elided__> : tensor<1x1x128xf32>}> : () -> tensor<1x1x128xf32>
    %197 = "tosa.const"() <{value = dense_resource<__elided__> : tensor<1x1x128xf32>}> : () -> tensor<1x1x128xf32>
    %198 = "tosa.const"() <{value = dense_resource<__elided__> : tensor<1x1x128xf32>}> : () -> tensor<1x1x128xf32>
    %199 = "tosa.const"() <{value = dense_resource<__elided__> : tensor<1x1x128xf32>}> : () -> tensor<1x1x128xf32>
    %200 = "tosa.const"() <{value = dense_resource<__elided__> : tensor<1x1x128xf32>}> : () -> tensor<1x1x128xf32>
    %201 = "tosa.const"() <{value = dense_resource<__elided__> : tensor<1x1x128xf32>}> : () -> tensor<1x1x128xf32>
    %202 = "tosa.const"() <{value = dense_resource<__elided__> : tensor<1x1x128xf32>}> : () -> tensor<1x1x128xf32>
    %203 = "tosa.const"() <{value = dense_resource<__elided__> : tensor<1x1x128xf32>}> : () -> tensor<1x1x128xf32>
    %204 = "tosa.const"() <{value = dense_resource<__elided__> : tensor<1x1x128xf32>}> : () -> tensor<1x1x128xf32>
    %205 = "tosa.const"() <{value = dense_resource<__elided__> : tensor<1x1x512xf32>}> : () -> tensor<1x1x512xf32>
    %206 = "tosa.const"() <{value = dense_resource<__elided__> : tensor<1x1x512xf32>}> : () -> tensor<1x1x512xf32>
    %207 = "tosa.const"() <{value = dense_resource<__elided__> : tensor<1x1x128xf32>}> : () -> tensor<1x1x128xf32>
    %208 = "tosa.const"() <{value = dense_resource<__elided__> : tensor<1x1x128xf32>}> : () -> tensor<1x1x128xf32>
    %209 = "tosa.const"() <{value = dense_resource<__elided__> : tensor<1x1x128xf32>}> : () -> tensor<1x1x128xf32>
    %210 = "tosa.const"() <{value = dense_resource<__elided__> : tensor<1x1x128xf32>}> : () -> tensor<1x1x128xf32>
    %211 = "tosa.const"() <{value = dense_resource<__elided__> : tensor<1x1x128xf32>}> : () -> tensor<1x1x128xf32>
    %212 = "tosa.const"() <{value = dense_resource<__elided__> : tensor<1x1x128xf32>}> : () -> tensor<1x1x128xf32>
    %213 = "tosa.const"() <{value = dense_resource<__elided__> : tensor<1x1x128xf32>}> : () -> tensor<1x1x128xf32>
    %214 = "tosa.const"() <{value = dense_resource<__elided__> : tensor<1x1x128xf32>}> : () -> tensor<1x1x128xf32>
    %215 = "tosa.const"() <{value = dense_resource<__elided__> : tensor<1x1x128xf32>}> : () -> tensor<1x1x128xf32>
    %216 = "tosa.const"() <{value = dense_resource<__elided__> : tensor<1x1x128xf32>}> : () -> tensor<1x1x128xf32>
    %217 = "tosa.const"() <{value = dense_resource<__elided__> : tensor<1x1x512xf32>}> : () -> tensor<1x1x512xf32>
    %218 = "tosa.const"() <{value = dense_resource<__elided__> : tensor<1x1x512xf32>}> : () -> tensor<1x1x512xf32>
    %219 = "tosa.const"() <{value = dense_resource<__elided__> : tensor<1x1x128xf32>}> : () -> tensor<1x1x128xf32>
    %220 = "tosa.const"() <{value = dense_resource<__elided__> : tensor<1x1x128xf32>}> : () -> tensor<1x1x128xf32>
    %221 = "tosa.const"() <{value = dense_resource<__elided__> : tensor<1x1x128xf32>}> : () -> tensor<1x1x128xf32>
    %222 = "tosa.const"() <{value = dense_resource<__elided__> : tensor<1x1x128xf32>}> : () -> tensor<1x1x128xf32>
    %223 = "tosa.const"() <{value = dense_resource<__elided__> : tensor<1x1x128xf32>}> : () -> tensor<1x1x128xf32>
    %224 = "tosa.const"() <{value = dense_resource<__elided__> : tensor<1x1x128xf32>}> : () -> tensor<1x1x128xf32>
    %225 = "tosa.const"() <{value = dense_resource<__elided__> : tensor<1x1x128xf32>}> : () -> tensor<1x1x128xf32>
    %226 = "tosa.const"() <{value = dense_resource<__elided__> : tensor<1x1x128xf32>}> : () -> tensor<1x1x128xf32>
    %227 = "tosa.const"() <{value = dense_resource<__elided__> : tensor<1x1x128xf32>}> : () -> tensor<1x1x128xf32>
    %228 = "tosa.const"() <{value = dense_resource<__elided__> : tensor<1x1x128xf32>}> : () -> tensor<1x1x128xf32>
    %229 = "tosa.const"() <{value = dense_resource<__elided__> : tensor<1x1x512xf32>}> : () -> tensor<1x1x512xf32>
    %230 = "tosa.const"() <{value = dense_resource<__elided__> : tensor<1x1x512xf32>}> : () -> tensor<1x1x512xf32>
    %231 = "tosa.const"() <{value = dense_resource<__elided__> : tensor<1x1x128xf32>}> : () -> tensor<1x1x128xf32>
    %232 = "tosa.const"() <{value = dense_resource<__elided__> : tensor<1x1x128xf32>}> : () -> tensor<1x1x128xf32>
    %233 = "tosa.const"() <{value = dense_resource<__elided__> : tensor<1x1x128xf32>}> : () -> tensor<1x1x128xf32>
    %234 = "tosa.const"() <{value = dense_resource<__elided__> : tensor<1x1x128xf32>}> : () -> tensor<1x1x128xf32>
    %235 = "tosa.const"() <{value = dense_resource<__elided__> : tensor<1x1x128xf32>}> : () -> tensor<1x1x128xf32>
    %236 = "tosa.const"() <{value = dense_resource<__elided__> : tensor<1x1x128xf32>}> : () -> tensor<1x1x128xf32>
    %237 = "tosa.const"() <{value = dense_resource<__elided__> : tensor<1x1x128xf32>}> : () -> tensor<1x1x128xf32>
    %238 = "tosa.const"() <{value = dense_resource<__elided__> : tensor<1x1x128xf32>}> : () -> tensor<1x1x128xf32>
    %239 = "tosa.const"() <{value = dense_resource<__elided__> : tensor<1x1x128xf32>}> : () -> tensor<1x1x128xf32>
    %240 = "tosa.const"() <{value = dense_resource<__elided__> : tensor<1x1x128xf32>}> : () -> tensor<1x1x128xf32>
    %241 = "tosa.const"() <{value = dense_resource<__elided__> : tensor<1x1x512xf32>}> : () -> tensor<1x1x512xf32>
    %242 = "tosa.const"() <{value = dense_resource<__elided__> : tensor<1x1x512xf32>}> : () -> tensor<1x1x512xf32>
    %243 = "tosa.const"() <{value = dense_resource<__elided__> : tensor<1x1x128xf32>}> : () -> tensor<1x1x128xf32>
    %244 = "tosa.const"() <{value = dense_resource<__elided__> : tensor<1x1x128xf32>}> : () -> tensor<1x1x128xf32>
    %245 = "tosa.const"() <{value = dense_resource<__elided__> : tensor<1x1x128xf32>}> : () -> tensor<1x1x128xf32>
    %246 = "tosa.const"() <{value = dense_resource<__elided__> : tensor<1x1x128xf32>}> : () -> tensor<1x1x128xf32>
    %247 = "tosa.const"() <{value = dense_resource<__elided__> : tensor<1x1x128xf32>}> : () -> tensor<1x1x128xf32>
    %248 = "tosa.const"() <{value = dense_resource<__elided__> : tensor<1x1x128xf32>}> : () -> tensor<1x1x128xf32>
    %249 = "tosa.const"() <{value = dense_resource<__elided__> : tensor<1x1x128xf32>}> : () -> tensor<1x1x128xf32>
    %250 = "tosa.const"() <{value = dense_resource<__elided__> : tensor<1x1x128xf32>}> : () -> tensor<1x1x128xf32>
    %251 = "tosa.const"() <{value = dense_resource<__elided__> : tensor<1x1x128xf32>}> : () -> tensor<1x1x128xf32>
    %252 = "tosa.const"() <{value = dense_resource<__elided__> : tensor<1x1x128xf32>}> : () -> tensor<1x1x128xf32>
    %253 = "tosa.const"() <{value = dense_resource<__elided__> : tensor<1x1x512xf32>}> : () -> tensor<1x1x512xf32>
    %254 = "tosa.const"() <{value = dense_resource<__elided__> : tensor<1x1x512xf32>}> : () -> tensor<1x1x512xf32>
    %255 = "tosa.const"() <{value = dense_resource<__elided__> : tensor<1x1x128xf32>}> : () -> tensor<1x1x128xf32>
    %256 = "tosa.const"() <{value = dense_resource<__elided__> : tensor<1x1x128xf32>}> : () -> tensor<1x1x128xf32>
    %257 = "tosa.const"() <{value = dense_resource<__elided__> : tensor<1x1x128xf32>}> : () -> tensor<1x1x128xf32>
    %258 = "tosa.const"() <{value = dense_resource<__elided__> : tensor<1x1x128xf32>}> : () -> tensor<1x1x128xf32>
    %259 = "tosa.const"() <{value = dense_resource<__elided__> : tensor<1x1x128xf32>}> : () -> tensor<1x1x128xf32>
    %260 = "tosa.const"() <{value = dense_resource<__elided__> : tensor<1x1x128xf32>}> : () -> tensor<1x1x128xf32>
    %261 = "tosa.const"() <{value = dense_resource<__elided__> : tensor<1x1x128xf32>}> : () -> tensor<1x1x128xf32>
    %262 = "tosa.const"() <{value = dense_resource<__elided__> : tensor<1x1x128xf32>}> : () -> tensor<1x1x128xf32>
    %263 = "tosa.const"() <{value = dense_resource<__elided__> : tensor<1x1x128xf32>}> : () -> tensor<1x1x128xf32>
    %264 = "tosa.const"() <{value = dense_resource<__elided__> : tensor<1x1x128xf32>}> : () -> tensor<1x1x128xf32>
    %265 = "tosa.const"() <{value = dense_resource<__elided__> : tensor<1x1x512xf32>}> : () -> tensor<1x1x512xf32>
    %266 = "tosa.const"() <{value = dense_resource<__elided__> : tensor<1x1x512xf32>}> : () -> tensor<1x1x512xf32>
    %267 = "tosa.const"() <{value = dense_resource<__elided__> : tensor<1x1x128xf32>}> : () -> tensor<1x1x128xf32>
    %268 = "tosa.const"() <{value = dense_resource<__elided__> : tensor<1x1x128xf32>}> : () -> tensor<1x1x128xf32>
    %269 = "tosa.const"() <{value = dense_resource<__elided__> : tensor<1x1x128xf32>}> : () -> tensor<1x1x128xf32>
    %270 = "tosa.const"() <{value = dense_resource<__elided__> : tensor<1x1x128xf32>}> : () -> tensor<1x1x128xf32>
    %271 = "tosa.const"() <{value = dense_resource<__elided__> : tensor<1x1x128xf32>}> : () -> tensor<1x1x128xf32>
    %272 = "tosa.const"() <{value = dense_resource<__elided__> : tensor<1x1x128xf32>}> : () -> tensor<1x1x128xf32>
    %273 = "tosa.const"() <{value = dense_resource<__elided__> : tensor<1x1x128xf32>}> : () -> tensor<1x1x128xf32>
    %274 = "tosa.const"() <{value = dense_resource<__elided__> : tensor<1x1x128xf32>}> : () -> tensor<1x1x128xf32>
    %275 = "tosa.const"() <{value = dense_resource<__elided__> : tensor<1x1x128xf32>}> : () -> tensor<1x1x128xf32>
    %276 = "tosa.const"() <{value = dense_resource<__elided__> : tensor<1x1x128xf32>}> : () -> tensor<1x1x128xf32>
    %277 = "tosa.const"() <{value = dense_resource<__elided__> : tensor<1x1x512xf32>}> : () -> tensor<1x1x512xf32>
    %278 = "tosa.const"() <{value = dense_resource<__elided__> : tensor<1x1x512xf32>}> : () -> tensor<1x1x512xf32>
    %279 = "tosa.const"() <{value = dense_resource<__elided__> : tensor<1x1x128xf32>}> : () -> tensor<1x1x128xf32>
    %280 = "tosa.const"() <{value = dense_resource<__elided__> : tensor<1x1x128xf32>}> : () -> tensor<1x1x128xf32>
    %281 = "tosa.const"() <{value = dense_resource<__elided__> : tensor<1x1x128xf32>}> : () -> tensor<1x1x128xf32>
    %282 = "tosa.const"() <{value = dense_resource<__elided__> : tensor<1x1x128xf32>}> : () -> tensor<1x1x128xf32>
    %283 = "tosa.const"() <{value = dense_resource<__elided__> : tensor<1x1x128xf32>}> : () -> tensor<1x1x128xf32>
    %284 = "tosa.const"() <{value = dense_resource<__elided__> : tensor<1x1x128xf32>}> : () -> tensor<1x1x128xf32>
    %285 = "tosa.const"() <{value = dense_resource<__elided__> : tensor<1x1x128xf32>}> : () -> tensor<1x1x128xf32>
    %286 = "tosa.const"() <{value = dense_resource<__elided__> : tensor<1x1x128xf32>}> : () -> tensor<1x1x128xf32>
    %287 = "tosa.const"() <{value = dense_resource<__elided__> : tensor<1x1x128xf32>}> : () -> tensor<1x1x128xf32>
    %288 = "tosa.const"() <{value = dense_resource<__elided__> : tensor<1x1x128xf32>}> : () -> tensor<1x1x128xf32>
    %289 = "tosa.const"() <{value = dense<0.176776692> : tensor<1x1x1xf32>}> : () -> tensor<1x1x1xf32>
    %290 = "tosa.const"() <{value = dense_resource<__elided__> : tensor<1x1x512xf32>}> : () -> tensor<1x1x512xf32>
    %291 = "tosa.const"() <{value = dense_resource<__elided__> : tensor<1x1x512xf32>}> : () -> tensor<1x1x512xf32>
    %292 = "tosa.const"() <{value = dense<-1.000000e+04> : tensor<1x1x1xf32>}> : () -> tensor<1x1x1xf32>
    %293 = "tosa.const"() <{value = dense<1.000000e+00> : tensor<1x1x1xf32>}> : () -> tensor<1x1x1xf32>
    %294 = "tosa.const"() <{value = dense<0.000000e+00> : tensor<32xf32>}> : () -> tensor<32xf32>
    %295 = "tosa.const"() <{value = dense<0.000000e+00> : tensor<384xf32>}> : () -> tensor<384xf32>
    %296 = "tosa.const"() <{value = dense_resource<__elided__> : tensor<1x30522x128xf32>}> : () -> tensor<1x30522x128xf32>
    %297 = "tosa.const"() <{value = dense_resource<__elided__> : tensor<1x2x512xf32>}> : () -> tensor<1x2x512xf32>
    %298 = "tosa.const"() <{value = dense_resource<__elided__> : tensor<2xi32>}> : () -> tensor<2xi32>
    %299 = "tosa.const"() <{value = dense_resource<__elided__> : tensor<2xf32>}> : () -> tensor<2xf32>
    %300 = "tosa.const"() <{value = dense_resource<__elided__> : tensor<2x512xf32>}> : () -> tensor<2x512xf32>
    %301 = "tosa.const"() <{value = dense_resource<__elided__> : tensor<512xf32>}> : () -> tensor<512xf32>
    %302 = "tosa.const"() <{value = dense_resource<__elided__> : tensor<512x128xf32>}> : () -> tensor<512x128xf32>
    %303 = "tosa.const"() <{value = dense_resource<__elided__> : tensor<128xf32>}> : () -> tensor<128xf32>
    %304 = "tosa.const"() <{value = dense_resource<__elided__> : tensor<128x512xf32>}> : () -> tensor<128x512xf32>
    %305 = "tosa.const"() <{value = dense_resource<__elided__> : tensor<512xf32>}> : () -> tensor<512xf32>
    %306 = "tosa.const"() <{value = dense_resource<__elided__> : tensor<512x128xf32>}> : () -> tensor<512x128xf32>
    %307 = "tosa.const"() <{value = dense_resource<__elided__> : tensor<128xf32>}> : () -> tensor<128xf32>
    %308 = "tosa.const"() <{value = dense_resource<__elided__> : tensor<128x512xf32>}> : () -> tensor<128x512xf32>
    %309 = "tosa.const"() <{value = dense_resource<__elided__> : tensor<512xf32>}> : () -> tensor<512xf32>
    %310 = "tosa.const"() <{value = dense_resource<__elided__> : tensor<512x128xf32>}> : () -> tensor<512x128xf32>
    %311 = "tosa.const"() <{value = dense_resource<__elided__> : tensor<128xf32>}> : () -> tensor<128xf32>
    %312 = "tosa.const"() <{value = dense_resource<__elided__> : tensor<128x512xf32>}> : () -> tensor<128x512xf32>
    %313 = "tosa.const"() <{value = dense_resource<__elided__> : tensor<512xf32>}> : () -> tensor<512xf32>
    %314 = "tosa.const"() <{value = dense_resource<__elided__> : tensor<512x128xf32>}> : () -> tensor<512x128xf32>
    %315 = "tosa.const"() <{value = dense_resource<__elided__> : tensor<128xf32>}> : () -> tensor<128xf32>
    %316 = "tosa.const"() <{value = dense_resource<__elided__> : tensor<128x512xf32>}> : () -> tensor<128x512xf32>
    %317 = "tosa.const"() <{value = dense_resource<__elided__> : tensor<512xf32>}> : () -> tensor<512xf32>
    %318 = "tosa.const"() <{value = dense_resource<__elided__> : tensor<512x128xf32>}> : () -> tensor<512x128xf32>
    %319 = "tosa.const"() <{value = dense_resource<__elided__> : tensor<128xf32>}> : () -> tensor<128xf32>
    %320 = "tosa.const"() <{value = dense_resource<__elided__> : tensor<128x128xf32>}> : () -> tensor<128x128xf32>
    %321 = "tosa.const"() <{value = dense_resource<__elided__> : tensor<128xf32>}> : () -> tensor<128xf32>
    %322 = "tosa.const"() <{value = dense_resource<__elided__> : tensor<128x128xf32>}> : () -> tensor<128x128xf32>
    %323 = "tosa.const"() <{value = dense_resource<__elided__> : tensor<128xf32>}> : () -> tensor<128xf32>
    %324 = "tosa.const"() <{value = dense_resource<__elided__> : tensor<128x128xf32>}> : () -> tensor<128x128xf32>
    %325 = "tosa.const"() <{value = dense_resource<__elided__> : tensor<128xf32>}> : () -> tensor<128xf32>
    %326 = "tosa.const"() <{value = dense_resource<__elided__> : tensor<128x128xf32>}> : () -> tensor<128x128xf32>
    %327 = "tosa.const"() <{value = dense_resource<__elided__> : tensor<128xf32>}> : () -> tensor<128xf32>
    %328 = "tosa.const"() <{value = dense_resource<__elided__> : tensor<128x512xf32>}> : () -> tensor<128x512xf32>
    %329 = "tosa.const"() <{value = dense_resource<__elided__> : tensor<128xf32>}> : () -> tensor<128xf32>
    %330 = "tosa.const"() <{value = dense_resource<__elided__> : tensor<128x512xf32>}> : () -> tensor<128x512xf32>
    %331 = "tosa.const"() <{value = dense_resource<__elided__> : tensor<128xf32>}> : () -> tensor<128xf32>
    %332 = "tosa.const"() <{value = dense_resource<__elided__> : tensor<128x512xf32>}> : () -> tensor<128x512xf32>
    %333 = "tosa.const"() <{value = dense_resource<__elided__> : tensor<512xf32>}> : () -> tensor<512xf32>
    %334 = "tosa.const"() <{value = dense_resource<__elided__> : tensor<512x128xf32>}> : () -> tensor<512x128xf32>
    %335 = "tosa.const"() <{value = dense_resource<__elided__> : tensor<128xf32>}> : () -> tensor<128xf32>
    %336 = "tosa.const"() <{value = dense_resource<__elided__> : tensor<128x512xf32>}> : () -> tensor<128x512xf32>
    %337 = "tosa.const"() <{value = dense_resource<__elided__> : tensor<512xf32>}> : () -> tensor<512xf32>
    %338 = "tosa.const"() <{value = dense_resource<__elided__> : tensor<512x128xf32>}> : () -> tensor<512x128xf32>
    %339 = "tosa.const"() <{value = dense_resource<__elided__> : tensor<128xf32>}> : () -> tensor<128xf32>
    %340 = "tosa.const"() <{value = dense_resource<__elided__> : tensor<128x512xf32>}> : () -> tensor<128x512xf32>
    %341 = "tosa.const"() <{value = dense_resource<__elided__> : tensor<512xf32>}> : () -> tensor<512xf32>
    %342 = "tosa.const"() <{value = dense_resource<__elided__> : tensor<512x128xf32>}> : () -> tensor<512x128xf32>
    %343 = "tosa.const"() <{value = dense_resource<__elided__> : tensor<128xf32>}> : () -> tensor<128xf32>
    %344 = "tosa.const"() <{value = dense_resource<__elided__> : tensor<128x512xf32>}> : () -> tensor<128x512xf32>
    %345 = "tosa.const"() <{value = dense_resource<__elided__> : tensor<512xf32>}> : () -> tensor<512xf32>
    %346 = "tosa.const"() <{value = dense_resource<__elided__> : tensor<512x128xf32>}> : () -> tensor<512x128xf32>
    %347 = "tosa.const"() <{value = dense_resource<__elided__> : tensor<128xf32>}> : () -> tensor<128xf32>
    %348 = "tosa.const"() <{value = dense_resource<__elided__> : tensor<128x512xf32>}> : () -> tensor<128x512xf32>
    %349 = "tosa.const"() <{value = dense_resource<__elided__> : tensor<512xf32>}> : () -> tensor<512xf32>
    %350 = "tosa.const"() <{value = dense_resource<__elided__> : tensor<512x128xf32>}> : () -> tensor<512x128xf32>
    %351 = "tosa.const"() <{value = dense_resource<__elided__> : tensor<128xf32>}> : () -> tensor<128xf32>
    %352 = "tosa.const"() <{value = dense_resource<__elided__> : tensor<128x128xf32>}> : () -> tensor<128x128xf32>
    %353 = "tosa.const"() <{value = dense_resource<__elided__> : tensor<128xf32>}> : () -> tensor<128xf32>
    %354 = "tosa.const"() <{value = dense_resource<__elided__> : tensor<128x128xf32>}> : () -> tensor<128x128xf32>
    %355 = "tosa.const"() <{value = dense_resource<__elided__> : tensor<128xf32>}> : () -> tensor<128xf32>
    %356 = "tosa.const"() <{value = dense_resource<__elided__> : tensor<128x128xf32>}> : () -> tensor<128x128xf32>
    %357 = "tosa.const"() <{value = dense_resource<__elided__> : tensor<128xf32>}> : () -> tensor<128xf32>
    %358 = "tosa.const"() <{value = dense_resource<__elided__> : tensor<128x128xf32>}> : () -> tensor<128x128xf32>
    %359 = "tosa.const"() <{value = dense_resource<__elided__> : tensor<128xf32>}> : () -> tensor<128xf32>
    %360 = "tosa.const"() <{value = dense_resource<__elided__> : tensor<128x512xf32>}> : () -> tensor<128x512xf32>
    %361 = "tosa.const"() <{value = dense_resource<__elided__> : tensor<128xf32>}> : () -> tensor<128xf32>
    %362 = "tosa.const"() <{value = dense_resource<__elided__> : tensor<128x512xf32>}> : () -> tensor<128x512xf32>
    %363 = "tosa.const"() <{value = dense_resource<__elided__> : tensor<128xf32>}> : () -> tensor<128xf32>
    %364 = "tosa.const"() <{value = dense_resource<__elided__> : tensor<128x512xf32>}> : () -> tensor<128x512xf32>
    %365 = "tosa.const"() <{value = dense_resource<__elided__> : tensor<512xf32>}> : () -> tensor<512xf32>
    %366 = "tosa.const"() <{value = dense_resource<__elided__> : tensor<512x128xf32>}> : () -> tensor<512x128xf32>
    %367 = "tosa.const"() <{value = dense_resource<__elided__> : tensor<128xf32>}> : () -> tensor<128xf32>
    %368 = "tosa.const"() <{value = dense_resource<__elided__> : tensor<128x512xf32>}> : () -> tensor<128x512xf32>
    %369 = "tosa.const"() <{value = dense_resource<__elided__> : tensor<512xf32>}> : () -> tensor<512xf32>
    %370 = "tosa.const"() <{value = dense_resource<__elided__> : tensor<512x128xf32>}> : () -> tensor<512x128xf32>
    %371 = "tosa.const"() <{value = dense_resource<__elided__> : tensor<128xf32>}> : () -> tensor<128xf32>
    %372 = "tosa.const"() <{value = dense_resource<__elided__> : tensor<128x512xf32>}> : () -> tensor<128x512xf32>
    %373 = "tosa.const"() <{value = dense_resource<__elided__> : tensor<512xf32>}> : () -> tensor<512xf32>
    %374 = "tosa.const"() <{value = dense_resource<__elided__> : tensor<512x128xf32>}> : () -> tensor<512x128xf32>
    %375 = "tosa.const"() <{value = dense_resource<__elided__> : tensor<128xf32>}> : () -> tensor<128xf32>
    %376 = "tosa.const"() <{value = dense_resource<__elided__> : tensor<128x512xf32>}> : () -> tensor<128x512xf32>
    %377 = "tosa.const"() <{value = dense_resource<__elided__> : tensor<512xf32>}> : () -> tensor<512xf32>
    %378 = "tosa.const"() <{value = dense_resource<__elided__> : tensor<512x128xf32>}> : () -> tensor<512x128xf32>
    %379 = "tosa.const"() <{value = dense_resource<__elided__> : tensor<128xf32>}> : () -> tensor<128xf32>
    %380 = "tosa.const"() <{value = dense_resource<__elided__> : tensor<128x512xf32>}> : () -> tensor<128x512xf32>
    %381 = "tosa.const"() <{value = dense_resource<__elided__> : tensor<512xf32>}> : () -> tensor<512xf32>
    %382 = "tosa.const"() <{value = dense_resource<__elided__> : tensor<512x128xf32>}> : () -> tensor<512x128xf32>
    %383 = "tosa.const"() <{value = dense_resource<__elided__> : tensor<128xf32>}> : () -> tensor<128xf32>
    %384 = "tosa.const"() <{value = dense_resource<__elided__> : tensor<128x128xf32>}> : () -> tensor<128x128xf32>
    %385 = "tosa.const"() <{value = dense_resource<__elided__> : tensor<128xf32>}> : () -> tensor<128xf32>
    %386 = "tosa.const"() <{value = dense_resource<__elided__> : tensor<128x128xf32>}> : () -> tensor<128x128xf32>
    %387 = "tosa.const"() <{value = dense_resource<__elided__> : tensor<128xf32>}> : () -> tensor<128xf32>
    %388 = "tosa.const"() <{value = dense_resource<__elided__> : tensor<128x128xf32>}> : () -> tensor<128x128xf32>
    %389 = "tosa.const"() <{value = dense_resource<__elided__> : tensor<128xf32>}> : () -> tensor<128xf32>
    %390 = "tosa.const"() <{value = dense_resource<__elided__> : tensor<128x128xf32>}> : () -> tensor<128x128xf32>
    %391 = "tosa.const"() <{value = dense_resource<__elided__> : tensor<128xf32>}> : () -> tensor<128xf32>
    %392 = "tosa.const"() <{value = dense_resource<__elided__> : tensor<128x512xf32>}> : () -> tensor<128x512xf32>
    %393 = "tosa.const"() <{value = dense_resource<__elided__> : tensor<128xf32>}> : () -> tensor<128xf32>
    %394 = "tosa.const"() <{value = dense_resource<__elided__> : tensor<128x512xf32>}> : () -> tensor<128x512xf32>
    %395 = "tosa.const"() <{value = dense_resource<__elided__> : tensor<128xf32>}> : () -> tensor<128xf32>
    %396 = "tosa.const"() <{value = dense_resource<__elided__> : tensor<128x512xf32>}> : () -> tensor<128x512xf32>
    %397 = "tosa.const"() <{value = dense_resource<__elided__> : tensor<512xf32>}> : () -> tensor<512xf32>
    %398 = "tosa.const"() <{value = dense_resource<__elided__> : tensor<512x128xf32>}> : () -> tensor<512x128xf32>
    %399 = "tosa.const"() <{value = dense_resource<__elided__> : tensor<128xf32>}> : () -> tensor<128xf32>
    %400 = "tosa.const"() <{value = dense_resource<__elided__> : tensor<128x512xf32>}> : () -> tensor<128x512xf32>
    %401 = "tosa.const"() <{value = dense_resource<__elided__> : tensor<512xf32>}> : () -> tensor<512xf32>
    %402 = "tosa.const"() <{value = dense_resource<__elided__> : tensor<512x128xf32>}> : () -> tensor<512x128xf32>
    %403 = "tosa.const"() <{value = dense_resource<__elided__> : tensor<128xf32>}> : () -> tensor<128xf32>
    %404 = "tosa.const"() <{value = dense_resource<__elided__> : tensor<128x512xf32>}> : () -> tensor<128x512xf32>
    %405 = "tosa.const"() <{value = dense_resource<__elided__> : tensor<512xf32>}> : () -> tensor<512xf32>
    %406 = "tosa.const"() <{value = dense_resource<__elided__> : tensor<512x128xf32>}> : () -> tensor<512x128xf32>
    %407 = "tosa.const"() <{value = dense_resource<__elided__> : tensor<128xf32>}> : () -> tensor<128xf32>
    %408 = "tosa.const"() <{value = dense_resource<__elided__> : tensor<128x512xf32>}> : () -> tensor<128x512xf32>
    %409 = "tosa.const"() <{value = dense_resource<__elided__> : tensor<512xf32>}> : () -> tensor<512xf32>
    %410 = "tosa.const"() <{value = dense_resource<__elided__> : tensor<512x128xf32>}> : () -> tensor<512x128xf32>
    %411 = "tosa.const"() <{value = dense_resource<__elided__> : tensor<128xf32>}> : () -> tensor<128xf32>
    %412 = "tosa.const"() <{value = dense_resource<__elided__> : tensor<128x512xf32>}> : () -> tensor<128x512xf32>
    %413 = "tosa.const"() <{value = dense_resource<__elided__> : tensor<512xf32>}> : () -> tensor<512xf32>
    %414 = "tosa.const"() <{value = dense_resource<__elided__> : tensor<512x128xf32>}> : () -> tensor<512x128xf32>
    %415 = "tosa.const"() <{value = dense_resource<__elided__> : tensor<128xf32>}> : () -> tensor<128xf32>
    %416 = "tosa.const"() <{value = dense_resource<__elided__> : tensor<128x128xf32>}> : () -> tensor<128x128xf32>
    %417 = "tosa.const"() <{value = dense_resource<__elided__> : tensor<128xf32>}> : () -> tensor<128xf32>
    %418 = "tosa.const"() <{value = dense_resource<__elided__> : tensor<128x128xf32>}> : () -> tensor<128x128xf32>
    %419 = "tosa.const"() <{value = dense_resource<__elided__> : tensor<128xf32>}> : () -> tensor<128xf32>
    %420 = "tosa.const"() <{value = dense_resource<__elided__> : tensor<128x128xf32>}> : () -> tensor<128x128xf32>
    %421 = "tosa.const"() <{value = dense_resource<__elided__> : tensor<128xf32>}> : () -> tensor<128xf32>
    %422 = "tosa.const"() <{value = dense_resource<__elided__> : tensor<128x128xf32>}> : () -> tensor<128x128xf32>
    %423 = "tosa.const"() <{value = dense_resource<__elided__> : tensor<128xf32>}> : () -> tensor<128xf32>
    %424 = "tosa.const"() <{value = dense_resource<__elided__> : tensor<128x512xf32>}> : () -> tensor<128x512xf32>
    %425 = "tosa.const"() <{value = dense_resource<__elided__> : tensor<128xf32>}> : () -> tensor<128xf32>
    %426 = "tosa.const"() <{value = dense_resource<__elided__> : tensor<128x512xf32>}> : () -> tensor<128x512xf32>
    %427 = "tosa.const"() <{value = dense_resource<__elided__> : tensor<128xf32>}> : () -> tensor<128xf32>
    %428 = "tosa.const"() <{value = dense_resource<__elided__> : tensor<128x512xf32>}> : () -> tensor<128x512xf32>
    %429 = "tosa.const"() <{value = dense_resource<__elided__> : tensor<512xf32>}> : () -> tensor<512xf32>
    %430 = "tosa.const"() <{value = dense_resource<__elided__> : tensor<512x128xf32>}> : () -> tensor<512x128xf32>
    %431 = "tosa.const"() <{value = dense_resource<__elided__> : tensor<128xf32>}> : () -> tensor<128xf32>
    %432 = "tosa.const"() <{value = dense_resource<__elided__> : tensor<128x512xf32>}> : () -> tensor<128x512xf32>
    %433 = "tosa.const"() <{value = dense_resource<__elided__> : tensor<512xf32>}> : () -> tensor<512xf32>
    %434 = "tosa.const"() <{value = dense_resource<__elided__> : tensor<512x128xf32>}> : () -> tensor<512x128xf32>
    %435 = "tosa.const"() <{value = dense_resource<__elided__> : tensor<128xf32>}> : () -> tensor<128xf32>
    %436 = "tosa.const"() <{value = dense_resource<__elided__> : tensor<128x512xf32>}> : () -> tensor<128x512xf32>
    %437 = "tosa.const"() <{value = dense_resource<__elided__> : tensor<512xf32>}> : () -> tensor<512xf32>
    %438 = "tosa.const"() <{value = dense_resource<__elided__> : tensor<512x128xf32>}> : () -> tensor<512x128xf32>
    %439 = "tosa.const"() <{value = dense_resource<__elided__> : tensor<128xf32>}> : () -> tensor<128xf32>
    %440 = "tosa.const"() <{value = dense_resource<__elided__> : tensor<128x512xf32>}> : () -> tensor<128x512xf32>
    %441 = "tosa.const"() <{value = dense_resource<__elided__> : tensor<512xf32>}> : () -> tensor<512xf32>
    %442 = "tosa.const"() <{value = dense_resource<__elided__> : tensor<512x128xf32>}> : () -> tensor<512x128xf32>
    %443 = "tosa.const"() <{value = dense_resource<__elided__> : tensor<128xf32>}> : () -> tensor<128xf32>
    %444 = "tosa.const"() <{value = dense_resource<__elided__> : tensor<128x512xf32>}> : () -> tensor<128x512xf32>
    %445 = "tosa.const"() <{value = dense_resource<__elided__> : tensor<512xf32>}> : () -> tensor<512xf32>
    %446 = "tosa.const"() <{value = dense_resource<__elided__> : tensor<512x128xf32>}> : () -> tensor<512x128xf32>
    %447 = "tosa.const"() <{value = dense_resource<__elided__> : tensor<128xf32>}> : () -> tensor<128xf32>
    %448 = "tosa.const"() <{value = dense_resource<__elided__> : tensor<128x128xf32>}> : () -> tensor<128x128xf32>
    %449 = "tosa.const"() <{value = dense_resource<__elided__> : tensor<128xf32>}> : () -> tensor<128xf32>
    %450 = "tosa.const"() <{value = dense_resource<__elided__> : tensor<128x128xf32>}> : () -> tensor<128x128xf32>
    %451 = "tosa.const"() <{value = dense_resource<__elided__> : tensor<128xf32>}> : () -> tensor<128xf32>
    %452 = "tosa.const"() <{value = dense_resource<__elided__> : tensor<128x128xf32>}> : () -> tensor<128x128xf32>
    %453 = "tosa.const"() <{value = dense_resource<__elided__> : tensor<128xf32>}> : () -> tensor<128xf32>
    %454 = "tosa.const"() <{value = dense_resource<__elided__> : tensor<128x128xf32>}> : () -> tensor<128x128xf32>
    %455 = "tosa.const"() <{value = dense_resource<__elided__> : tensor<128xf32>}> : () -> tensor<128xf32>
    %456 = "tosa.const"() <{value = dense_resource<__elided__> : tensor<128x512xf32>}> : () -> tensor<128x512xf32>
    %457 = "tosa.const"() <{value = dense_resource<__elided__> : tensor<128xf32>}> : () -> tensor<128xf32>
    %458 = "tosa.const"() <{value = dense_resource<__elided__> : tensor<128x512xf32>}> : () -> tensor<128x512xf32>
    %459 = "tosa.const"() <{value = dense_resource<__elided__> : tensor<128xf32>}> : () -> tensor<128xf32>
    %460 = "tosa.const"() <{value = dense_resource<__elided__> : tensor<128x512xf32>}> : () -> tensor<128x512xf32>
    %461 = "tosa.const"() <{value = dense_resource<__elided__> : tensor<512xf32>}> : () -> tensor<512xf32>
    %462 = "tosa.const"() <{value = dense_resource<__elided__> : tensor<512x128xf32>}> : () -> tensor<512x128xf32>
    %463 = "tosa.const"() <{value = dense_resource<__elided__> : tensor<128xf32>}> : () -> tensor<128xf32>
    %464 = "tosa.const"() <{value = dense_resource<__elided__> : tensor<128x512xf32>}> : () -> tensor<128x512xf32>
    %465 = "tosa.const"() <{value = dense_resource<__elided__> : tensor<512xf32>}> : () -> tensor<512xf32>
    %466 = "tosa.const"() <{value = dense_resource<__elided__> : tensor<512x128xf32>}> : () -> tensor<512x128xf32>
    %467 = "tosa.const"() <{value = dense_resource<__elided__> : tensor<128xf32>}> : () -> tensor<128xf32>
    %468 = "tosa.const"() <{value = dense_resource<__elided__> : tensor<128x512xf32>}> : () -> tensor<128x512xf32>
    %469 = "tosa.const"() <{value = dense_resource<__elided__> : tensor<512xf32>}> : () -> tensor<512xf32>
    %470 = "tosa.const"() <{value = dense_resource<__elided__> : tensor<512x128xf32>}> : () -> tensor<512x128xf32>
    %471 = "tosa.const"() <{value = dense_resource<__elided__> : tensor<128xf32>}> : () -> tensor<128xf32>
    %472 = "tosa.const"() <{value = dense_resource<__elided__> : tensor<128x512xf32>}> : () -> tensor<128x512xf32>
    %473 = "tosa.const"() <{value = dense_resource<__elided__> : tensor<512xf32>}> : () -> tensor<512xf32>
    %474 = "tosa.const"() <{value = dense_resource<__elided__> : tensor<512x128xf32>}> : () -> tensor<512x128xf32>
    %475 = "tosa.const"() <{value = dense_resource<__elided__> : tensor<128xf32>}> : () -> tensor<128xf32>
    %476 = "tosa.const"() <{value = dense_resource<__elided__> : tensor<128x512xf32>}> : () -> tensor<128x512xf32>
    %477 = "tosa.const"() <{value = dense_resource<__elided__> : tensor<512xf32>}> : () -> tensor<512xf32>
    %478 = "tosa.const"() <{value = dense_resource<__elided__> : tensor<512x128xf32>}> : () -> tensor<512x128xf32>
    %479 = "tosa.const"() <{value = dense_resource<__elided__> : tensor<128xf32>}> : () -> tensor<128xf32>
    %480 = "tosa.const"() <{value = dense_resource<__elided__> : tensor<128x128xf32>}> : () -> tensor<128x128xf32>
    %481 = "tosa.const"() <{value = dense_resource<__elided__> : tensor<128xf32>}> : () -> tensor<128xf32>
    %482 = "tosa.const"() <{value = dense_resource<__elided__> : tensor<128x128xf32>}> : () -> tensor<128x128xf32>
    %483 = "tosa.const"() <{value = dense_resource<__elided__> : tensor<128xf32>}> : () -> tensor<128xf32>
    %484 = "tosa.const"() <{value = dense_resource<__elided__> : tensor<128x128xf32>}> : () -> tensor<128x128xf32>
    %485 = "tosa.const"() <{value = dense_resource<__elided__> : tensor<128xf32>}> : () -> tensor<128xf32>
    %486 = "tosa.const"() <{value = dense_resource<__elided__> : tensor<128x128xf32>}> : () -> tensor<128x128xf32>
    %487 = "tosa.const"() <{value = dense_resource<__elided__> : tensor<128xf32>}> : () -> tensor<128xf32>
    %488 = "tosa.const"() <{value = dense_resource<__elided__> : tensor<128x512xf32>}> : () -> tensor<128x512xf32>
    %489 = "tosa.const"() <{value = dense_resource<__elided__> : tensor<128xf32>}> : () -> tensor<128xf32>
    %490 = "tosa.const"() <{value = dense_resource<__elided__> : tensor<128x512xf32>}> : () -> tensor<128x512xf32>
    %491 = "tosa.const"() <{value = dense_resource<__elided__> : tensor<128xf32>}> : () -> tensor<128xf32>
    %492 = "tosa.const"() <{value = dense_resource<__elided__> : tensor<128x512xf32>}> : () -> tensor<128x512xf32>
    %493 = "tosa.const"() <{value = dense_resource<__elided__> : tensor<512xf32>}> : () -> tensor<512xf32>
    %494 = "tosa.const"() <{value = dense_resource<__elided__> : tensor<512x128xf32>}> : () -> tensor<512x128xf32>
    %495 = "tosa.const"() <{value = dense_resource<__elided__> : tensor<128xf32>}> : () -> tensor<128xf32>
    %496 = "tosa.const"() <{value = dense_resource<__elided__> : tensor<128x512xf32>}> : () -> tensor<128x512xf32>
    %497 = "tosa.const"() <{value = dense_resource<__elided__> : tensor<512xf32>}> : () -> tensor<512xf32>
    %498 = "tosa.const"() <{value = dense_resource<__elided__> : tensor<512x128xf32>}> : () -> tensor<512x128xf32>
    %499 = "tosa.const"() <{value = dense_resource<__elided__> : tensor<128xf32>}> : () -> tensor<128xf32>
    %500 = "tosa.const"() <{value = dense_resource<__elided__> : tensor<128x512xf32>}> : () -> tensor<128x512xf32>
    %501 = "tosa.const"() <{value = dense_resource<__elided__> : tensor<512xf32>}> : () -> tensor<512xf32>
    %502 = "tosa.const"() <{value = dense_resource<__elided__> : tensor<512x128xf32>}> : () -> tensor<512x128xf32>
    %503 = "tosa.const"() <{value = dense_resource<__elided__> : tensor<128xf32>}> : () -> tensor<128xf32>
    %504 = "tosa.const"() <{value = dense_resource<__elided__> : tensor<128x512xf32>}> : () -> tensor<128x512xf32>
    %505 = "tosa.const"() <{value = dense_resource<__elided__> : tensor<512xf32>}> : () -> tensor<512xf32>
    %506 = "tosa.const"() <{value = dense_resource<__elided__> : tensor<512x128xf32>}> : () -> tensor<512x128xf32>
    %507 = "tosa.const"() <{value = dense_resource<__elided__> : tensor<128xf32>}> : () -> tensor<128xf32>
    %508 = "tosa.const"() <{value = dense_resource<__elided__> : tensor<128x512xf32>}> : () -> tensor<128x512xf32>
    %509 = "tosa.const"() <{value = dense_resource<__elided__> : tensor<512xf32>}> : () -> tensor<512xf32>
    %510 = "tosa.const"() <{value = dense_resource<__elided__> : tensor<512x128xf32>}> : () -> tensor<512x128xf32>
    %511 = "tosa.const"() <{value = dense_resource<__elided__> : tensor<128xf32>}> : () -> tensor<128xf32>
    %512 = "tosa.const"() <{value = dense_resource<__elided__> : tensor<128x128xf32>}> : () -> tensor<128x128xf32>
    %513 = "tosa.const"() <{value = dense_resource<__elided__> : tensor<128xf32>}> : () -> tensor<128xf32>
    %514 = "tosa.const"() <{value = dense_resource<__elided__> : tensor<128x128xf32>}> : () -> tensor<128x128xf32>
    %515 = "tosa.const"() <{value = dense_resource<__elided__> : tensor<128xf32>}> : () -> tensor<128xf32>
    %516 = "tosa.const"() <{value = dense_resource<__elided__> : tensor<128x128xf32>}> : () -> tensor<128x128xf32>
    %517 = "tosa.const"() <{value = dense_resource<__elided__> : tensor<128xf32>}> : () -> tensor<128xf32>
    %518 = "tosa.const"() <{value = dense_resource<__elided__> : tensor<128x128xf32>}> : () -> tensor<128x128xf32>
    %519 = "tosa.const"() <{value = dense_resource<__elided__> : tensor<128xf32>}> : () -> tensor<128xf32>
    %520 = "tosa.const"() <{value = dense_resource<__elided__> : tensor<128x512xf32>}> : () -> tensor<128x512xf32>
    %521 = "tosa.const"() <{value = dense_resource<__elided__> : tensor<128xf32>}> : () -> tensor<128xf32>
    %522 = "tosa.const"() <{value = dense_resource<__elided__> : tensor<128x512xf32>}> : () -> tensor<128x512xf32>
    %523 = "tosa.const"() <{value = dense_resource<__elided__> : tensor<128xf32>}> : () -> tensor<128xf32>
    %524 = "tosa.const"() <{value = dense_resource<__elided__> : tensor<128x512xf32>}> : () -> tensor<128x512xf32>
    %525 = "tosa.const"() <{value = dense_resource<__elided__> : tensor<512xf32>}> : () -> tensor<512xf32>
    %526 = "tosa.const"() <{value = dense_resource<__elided__> : tensor<512x128xf32>}> : () -> tensor<512x128xf32>
    %527 = "tosa.const"() <{value = dense_resource<__elided__> : tensor<128xf32>}> : () -> tensor<128xf32>
    %528 = "tosa.const"() <{value = dense_resource<__elided__> : tensor<128x512xf32>}> : () -> tensor<128x512xf32>
    %529 = "tosa.const"() <{value = dense_resource<__elided__> : tensor<512xf32>}> : () -> tensor<512xf32>
    %530 = "tosa.const"() <{value = dense_resource<__elided__> : tensor<512x128xf32>}> : () -> tensor<512x128xf32>
    %531 = "tosa.const"() <{value = dense_resource<__elided__> : tensor<128xf32>}> : () -> tensor<128xf32>
    %532 = "tosa.const"() <{value = dense_resource<__elided__> : tensor<128x512xf32>}> : () -> tensor<128x512xf32>
    %533 = "tosa.const"() <{value = dense_resource<__elided__> : tensor<512xf32>}> : () -> tensor<512xf32>
    %534 = "tosa.const"() <{value = dense_resource<__elided__> : tensor<512x128xf32>}> : () -> tensor<512x128xf32>
    %535 = "tosa.const"() <{value = dense_resource<__elided__> : tensor<128xf32>}> : () -> tensor<128xf32>
    %536 = "tosa.const"() <{value = dense_resource<__elided__> : tensor<128x512xf32>}> : () -> tensor<128x512xf32>
    %537 = "tosa.const"() <{value = dense_resource<__elided__> : tensor<512xf32>}> : () -> tensor<512xf32>
    %538 = "tosa.const"() <{value = dense_resource<__elided__> : tensor<512x128xf32>}> : () -> tensor<512x128xf32>
    %539 = "tosa.const"() <{value = dense_resource<__elided__> : tensor<128xf32>}> : () -> tensor<128xf32>
    %540 = "tosa.const"() <{value = dense_resource<__elided__> : tensor<128x512xf32>}> : () -> tensor<128x512xf32>
    %541 = "tosa.const"() <{value = dense_resource<__elided__> : tensor<512xf32>}> : () -> tensor<512xf32>
    %542 = "tosa.const"() <{value = dense_resource<__elided__> : tensor<512x128xf32>}> : () -> tensor<512x128xf32>
    %543 = "tosa.const"() <{value = dense_resource<__elided__> : tensor<128xf32>}> : () -> tensor<128xf32>
    %544 = "tosa.const"() <{value = dense_resource<__elided__> : tensor<128x128xf32>}> : () -> tensor<128x128xf32>
    %545 = "tosa.const"() <{value = dense_resource<__elided__> : tensor<128xf32>}> : () -> tensor<128xf32>
    %546 = "tosa.const"() <{value = dense_resource<__elided__> : tensor<128x128xf32>}> : () -> tensor<128x128xf32>
    %547 = "tosa.const"() <{value = dense_resource<__elided__> : tensor<128xf32>}> : () -> tensor<128xf32>
    %548 = "tosa.const"() <{value = dense_resource<__elided__> : tensor<128x128xf32>}> : () -> tensor<128x128xf32>
    %549 = "tosa.const"() <{value = dense_resource<__elided__> : tensor<128xf32>}> : () -> tensor<128xf32>
    %550 = "tosa.const"() <{value = dense_resource<__elided__> : tensor<128x128xf32>}> : () -> tensor<128x128xf32>
    %551 = "tosa.const"() <{value = dense_resource<__elided__> : tensor<128xf32>}> : () -> tensor<128xf32>
    %552 = "tosa.const"() <{value = dense_resource<__elided__> : tensor<128x512xf32>}> : () -> tensor<128x512xf32>
    %553 = "tosa.const"() <{value = dense_resource<__elided__> : tensor<128xf32>}> : () -> tensor<128xf32>
    %554 = "tosa.const"() <{value = dense_resource<__elided__> : tensor<128x512xf32>}> : () -> tensor<128x512xf32>
    %555 = "tosa.const"() <{value = dense_resource<__elided__> : tensor<128xf32>}> : () -> tensor<128xf32>
    %556 = "tosa.const"() <{value = dense_resource<__elided__> : tensor<128x512xf32>}> : () -> tensor<128x512xf32>
    %557 = "tosa.const"() <{value = dense_resource<__elided__> : tensor<512xf32>}> : () -> tensor<512xf32>
    %558 = "tosa.const"() <{value = dense_resource<__elided__> : tensor<512x128xf32>}> : () -> tensor<512x128xf32>
    %559 = "tosa.const"() <{value = dense_resource<__elided__> : tensor<128xf32>}> : () -> tensor<128xf32>
    %560 = "tosa.const"() <{value = dense_resource<__elided__> : tensor<128x512xf32>}> : () -> tensor<128x512xf32>
    %561 = "tosa.const"() <{value = dense_resource<__elided__> : tensor<512xf32>}> : () -> tensor<512xf32>
    %562 = "tosa.const"() <{value = dense_resource<__elided__> : tensor<512x128xf32>}> : () -> tensor<512x128xf32>
    %563 = "tosa.const"() <{value = dense_resource<__elided__> : tensor<128xf32>}> : () -> tensor<128xf32>
    %564 = "tosa.const"() <{value = dense_resource<__elided__> : tensor<128x512xf32>}> : () -> tensor<128x512xf32>
    %565 = "tosa.const"() <{value = dense_resource<__elided__> : tensor<512xf32>}> : () -> tensor<512xf32>
    %566 = "tosa.const"() <{value = dense_resource<__elided__> : tensor<512x128xf32>}> : () -> tensor<512x128xf32>
    %567 = "tosa.const"() <{value = dense_resource<__elided__> : tensor<128xf32>}> : () -> tensor<128xf32>
    %568 = "tosa.const"() <{value = dense_resource<__elided__> : tensor<128x512xf32>}> : () -> tensor<128x512xf32>
    %569 = "tosa.const"() <{value = dense_resource<__elided__> : tensor<512xf32>}> : () -> tensor<512xf32>
    %570 = "tosa.const"() <{value = dense_resource<__elided__> : tensor<512x128xf32>}> : () -> tensor<512x128xf32>
    %571 = "tosa.const"() <{value = dense_resource<__elided__> : tensor<128xf32>}> : () -> tensor<128xf32>
    %572 = "tosa.const"() <{value = dense_resource<__elided__> : tensor<128x512xf32>}> : () -> tensor<128x512xf32>
    %573 = "tosa.const"() <{value = dense_resource<__elided__> : tensor<512xf32>}> : () -> tensor<512xf32>
    %574 = "tosa.const"() <{value = dense_resource<__elided__> : tensor<512x128xf32>}> : () -> tensor<512x128xf32>
    %575 = "tosa.const"() <{value = dense_resource<__elided__> : tensor<128xf32>}> : () -> tensor<128xf32>
    %576 = "tosa.const"() <{value = dense_resource<__elided__> : tensor<128x128xf32>}> : () -> tensor<128x128xf32>
    %577 = "tosa.const"() <{value = dense_resource<__elided__> : tensor<128xf32>}> : () -> tensor<128xf32>
    %578 = "tosa.const"() <{value = dense_resource<__elided__> : tensor<128x128xf32>}> : () -> tensor<128x128xf32>
    %579 = "tosa.const"() <{value = dense_resource<__elided__> : tensor<128xf32>}> : () -> tensor<128xf32>
    %580 = "tosa.const"() <{value = dense_resource<__elided__> : tensor<128x128xf32>}> : () -> tensor<128x128xf32>
    %581 = "tosa.const"() <{value = dense_resource<__elided__> : tensor<128xf32>}> : () -> tensor<128xf32>
    %582 = "tosa.const"() <{value = dense_resource<__elided__> : tensor<128x128xf32>}> : () -> tensor<128x128xf32>
    %583 = "tosa.const"() <{value = dense_resource<__elided__> : tensor<128xf32>}> : () -> tensor<128xf32>
    %584 = "tosa.const"() <{value = dense_resource<__elided__> : tensor<128x512xf32>}> : () -> tensor<128x512xf32>
    %585 = "tosa.const"() <{value = dense_resource<__elided__> : tensor<128xf32>}> : () -> tensor<128xf32>
    %586 = "tosa.const"() <{value = dense_resource<__elided__> : tensor<128x512xf32>}> : () -> tensor<128x512xf32>
    %587 = "tosa.const"() <{value = dense_resource<__elided__> : tensor<128xf32>}> : () -> tensor<128xf32>
    %588 = "tosa.const"() <{value = dense_resource<__elided__> : tensor<128x512xf32>}> : () -> tensor<128x512xf32>
    %589 = "tosa.const"() <{value = dense_resource<__elided__> : tensor<512xf32>}> : () -> tensor<512xf32>
    %590 = "tosa.const"() <{value = dense_resource<__elided__> : tensor<512x128xf32>}> : () -> tensor<512x128xf32>
    %591 = "tosa.const"() <{value = dense_resource<__elided__> : tensor<128xf32>}> : () -> tensor<128xf32>
    %592 = "tosa.const"() <{value = dense_resource<__elided__> : tensor<128x512xf32>}> : () -> tensor<128x512xf32>
    %593 = "tosa.const"() <{value = dense_resource<__elided__> : tensor<512xf32>}> : () -> tensor<512xf32>
    %594 = "tosa.const"() <{value = dense_resource<__elided__> : tensor<512x128xf32>}> : () -> tensor<512x128xf32>
    %595 = "tosa.const"() <{value = dense_resource<__elided__> : tensor<128xf32>}> : () -> tensor<128xf32>
    %596 = "tosa.const"() <{value = dense_resource<__elided__> : tensor<128x512xf32>}> : () -> tensor<128x512xf32>
    %597 = "tosa.const"() <{value = dense_resource<__elided__> : tensor<512xf32>}> : () -> tensor<512xf32>
    %598 = "tosa.const"() <{value = dense_resource<__elided__> : tensor<512x128xf32>}> : () -> tensor<512x128xf32>
    %599 = "tosa.const"() <{value = dense_resource<__elided__> : tensor<128xf32>}> : () -> tensor<128xf32>
    %600 = "tosa.const"() <{value = dense_resource<__elided__> : tensor<128x512xf32>}> : () -> tensor<128x512xf32>
    %601 = "tosa.const"() <{value = dense_resource<__elided__> : tensor<512xf32>}> : () -> tensor<512xf32>
    %602 = "tosa.const"() <{value = dense_resource<__elided__> : tensor<512x128xf32>}> : () -> tensor<512x128xf32>
    %603 = "tosa.const"() <{value = dense_resource<__elided__> : tensor<128xf32>}> : () -> tensor<128xf32>
    %604 = "tosa.const"() <{value = dense_resource<__elided__> : tensor<128x512xf32>}> : () -> tensor<128x512xf32>
    %605 = "tosa.const"() <{value = dense_resource<__elided__> : tensor<512xf32>}> : () -> tensor<512xf32>
    %606 = "tosa.const"() <{value = dense_resource<__elided__> : tensor<512x128xf32>}> : () -> tensor<512x128xf32>
    %607 = "tosa.const"() <{value = dense_resource<__elided__> : tensor<128xf32>}> : () -> tensor<128xf32>
    %608 = "tosa.const"() <{value = dense_resource<__elided__> : tensor<128x128xf32>}> : () -> tensor<128x128xf32>
    %609 = "tosa.const"() <{value = dense_resource<__elided__> : tensor<128xf32>}> : () -> tensor<128xf32>
    %610 = "tosa.const"() <{value = dense_resource<__elided__> : tensor<128x128xf32>}> : () -> tensor<128x128xf32>
    %611 = "tosa.const"() <{value = dense_resource<__elided__> : tensor<128xf32>}> : () -> tensor<128xf32>
    %612 = "tosa.const"() <{value = dense_resource<__elided__> : tensor<128x128xf32>}> : () -> tensor<128x128xf32>
    %613 = "tosa.const"() <{value = dense_resource<__elided__> : tensor<128xf32>}> : () -> tensor<128xf32>
    %614 = "tosa.const"() <{value = dense_resource<__elided__> : tensor<128x128xf32>}> : () -> tensor<128x128xf32>
    %615 = "tosa.const"() <{value = dense_resource<__elided__> : tensor<128xf32>}> : () -> tensor<128xf32>
    %616 = "tosa.const"() <{value = dense_resource<__elided__> : tensor<128x512xf32>}> : () -> tensor<128x512xf32>
    %617 = "tosa.const"() <{value = dense_resource<__elided__> : tensor<128xf32>}> : () -> tensor<128xf32>
    %618 = "tosa.const"() <{value = dense_resource<__elided__> : tensor<128x512xf32>}> : () -> tensor<128x512xf32>
    %619 = "tosa.const"() <{value = dense_resource<__elided__> : tensor<128xf32>}> : () -> tensor<128xf32>
    %620 = "tosa.const"() <{value = dense_resource<__elided__> : tensor<128x512xf32>}> : () -> tensor<128x512xf32>
    %621 = "tosa.const"() <{value = dense_resource<__elided__> : tensor<512xf32>}> : () -> tensor<512xf32>
    %622 = "tosa.const"() <{value = dense_resource<__elided__> : tensor<512x128xf32>}> : () -> tensor<512x128xf32>
    %623 = "tosa.const"() <{value = dense_resource<__elided__> : tensor<128xf32>}> : () -> tensor<128xf32>
    %624 = "tosa.const"() <{value = dense_resource<__elided__> : tensor<128x512xf32>}> : () -> tensor<128x512xf32>
    %625 = "tosa.const"() <{value = dense_resource<__elided__> : tensor<512xf32>}> : () -> tensor<512xf32>
    %626 = "tosa.const"() <{value = dense_resource<__elided__> : tensor<512x128xf32>}> : () -> tensor<512x128xf32>
    %627 = "tosa.const"() <{value = dense_resource<__elided__> : tensor<128xf32>}> : () -> tensor<128xf32>
    %628 = "tosa.const"() <{value = dense_resource<__elided__> : tensor<128x512xf32>}> : () -> tensor<128x512xf32>
    %629 = "tosa.const"() <{value = dense_resource<__elided__> : tensor<512xf32>}> : () -> tensor<512xf32>
    %630 = "tosa.const"() <{value = dense_resource<__elided__> : tensor<512x128xf32>}> : () -> tensor<512x128xf32>
    %631 = "tosa.const"() <{value = dense_resource<__elided__> : tensor<128xf32>}> : () -> tensor<128xf32>
    %632 = "tosa.const"() <{value = dense_resource<__elided__> : tensor<128x512xf32>}> : () -> tensor<128x512xf32>
    %633 = "tosa.const"() <{value = dense_resource<__elided__> : tensor<512xf32>}> : () -> tensor<512xf32>
    %634 = "tosa.const"() <{value = dense_resource<__elided__> : tensor<512x128xf32>}> : () -> tensor<512x128xf32>
    %635 = "tosa.const"() <{value = dense_resource<__elided__> : tensor<128xf32>}> : () -> tensor<128xf32>
    %636 = "tosa.const"() <{value = dense_resource<__elided__> : tensor<128x512xf32>}> : () -> tensor<128x512xf32>
    %637 = "tosa.const"() <{value = dense_resource<__elided__> : tensor<512xf32>}> : () -> tensor<512xf32>
    %638 = "tosa.const"() <{value = dense_resource<__elided__> : tensor<512x128xf32>}> : () -> tensor<512x128xf32>
    %639 = "tosa.const"() <{value = dense_resource<__elided__> : tensor<128xf32>}> : () -> tensor<128xf32>
    %640 = "tosa.const"() <{value = dense_resource<__elided__> : tensor<128x128xf32>}> : () -> tensor<128x128xf32>
    %641 = "tosa.const"() <{value = dense_resource<__elided__> : tensor<128xf32>}> : () -> tensor<128xf32>
    %642 = "tosa.const"() <{value = dense_resource<__elided__> : tensor<128x128xf32>}> : () -> tensor<128x128xf32>
    %643 = "tosa.const"() <{value = dense_resource<__elided__> : tensor<128xf32>}> : () -> tensor<128xf32>
    %644 = "tosa.const"() <{value = dense_resource<__elided__> : tensor<128x128xf32>}> : () -> tensor<128x128xf32>
    %645 = "tosa.const"() <{value = dense_resource<__elided__> : tensor<128xf32>}> : () -> tensor<128xf32>
    %646 = "tosa.const"() <{value = dense_resource<__elided__> : tensor<128x128xf32>}> : () -> tensor<128x128xf32>
    %647 = "tosa.const"() <{value = dense_resource<__elided__> : tensor<128xf32>}> : () -> tensor<128xf32>
    %648 = "tosa.const"() <{value = dense_resource<__elided__> : tensor<128x512xf32>}> : () -> tensor<128x512xf32>
    %649 = "tosa.const"() <{value = dense_resource<__elided__> : tensor<128xf32>}> : () -> tensor<128xf32>
    %650 = "tosa.const"() <{value = dense_resource<__elided__> : tensor<128x512xf32>}> : () -> tensor<128x512xf32>
    %651 = "tosa.const"() <{value = dense_resource<__elided__> : tensor<128xf32>}> : () -> tensor<128xf32>
    %652 = "tosa.const"() <{value = dense_resource<__elided__> : tensor<128x512xf32>}> : () -> tensor<128x512xf32>
    %653 = "tosa.const"() <{value = dense_resource<__elided__> : tensor<512xf32>}> : () -> tensor<512xf32>
    %654 = "tosa.const"() <{value = dense_resource<__elided__> : tensor<512x128xf32>}> : () -> tensor<512x128xf32>
    %655 = "tosa.const"() <{value = dense_resource<__elided__> : tensor<128xf32>}> : () -> tensor<128xf32>
    %656 = "tosa.const"() <{value = dense_resource<__elided__> : tensor<128x512xf32>}> : () -> tensor<128x512xf32>
    %657 = "tosa.const"() <{value = dense_resource<__elided__> : tensor<512xf32>}> : () -> tensor<512xf32>
    %658 = "tosa.const"() <{value = dense_resource<__elided__> : tensor<512x128xf32>}> : () -> tensor<512x128xf32>
    %659 = "tosa.const"() <{value = dense_resource<__elided__> : tensor<128xf32>}> : () -> tensor<128xf32>
    %660 = "tosa.const"() <{value = dense_resource<__elided__> : tensor<128x512xf32>}> : () -> tensor<128x512xf32>
    %661 = "tosa.const"() <{value = dense_resource<__elided__> : tensor<512xf32>}> : () -> tensor<512xf32>
    %662 = "tosa.const"() <{value = dense_resource<__elided__> : tensor<512x128xf32>}> : () -> tensor<512x128xf32>
    %663 = "tosa.const"() <{value = dense_resource<__elided__> : tensor<128xf32>}> : () -> tensor<128xf32>
    %664 = "tosa.const"() <{value = dense_resource<__elided__> : tensor<128x512xf32>}> : () -> tensor<128x512xf32>
    %665 = "tosa.const"() <{value = dense_resource<__elided__> : tensor<512xf32>}> : () -> tensor<512xf32>
    %666 = "tosa.const"() <{value = dense_resource<__elided__> : tensor<512x128xf32>}> : () -> tensor<512x128xf32>
    %667 = "tosa.const"() <{value = dense_resource<__elided__> : tensor<128xf32>}> : () -> tensor<128xf32>
    %668 = "tosa.const"() <{value = dense_resource<__elided__> : tensor<128x512xf32>}> : () -> tensor<128x512xf32>
    %669 = "tosa.const"() <{value = dense_resource<__elided__> : tensor<512xf32>}> : () -> tensor<512xf32>
    %670 = "tosa.const"() <{value = dense_resource<__elided__> : tensor<512x128xf32>}> : () -> tensor<512x128xf32>
    %671 = "tosa.const"() <{value = dense_resource<__elided__> : tensor<128xf32>}> : () -> tensor<128xf32>
    %672 = "tosa.const"() <{value = dense_resource<__elided__> : tensor<128x128xf32>}> : () -> tensor<128x128xf32>
    %673 = "tosa.const"() <{value = dense_resource<__elided__> : tensor<128xf32>}> : () -> tensor<128xf32>
    %674 = "tosa.const"() <{value = dense_resource<__elided__> : tensor<128x128xf32>}> : () -> tensor<128x128xf32>
    %675 = "tosa.const"() <{value = dense_resource<__elided__> : tensor<128xf32>}> : () -> tensor<128xf32>
    %676 = "tosa.const"() <{value = dense_resource<__elided__> : tensor<128x128xf32>}> : () -> tensor<128x128xf32>
    %677 = "tosa.const"() <{value = dense_resource<__elided__> : tensor<128xf32>}> : () -> tensor<128xf32>
    %678 = "tosa.const"() <{value = dense_resource<__elided__> : tensor<128x128xf32>}> : () -> tensor<128x128xf32>
    %679 = "tosa.const"() <{value = dense_resource<__elided__> : tensor<128xf32>}> : () -> tensor<128xf32>
    %680 = "tosa.const"() <{value = dense_resource<__elided__> : tensor<128x512xf32>}> : () -> tensor<128x512xf32>
    %681 = "tosa.const"() <{value = dense_resource<__elided__> : tensor<128xf32>}> : () -> tensor<128xf32>
    %682 = "tosa.const"() <{value = dense_resource<__elided__> : tensor<128x512xf32>}> : () -> tensor<128x512xf32>
    %683 = "tosa.const"() <{value = dense_resource<__elided__> : tensor<128xf32>}> : () -> tensor<128xf32>
    %684 = "tosa.const"() <{value = dense_resource<__elided__> : tensor<128x512xf32>}> : () -> tensor<128x512xf32>
    %685 = "tosa.const"() <{value = dense_resource<__elided__> : tensor<512xf32>}> : () -> tensor<512xf32>
    %686 = "tosa.const"() <{value = dense_resource<__elided__> : tensor<512x128xf32>}> : () -> tensor<512x128xf32>
    %687 = "tosa.const"() <{value = dense_resource<__elided__> : tensor<128xf32>}> : () -> tensor<128xf32>
    %688 = "tosa.const"() <{value = dense_resource<__elided__> : tensor<128x512xf32>}> : () -> tensor<128x512xf32>
    %689 = "tosa.const"() <{value = dense_resource<__elided__> : tensor<512xf32>}> : () -> tensor<512xf32>
    %690 = "tosa.const"() <{value = dense_resource<__elided__> : tensor<512x128xf32>}> : () -> tensor<512x128xf32>
    %691 = "tosa.const"() <{value = dense_resource<__elided__> : tensor<128xf32>}> : () -> tensor<128xf32>
    %692 = "tosa.const"() <{value = dense_resource<__elided__> : tensor<128x512xf32>}> : () -> tensor<128x512xf32>
    %693 = "tosa.const"() <{value = dense_resource<__elided__> : tensor<512xf32>}> : () -> tensor<512xf32>
    %694 = "tosa.const"() <{value = dense_resource<__elided__> : tensor<512x128xf32>}> : () -> tensor<512x128xf32>
    %695 = "tosa.const"() <{value = dense_resource<__elided__> : tensor<128xf32>}> : () -> tensor<128xf32>
    %696 = "tosa.const"() <{value = dense_resource<__elided__> : tensor<128x512xf32>}> : () -> tensor<128x512xf32>
    %697 = "tosa.const"() <{value = dense_resource<__elided__> : tensor<512xf32>}> : () -> tensor<512xf32>
    %698 = "tosa.const"() <{value = dense_resource<__elided__> : tensor<512x128xf32>}> : () -> tensor<512x128xf32>
    %699 = "tosa.const"() <{value = dense_resource<__elided__> : tensor<128xf32>}> : () -> tensor<128xf32>
    %700 = "tosa.const"() <{value = dense_resource<__elided__> : tensor<128x512xf32>}> : () -> tensor<128x512xf32>
    %701 = "tosa.const"() <{value = dense_resource<__elided__> : tensor<512xf32>}> : () -> tensor<512xf32>
    %702 = "tosa.const"() <{value = dense_resource<__elided__> : tensor<512x128xf32>}> : () -> tensor<512x128xf32>
    %703 = "tosa.const"() <{value = dense_resource<__elided__> : tensor<128xf32>}> : () -> tensor<128xf32>
    %704 = "tosa.const"() <{value = dense_resource<__elided__> : tensor<128x128xf32>}> : () -> tensor<128x128xf32>
    %705 = "tosa.const"() <{value = dense_resource<__elided__> : tensor<128xf32>}> : () -> tensor<128xf32>
    %706 = "tosa.const"() <{value = dense_resource<__elided__> : tensor<128x128xf32>}> : () -> tensor<128x128xf32>
    %707 = "tosa.const"() <{value = dense_resource<__elided__> : tensor<128xf32>}> : () -> tensor<128xf32>
    %708 = "tosa.const"() <{value = dense_resource<__elided__> : tensor<128x128xf32>}> : () -> tensor<128x128xf32>
    %709 = "tosa.const"() <{value = dense_resource<__elided__> : tensor<128xf32>}> : () -> tensor<128xf32>
    %710 = "tosa.const"() <{value = dense_resource<__elided__> : tensor<128x128xf32>}> : () -> tensor<128x128xf32>
    %711 = "tosa.const"() <{value = dense_resource<__elided__> : tensor<128xf32>}> : () -> tensor<128xf32>
    %712 = "tosa.const"() <{value = dense_resource<__elided__> : tensor<128x512xf32>}> : () -> tensor<128x512xf32>
    %713 = "tosa.const"() <{value = dense_resource<__elided__> : tensor<128xf32>}> : () -> tensor<128xf32>
    %714 = "tosa.const"() <{value = dense_resource<__elided__> : tensor<128x512xf32>}> : () -> tensor<128x512xf32>
    %715 = "tosa.const"() <{value = dense_resource<__elided__> : tensor<128xf32>}> : () -> tensor<128xf32>
    %716 = "tosa.const"() <{value = dense_resource<__elided__> : tensor<128x512xf32>}> : () -> tensor<128x512xf32>
    %717 = "tosa.const"() <{value = dense_resource<__elided__> : tensor<512xf32>}> : () -> tensor<512xf32>
    %718 = "tosa.const"() <{value = dense_resource<__elided__> : tensor<512x128xf32>}> : () -> tensor<512x128xf32>
    %719 = "tosa.const"() <{value = dense_resource<__elided__> : tensor<128xf32>}> : () -> tensor<128xf32>
    %720 = "tosa.const"() <{value = dense_resource<__elided__> : tensor<128x512xf32>}> : () -> tensor<128x512xf32>
    %721 = "tosa.const"() <{value = dense_resource<__elided__> : tensor<512xf32>}> : () -> tensor<512xf32>
    %722 = "tosa.const"() <{value = dense_resource<__elided__> : tensor<512x128xf32>}> : () -> tensor<512x128xf32>
    %723 = "tosa.const"() <{value = dense_resource<__elided__> : tensor<128xf32>}> : () -> tensor<128xf32>
    %724 = "tosa.const"() <{value = dense_resource<__elided__> : tensor<128x512xf32>}> : () -> tensor<128x512xf32>
    %725 = "tosa.const"() <{value = dense_resource<__elided__> : tensor<512xf32>}> : () -> tensor<512xf32>
    %726 = "tosa.const"() <{value = dense_resource<__elided__> : tensor<512x128xf32>}> : () -> tensor<512x128xf32>
    %727 = "tosa.const"() <{value = dense_resource<__elided__> : tensor<128xf32>}> : () -> tensor<128xf32>
    %728 = "tosa.const"() <{value = dense_resource<__elided__> : tensor<128x512xf32>}> : () -> tensor<128x512xf32>
    %729 = "tosa.const"() <{value = dense_resource<__elided__> : tensor<512xf32>}> : () -> tensor<512xf32>
    %730 = "tosa.const"() <{value = dense_resource<__elided__> : tensor<512x128xf32>}> : () -> tensor<512x128xf32>
    %731 = "tosa.const"() <{value = dense_resource<__elided__> : tensor<128xf32>}> : () -> tensor<128xf32>
    %732 = "tosa.const"() <{value = dense_resource<__elided__> : tensor<128x512xf32>}> : () -> tensor<128x512xf32>
    %733 = "tosa.const"() <{value = dense_resource<__elided__> : tensor<512xf32>}> : () -> tensor<512xf32>
    %734 = "tosa.const"() <{value = dense_resource<__elided__> : tensor<512x128xf32>}> : () -> tensor<512x128xf32>
    %735 = "tosa.const"() <{value = dense_resource<__elided__> : tensor<128xf32>}> : () -> tensor<128xf32>
    %736 = "tosa.const"() <{value = dense_resource<__elided__> : tensor<128x128xf32>}> : () -> tensor<128x128xf32>
    %737 = "tosa.const"() <{value = dense_resource<__elided__> : tensor<128xf32>}> : () -> tensor<128xf32>
    %738 = "tosa.const"() <{value = dense_resource<__elided__> : tensor<128x128xf32>}> : () -> tensor<128x128xf32>
    %739 = "tosa.const"() <{value = dense_resource<__elided__> : tensor<128xf32>}> : () -> tensor<128xf32>
    %740 = "tosa.const"() <{value = dense_resource<__elided__> : tensor<128x128xf32>}> : () -> tensor<128x128xf32>
    %741 = "tosa.const"() <{value = dense_resource<__elided__> : tensor<128xf32>}> : () -> tensor<128xf32>
    %742 = "tosa.const"() <{value = dense_resource<__elided__> : tensor<128x128xf32>}> : () -> tensor<128x128xf32>
    %743 = "tosa.const"() <{value = dense_resource<__elided__> : tensor<128xf32>}> : () -> tensor<128xf32>
    %744 = "tosa.const"() <{value = dense_resource<__elided__> : tensor<128x512xf32>}> : () -> tensor<128x512xf32>
    %745 = "tosa.const"() <{value = dense_resource<__elided__> : tensor<128xf32>}> : () -> tensor<128xf32>
    %746 = "tosa.const"() <{value = dense_resource<__elided__> : tensor<128x512xf32>}> : () -> tensor<128x512xf32>
    %747 = "tosa.const"() <{value = dense_resource<__elided__> : tensor<128xf32>}> : () -> tensor<128xf32>
    %748 = "tosa.const"() <{value = dense_resource<__elided__> : tensor<128x512xf32>}> : () -> tensor<128x512xf32>
    %749 = "tosa.const"() <{value = dense_resource<__elided__> : tensor<512xf32>}> : () -> tensor<512xf32>
    %750 = "tosa.const"() <{value = dense_resource<__elided__> : tensor<512x128xf32>}> : () -> tensor<512x128xf32>
    %751 = "tosa.const"() <{value = dense_resource<__elided__> : tensor<128xf32>}> : () -> tensor<128xf32>
    %752 = "tosa.const"() <{value = dense_resource<__elided__> : tensor<128x512xf32>}> : () -> tensor<128x512xf32>
    %753 = "tosa.const"() <{value = dense_resource<__elided__> : tensor<512xf32>}> : () -> tensor<512xf32>
    %754 = "tosa.const"() <{value = dense_resource<__elided__> : tensor<512x128xf32>}> : () -> tensor<512x128xf32>
    %755 = "tosa.const"() <{value = dense_resource<__elided__> : tensor<128xf32>}> : () -> tensor<128xf32>
    %756 = "tosa.const"() <{value = dense_resource<__elided__> : tensor<128x512xf32>}> : () -> tensor<128x512xf32>
    %757 = "tosa.const"() <{value = dense_resource<__elided__> : tensor<512xf32>}> : () -> tensor<512xf32>
    %758 = "tosa.const"() <{value = dense_resource<__elided__> : tensor<512x128xf32>}> : () -> tensor<512x128xf32>
    %759 = "tosa.const"() <{value = dense_resource<__elided__> : tensor<128xf32>}> : () -> tensor<128xf32>
    %760 = "tosa.const"() <{value = dense_resource<__elided__> : tensor<128x512xf32>}> : () -> tensor<128x512xf32>
    %761 = "tosa.const"() <{value = dense_resource<__elided__> : tensor<512xf32>}> : () -> tensor<512xf32>
    %762 = "tosa.const"() <{value = dense_resource<__elided__> : tensor<512x128xf32>}> : () -> tensor<512x128xf32>
    %763 = "tosa.const"() <{value = dense_resource<__elided__> : tensor<128xf32>}> : () -> tensor<128xf32>
    %764 = "tosa.const"() <{value = dense_resource<__elided__> : tensor<128x512xf32>}> : () -> tensor<128x512xf32>
    %765 = "tosa.const"() <{value = dense_resource<__elided__> : tensor<512xf32>}> : () -> tensor<512xf32>
    %766 = "tosa.const"() <{value = dense_resource<__elided__> : tensor<512x128xf32>}> : () -> tensor<512x128xf32>
    %767 = "tosa.const"() <{value = dense_resource<__elided__> : tensor<128xf32>}> : () -> tensor<128xf32>
    %768 = "tosa.const"() <{value = dense_resource<__elided__> : tensor<128x128xf32>}> : () -> tensor<128x128xf32>
    %769 = "tosa.const"() <{value = dense_resource<__elided__> : tensor<128xf32>}> : () -> tensor<128xf32>
    %770 = "tosa.const"() <{value = dense_resource<__elided__> : tensor<128x128xf32>}> : () -> tensor<128x128xf32>
    %771 = "tosa.const"() <{value = dense_resource<__elided__> : tensor<128xf32>}> : () -> tensor<128xf32>
    %772 = "tosa.const"() <{value = dense_resource<__elided__> : tensor<128x128xf32>}> : () -> tensor<128x128xf32>
    %773 = "tosa.const"() <{value = dense_resource<__elided__> : tensor<128xf32>}> : () -> tensor<128xf32>
    %774 = "tosa.const"() <{value = dense_resource<__elided__> : tensor<128x128xf32>}> : () -> tensor<128x128xf32>
    %775 = "tosa.const"() <{value = dense_resource<__elided__> : tensor<128xf32>}> : () -> tensor<128xf32>
    %776 = "tosa.const"() <{value = dense_resource<__elided__> : tensor<128x512xf32>}> : () -> tensor<128x512xf32>
    %777 = "tosa.const"() <{value = dense_resource<__elided__> : tensor<128xf32>}> : () -> tensor<128xf32>
    %778 = "tosa.const"() <{value = dense_resource<__elided__> : tensor<128x512xf32>}> : () -> tensor<128x512xf32>
    %779 = "tosa.const"() <{value = dense_resource<__elided__> : tensor<128xf32>}> : () -> tensor<128xf32>
    %780 = "tosa.const"() <{value = dense_resource<__elided__> : tensor<128x512xf32>}> : () -> tensor<128x512xf32>
    %781 = "tosa.const"() <{value = dense_resource<__elided__> : tensor<512xf32>}> : () -> tensor<512xf32>
    %782 = "tosa.const"() <{value = dense_resource<__elided__> : tensor<512x128xf32>}> : () -> tensor<512x128xf32>
    %783 = "tosa.const"() <{value = dense_resource<__elided__> : tensor<128xf32>}> : () -> tensor<128xf32>
    %784 = "tosa.const"() <{value = dense_resource<__elided__> : tensor<128x512xf32>}> : () -> tensor<128x512xf32>
    %785 = "tosa.const"() <{value = dense_resource<__elided__> : tensor<512xf32>}> : () -> tensor<512xf32>
    %786 = "tosa.const"() <{value = dense_resource<__elided__> : tensor<512x128xf32>}> : () -> tensor<512x128xf32>
    %787 = "tosa.const"() <{value = dense_resource<__elided__> : tensor<128xf32>}> : () -> tensor<128xf32>
    %788 = "tosa.const"() <{value = dense_resource<__elided__> : tensor<128x512xf32>}> : () -> tensor<128x512xf32>
    %789 = "tosa.const"() <{value = dense_resource<__elided__> : tensor<512xf32>}> : () -> tensor<512xf32>
    %790 = "tosa.const"() <{value = dense_resource<__elided__> : tensor<512x128xf32>}> : () -> tensor<512x128xf32>
    %791 = "tosa.const"() <{value = dense_resource<__elided__> : tensor<128xf32>}> : () -> tensor<128xf32>
    %792 = "tosa.const"() <{value = dense_resource<__elided__> : tensor<128x512xf32>}> : () -> tensor<128x512xf32>
    %793 = "tosa.const"() <{value = dense_resource<__elided__> : tensor<512xf32>}> : () -> tensor<512xf32>
    %794 = "tosa.const"() <{value = dense_resource<__elided__> : tensor<512x128xf32>}> : () -> tensor<512x128xf32>
    %795 = "tosa.const"() <{value = dense_resource<__elided__> : tensor<128xf32>}> : () -> tensor<128xf32>
    %796 = "tosa.const"() <{value = dense_resource<__elided__> : tensor<128x512xf32>}> : () -> tensor<128x512xf32>
    %797 = "tosa.const"() <{value = dense_resource<__elided__> : tensor<512xf32>}> : () -> tensor<512xf32>
    %798 = "tosa.const"() <{value = dense_resource<__elided__> : tensor<512x128xf32>}> : () -> tensor<512x128xf32>
    %799 = "tosa.const"() <{value = dense_resource<__elided__> : tensor<128xf32>}> : () -> tensor<128xf32>
    %800 = "tosa.const"() <{value = dense_resource<__elided__> : tensor<128x128xf32>}> : () -> tensor<128x128xf32>
    %801 = "tosa.const"() <{value = dense_resource<__elided__> : tensor<128xf32>}> : () -> tensor<128xf32>
    %802 = "tosa.const"() <{value = dense_resource<__elided__> : tensor<128x128xf32>}> : () -> tensor<128x128xf32>
    %803 = "tosa.const"() <{value = dense_resource<__elided__> : tensor<128xf32>}> : () -> tensor<128xf32>
    %804 = "tosa.const"() <{value = dense_resource<__elided__> : tensor<128x128xf32>}> : () -> tensor<128x128xf32>
    %805 = "tosa.const"() <{value = dense_resource<__elided__> : tensor<128xf32>}> : () -> tensor<128xf32>
    %806 = "tosa.const"() <{value = dense_resource<__elided__> : tensor<128x128xf32>}> : () -> tensor<128x128xf32>
    %807 = "tosa.const"() <{value = dense_resource<__elided__> : tensor<128xf32>}> : () -> tensor<128xf32>
    %808 = "tosa.const"() <{value = dense_resource<__elided__> : tensor<128x512xf32>}> : () -> tensor<128x512xf32>
    %809 = "tosa.const"() <{value = dense_resource<__elided__> : tensor<128xf32>}> : () -> tensor<128xf32>
    %810 = "tosa.const"() <{value = dense_resource<__elided__> : tensor<128x512xf32>}> : () -> tensor<128x512xf32>
    %811 = "tosa.const"() <{value = dense_resource<__elided__> : tensor<128xf32>}> : () -> tensor<128xf32>
    %812 = "tosa.const"() <{value = dense_resource<__elided__> : tensor<128x512xf32>}> : () -> tensor<128x512xf32>
    %813 = "tosa.const"() <{value = dense_resource<__elided__> : tensor<512xf32>}> : () -> tensor<512xf32>
    %814 = "tosa.const"() <{value = dense_resource<__elided__> : tensor<512x128xf32>}> : () -> tensor<512x128xf32>
    %815 = "tosa.const"() <{value = dense_resource<__elided__> : tensor<128xf32>}> : () -> tensor<128xf32>
    %816 = "tosa.const"() <{value = dense_resource<__elided__> : tensor<128x512xf32>}> : () -> tensor<128x512xf32>
    %817 = "tosa.const"() <{value = dense_resource<__elided__> : tensor<512xf32>}> : () -> tensor<512xf32>
    %818 = "tosa.const"() <{value = dense_resource<__elided__> : tensor<512x128xf32>}> : () -> tensor<512x128xf32>
    %819 = "tosa.const"() <{value = dense_resource<__elided__> : tensor<128xf32>}> : () -> tensor<128xf32>
    %820 = "tosa.const"() <{value = dense_resource<__elided__> : tensor<128x512xf32>}> : () -> tensor<128x512xf32>
    %821 = "tosa.const"() <{value = dense_resource<__elided__> : tensor<512xf32>}> : () -> tensor<512xf32>
    %822 = "tosa.const"() <{value = dense_resource<__elided__> : tensor<512x128xf32>}> : () -> tensor<512x128xf32>
    %823 = "tosa.const"() <{value = dense_resource<__elided__> : tensor<128xf32>}> : () -> tensor<128xf32>
    %824 = "tosa.const"() <{value = dense_resource<__elided__> : tensor<128x512xf32>}> : () -> tensor<128x512xf32>
    %825 = "tosa.const"() <{value = dense_resource<__elided__> : tensor<512xf32>}> : () -> tensor<512xf32>
    %826 = "tosa.const"() <{value = dense_resource<__elided__> : tensor<512x128xf32>}> : () -> tensor<512x128xf32>
    %827 = "tosa.const"() <{value = dense_resource<__elided__> : tensor<128xf32>}> : () -> tensor<128xf32>
    %828 = "tosa.const"() <{value = dense_resource<__elided__> : tensor<128x512xf32>}> : () -> tensor<128x512xf32>
    %829 = "tosa.const"() <{value = dense_resource<__elided__> : tensor<512xf32>}> : () -> tensor<512xf32>
    %830 = "tosa.const"() <{value = dense_resource<__elided__> : tensor<512x128xf32>}> : () -> tensor<512x128xf32>
    %831 = "tosa.const"() <{value = dense_resource<__elided__> : tensor<128xf32>}> : () -> tensor<128xf32>
    %832 = "tosa.const"() <{value = dense_resource<__elided__> : tensor<128x128xf32>}> : () -> tensor<128x128xf32>
    %833 = "tosa.const"() <{value = dense_resource<__elided__> : tensor<128xf32>}> : () -> tensor<128xf32>
    %834 = "tosa.const"() <{value = dense_resource<__elided__> : tensor<128x128xf32>}> : () -> tensor<128x128xf32>
    %835 = "tosa.const"() <{value = dense_resource<__elided__> : tensor<128xf32>}> : () -> tensor<128xf32>
    %836 = "tosa.const"() <{value = dense_resource<__elided__> : tensor<128x128xf32>}> : () -> tensor<128x128xf32>
    %837 = "tosa.const"() <{value = dense_resource<__elided__> : tensor<128xf32>}> : () -> tensor<128xf32>
    %838 = "tosa.const"() <{value = dense_resource<__elided__> : tensor<128x128xf32>}> : () -> tensor<128x128xf32>
    %839 = "tosa.const"() <{value = dense_resource<__elided__> : tensor<128xf32>}> : () -> tensor<128xf32>
    %840 = "tosa.const"() <{value = dense_resource<__elided__> : tensor<128x512xf32>}> : () -> tensor<128x512xf32>
    %841 = "tosa.const"() <{value = dense_resource<__elided__> : tensor<128xf32>}> : () -> tensor<128xf32>
    %842 = "tosa.const"() <{value = dense_resource<__elided__> : tensor<128x512xf32>}> : () -> tensor<128x512xf32>
    %843 = "tosa.const"() <{value = dense_resource<__elided__> : tensor<128xf32>}> : () -> tensor<128xf32>
    %844 = "tosa.const"() <{value = dense_resource<__elided__> : tensor<128x512xf32>}> : () -> tensor<128x512xf32>
    %845 = "tosa.const"() <{value = dense_resource<__elided__> : tensor<512xf32>}> : () -> tensor<512xf32>
    %846 = "tosa.const"() <{value = dense_resource<__elided__> : tensor<512x128xf32>}> : () -> tensor<512x128xf32>
    %847 = "tosa.const"() <{value = dense_resource<__elided__> : tensor<128xf32>}> : () -> tensor<128xf32>
    %848 = "tosa.const"() <{value = dense_resource<__elided__> : tensor<128x512xf32>}> : () -> tensor<128x512xf32>
    %849 = "tosa.const"() <{value = dense_resource<__elided__> : tensor<512xf32>}> : () -> tensor<512xf32>
    %850 = "tosa.const"() <{value = dense_resource<__elided__> : tensor<512x128xf32>}> : () -> tensor<512x128xf32>
    %851 = "tosa.const"() <{value = dense_resource<__elided__> : tensor<128xf32>}> : () -> tensor<128xf32>
    %852 = "tosa.const"() <{value = dense_resource<__elided__> : tensor<128x512xf32>}> : () -> tensor<128x512xf32>
    %853 = "tosa.const"() <{value = dense_resource<__elided__> : tensor<512xf32>}> : () -> tensor<512xf32>
    %854 = "tosa.const"() <{value = dense_resource<__elided__> : tensor<512x128xf32>}> : () -> tensor<512x128xf32>
    %855 = "tosa.const"() <{value = dense_resource<__elided__> : tensor<128xf32>}> : () -> tensor<128xf32>
    %856 = "tosa.const"() <{value = dense_resource<__elided__> : tensor<128x512xf32>}> : () -> tensor<128x512xf32>
    %857 = "tosa.const"() <{value = dense_resource<__elided__> : tensor<512xf32>}> : () -> tensor<512xf32>
    %858 = "tosa.const"() <{value = dense_resource<__elided__> : tensor<512x128xf32>}> : () -> tensor<512x128xf32>
    %859 = "tosa.const"() <{value = dense_resource<__elided__> : tensor<128xf32>}> : () -> tensor<128xf32>
    %860 = "tosa.const"() <{value = dense_resource<__elided__> : tensor<128x512xf32>}> : () -> tensor<128x512xf32>
    %861 = "tosa.const"() <{value = dense_resource<__elided__> : tensor<512xf32>}> : () -> tensor<512xf32>
    %862 = "tosa.const"() <{value = dense_resource<__elided__> : tensor<512x128xf32>}> : () -> tensor<512x128xf32>
    %863 = "tosa.const"() <{value = dense_resource<__elided__> : tensor<128xf32>}> : () -> tensor<128xf32>
    %864 = "tosa.const"() <{value = dense_resource<__elided__> : tensor<128x128xf32>}> : () -> tensor<128x128xf32>
    %865 = "tosa.const"() <{value = dense_resource<__elided__> : tensor<128xf32>}> : () -> tensor<128xf32>
    %866 = "tosa.const"() <{value = dense_resource<__elided__> : tensor<128x128xf32>}> : () -> tensor<128x128xf32>
    %867 = "tosa.const"() <{value = dense_resource<__elided__> : tensor<128xf32>}> : () -> tensor<128xf32>
    %868 = "tosa.const"() <{value = dense_resource<__elided__> : tensor<128x128xf32>}> : () -> tensor<128x128xf32>
    %869 = "tosa.const"() <{value = dense_resource<__elided__> : tensor<128xf32>}> : () -> tensor<128xf32>
    %870 = "tosa.const"() <{value = dense_resource<__elided__> : tensor<128x128xf32>}> : () -> tensor<128x128xf32>
    %871 = "tosa.const"() <{value = dense_resource<__elided__> : tensor<128xf32>}> : () -> tensor<128xf32>
    %872 = "tosa.const"() <{value = dense_resource<__elided__> : tensor<128x512xf32>}> : () -> tensor<128x512xf32>
    %873 = "tosa.const"() <{value = dense_resource<__elided__> : tensor<128xf32>}> : () -> tensor<128xf32>
    %874 = "tosa.const"() <{value = dense_resource<__elided__> : tensor<128x512xf32>}> : () -> tensor<128x512xf32>
    %875 = "tosa.const"() <{value = dense_resource<__elided__> : tensor<128xf32>}> : () -> tensor<128xf32>
    %876 = "tosa.const"() <{value = dense_resource<__elided__> : tensor<128x512xf32>}> : () -> tensor<128x512xf32>
    %877 = "tosa.const"() <{value = dense_resource<__elided__> : tensor<512xf32>}> : () -> tensor<512xf32>
    %878 = "tosa.const"() <{value = dense_resource<__elided__> : tensor<512x128xf32>}> : () -> tensor<512x128xf32>
    %879 = "tosa.const"() <{value = dense_resource<__elided__> : tensor<128xf32>}> : () -> tensor<128xf32>
    %880 = "tosa.const"() <{value = dense_resource<__elided__> : tensor<128x512xf32>}> : () -> tensor<128x512xf32>
    %881 = "tosa.const"() <{value = dense_resource<__elided__> : tensor<512xf32>}> : () -> tensor<512xf32>
    %882 = "tosa.const"() <{value = dense_resource<__elided__> : tensor<512x128xf32>}> : () -> tensor<512x128xf32>
    %883 = "tosa.const"() <{value = dense_resource<__elided__> : tensor<128xf32>}> : () -> tensor<128xf32>
    %884 = "tosa.const"() <{value = dense_resource<__elided__> : tensor<128x512xf32>}> : () -> tensor<128x512xf32>
    %885 = "tosa.const"() <{value = dense_resource<__elided__> : tensor<512xf32>}> : () -> tensor<512xf32>
    %886 = "tosa.const"() <{value = dense_resource<__elided__> : tensor<512x128xf32>}> : () -> tensor<512x128xf32>
    %887 = "tosa.const"() <{value = dense_resource<__elided__> : tensor<128xf32>}> : () -> tensor<128xf32>
    %888 = "tosa.const"() <{value = dense_resource<__elided__> : tensor<128x512xf32>}> : () -> tensor<128x512xf32>
    %889 = "tosa.const"() <{value = dense_resource<__elided__> : tensor<512xf32>}> : () -> tensor<512xf32>
    %890 = "tosa.const"() <{value = dense_resource<__elided__> : tensor<512x128xf32>}> : () -> tensor<512x128xf32>
    %891 = "tosa.const"() <{value = dense_resource<__elided__> : tensor<128xf32>}> : () -> tensor<128xf32>
    %892 = "tosa.const"() <{value = dense_resource<__elided__> : tensor<128x512xf32>}> : () -> tensor<128x512xf32>
    %893 = "tosa.const"() <{value = dense_resource<__elided__> : tensor<512xf32>}> : () -> tensor<512xf32>
    %894 = "tosa.const"() <{value = dense_resource<__elided__> : tensor<512x128xf32>}> : () -> tensor<512x128xf32>
    %895 = "tosa.const"() <{value = dense_resource<__elided__> : tensor<128xf32>}> : () -> tensor<128xf32>
    %896 = "tosa.const"() <{value = dense_resource<__elided__> : tensor<128x128xf32>}> : () -> tensor<128x128xf32>
    %897 = "tosa.const"() <{value = dense_resource<__elided__> : tensor<128xf32>}> : () -> tensor<128xf32>
    %898 = "tosa.const"() <{value = dense_resource<__elided__> : tensor<128x128xf32>}> : () -> tensor<128x128xf32>
    %899 = "tosa.const"() <{value = dense_resource<__elided__> : tensor<128xf32>}> : () -> tensor<128xf32>
    %900 = "tosa.const"() <{value = dense_resource<__elided__> : tensor<128x128xf32>}> : () -> tensor<128x128xf32>
    %901 = "tosa.const"() <{value = dense_resource<__elided__> : tensor<128xf32>}> : () -> tensor<128xf32>
    %902 = "tosa.const"() <{value = dense_resource<__elided__> : tensor<128x128xf32>}> : () -> tensor<128x128xf32>
    %903 = "tosa.const"() <{value = dense_resource<__elided__> : tensor<128xf32>}> : () -> tensor<128xf32>
    %904 = "tosa.const"() <{value = dense_resource<__elided__> : tensor<128x512xf32>}> : () -> tensor<128x512xf32>
    %905 = "tosa.const"() <{value = dense_resource<__elided__> : tensor<128xf32>}> : () -> tensor<128xf32>
    %906 = "tosa.const"() <{value = dense_resource<__elided__> : tensor<128x512xf32>}> : () -> tensor<128x512xf32>
    %907 = "tosa.const"() <{value = dense_resource<__elided__> : tensor<128xf32>}> : () -> tensor<128xf32>
    %908 = "tosa.const"() <{value = dense_resource<__elided__> : tensor<128x512xf32>}> : () -> tensor<128x512xf32>
    %909 = "tosa.const"() <{value = dense_resource<__elided__> : tensor<512xf32>}> : () -> tensor<512xf32>
    %910 = "tosa.const"() <{value = dense_resource<__elided__> : tensor<512x128xf32>}> : () -> tensor<512x128xf32>
    %911 = "tosa.const"() <{value = dense_resource<__elided__> : tensor<128xf32>}> : () -> tensor<128xf32>
    %912 = "tosa.const"() <{value = dense_resource<__elided__> : tensor<128x512xf32>}> : () -> tensor<128x512xf32>
    %913 = "tosa.const"() <{value = dense_resource<__elided__> : tensor<512xf32>}> : () -> tensor<512xf32>
    %914 = "tosa.const"() <{value = dense_resource<__elided__> : tensor<512x128xf32>}> : () -> tensor<512x128xf32>
    %915 = "tosa.const"() <{value = dense_resource<__elided__> : tensor<128xf32>}> : () -> tensor<128xf32>
    %916 = "tosa.const"() <{value = dense_resource<__elided__> : tensor<128x512xf32>}> : () -> tensor<128x512xf32>
    %917 = "tosa.const"() <{value = dense_resource<__elided__> : tensor<512xf32>}> : () -> tensor<512xf32>
    %918 = "tosa.const"() <{value = dense_resource<__elided__> : tensor<512x128xf32>}> : () -> tensor<512x128xf32>
    %919 = "tosa.const"() <{value = dense_resource<__elided__> : tensor<128xf32>}> : () -> tensor<128xf32>
    %920 = "tosa.const"() <{value = dense_resource<__elided__> : tensor<128x512xf32>}> : () -> tensor<128x512xf32>
    %921 = "tosa.const"() <{value = dense_resource<__elided__> : tensor<512xf32>}> : () -> tensor<512xf32>
    %922 = "tosa.const"() <{value = dense_resource<__elided__> : tensor<512x128xf32>}> : () -> tensor<512x128xf32>
    %923 = "tosa.const"() <{value = dense_resource<__elided__> : tensor<128xf32>}> : () -> tensor<128xf32>
    %924 = "tosa.const"() <{value = dense_resource<__elided__> : tensor<128x512xf32>}> : () -> tensor<128x512xf32>
    %925 = "tosa.const"() <{value = dense_resource<__elided__> : tensor<512xf32>}> : () -> tensor<512xf32>
    %926 = "tosa.const"() <{value = dense_resource<__elided__> : tensor<512x128xf32>}> : () -> tensor<512x128xf32>
    %927 = "tosa.const"() <{value = dense_resource<__elided__> : tensor<128xf32>}> : () -> tensor<128xf32>
    %928 = "tosa.const"() <{value = dense_resource<__elided__> : tensor<128x128xf32>}> : () -> tensor<128x128xf32>
    %929 = "tosa.const"() <{value = dense_resource<__elided__> : tensor<128xf32>}> : () -> tensor<128xf32>
    %930 = "tosa.const"() <{value = dense_resource<__elided__> : tensor<128x128xf32>}> : () -> tensor<128x128xf32>
    %931 = "tosa.const"() <{value = dense_resource<__elided__> : tensor<128xf32>}> : () -> tensor<128xf32>
    %932 = "tosa.const"() <{value = dense_resource<__elided__> : tensor<128x128xf32>}> : () -> tensor<128x128xf32>
    %933 = "tosa.const"() <{value = dense_resource<__elided__> : tensor<128xf32>}> : () -> tensor<128xf32>
    %934 = "tosa.const"() <{value = dense_resource<__elided__> : tensor<128x128xf32>}> : () -> tensor<128x128xf32>
    %935 = "tosa.const"() <{value = dense_resource<__elided__> : tensor<128xf32>}> : () -> tensor<128xf32>
    %936 = "tosa.const"() <{value = dense_resource<__elided__> : tensor<128x512xf32>}> : () -> tensor<128x512xf32>
    %937 = "tosa.const"() <{value = dense_resource<__elided__> : tensor<128xf32>}> : () -> tensor<128xf32>
    %938 = "tosa.const"() <{value = dense_resource<__elided__> : tensor<128x512xf32>}> : () -> tensor<128x512xf32>
    %939 = "tosa.const"() <{value = dense_resource<__elided__> : tensor<128xf32>}> : () -> tensor<128xf32>
    %940 = "tosa.const"() <{value = dense_resource<__elided__> : tensor<128x512xf32>}> : () -> tensor<128x512xf32>
    %941 = "tosa.const"() <{value = dense_resource<__elided__> : tensor<512xf32>}> : () -> tensor<512xf32>
    %942 = "tosa.const"() <{value = dense_resource<__elided__> : tensor<512x128xf32>}> : () -> tensor<512x128xf32>
    %943 = "tosa.const"() <{value = dense_resource<__elided__> : tensor<128xf32>}> : () -> tensor<128xf32>
    %944 = "tosa.const"() <{value = dense_resource<__elided__> : tensor<128x512xf32>}> : () -> tensor<128x512xf32>
    %945 = "tosa.const"() <{value = dense_resource<__elided__> : tensor<512xf32>}> : () -> tensor<512xf32>
    %946 = "tosa.const"() <{value = dense_resource<__elided__> : tensor<512x128xf32>}> : () -> tensor<512x128xf32>
    %947 = "tosa.const"() <{value = dense_resource<__elided__> : tensor<128xf32>}> : () -> tensor<128xf32>
    %948 = "tosa.const"() <{value = dense_resource<__elided__> : tensor<128x512xf32>}> : () -> tensor<128x512xf32>
    %949 = "tosa.const"() <{value = dense_resource<__elided__> : tensor<512xf32>}> : () -> tensor<512xf32>
    %950 = "tosa.const"() <{value = dense_resource<__elided__> : tensor<512x128xf32>}> : () -> tensor<512x128xf32>
    %951 = "tosa.const"() <{value = dense_resource<__elided__> : tensor<128xf32>}> : () -> tensor<128xf32>
    %952 = "tosa.const"() <{value = dense_resource<__elided__> : tensor<128x512xf32>}> : () -> tensor<128x512xf32>
    %953 = "tosa.const"() <{value = dense_resource<__elided__> : tensor<512xf32>}> : () -> tensor<512xf32>
    %954 = "tosa.const"() <{value = dense_resource<__elided__> : tensor<512x128xf32>}> : () -> tensor<512x128xf32>
    %955 = "tosa.const"() <{value = dense_resource<__elided__> : tensor<128xf32>}> : () -> tensor<128xf32>
    %956 = "tosa.const"() <{value = dense_resource<__elided__> : tensor<128x512xf32>}> : () -> tensor<128x512xf32>
    %957 = "tosa.const"() <{value = dense_resource<__elided__> : tensor<512xf32>}> : () -> tensor<512xf32>
    %958 = "tosa.const"() <{value = dense_resource<__elided__> : tensor<512x128xf32>}> : () -> tensor<512x128xf32>
    %959 = "tosa.const"() <{value = dense_resource<__elided__> : tensor<128xf32>}> : () -> tensor<128xf32>
    %960 = "tosa.const"() <{value = dense_resource<__elided__> : tensor<128x128xf32>}> : () -> tensor<128x128xf32>
    %961 = "tosa.const"() <{value = dense_resource<__elided__> : tensor<128xf32>}> : () -> tensor<128xf32>
    %962 = "tosa.const"() <{value = dense_resource<__elided__> : tensor<128x128xf32>}> : () -> tensor<128x128xf32>
    %963 = "tosa.const"() <{value = dense_resource<__elided__> : tensor<128xf32>}> : () -> tensor<128xf32>
    %964 = "tosa.const"() <{value = dense_resource<__elided__> : tensor<128x128xf32>}> : () -> tensor<128x128xf32>
    %965 = "tosa.const"() <{value = dense_resource<__elided__> : tensor<128xf32>}> : () -> tensor<128xf32>
    %966 = "tosa.const"() <{value = dense_resource<__elided__> : tensor<128x128xf32>}> : () -> tensor<128x128xf32>
    %967 = "tosa.const"() <{value = dense_resource<__elided__> : tensor<128xf32>}> : () -> tensor<128xf32>
    %968 = "tosa.const"() <{value = dense_resource<__elided__> : tensor<128x512xf32>}> : () -> tensor<128x512xf32>
    %969 = "tosa.const"() <{value = dense_resource<__elided__> : tensor<128xf32>}> : () -> tensor<128xf32>
    %970 = "tosa.const"() <{value = dense_resource<__elided__> : tensor<128x512xf32>}> : () -> tensor<128x512xf32>
    %971 = "tosa.const"() <{value = dense_resource<__elided__> : tensor<128xf32>}> : () -> tensor<128xf32>
    %972 = "tosa.const"() <{value = dense_resource<__elided__> : tensor<128x512xf32>}> : () -> tensor<128x512xf32>
    %973 = "tosa.const"() <{value = dense_resource<__elided__> : tensor<512xf32>}> : () -> tensor<512xf32>
    %974 = "tosa.const"() <{value = dense_resource<__elided__> : tensor<512x128xf32>}> : () -> tensor<512x128xf32>
    %975 = "tosa.const"() <{value = dense_resource<__elided__> : tensor<128xf32>}> : () -> tensor<128xf32>
    %976 = "tosa.const"() <{value = dense_resource<__elided__> : tensor<128x512xf32>}> : () -> tensor<128x512xf32>
    %977 = "tosa.const"() <{value = dense_resource<__elided__> : tensor<512xf32>}> : () -> tensor<512xf32>
    %978 = "tosa.const"() <{value = dense_resource<__elided__> : tensor<512x128xf32>}> : () -> tensor<512x128xf32>
    %979 = "tosa.const"() <{value = dense_resource<__elided__> : tensor<128xf32>}> : () -> tensor<128xf32>
    %980 = "tosa.const"() <{value = dense_resource<__elided__> : tensor<128x512xf32>}> : () -> tensor<128x512xf32>
    %981 = "tosa.const"() <{value = dense_resource<__elided__> : tensor<512xf32>}> : () -> tensor<512xf32>
    %982 = "tosa.const"() <{value = dense_resource<__elided__> : tensor<512x128xf32>}> : () -> tensor<512x128xf32>
    %983 = "tosa.const"() <{value = dense_resource<__elided__> : tensor<128xf32>}> : () -> tensor<128xf32>
    %984 = "tosa.const"() <{value = dense_resource<__elided__> : tensor<128x512xf32>}> : () -> tensor<128x512xf32>
    %985 = "tosa.const"() <{value = dense_resource<__elided__> : tensor<512xf32>}> : () -> tensor<512xf32>
    %986 = "tosa.const"() <{value = dense_resource<__elided__> : tensor<512x128xf32>}> : () -> tensor<512x128xf32>
    %987 = "tosa.const"() <{value = dense_resource<__elided__> : tensor<128xf32>}> : () -> tensor<128xf32>
    %988 = "tosa.const"() <{value = dense_resource<__elided__> : tensor<128x512xf32>}> : () -> tensor<128x512xf32>
    %989 = "tosa.const"() <{value = dense_resource<__elided__> : tensor<512xf32>}> : () -> tensor<512xf32>
    %990 = "tosa.const"() <{value = dense_resource<__elided__> : tensor<512x128xf32>}> : () -> tensor<512x128xf32>
    %991 = "tosa.const"() <{value = dense_resource<__elided__> : tensor<128xf32>}> : () -> tensor<128xf32>
    %992 = "tosa.const"() <{value = dense_resource<__elided__> : tensor<128x128xf32>}> : () -> tensor<128x128xf32>
    %993 = "tosa.const"() <{value = dense_resource<__elided__> : tensor<128xf32>}> : () -> tensor<128xf32>
    %994 = "tosa.const"() <{value = dense_resource<__elided__> : tensor<128x128xf32>}> : () -> tensor<128x128xf32>
    %995 = "tosa.const"() <{value = dense_resource<__elided__> : tensor<128xf32>}> : () -> tensor<128xf32>
    %996 = "tosa.const"() <{value = dense_resource<__elided__> : tensor<128x128xf32>}> : () -> tensor<128x128xf32>
    %997 = "tosa.const"() <{value = dense_resource<__elided__> : tensor<128xf32>}> : () -> tensor<128xf32>
    %998 = "tosa.const"() <{value = dense_resource<__elided__> : tensor<128x128xf32>}> : () -> tensor<128x128xf32>
    %999 = "tosa.const"() <{value = dense_resource<__elided__> : tensor<128xf32>}> : () -> tensor<128xf32>
    %1000 = "tosa.const"() <{value = dense_resource<__elided__> : tensor<128x512xf32>}> : () -> tensor<128x512xf32>
    %1001 = "tosa.const"() <{value = dense_resource<__elided__> : tensor<128xf32>}> : () -> tensor<128xf32>
    %1002 = "tosa.const"() <{value = dense_resource<__elided__> : tensor<128x512xf32>}> : () -> tensor<128x512xf32>
    %1003 = "tosa.const"() <{value = dense_resource<__elided__> : tensor<128xf32>}> : () -> tensor<128xf32>
    %1004 = "tosa.const"() <{value = dense_resource<__elided__> : tensor<128x512xf32>}> : () -> tensor<128x512xf32>
    %1005 = "tosa.const"() <{value = dense_resource<__elided__> : tensor<512xf32>}> : () -> tensor<512xf32>
    %1006 = "tosa.const"() <{value = dense_resource<__elided__> : tensor<512x128xf32>}> : () -> tensor<512x128xf32>
    %1007 = "tosa.const"() <{value = dense_resource<__elided__> : tensor<128xf32>}> : () -> tensor<128xf32>
    %1008 = "tosa.const"() <{value = dense_resource<__elided__> : tensor<128x512xf32>}> : () -> tensor<128x512xf32>
    %1009 = "tosa.const"() <{value = dense_resource<__elided__> : tensor<512xf32>}> : () -> tensor<512xf32>
    %1010 = "tosa.const"() <{value = dense_resource<__elided__> : tensor<512x128xf32>}> : () -> tensor<512x128xf32>
    %1011 = "tosa.const"() <{value = dense_resource<__elided__> : tensor<128xf32>}> : () -> tensor<128xf32>
    %1012 = "tosa.const"() <{value = dense_resource<__elided__> : tensor<128x512xf32>}> : () -> tensor<128x512xf32>
    %1013 = "tosa.const"() <{value = dense_resource<__elided__> : tensor<512xf32>}> : () -> tensor<512xf32>
    %1014 = "tosa.const"() <{value = dense_resource<__elided__> : tensor<512x128xf32>}> : () -> tensor<512x128xf32>
    %1015 = "tosa.const"() <{value = dense_resource<__elided__> : tensor<128xf32>}> : () -> tensor<128xf32>
    %1016 = "tosa.const"() <{value = dense_resource<__elided__> : tensor<128x512xf32>}> : () -> tensor<128x512xf32>
    %1017 = "tosa.const"() <{value = dense_resource<__elided__> : tensor<512xf32>}> : () -> tensor<512xf32>
    %1018 = "tosa.const"() <{value = dense_resource<__elided__> : tensor<512x128xf32>}> : () -> tensor<512x128xf32>
    %1019 = "tosa.const"() <{value = dense_resource<__elided__> : tensor<128xf32>}> : () -> tensor<128xf32>
    %1020 = "tosa.const"() <{value = dense_resource<__elided__> : tensor<128x512xf32>}> : () -> tensor<128x512xf32>
    %1021 = "tosa.const"() <{value = dense_resource<__elided__> : tensor<512xf32>}> : () -> tensor<512xf32>
    %1022 = "tosa.const"() <{value = dense_resource<__elided__> : tensor<512x128xf32>}> : () -> tensor<512x128xf32>
    %1023 = "tosa.const"() <{value = dense_resource<__elided__> : tensor<128xf32>}> : () -> tensor<128xf32>
    %1024 = "tosa.const"() <{value = dense_resource<__elided__> : tensor<128x128xf32>}> : () -> tensor<128x128xf32>
    %1025 = "tosa.const"() <{value = dense_resource<__elided__> : tensor<128xf32>}> : () -> tensor<128xf32>
    %1026 = "tosa.const"() <{value = dense_resource<__elided__> : tensor<128x128xf32>}> : () -> tensor<128x128xf32>
    %1027 = "tosa.const"() <{value = dense_resource<__elided__> : tensor<128xf32>}> : () -> tensor<128xf32>
    %1028 = "tosa.const"() <{value = dense_resource<__elided__> : tensor<128x128xf32>}> : () -> tensor<128x128xf32>
    %1029 = "tosa.const"() <{value = dense_resource<__elided__> : tensor<128xf32>}> : () -> tensor<128xf32>
    %1030 = "tosa.const"() <{value = dense_resource<__elided__> : tensor<128x128xf32>}> : () -> tensor<128x128xf32>
    %1031 = "tosa.const"() <{value = dense_resource<__elided__> : tensor<128xf32>}> : () -> tensor<128xf32>
    %1032 = "tosa.const"() <{value = dense_resource<__elided__> : tensor<128x512xf32>}> : () -> tensor<128x512xf32>
    %1033 = "tosa.const"() <{value = dense_resource<__elided__> : tensor<128xf32>}> : () -> tensor<128xf32>
    %1034 = "tosa.const"() <{value = dense_resource<__elided__> : tensor<128x512xf32>}> : () -> tensor<128x512xf32>
    %1035 = "tosa.const"() <{value = dense_resource<__elided__> : tensor<128xf32>}> : () -> tensor<128xf32>
    %1036 = "tosa.const"() <{value = dense_resource<__elided__> : tensor<128x512xf32>}> : () -> tensor<128x512xf32>
    %1037 = "tosa.const"() <{value = dense_resource<__elided__> : tensor<512xf32>}> : () -> tensor<512xf32>
    %1038 = "tosa.const"() <{value = dense_resource<__elided__> : tensor<512x128xf32>}> : () -> tensor<512x128xf32>
    %1039 = "tosa.const"() <{value = dense_resource<__elided__> : tensor<128xf32>}> : () -> tensor<128xf32>
    %1040 = "tosa.const"() <{value = dense_resource<__elided__> : tensor<128x512xf32>}> : () -> tensor<128x512xf32>
    %1041 = "tosa.const"() <{value = dense_resource<__elided__> : tensor<512xf32>}> : () -> tensor<512xf32>
    %1042 = "tosa.const"() <{value = dense_resource<__elided__> : tensor<512x128xf32>}> : () -> tensor<512x128xf32>
    %1043 = "tosa.const"() <{value = dense_resource<__elided__> : tensor<128xf32>}> : () -> tensor<128xf32>
    %1044 = "tosa.const"() <{value = dense_resource<__elided__> : tensor<128x512xf32>}> : () -> tensor<128x512xf32>
    %1045 = "tosa.const"() <{value = dense_resource<__elided__> : tensor<512xf32>}> : () -> tensor<512xf32>
    %1046 = "tosa.const"() <{value = dense_resource<__elided__> : tensor<512x128xf32>}> : () -> tensor<512x128xf32>
    %1047 = "tosa.const"() <{value = dense_resource<__elided__> : tensor<128xf32>}> : () -> tensor<128xf32>
    %1048 = "tosa.const"() <{value = dense_resource<__elided__> : tensor<128x512xf32>}> : () -> tensor<128x512xf32>
    %1049 = "tosa.const"() <{value = dense_resource<__elided__> : tensor<512xf32>}> : () -> tensor<512xf32>
    %1050 = "tosa.const"() <{value = dense_resource<__elided__> : tensor<512x128xf32>}> : () -> tensor<512x128xf32>
    %1051 = "tosa.const"() <{value = dense_resource<__elided__> : tensor<128xf32>}> : () -> tensor<128xf32>
    %1052 = "tosa.const"() <{value = dense_resource<__elided__> : tensor<128x512xf32>}> : () -> tensor<128x512xf32>
    %1053 = "tosa.const"() <{value = dense_resource<__elided__> : tensor<512xf32>}> : () -> tensor<512xf32>
    %1054 = "tosa.const"() <{value = dense_resource<__elided__> : tensor<512x128xf32>}> : () -> tensor<512x128xf32>
    %1055 = "tosa.const"() <{value = dense_resource<__elided__> : tensor<128xf32>}> : () -> tensor<128xf32>
    %1056 = "tosa.const"() <{value = dense_resource<__elided__> : tensor<128x128xf32>}> : () -> tensor<128x128xf32>
    %1057 = "tosa.const"() <{value = dense_resource<__elided__> : tensor<3xi32>}> : () -> tensor<3xi32>
    %1058 = "tosa.const"() <{value = dense_resource<__elided__> : tensor<3xi32>}> : () -> tensor<3xi32>
    %1059 = "tosa.const"() <{value = dense_resource<__elided__> : tensor<4xi32>}> : () -> tensor<4xi32>
    %1060 = "tosa.const"() <{value = dense_resource<__elided__> : tensor<128xf32>}> : () -> tensor<128xf32>
    %1061 = "tosa.const"() <{value = dense_resource<__elided__> : tensor<128x128xf32>}> : () -> tensor<128x128xf32>
    %1062 = "tosa.const"() <{value = dense_resource<__elided__> : tensor<128xf32>}> : () -> tensor<128xf32>
    %1063 = "tosa.const"() <{value = dense_resource<__elided__> : tensor<128x128xf32>}> : () -> tensor<128x128xf32>
    %1064 = "tosa.const"() <{value = dense_resource<__elided__> : tensor<128xf32>}> : () -> tensor<128xf32>
    %1065 = "tosa.const"() <{value = dense_resource<__elided__> : tensor<128x128xf32>}> : () -> tensor<128x128xf32>
    %1066 = "tosa.const"() <{value = dense_resource<__elided__> : tensor<128xf32>}> : () -> tensor<128xf32>
    %1067 = "tosa.const"() <{value = dense_resource<__elided__> : tensor<128x512xf32>}> : () -> tensor<128x512xf32>
    %1068 = "tosa.const"() <{value = dense_resource<__elided__> : tensor<128xf32>}> : () -> tensor<128xf32>
    %1069 = "tosa.const"() <{value = dense_resource<__elided__> : tensor<128x512xf32>}> : () -> tensor<128x512xf32>
    %1070 = "tosa.const"() <{value = dense_resource<__elided__> : tensor<128xf32>}> : () -> tensor<128xf32>
    %1071 = "tosa.const"() <{value = dense_resource<__elided__> : tensor<128x512xf32>}> : () -> tensor<128x512xf32>
    %1072 = "tosa.const"() <{value = dense_resource<__elided__> : tensor<512xf32>}> : () -> tensor<512xf32>
    %1073 = "tosa.const"() <{value = dense_resource<__elided__> : tensor<512x384xf32>}> : () -> tensor<512x384xf32>
    %1074 = "tosa.const"() <{value = dense_resource<__elided__> : tensor<3x2xi32>}> : () -> tensor<3x2xi32>
    %1075 = "tosa.const"() <{value = dense_resource<__elided__> : tensor<3x2xi32>}> : () -> tensor<3x2xi32>
    %1076 = "tosa.const"() <{value = dense_resource<__elided__> : tensor<1x384x512xf32>}> : () -> tensor<1x384x512xf32>
    %1077 = "tosa.const"() <{value = dense<1.000000e+00> : tensor<1x384x1xf32>}> : () -> tensor<1x384x1xf32>
    %1078 = tosa.cast %arg1 : (tensor<1x384xi32>) -> tensor<1x384xf32>
    %1079 = tosa.gather %297, %arg2 : (tensor<1x2x512xf32>, tensor<1x384xi32>) -> tensor<1x384x512xf32>
    %1080 = tosa.reshape %1078 {new_shape = array<i64: 1, 1, 384>} : (tensor<1x384xf32>) -> tensor<1x1x384xf32>
    %1081 = tosa.gather %296, %arg0 : (tensor<1x30522x128xf32>, tensor<1x384xi32>) -> tensor<1x384x128xf32>
    %1082 = tosa.mul %1080, %1077 {shift = 0 : i8} : (tensor<1x1x384xf32>, tensor<1x384x1xf32>) -> tensor<1x384x384xf32>
    %1083 = tosa.add %1079, %1076 : (tensor<1x384x512xf32>, tensor<1x384x512xf32>) -> tensor<1x384x512xf32>
    %1084 = tosa.sub %293, %1082 : (tensor<1x1x1xf32>, tensor<1x384x384xf32>) -> tensor<1x384x384xf32>
    %1085 = tosa.mul %1084, %292 {shift = 0 : i8} : (tensor<1x384x384xf32>, tensor<1x1x1xf32>) -> tensor<1x384x384xf32>
    %1086 = tosa.slice %1081 {size = array<i64: 1, 383, 128>, start = array<i64: 0, 1, 0>} : (tensor<1x384x128xf32>) -> tensor<1x383x128xf32>
    %1087 = tosa.slice %1081 {size = array<i64: 1, 383, 128>, start = array<i64: 0, 0, 0>} : (tensor<1x384x128xf32>) -> tensor<1x383x128xf32>
    %1088 = tosa.reshape %1085 {new_shape = array<i64: 1, 1, 384, 384>} : (tensor<1x384x384xf32>) -> tensor<1x1x384x384xf32>
    %1089 = tosa.pad %1086, %1075, %0 : (tensor<1x383x128xf32>, tensor<3x2xi32>, tensor<f32>) -> tensor<1x384x128xf32>
    %1090 = tosa.pad %1087, %1074, %0 : (tensor<1x383x128xf32>, tensor<3x2xi32>, tensor<f32>) -> tensor<1x384x128xf32>
    %1091 = tosa.concat %1089, %1081, %1090 {axis = 2 : i32} : (tensor<1x384x128xf32>, tensor<1x384x128xf32>, tensor<1x384x128xf32>) -> tensor<1x384x384xf32>
    %1092 = tosa.reshape %1091 {new_shape = array<i64: 384, 384>} : (tensor<1x384x384xf32>) -> tensor<384x384xf32>
    %1093 = tosa.fully_connected %1092, %1073, %1072 : (tensor<384x384xf32>, tensor<512x384xf32>, tensor<512xf32>) -> tensor<384x512xf32>
    %1094 = tosa.reshape %1093 {new_shape = array<i64: 1, 384, 512>} : (tensor<384x512xf32>) -> tensor<1x384x512xf32>
    %1095 = tosa.add %1094, %1083 : (tensor<1x384x512xf32>, tensor<1x384x512xf32>) -> tensor<1x384x512xf32>
    %1096 = tosa.mul %1095, %291 {shift = 0 : i8} : (tensor<1x384x512xf32>, tensor<1x1x512xf32>) -> tensor<1x384x512xf32>
    %1097 = tosa.add %1096, %290 : (tensor<1x384x512xf32>, tensor<1x1x512xf32>) -> tensor<1x384x512xf32>
    %1098 = tosa.reshape %1097 {new_shape = array<i64: 384, 512>} : (tensor<1x384x512xf32>) -> tensor<384x512xf32>
    %1099 = tosa.fully_connected %1098, %1071, %1070 : (tensor<384x512xf32>, tensor<128x512xf32>, tensor<128xf32>) -> tensor<384x128xf32>
    %1100 = tosa.reshape %1097 {new_shape = array<i64: 384, 512>} : (tensor<1x384x512xf32>) -> tensor<384x512xf32>
    %1101 = tosa.fully_connected %1100, %1069, %1068 : (tensor<384x512xf32>, tensor<128x512xf32>, tensor<128xf32>) -> tensor<384x128xf32>
    %1102 = tosa.reshape %1097 {new_shape = array<i64: 384, 512>} : (tensor<1x384x512xf32>) -> tensor<384x512xf32>
    %1103 = tosa.fully_connected %1102, %1067, %1066 : (tensor<384x512xf32>, tensor<128x512xf32>, tensor<128xf32>) -> tensor<384x128xf32>
    %1104 = tosa.reshape %1099 {new_shape = array<i64: 1, 384, 128>} : (tensor<384x128xf32>) -> tensor<1x384x128xf32>
    %1105 = tosa.fully_connected %1101, %1065, %1064 : (tensor<384x128xf32>, tensor<128x128xf32>, tensor<128xf32>) -> tensor<384x128xf32>
    %1106 = tosa.fully_connected %1101, %1063, %1062 : (tensor<384x128xf32>, tensor<128x128xf32>, tensor<128xf32>) -> tensor<384x128xf32>
    %1107 = tosa.fully_connected %1103, %1061, %1060 : (tensor<384x128xf32>, tensor<128x128xf32>, tensor<128xf32>) -> tensor<384x128xf32>
    %1108 = tosa.reshape %1105 {new_shape = array<i64: 1, 384, 4, 32>} : (tensor<384x128xf32>) -> tensor<1x384x4x32xf32>
    %1109 = tosa.reshape %1106 {new_shape = array<i64: 1, 384, 4, 32>} : (tensor<384x128xf32>) -> tensor<1x384x4x32xf32>
    %1110 = tosa.reshape %1107 {new_shape = array<i64: 1, 384, 4, 32>} : (tensor<384x128xf32>) -> tensor<1x384x4x32xf32>
    %1111 = tosa.transpose %1108, %1059 : (tensor<1x384x4x32xf32>, tensor<4xi32>) -> tensor<1x4x384x32xf32>
    %1112 = tosa.transpose %1110, %1059 : (tensor<1x384x4x32xf32>, tensor<4xi32>) -> tensor<1x4x384x32xf32>
    %1113 = tosa.transpose %1109, %cst : (tensor<1x384x4x32xf32>, tensor<4xi32>) -> tensor<1x4x32x384xf32>
    %1114 = tosa.reshape %1111 {new_shape = array<i64: 4, 384, 32>} : (tensor<1x4x384x32xf32>) -> tensor<4x384x32xf32>
    %1115 = tosa.slice %1114 {size = array<i64: 1, 384, 32>, start = array<i64: 0, 0, 0>} : (tensor<4x384x32xf32>) -> tensor<1x384x32xf32>
    %1116 = tosa.slice %1114 {size = array<i64: 1, 384, 32>, start = array<i64: 1, 0, 0>} : (tensor<4x384x32xf32>) -> tensor<1x384x32xf32>
    %1117 = tosa.slice %1114 {size = array<i64: 1, 384, 32>, start = array<i64: 2, 0, 0>} : (tensor<4x384x32xf32>) -> tensor<1x384x32xf32>
    %1118 = tosa.slice %1114 {size = array<i64: 1, 384, 32>, start = array<i64: 3, 0, 0>} : (tensor<4x384x32xf32>) -> tensor<1x384x32xf32>
    %1119 = tosa.reshape %1113 {new_shape = array<i64: 4, 32, 384>} : (tensor<1x4x32x384xf32>) -> tensor<4x32x384xf32>
    %1120 = tosa.slice %1119 {size = array<i64: 1, 32, 384>, start = array<i64: 0, 0, 0>} : (tensor<4x32x384xf32>) -> tensor<1x32x384xf32>
    %1121 = tosa.transpose %1120, %1058 : (tensor<1x32x384xf32>, tensor<3xi32>) -> tensor<384x32x1xf32>
    %1122 = tosa.slice %1119 {size = array<i64: 1, 32, 384>, start = array<i64: 1, 0, 0>} : (tensor<4x32x384xf32>) -> tensor<1x32x384xf32>
    %1123 = tosa.transpose %1122, %1058 : (tensor<1x32x384xf32>, tensor<3xi32>) -> tensor<384x32x1xf32>
    %1124 = tosa.slice %1119 {size = array<i64: 1, 32, 384>, start = array<i64: 2, 0, 0>} : (tensor<4x32x384xf32>) -> tensor<1x32x384xf32>
    %1125 = tosa.transpose %1124, %1058 : (tensor<1x32x384xf32>, tensor<3xi32>) -> tensor<384x32x1xf32>
    %1126 = tosa.slice %1119 {size = array<i64: 1, 32, 384>, start = array<i64: 3, 0, 0>} : (tensor<4x32x384xf32>) -> tensor<1x32x384xf32>
    %1127 = tosa.transpose %1126, %1058 : (tensor<1x32x384xf32>, tensor<3xi32>) -> tensor<384x32x1xf32>
    %1128 = tosa.reshape %1121 {new_shape = array<i64: 384, 32>} : (tensor<384x32x1xf32>) -> tensor<384x32xf32>
    %1129 = tosa.reshape %1115 {new_shape = array<i64: 384, 32>} : (tensor<1x384x32xf32>) -> tensor<384x32xf32>
    %1130 = tosa.fully_connected %1129, %1128, %295 : (tensor<384x32xf32>, tensor<384x32xf32>, tensor<384xf32>) -> tensor<384x384xf32>
    %1131 = tosa.reshape %1123 {new_shape = array<i64: 384, 32>} : (tensor<384x32x1xf32>) -> tensor<384x32xf32>
    %1132 = tosa.reshape %1116 {new_shape = array<i64: 384, 32>} : (tensor<1x384x32xf32>) -> tensor<384x32xf32>
    %1133 = tosa.fully_connected %1132, %1131, %295 : (tensor<384x32xf32>, tensor<384x32xf32>, tensor<384xf32>) -> tensor<384x384xf32>
    %1134 = tosa.reshape %1125 {new_shape = array<i64: 384, 32>} : (tensor<384x32x1xf32>) -> tensor<384x32xf32>
    %1135 = tosa.reshape %1117 {new_shape = array<i64: 384, 32>} : (tensor<1x384x32xf32>) -> tensor<384x32xf32>
    %1136 = tosa.fully_connected %1135, %1134, %295 : (tensor<384x32xf32>, tensor<384x32xf32>, tensor<384xf32>) -> tensor<384x384xf32>
    %1137 = tosa.reshape %1127 {new_shape = array<i64: 384, 32>} : (tensor<384x32x1xf32>) -> tensor<384x32xf32>
    %1138 = tosa.reshape %1118 {new_shape = array<i64: 384, 32>} : (tensor<1x384x32xf32>) -> tensor<384x32xf32>
    %1139 = tosa.fully_connected %1138, %1137, %295 : (tensor<384x32xf32>, tensor<384x32xf32>, tensor<384xf32>) -> tensor<384x384xf32>
    %1140 = tosa.concat %1130, %1133, %1136, %1139 {axis = 0 : i32} : (tensor<384x384xf32>, tensor<384x384xf32>, tensor<384x384xf32>, tensor<384x384xf32>) -> tensor<1536x384xf32>
    %1141 = tosa.reshape %1140 {new_shape = array<i64: 4, 384, 384>} : (tensor<1536x384xf32>) -> tensor<4x384x384xf32>
    %1142 = tosa.mul %1141, %289 {shift = 0 : i8} : (tensor<4x384x384xf32>, tensor<1x1x1xf32>) -> tensor<4x384x384xf32>
    %1143 = tosa.reshape %1142 {new_shape = array<i64: 1, 4, 384, 384>} : (tensor<4x384x384xf32>) -> tensor<1x4x384x384xf32>
    %1144 = tosa.add %1143, %1088 : (tensor<1x4x384x384xf32>, tensor<1x1x384x384xf32>) -> tensor<1x4x384x384xf32>
    %1145 = tosa.reduce_max %1144 {axis = 3 : i32} : (tensor<1x4x384x384xf32>) -> tensor<1x4x384x1xf32>
    %1146 = tosa.sub %1144, %1145 : (tensor<1x4x384x384xf32>, tensor<1x4x384x1xf32>) -> tensor<1x4x384x384xf32>
    %1147 = tosa.exp %1146 : (tensor<1x4x384x384xf32>) -> tensor<1x4x384x384xf32>
    %1148 = tosa.reduce_sum %1147 {axis = 3 : i32} : (tensor<1x4x384x384xf32>) -> tensor<1x4x384x1xf32>
    %1149 = tosa.reciprocal %1148 : (tensor<1x4x384x1xf32>) -> tensor<1x4x384x1xf32>
    %1150 = tosa.mul %1147, %1149 {shift = 0 : i8} : (tensor<1x4x384x384xf32>, tensor<1x4x384x1xf32>) -> tensor<1x4x384x384xf32>
    %1151 = tosa.reshape %1150 {new_shape = array<i64: 4, 384, 384>} : (tensor<1x4x384x384xf32>) -> tensor<4x384x384xf32>
    %1152 = tosa.slice %1151 {size = array<i64: 1, 384, 384>, start = array<i64: 0, 0, 0>} : (tensor<4x384x384xf32>) -> tensor<1x384x384xf32>
    %1153 = tosa.slice %1151 {size = array<i64: 1, 384, 384>, start = array<i64: 1, 0, 0>} : (tensor<4x384x384xf32>) -> tensor<1x384x384xf32>
    %1154 = tosa.slice %1151 {size = array<i64: 1, 384, 384>, start = array<i64: 2, 0, 0>} : (tensor<4x384x384xf32>) -> tensor<1x384x384xf32>
    %1155 = tosa.slice %1151 {size = array<i64: 1, 384, 384>, start = array<i64: 3, 0, 0>} : (tensor<4x384x384xf32>) -> tensor<1x384x384xf32>
    %1156 = tosa.reshape %1112 {new_shape = array<i64: 4, 384, 32>} : (tensor<1x4x384x32xf32>) -> tensor<4x384x32xf32>
    %1157 = tosa.slice %1156 {size = array<i64: 1, 384, 32>, start = array<i64: 0, 0, 0>} : (tensor<4x384x32xf32>) -> tensor<1x384x32xf32>
    %1158 = tosa.transpose %1157, %1058 : (tensor<1x384x32xf32>, tensor<3xi32>) -> tensor<32x384x1xf32>
    %1159 = tosa.slice %1156 {size = array<i64: 1, 384, 32>, start = array<i64: 1, 0, 0>} : (tensor<4x384x32xf32>) -> tensor<1x384x32xf32>
    %1160 = tosa.transpose %1159, %1058 : (tensor<1x384x32xf32>, tensor<3xi32>) -> tensor<32x384x1xf32>
    %1161 = tosa.slice %1156 {size = array<i64: 1, 384, 32>, start = array<i64: 2, 0, 0>} : (tensor<4x384x32xf32>) -> tensor<1x384x32xf32>
    %1162 = tosa.transpose %1161, %1058 : (tensor<1x384x32xf32>, tensor<3xi32>) -> tensor<32x384x1xf32>
    %1163 = tosa.slice %1156 {size = array<i64: 1, 384, 32>, start = array<i64: 3, 0, 0>} : (tensor<4x384x32xf32>) -> tensor<1x384x32xf32>
    %1164 = tosa.transpose %1163, %1058 : (tensor<1x384x32xf32>, tensor<3xi32>) -> tensor<32x384x1xf32>
    %1165 = tosa.reshape %1158 {new_shape = array<i64: 32, 384>} : (tensor<32x384x1xf32>) -> tensor<32x384xf32>
    %1166 = tosa.reshape %1152 {new_shape = array<i64: 384, 384>} : (tensor<1x384x384xf32>) -> tensor<384x384xf32>
    %1167 = tosa.fully_connected %1166, %1165, %294 : (tensor<384x384xf32>, tensor<32x384xf32>, tensor<32xf32>) -> tensor<384x32xf32>
    %1168 = tosa.reshape %1160 {new_shape = array<i64: 32, 384>} : (tensor<32x384x1xf32>) -> tensor<32x384xf32>
    %1169 = tosa.reshape %1153 {new_shape = array<i64: 384, 384>} : (tensor<1x384x384xf32>) -> tensor<384x384xf32>
    %1170 = tosa.fully_connected %1169, %1168, %294 : (tensor<384x384xf32>, tensor<32x384xf32>, tensor<32xf32>) -> tensor<384x32xf32>
    %1171 = tosa.reshape %1162 {new_shape = array<i64: 32, 384>} : (tensor<32x384x1xf32>) -> tensor<32x384xf32>
    %1172 = tosa.reshape %1154 {new_shape = array<i64: 384, 384>} : (tensor<1x384x384xf32>) -> tensor<384x384xf32>
    %1173 = tosa.fully_connected %1172, %1171, %294 : (tensor<384x384xf32>, tensor<32x384xf32>, tensor<32xf32>) -> tensor<384x32xf32>
    %1174 = tosa.reshape %1164 {new_shape = array<i64: 32, 384>} : (tensor<32x384x1xf32>) -> tensor<32x384xf32>
    %1175 = tosa.reshape %1155 {new_shape = array<i64: 384, 384>} : (tensor<1x384x384xf32>) -> tensor<384x384xf32>
    %1176 = tosa.fully_connected %1175, %1174, %294 : (tensor<384x384xf32>, tensor<32x384xf32>, tensor<32xf32>) -> tensor<384x32xf32>
    %1177 = tosa.concat %1167, %1170, %1173, %1176 {axis = 0 : i32} : (tensor<384x32xf32>, tensor<384x32xf32>, tensor<384x32xf32>, tensor<384x32xf32>) -> tensor<1536x32xf32>
    %1178 = tosa.reshape %1177 {new_shape = array<i64: 4, 384, 32>} : (tensor<1536x32xf32>) -> tensor<4x384x32xf32>
    %1179 = tosa.transpose %1178, %1057 : (tensor<4x384x32xf32>, tensor<3xi32>) -> tensor<384x4x32xf32>
    %1180 = tosa.reshape %1179 {new_shape = array<i64: 384, 128>} : (tensor<384x4x32xf32>) -> tensor<384x128xf32>
    %1181 = tosa.fully_connected %1180, %1056, %1055 : (tensor<384x128xf32>, tensor<128x128xf32>, tensor<128xf32>) -> tensor<384x128xf32>
    %1182 = tosa.reshape %1181 {new_shape = array<i64: 1, 384, 128>} : (tensor<384x128xf32>) -> tensor<1x384x128xf32>
    %1183 = tosa.add %1182, %1104 : (tensor<1x384x128xf32>, tensor<1x384x128xf32>) -> tensor<1x384x128xf32>
    %1184 = tosa.mul %1183, %288 {shift = 0 : i8} : (tensor<1x384x128xf32>, tensor<1x1x128xf32>) -> tensor<1x384x128xf32>
    %1185 = tosa.add %1184, %287 : (tensor<1x384x128xf32>, tensor<1x1x128xf32>) -> tensor<1x384x128xf32>
    %1186 = tosa.reshape %1185 {new_shape = array<i64: 384, 128>} : (tensor<1x384x128xf32>) -> tensor<384x128xf32>
    %1187 = tosa.fully_connected %1186, %1054, %1053 : (tensor<384x128xf32>, tensor<512x128xf32>, tensor<512xf32>) -> tensor<384x512xf32>
    %1188 = tosa.clamp %1187 {max_fp = 3.40282347E+38 : f32, max_int = 2147483647 : i64, min_fp = 0.000000e+00 : f32, min_int = 0 : i64} : (tensor<384x512xf32>) -> tensor<384x512xf32>
    %1189 = tosa.fully_connected %1188, %1052, %1051 : (tensor<384x512xf32>, tensor<128x512xf32>, tensor<128xf32>) -> tensor<384x128xf32>
    %1190 = tosa.reshape %1189 {new_shape = array<i64: 1, 384, 128>} : (tensor<384x128xf32>) -> tensor<1x384x128xf32>
    %1191 = tosa.add %1190, %1185 : (tensor<1x384x128xf32>, tensor<1x384x128xf32>) -> tensor<1x384x128xf32>
    %1192 = tosa.mul %1191, %286 {shift = 0 : i8} : (tensor<1x384x128xf32>, tensor<1x1x128xf32>) -> tensor<1x384x128xf32>
    %1193 = tosa.add %1192, %285 : (tensor<1x384x128xf32>, tensor<1x1x128xf32>) -> tensor<1x384x128xf32>
    %1194 = tosa.reshape %1193 {new_shape = array<i64: 384, 128>} : (tensor<1x384x128xf32>) -> tensor<384x128xf32>
    %1195 = tosa.fully_connected %1194, %1050, %1049 : (tensor<384x128xf32>, tensor<512x128xf32>, tensor<512xf32>) -> tensor<384x512xf32>
    %1196 = tosa.clamp %1195 {max_fp = 3.40282347E+38 : f32, max_int = 2147483647 : i64, min_fp = 0.000000e+00 : f32, min_int = 0 : i64} : (tensor<384x512xf32>) -> tensor<384x512xf32>
    %1197 = tosa.fully_connected %1196, %1048, %1047 : (tensor<384x512xf32>, tensor<128x512xf32>, tensor<128xf32>) -> tensor<384x128xf32>
    %1198 = tosa.reshape %1197 {new_shape = array<i64: 1, 384, 128>} : (tensor<384x128xf32>) -> tensor<1x384x128xf32>
    %1199 = tosa.add %1198, %1193 : (tensor<1x384x128xf32>, tensor<1x384x128xf32>) -> tensor<1x384x128xf32>
    %1200 = tosa.mul %1199, %284 {shift = 0 : i8} : (tensor<1x384x128xf32>, tensor<1x1x128xf32>) -> tensor<1x384x128xf32>
    %1201 = tosa.add %1200, %283 : (tensor<1x384x128xf32>, tensor<1x1x128xf32>) -> tensor<1x384x128xf32>
    %1202 = tosa.reshape %1201 {new_shape = array<i64: 384, 128>} : (tensor<1x384x128xf32>) -> tensor<384x128xf32>
    %1203 = tosa.fully_connected %1202, %1046, %1045 : (tensor<384x128xf32>, tensor<512x128xf32>, tensor<512xf32>) -> tensor<384x512xf32>
    %1204 = tosa.clamp %1203 {max_fp = 3.40282347E+38 : f32, max_int = 2147483647 : i64, min_fp = 0.000000e+00 : f32, min_int = 0 : i64} : (tensor<384x512xf32>) -> tensor<384x512xf32>
    %1205 = tosa.fully_connected %1204, %1044, %1043 : (tensor<384x512xf32>, tensor<128x512xf32>, tensor<128xf32>) -> tensor<384x128xf32>
    %1206 = tosa.reshape %1205 {new_shape = array<i64: 1, 384, 128>} : (tensor<384x128xf32>) -> tensor<1x384x128xf32>
    %1207 = tosa.add %1206, %1201 : (tensor<1x384x128xf32>, tensor<1x384x128xf32>) -> tensor<1x384x128xf32>
    %1208 = tosa.mul %1207, %282 {shift = 0 : i8} : (tensor<1x384x128xf32>, tensor<1x1x128xf32>) -> tensor<1x384x128xf32>
    %1209 = tosa.add %1208, %281 : (tensor<1x384x128xf32>, tensor<1x1x128xf32>) -> tensor<1x384x128xf32>
    %1210 = tosa.reshape %1209 {new_shape = array<i64: 384, 128>} : (tensor<1x384x128xf32>) -> tensor<384x128xf32>
    %1211 = tosa.fully_connected %1210, %1042, %1041 : (tensor<384x128xf32>, tensor<512x128xf32>, tensor<512xf32>) -> tensor<384x512xf32>
    %1212 = tosa.clamp %1211 {max_fp = 3.40282347E+38 : f32, max_int = 2147483647 : i64, min_fp = 0.000000e+00 : f32, min_int = 0 : i64} : (tensor<384x512xf32>) -> tensor<384x512xf32>
    %1213 = tosa.fully_connected %1212, %1040, %1039 : (tensor<384x512xf32>, tensor<128x512xf32>, tensor<128xf32>) -> tensor<384x128xf32>
    %1214 = tosa.reshape %1213 {new_shape = array<i64: 1, 384, 128>} : (tensor<384x128xf32>) -> tensor<1x384x128xf32>
    %1215 = tosa.add %1214, %1209 : (tensor<1x384x128xf32>, tensor<1x384x128xf32>) -> tensor<1x384x128xf32>
    %1216 = tosa.mul %1215, %280 {shift = 0 : i8} : (tensor<1x384x128xf32>, tensor<1x1x128xf32>) -> tensor<1x384x128xf32>
    %1217 = tosa.add %1216, %279 : (tensor<1x384x128xf32>, tensor<1x1x128xf32>) -> tensor<1x384x128xf32>
    %1218 = tosa.reshape %1217 {new_shape = array<i64: 384, 128>} : (tensor<1x384x128xf32>) -> tensor<384x128xf32>
    %1219 = tosa.fully_connected %1218, %1038, %1037 : (tensor<384x128xf32>, tensor<512x128xf32>, tensor<512xf32>) -> tensor<384x512xf32>
    %1220 = tosa.reshape %1219 {new_shape = array<i64: 1, 384, 512>} : (tensor<384x512xf32>) -> tensor<1x384x512xf32>
    %1221 = tosa.add %1220, %1097 : (tensor<1x384x512xf32>, tensor<1x384x512xf32>) -> tensor<1x384x512xf32>
    %1222 = tosa.mul %1221, %278 {shift = 0 : i8} : (tensor<1x384x512xf32>, tensor<1x1x512xf32>) -> tensor<1x384x512xf32>
    %1223 = tosa.add %1222, %277 : (tensor<1x384x512xf32>, tensor<1x1x512xf32>) -> tensor<1x384x512xf32>
    %1224 = tosa.reshape %1223 {new_shape = array<i64: 384, 512>} : (tensor<1x384x512xf32>) -> tensor<384x512xf32>
    %1225 = tosa.fully_connected %1224, %1036, %1035 : (tensor<384x512xf32>, tensor<128x512xf32>, tensor<128xf32>) -> tensor<384x128xf32>
    %1226 = tosa.reshape %1223 {new_shape = array<i64: 384, 512>} : (tensor<1x384x512xf32>) -> tensor<384x512xf32>
    %1227 = tosa.fully_connected %1226, %1034, %1033 : (tensor<384x512xf32>, tensor<128x512xf32>, tensor<128xf32>) -> tensor<384x128xf32>
    %1228 = tosa.reshape %1223 {new_shape = array<i64: 384, 512>} : (tensor<1x384x512xf32>) -> tensor<384x512xf32>
    %1229 = tosa.fully_connected %1228, %1032, %1031 : (tensor<384x512xf32>, tensor<128x512xf32>, tensor<128xf32>) -> tensor<384x128xf32>
    %1230 = tosa.reshape %1225 {new_shape = array<i64: 1, 384, 128>} : (tensor<384x128xf32>) -> tensor<1x384x128xf32>
    %1231 = tosa.fully_connected %1227, %1030, %1029 : (tensor<384x128xf32>, tensor<128x128xf32>, tensor<128xf32>) -> tensor<384x128xf32>
    %1232 = tosa.fully_connected %1227, %1028, %1027 : (tensor<384x128xf32>, tensor<128x128xf32>, tensor<128xf32>) -> tensor<384x128xf32>
    %1233 = tosa.fully_connected %1229, %1026, %1025 : (tensor<384x128xf32>, tensor<128x128xf32>, tensor<128xf32>) -> tensor<384x128xf32>
    %1234 = tosa.reshape %1231 {new_shape = array<i64: 1, 384, 4, 32>} : (tensor<384x128xf32>) -> tensor<1x384x4x32xf32>
    %1235 = tosa.reshape %1232 {new_shape = array<i64: 1, 384, 4, 32>} : (tensor<384x128xf32>) -> tensor<1x384x4x32xf32>
    %1236 = tosa.reshape %1233 {new_shape = array<i64: 1, 384, 4, 32>} : (tensor<384x128xf32>) -> tensor<1x384x4x32xf32>
    %1237 = tosa.transpose %1234, %1059 : (tensor<1x384x4x32xf32>, tensor<4xi32>) -> tensor<1x4x384x32xf32>
    %1238 = tosa.transpose %1236, %1059 : (tensor<1x384x4x32xf32>, tensor<4xi32>) -> tensor<1x4x384x32xf32>
    %1239 = tosa.transpose %1235, %cst : (tensor<1x384x4x32xf32>, tensor<4xi32>) -> tensor<1x4x32x384xf32>
    %1240 = tosa.reshape %1237 {new_shape = array<i64: 4, 384, 32>} : (tensor<1x4x384x32xf32>) -> tensor<4x384x32xf32>
    %1241 = tosa.slice %1240 {size = array<i64: 1, 384, 32>, start = array<i64: 0, 0, 0>} : (tensor<4x384x32xf32>) -> tensor<1x384x32xf32>
    %1242 = tosa.slice %1240 {size = array<i64: 1, 384, 32>, start = array<i64: 1, 0, 0>} : (tensor<4x384x32xf32>) -> tensor<1x384x32xf32>
    %1243 = tosa.slice %1240 {size = array<i64: 1, 384, 32>, start = array<i64: 2, 0, 0>} : (tensor<4x384x32xf32>) -> tensor<1x384x32xf32>
    %1244 = tosa.slice %1240 {size = array<i64: 1, 384, 32>, start = array<i64: 3, 0, 0>} : (tensor<4x384x32xf32>) -> tensor<1x384x32xf32>
    %1245 = tosa.reshape %1239 {new_shape = array<i64: 4, 32, 384>} : (tensor<1x4x32x384xf32>) -> tensor<4x32x384xf32>
    %1246 = tosa.slice %1245 {size = array<i64: 1, 32, 384>, start = array<i64: 0, 0, 0>} : (tensor<4x32x384xf32>) -> tensor<1x32x384xf32>
    %1247 = tosa.transpose %1246, %1058 : (tensor<1x32x384xf32>, tensor<3xi32>) -> tensor<384x32x1xf32>
    %1248 = tosa.slice %1245 {size = array<i64: 1, 32, 384>, start = array<i64: 1, 0, 0>} : (tensor<4x32x384xf32>) -> tensor<1x32x384xf32>
    %1249 = tosa.transpose %1248, %1058 : (tensor<1x32x384xf32>, tensor<3xi32>) -> tensor<384x32x1xf32>
    %1250 = tosa.slice %1245 {size = array<i64: 1, 32, 384>, start = array<i64: 2, 0, 0>} : (tensor<4x32x384xf32>) -> tensor<1x32x384xf32>
    %1251 = tosa.transpose %1250, %1058 : (tensor<1x32x384xf32>, tensor<3xi32>) -> tensor<384x32x1xf32>
    %1252 = tosa.slice %1245 {size = array<i64: 1, 32, 384>, start = array<i64: 3, 0, 0>} : (tensor<4x32x384xf32>) -> tensor<1x32x384xf32>
    %1253 = tosa.transpose %1252, %1058 : (tensor<1x32x384xf32>, tensor<3xi32>) -> tensor<384x32x1xf32>
    %1254 = tosa.reshape %1247 {new_shape = array<i64: 384, 32>} : (tensor<384x32x1xf32>) -> tensor<384x32xf32>
    %1255 = tosa.reshape %1241 {new_shape = array<i64: 384, 32>} : (tensor<1x384x32xf32>) -> tensor<384x32xf32>
    %1256 = tosa.fully_connected %1255, %1254, %295 : (tensor<384x32xf32>, tensor<384x32xf32>, tensor<384xf32>) -> tensor<384x384xf32>
    %1257 = tosa.reshape %1249 {new_shape = array<i64: 384, 32>} : (tensor<384x32x1xf32>) -> tensor<384x32xf32>
    %1258 = tosa.reshape %1242 {new_shape = array<i64: 384, 32>} : (tensor<1x384x32xf32>) -> tensor<384x32xf32>
    %1259 = tosa.fully_connected %1258, %1257, %295 : (tensor<384x32xf32>, tensor<384x32xf32>, tensor<384xf32>) -> tensor<384x384xf32>
    %1260 = tosa.reshape %1251 {new_shape = array<i64: 384, 32>} : (tensor<384x32x1xf32>) -> tensor<384x32xf32>
    %1261 = tosa.reshape %1243 {new_shape = array<i64: 384, 32>} : (tensor<1x384x32xf32>) -> tensor<384x32xf32>
    %1262 = tosa.fully_connected %1261, %1260, %295 : (tensor<384x32xf32>, tensor<384x32xf32>, tensor<384xf32>) -> tensor<384x384xf32>
    %1263 = tosa.reshape %1253 {new_shape = array<i64: 384, 32>} : (tensor<384x32x1xf32>) -> tensor<384x32xf32>
    %1264 = tosa.reshape %1244 {new_shape = array<i64: 384, 32>} : (tensor<1x384x32xf32>) -> tensor<384x32xf32>
    %1265 = tosa.fully_connected %1264, %1263, %295 : (tensor<384x32xf32>, tensor<384x32xf32>, tensor<384xf32>) -> tensor<384x384xf32>
    %1266 = tosa.concat %1256, %1259, %1262, %1265 {axis = 0 : i32} : (tensor<384x384xf32>, tensor<384x384xf32>, tensor<384x384xf32>, tensor<384x384xf32>) -> tensor<1536x384xf32>
    %1267 = tosa.reshape %1266 {new_shape = array<i64: 4, 384, 384>} : (tensor<1536x384xf32>) -> tensor<4x384x384xf32>
    %1268 = tosa.mul %1267, %289 {shift = 0 : i8} : (tensor<4x384x384xf32>, tensor<1x1x1xf32>) -> tensor<4x384x384xf32>
    %1269 = tosa.reshape %1268 {new_shape = array<i64: 1, 4, 384, 384>} : (tensor<4x384x384xf32>) -> tensor<1x4x384x384xf32>
    %1270 = tosa.add %1269, %1088 : (tensor<1x4x384x384xf32>, tensor<1x1x384x384xf32>) -> tensor<1x4x384x384xf32>
    %1271 = tosa.reduce_max %1270 {axis = 3 : i32} : (tensor<1x4x384x384xf32>) -> tensor<1x4x384x1xf32>
    %1272 = tosa.sub %1270, %1271 : (tensor<1x4x384x384xf32>, tensor<1x4x384x1xf32>) -> tensor<1x4x384x384xf32>
    %1273 = tosa.exp %1272 : (tensor<1x4x384x384xf32>) -> tensor<1x4x384x384xf32>
    %1274 = tosa.reduce_sum %1273 {axis = 3 : i32} : (tensor<1x4x384x384xf32>) -> tensor<1x4x384x1xf32>
    %1275 = tosa.reciprocal %1274 : (tensor<1x4x384x1xf32>) -> tensor<1x4x384x1xf32>
    %1276 = tosa.mul %1273, %1275 {shift = 0 : i8} : (tensor<1x4x384x384xf32>, tensor<1x4x384x1xf32>) -> tensor<1x4x384x384xf32>
    %1277 = tosa.reshape %1276 {new_shape = array<i64: 4, 384, 384>} : (tensor<1x4x384x384xf32>) -> tensor<4x384x384xf32>
    %1278 = tosa.slice %1277 {size = array<i64: 1, 384, 384>, start = array<i64: 0, 0, 0>} : (tensor<4x384x384xf32>) -> tensor<1x384x384xf32>
    %1279 = tosa.slice %1277 {size = array<i64: 1, 384, 384>, start = array<i64: 1, 0, 0>} : (tensor<4x384x384xf32>) -> tensor<1x384x384xf32>
    %1280 = tosa.slice %1277 {size = array<i64: 1, 384, 384>, start = array<i64: 2, 0, 0>} : (tensor<4x384x384xf32>) -> tensor<1x384x384xf32>
    %1281 = tosa.slice %1277 {size = array<i64: 1, 384, 384>, start = array<i64: 3, 0, 0>} : (tensor<4x384x384xf32>) -> tensor<1x384x384xf32>
    %1282 = tosa.reshape %1238 {new_shape = array<i64: 4, 384, 32>} : (tensor<1x4x384x32xf32>) -> tensor<4x384x32xf32>
    %1283 = tosa.slice %1282 {size = array<i64: 1, 384, 32>, start = array<i64: 0, 0, 0>} : (tensor<4x384x32xf32>) -> tensor<1x384x32xf32>
    %1284 = tosa.transpose %1283, %1058 : (tensor<1x384x32xf32>, tensor<3xi32>) -> tensor<32x384x1xf32>
    %1285 = tosa.slice %1282 {size = array<i64: 1, 384, 32>, start = array<i64: 1, 0, 0>} : (tensor<4x384x32xf32>) -> tensor<1x384x32xf32>
    %1286 = tosa.transpose %1285, %1058 : (tensor<1x384x32xf32>, tensor<3xi32>) -> tensor<32x384x1xf32>
    %1287 = tosa.slice %1282 {size = array<i64: 1, 384, 32>, start = array<i64: 2, 0, 0>} : (tensor<4x384x32xf32>) -> tensor<1x384x32xf32>
    %1288 = tosa.transpose %1287, %1058 : (tensor<1x384x32xf32>, tensor<3xi32>) -> tensor<32x384x1xf32>
    %1289 = tosa.slice %1282 {size = array<i64: 1, 384, 32>, start = array<i64: 3, 0, 0>} : (tensor<4x384x32xf32>) -> tensor<1x384x32xf32>
    %1290 = tosa.transpose %1289, %1058 : (tensor<1x384x32xf32>, tensor<3xi32>) -> tensor<32x384x1xf32>
    %1291 = tosa.reshape %1284 {new_shape = array<i64: 32, 384>} : (tensor<32x384x1xf32>) -> tensor<32x384xf32>
    %1292 = tosa.reshape %1278 {new_shape = array<i64: 384, 384>} : (tensor<1x384x384xf32>) -> tensor<384x384xf32>
    %1293 = tosa.fully_connected %1292, %1291, %294 : (tensor<384x384xf32>, tensor<32x384xf32>, tensor<32xf32>) -> tensor<384x32xf32>
    %1294 = tosa.reshape %1286 {new_shape = array<i64: 32, 384>} : (tensor<32x384x1xf32>) -> tensor<32x384xf32>
    %1295 = tosa.reshape %1279 {new_shape = array<i64: 384, 384>} : (tensor<1x384x384xf32>) -> tensor<384x384xf32>
    %1296 = tosa.fully_connected %1295, %1294, %294 : (tensor<384x384xf32>, tensor<32x384xf32>, tensor<32xf32>) -> tensor<384x32xf32>
    %1297 = tosa.reshape %1288 {new_shape = array<i64: 32, 384>} : (tensor<32x384x1xf32>) -> tensor<32x384xf32>
    %1298 = tosa.reshape %1280 {new_shape = array<i64: 384, 384>} : (tensor<1x384x384xf32>) -> tensor<384x384xf32>
    %1299 = tosa.fully_connected %1298, %1297, %294 : (tensor<384x384xf32>, tensor<32x384xf32>, tensor<32xf32>) -> tensor<384x32xf32>
    %1300 = tosa.reshape %1290 {new_shape = array<i64: 32, 384>} : (tensor<32x384x1xf32>) -> tensor<32x384xf32>
    %1301 = tosa.reshape %1281 {new_shape = array<i64: 384, 384>} : (tensor<1x384x384xf32>) -> tensor<384x384xf32>
    %1302 = tosa.fully_connected %1301, %1300, %294 : (tensor<384x384xf32>, tensor<32x384xf32>, tensor<32xf32>) -> tensor<384x32xf32>
    %1303 = tosa.concat %1293, %1296, %1299, %1302 {axis = 0 : i32} : (tensor<384x32xf32>, tensor<384x32xf32>, tensor<384x32xf32>, tensor<384x32xf32>) -> tensor<1536x32xf32>
    %1304 = tosa.reshape %1303 {new_shape = array<i64: 4, 384, 32>} : (tensor<1536x32xf32>) -> tensor<4x384x32xf32>
    %1305 = tosa.transpose %1304, %1057 : (tensor<4x384x32xf32>, tensor<3xi32>) -> tensor<384x4x32xf32>
    %1306 = tosa.reshape %1305 {new_shape = array<i64: 384, 128>} : (tensor<384x4x32xf32>) -> tensor<384x128xf32>
    %1307 = tosa.fully_connected %1306, %1024, %1023 : (tensor<384x128xf32>, tensor<128x128xf32>, tensor<128xf32>) -> tensor<384x128xf32>
    %1308 = tosa.reshape %1307 {new_shape = array<i64: 1, 384, 128>} : (tensor<384x128xf32>) -> tensor<1x384x128xf32>
    %1309 = tosa.add %1308, %1230 : (tensor<1x384x128xf32>, tensor<1x384x128xf32>) -> tensor<1x384x128xf32>
    %1310 = tosa.mul %1309, %276 {shift = 0 : i8} : (tensor<1x384x128xf32>, tensor<1x1x128xf32>) -> tensor<1x384x128xf32>
    %1311 = tosa.add %1310, %275 : (tensor<1x384x128xf32>, tensor<1x1x128xf32>) -> tensor<1x384x128xf32>
    %1312 = tosa.reshape %1311 {new_shape = array<i64: 384, 128>} : (tensor<1x384x128xf32>) -> tensor<384x128xf32>
…
    %3724 = tosa.clamp %3723 {max_fp = 3.40282347E+38 : f32, max_int = 2147483647 : i64, min_fp = 0.000000e+00 : f32, min_int = 0 : i64} : (tensor<384x512xf32>) -> tensor<384x512xf32>
    %3725 = tosa.fully_connected %3724, %404, %403 : (tensor<384x512xf32>, tensor<128x512xf32>, tensor<128xf32>) -> tensor<384x128xf32>
    %3726 = tosa.reshape %3725 {new_shape = array<i64: 1, 384, 128>} : (tensor<384x128xf32>) -> tensor<1x384x128xf32>
    %3727 = tosa.add %3726, %3721 : (tensor<1x384x128xf32>, tensor<1x384x128xf32>) -> tensor<1x384x128xf32>
    %3728 = tosa.mul %3727, %42 {shift = 0 : i8} : (tensor<1x384x128xf32>, tensor<1x1x128xf32>) -> tensor<1x384x128xf32>
    %3729 = tosa.add %3728, %41 : (tensor<1x384x128xf32>, tensor<1x1x128xf32>) -> tensor<1x384x128xf32>
    %3730 = tosa.reshape %3729 {new_shape = array<i64: 384, 128>} : (tensor<1x384x128xf32>) -> tensor<384x128xf32>
    %3731 = tosa.fully_connected %3730, %402, %401 : (tensor<384x128xf32>, tensor<512x128xf32>, tensor<512xf32>) -> tensor<384x512xf32>
    %3732 = tosa.clamp %3731 {max_fp = 3.40282347E+38 : f32, max_int = 2147483647 : i64, min_fp = 0.000000e+00 : f32, min_int = 0 : i64} : (tensor<384x512xf32>) -> tensor<384x512xf32>
    %3733 = tosa.fully_connected %3732, %400, %399 : (tensor<384x512xf32>, tensor<128x512xf32>, tensor<128xf32>) -> tensor<384x128xf32>
    %3734 = tosa.reshape %3733 {new_shape = array<i64: 1, 384, 128>} : (tensor<384x128xf32>) -> tensor<1x384x128xf32>
    %3735 = tosa.add %3734, %3729 : (tensor<1x384x128xf32>, tensor<1x384x128xf32>) -> tensor<1x384x128xf32>
    %3736 = tosa.mul %3735, %40 {shift = 0 : i8} : (tensor<1x384x128xf32>, tensor<1x1x128xf32>) -> tensor<1x384x128xf32>
    %3737 = tosa.add %3736, %39 : (tensor<1x384x128xf32>, tensor<1x1x128xf32>) -> tensor<1x384x128xf32>
    %3738 = tosa.reshape %3737 {new_shape = array<i64: 384, 128>} : (tensor<1x384x128xf32>) -> tensor<384x128xf32>
    %3739 = tosa.fully_connected %3738, %398, %397 : (tensor<384x128xf32>, tensor<512x128xf32>, tensor<512xf32>) -> tensor<384x512xf32>
    %3740 = tosa.reshape %3739 {new_shape = array<i64: 1, 384, 512>} : (tensor<384x512xf32>) -> tensor<1x384x512xf32>
    %3741 = tosa.add %3740, %3617 : (tensor<1x384x512xf32>, tensor<1x384x512xf32>) -> tensor<1x384x512xf32>
    %3742 = tosa.mul %3741, %38 {shift = 0 : i8} : (tensor<1x384x512xf32>, tensor<1x1x512xf32>) -> tensor<1x384x512xf32>
    %3743 = tosa.add %3742, %37 : (tensor<1x384x512xf32>, tensor<1x1x512xf32>) -> tensor<1x384x512xf32>
    %3744 = tosa.reshape %3743 {new_shape = array<i64: 384, 512>} : (tensor<1x384x512xf32>) -> tensor<384x512xf32>
    %3745 = tosa.fully_connected %3744, %396, %395 : (tensor<384x512xf32>, tensor<128x512xf32>, tensor<128xf32>) -> tensor<384x128xf32>
    %3746 = tosa.reshape %3743 {new_shape = array<i64: 384, 512>} : (tensor<1x384x512xf32>) -> tensor<384x512xf32>
    %3747 = tosa.fully_connected %3746, %394, %393 : (tensor<384x512xf32>, tensor<128x512xf32>, tensor<128xf32>) -> tensor<384x128xf32>
    %3748 = tosa.reshape %3743 {new_shape = array<i64: 384, 512>} : (tensor<1x384x512xf32>) -> tensor<384x512xf32>
    %3749 = tosa.fully_connected %3748, %392, %391 : (tensor<384x512xf32>, tensor<128x512xf32>, tensor<128xf32>) -> tensor<384x128xf32>
    %3750 = tosa.reshape %3745 {new_shape = array<i64: 1, 384, 128>} : (tensor<384x128xf32>) -> tensor<1x384x128xf32>
    %3751 = tosa.fully_connected %3747, %390, %389 : (tensor<384x128xf32>, tensor<128x128xf32>, tensor<128xf32>) -> tensor<384x128xf32>
    %3752 = tosa.fully_connected %3747, %388, %387 : (tensor<384x128xf32>, tensor<128x128xf32>, tensor<128xf32>) -> tensor<384x128xf32>
    %3753 = tosa.fully_connected %3749, %386, %385 : (tensor<384x128xf32>, tensor<128x128xf32>, tensor<128xf32>) -> tensor<384x128xf32>
    %3754 = tosa.reshape %3751 {new_shape = array<i64: 1, 384, 4, 32>} : (tensor<384x128xf32>) -> tensor<1x384x4x32xf32>
    %3755 = tosa.reshape %3752 {new_shape = array<i64: 1, 384, 4, 32>} : (tensor<384x128xf32>) -> tensor<1x384x4x32xf32>
    %3756 = tosa.reshape %3753 {new_shape = array<i64: 1, 384, 4, 32>} : (tensor<384x128xf32>) -> tensor<1x384x4x32xf32>
    %3757 = tosa.transpose %3754, %1059 : (tensor<1x384x4x32xf32>, tensor<4xi32>) -> tensor<1x4x384x32xf32>
    %3758 = tosa.transpose %3756, %1059 : (tensor<1x384x4x32xf32>, tensor<4xi32>) -> tensor<1x4x384x32xf32>
    %3759 = tosa.transpose %3755, %cst : (tensor<1x384x4x32xf32>, tensor<4xi32>) -> tensor<1x4x32x384xf32>
    %3760 = tosa.reshape %3757 {new_shape = array<i64: 4, 384, 32>} : (tensor<1x4x384x32xf32>) -> tensor<4x384x32xf32>
    %3761 = tosa.slice %3760 {size = array<i64: 1, 384, 32>, start = array<i64: 0, 0, 0>} : (tensor<4x384x32xf32>) -> tensor<1x384x32xf32>
    %3762 = tosa.slice %3760 {size = array<i64: 1, 384, 32>, start = array<i64: 1, 0, 0>} : (tensor<4x384x32xf32>) -> tensor<1x384x32xf32>
    %3763 = tosa.slice %3760 {size = array<i64: 1, 384, 32>, start = array<i64: 2, 0, 0>} : (tensor<4x384x32xf32>) -> tensor<1x384x32xf32>
    %3764 = tosa.slice %3760 {size = array<i64: 1, 384, 32>, start = array<i64: 3, 0, 0>} : (tensor<4x384x32xf32>) -> tensor<1x384x32xf32>
    %3765 = tosa.reshape %3759 {new_shape = array<i64: 4, 32, 384>} : (tensor<1x4x32x384xf32>) -> tensor<4x32x384xf32>
    %3766 = tosa.slice %3765 {size = array<i64: 1, 32, 384>, start = array<i64: 0, 0, 0>} : (tensor<4x32x384xf32>) -> tensor<1x32x384xf32>
    %3767 = tosa.transpose %3766, %1058 : (tensor<1x32x384xf32>, tensor<3xi32>) -> tensor<384x32x1xf32>
    %3768 = tosa.slice %3765 {size = array<i64: 1, 32, 384>, start = array<i64: 1, 0, 0>} : (tensor<4x32x384xf32>) -> tensor<1x32x384xf32>
    %3769 = tosa.transpose %3768, %1058 : (tensor<1x32x384xf32>, tensor<3xi32>) -> tensor<384x32x1xf32>
    %3770 = tosa.slice %3765 {size = array<i64: 1, 32, 384>, start = array<i64: 2, 0, 0>} : (tensor<4x32x384xf32>) -> tensor<1x32x384xf32>
    %3771 = tosa.transpose %3770, %1058 : (tensor<1x32x384xf32>, tensor<3xi32>) -> tensor<384x32x1xf32>
    %3772 = tosa.slice %3765 {size = array<i64: 1, 32, 384>, start = array<i64: 3, 0, 0>} : (tensor<4x32x384xf32>) -> tensor<1x32x384xf32>
    %3773 = tosa.transpose %3772, %1058 : (tensor<1x32x384xf32>, tensor<3xi32>) -> tensor<384x32x1xf32>
    %3774 = tosa.reshape %3767 {new_shape = array<i64: 384, 32>} : (tensor<384x32x1xf32>) -> tensor<384x32xf32>
    %3775 = tosa.reshape %3761 {new_shape = array<i64: 384, 32>} : (tensor<1x384x32xf32>) -> tensor<384x32xf32>
    %3776 = tosa.fully_connected %3775, %3774, %295 : (tensor<384x32xf32>, tensor<384x32xf32>, tensor<384xf32>) -> tensor<384x384xf32>
    %3777 = tosa.reshape %3769 {new_shape = array<i64: 384, 32>} : (tensor<384x32x1xf32>) -> tensor<384x32xf32>
    %3778 = tosa.reshape %3762 {new_shape = array<i64: 384, 32>} : (tensor<1x384x32xf32>) -> tensor<384x32xf32>
    %3779 = tosa.fully_connected %3778, %3777, %295 : (tensor<384x32xf32>, tensor<384x32xf32>, tensor<384xf32>) -> tensor<384x384xf32>
    %3780 = tosa.reshape %3771 {new_shape = array<i64: 384, 32>} : (tensor<384x32x1xf32>) -> tensor<384x32xf32>
    %3781 = tosa.reshape %3763 {new_shape = array<i64: 384, 32>} : (tensor<1x384x32xf32>) -> tensor<384x32xf32>
    %3782 = tosa.fully_connected %3781, %3780, %295 : (tensor<384x32xf32>, tensor<384x32xf32>, tensor<384xf32>) -> tensor<384x384xf32>
    %3783 = tosa.reshape %3773 {new_shape = array<i64: 384, 32>} : (tensor<384x32x1xf32>) -> tensor<384x32xf32>
    %3784 = tosa.reshape %3764 {new_shape = array<i64: 384, 32>} : (tensor<1x384x32xf32>) -> tensor<384x32xf32>
    %3785 = tosa.fully_connected %3784, %3783, %295 : (tensor<384x32xf32>, tensor<384x32xf32>, tensor<384xf32>) -> tensor<384x384xf32>
    %3786 = tosa.concat %3776, %3779, %3782, %3785 {axis = 0 : i32} : (tensor<384x384xf32>, tensor<384x384xf32>, tensor<384x384xf32>, tensor<384x384xf32>) -> tensor<1536x384xf32>
    %3787 = tosa.reshape %3786 {new_shape = array<i64: 4, 384, 384>} : (tensor<1536x384xf32>) -> tensor<4x384x384xf32>
    %3788 = tosa.mul %3787, %289 {shift = 0 : i8} : (tensor<4x384x384xf32>, tensor<1x1x1xf32>) -> tensor<4x384x384xf32>
    %3789 = tosa.reshape %3788 {new_shape = array<i64: 1, 4, 384, 384>} : (tensor<4x384x384xf32>) -> tensor<1x4x384x384xf32>
    %3790 = tosa.add %3789, %1088 : (tensor<1x4x384x384xf32>, tensor<1x1x384x384xf32>) -> tensor<1x4x384x384xf32>
    %3791 = tosa.reduce_max %3790 {axis = 3 : i32} : (tensor<1x4x384x384xf32>) -> tensor<1x4x384x1xf32>
    %3792 = tosa.sub %3790, %3791 : (tensor<1x4x384x384xf32>, tensor<1x4x384x1xf32>) -> tensor<1x4x384x384xf32>
    %3793 = tosa.exp %3792 : (tensor<1x4x384x384xf32>) -> tensor<1x4x384x384xf32>
    %3794 = tosa.reduce_sum %3793 {axis = 3 : i32} : (tensor<1x4x384x384xf32>) -> tensor<1x4x384x1xf32>
    %3795 = tosa.reciprocal %3794 : (tensor<1x4x384x1xf32>) -> tensor<1x4x384x1xf32>
    %3796 = tosa.mul %3793, %3795 {shift = 0 : i8} : (tensor<1x4x384x384xf32>, tensor<1x4x384x1xf32>) -> tensor<1x4x384x384xf32>
    %3797 = tosa.reshape %3796 {new_shape = array<i64: 4, 384, 384>} : (tensor<1x4x384x384xf32>) -> tensor<4x384x384xf32>
    %3798 = tosa.slice %3797 {size = array<i64: 1, 384, 384>, start = array<i64: 0, 0, 0>} : (tensor<4x384x384xf32>) -> tensor<1x384x384xf32>
    %3799 = tosa.slice %3797 {size = array<i64: 1, 384, 384>, start = array<i64: 1, 0, 0>} : (tensor<4x384x384xf32>) -> tensor<1x384x384xf32>
    %3800 = tosa.slice %3797 {size = array<i64: 1, 384, 384>, start = array<i64: 2, 0, 0>} : (tensor<4x384x384xf32>) -> tensor<1x384x384xf32>
    %3801 = tosa.slice %3797 {size = array<i64: 1, 384, 384>, start = array<i64: 3, 0, 0>} : (tensor<4x384x384xf32>) -> tensor<1x384x384xf32>
    %3802 = tosa.reshape %3758 {new_shape = array<i64: 4, 384, 32>} : (tensor<1x4x384x32xf32>) -> tensor<4x384x32xf32>
    %3803 = tosa.slice %3802 {size = array<i64: 1, 384, 32>, start = array<i64: 0, 0, 0>} : (tensor<4x384x32xf32>) -> tensor<1x384x32xf32>
    %3804 = tosa.transpose %3803, %1058 : (tensor<1x384x32xf32>, tensor<3xi32>) -> tensor<32x384x1xf32>
    %3805 = tosa.slice %3802 {size = array<i64: 1, 384, 32>, start = array<i64: 1, 0, 0>} : (tensor<4x384x32xf32>) -> tensor<1x384x32xf32>
    %3806 = tosa.transpose %3805, %1058 : (tensor<1x384x32xf32>, tensor<3xi32>) -> tensor<32x384x1xf32>
    %3807 = tosa.slice %3802 {size = array<i64: 1, 384, 32>, start = array<i64: 2, 0, 0>} : (tensor<4x384x32xf32>) -> tensor<1x384x32xf32>
    %3808 = tosa.transpose %3807, %1058 : (tensor<1x384x32xf32>, tensor<3xi32>) -> tensor<32x384x1xf32>
    %3809 = tosa.slice %3802 {size = array<i64: 1, 384, 32>, start = array<i64: 3, 0, 0>} : (tensor<4x384x32xf32>) -> tensor<1x384x32xf32>
    %3810 = tosa.transpose %3809, %1058 : (tensor<1x384x32xf32>, tensor<3xi32>) -> tensor<32x384x1xf32>
    %3811 = tosa.reshape %3804 {new_shape = array<i64: 32, 384>} : (tensor<32x384x1xf32>) -> tensor<32x384xf32>
    %3812 = tosa.reshape %3798 {new_shape = array<i64: 384, 384>} : (tensor<1x384x384xf32>) -> tensor<384x384xf32>
    %3813 = tosa.fully_connected %3812, %3811, %294 : (tensor<384x384xf32>, tensor<32x384xf32>, tensor<32xf32>) -> tensor<384x32xf32>
    %3814 = tosa.reshape %3806 {new_shape = array<i64: 32, 384>} : (tensor<32x384x1xf32>) -> tensor<32x384xf32>
    %3815 = tosa.reshape %3799 {new_shape = array<i64: 384, 384>} : (tensor<1x384x384xf32>) -> tensor<384x384xf32>
    %3816 = tosa.fully_connected %3815, %3814, %294 : (tensor<384x384xf32>, tensor<32x384xf32>, tensor<32xf32>) -> tensor<384x32xf32>
    %3817 = tosa.reshape %3808 {new_shape = array<i64: 32, 384>} : (tensor<32x384x1xf32>) -> tensor<32x384xf32>
    %3818 = tosa.reshape %3800 {new_shape = array<i64: 384, 384>} : (tensor<1x384x384xf32>) -> tensor<384x384xf32>
    %3819 = tosa.fully_connected %3818, %3817, %294 : (tensor<384x384xf32>, tensor<32x384xf32>, tensor<32xf32>) -> tensor<384x32xf32>
    %3820 = tosa.reshape %3810 {new_shape = array<i64: 32, 384>} : (tensor<32x384x1xf32>) -> tensor<32x384xf32>
    %3821 = tosa.reshape %3801 {new_shape = array<i64: 384, 384>} : (tensor<1x384x384xf32>) -> tensor<384x384xf32>
    %3822 = tosa.fully_connected %3821, %3820, %294 : (tensor<384x384xf32>, tensor<32x384xf32>, tensor<32xf32>) -> tensor<384x32xf32>
    %3823 = tosa.concat %3813, %3816, %3819, %3822 {axis = 0 : i32} : (tensor<384x32xf32>, tensor<384x32xf32>, tensor<384x32xf32>, tensor<384x32xf32>) -> tensor<1536x32xf32>
    %3824 = tosa.reshape %3823 {new_shape = array<i64: 4, 384, 32>} : (tensor<1536x32xf32>) -> tensor<4x384x32xf32>
    %3825 = tosa.transpose %3824, %1057 : (tensor<4x384x32xf32>, tensor<3xi32>) -> tensor<384x4x32xf32>
    %3826 = tosa.reshape %3825 {new_shape = array<i64: 384, 128>} : (tensor<384x4x32xf32>) -> tensor<384x128xf32>
    %3827 = tosa.fully_connected %3826, %384, %383 : (tensor<384x128xf32>, tensor<128x128xf32>, tensor<128xf32>) -> tensor<384x128xf32>
    %3828 = tosa.reshape %3827 {new_shape = array<i64: 1, 384, 128>} : (tensor<384x128xf32>) -> tensor<1x384x128xf32>
    %3829 = tosa.add %3828, %3750 : (tensor<1x384x128xf32>, tensor<1x384x128xf32>) -> tensor<1x384x128xf32>
    %3830 = tosa.mul %3829, %36 {shift = 0 : i8} : (tensor<1x384x128xf32>, tensor<1x1x128xf32>) -> tensor<1x384x128xf32>
    %3831 = tosa.add %3830, %35 : (tensor<1x384x128xf32>, tensor<1x1x128xf32>) -> tensor<1x384x128xf32>
    %3832 = tosa.reshape %3831 {new_shape = array<i64: 384, 128>} : (tensor<1x384x128xf32>) -> tensor<384x128xf32>
    %3833 = tosa.fully_connected %3832, %382, %381 : (tensor<384x128xf32>, tensor<512x128xf32>, tensor<512xf32>) -> tensor<384x512xf32>
    %3834 = tosa.clamp %3833 {max_fp = 3.40282347E+38 : f32, max_int = 2147483647 : i64, min_fp = 0.000000e+00 : f32, min_int = 0 : i64} : (tensor<384x512xf32>) -> tensor<384x512xf32>
    %3835 = tosa.fully_connected %3834, %380, %379 : (tensor<384x512xf32>, tensor<128x512xf32>, tensor<128xf32>) -> tensor<384x128xf32>
    %3836 = tosa.reshape %3835 {new_shape = array<i64: 1, 384, 128>} : (tensor<384x128xf32>) -> tensor<1x384x128xf32>
    %3837 = tosa.add %3836, %3831 : (tensor<1x384x128xf32>, tensor<1x384x128xf32>) -> tensor<1x384x128xf32>
    %3838 = tosa.mul %3837, %34 {shift = 0 : i8} : (tensor<1x384x128xf32>, tensor<1x1x128xf32>) -> tensor<1x384x128xf32>
    %3839 = tosa.add %3838, %33 : (tensor<1x384x128xf32>, tensor<1x1x128xf32>) -> tensor<1x384x128xf32>
    %3840 = tosa.reshape %3839 {new_shape = array<i64: 384, 128>} : (tensor<1x384x128xf32>) -> tensor<384x128xf32>
    %3841 = tosa.fully_connected %3840, %378, %377 : (tensor<384x128xf32>, tensor<512x128xf32>, tensor<512xf32>) -> tensor<384x512xf32>
    %3842 = tosa.clamp %3841 {max_fp = 3.40282347E+38 : f32, max_int = 2147483647 : i64, min_fp = 0.000000e+00 : f32, min_int = 0 : i64} : (tensor<384x512xf32>) -> tensor<384x512xf32>
    %3843 = tosa.fully_connected %3842, %376, %375 : (tensor<384x512xf32>, tensor<128x512xf32>, tensor<128xf32>) -> tensor<384x128xf32>
    %3844 = tosa.reshape %3843 {new_shape = array<i64: 1, 384, 128>} : (tensor<384x128xf32>) -> tensor<1x384x128xf32>
    %3845 = tosa.add %3844, %3839 : (tensor<1x384x128xf32>, tensor<1x384x128xf32>) -> tensor<1x384x128xf32>
    %3846 = tosa.mul %3845, %32 {shift = 0 : i8} : (tensor<1x384x128xf32>, tensor<1x1x128xf32>) -> tensor<1x384x128xf32>
    %3847 = tosa.add %3846, %31 : (tensor<1x384x128xf32>, tensor<1x1x128xf32>) -> tensor<1x384x128xf32>
    %3848 = tosa.reshape %3847 {new_shape = array<i64: 384, 128>} : (tensor<1x384x128xf32>) -> tensor<384x128xf32>
    %3849 = tosa.fully_connected %3848, %374, %373 : (tensor<384x128xf32>, tensor<512x128xf32>, tensor<512xf32>) -> tensor<384x512xf32>
    %3850 = tosa.clamp %3849 {max_fp = 3.40282347E+38 : f32, max_int = 2147483647 : i64, min_fp = 0.000000e+00 : f32, min_int = 0 : i64} : (tensor<384x512xf32>) -> tensor<384x512xf32>
    %3851 = tosa.fully_connected %3850, %372, %371 : (tensor<384x512xf32>, tensor<128x512xf32>, tensor<128xf32>) -> tensor<384x128xf32>
    %3852 = tosa.reshape %3851 {new_shape = array<i64: 1, 384, 128>} : (tensor<384x128xf32>) -> tensor<1x384x128xf32>
    %3853 = tosa.add %3852, %3847 : (tensor<1x384x128xf32>, tensor<1x384x128xf32>) -> tensor<1x384x128xf32>
    %3854 = tosa.mul %3853, %30 {shift = 0 : i8} : (tensor<1x384x128xf32>, tensor<1x1x128xf32>) -> tensor<1x384x128xf32>
    %3855 = tosa.add %3854, %29 : (tensor<1x384x128xf32>, tensor<1x1x128xf32>) -> tensor<1x384x128xf32>
    %3856 = tosa.reshape %3855 {new_shape = array<i64: 384, 128>} : (tensor<1x384x128xf32>) -> tensor<384x128xf32>
    %3857 = tosa.fully_connected %3856, %370, %369 : (tensor<384x128xf32>, tensor<512x128xf32>, tensor<512xf32>) -> tensor<384x512xf32>
    %3858 = tosa.clamp %3857 {max_fp = 3.40282347E+38 : f32, max_int = 2147483647 : i64, min_fp = 0.000000e+00 : f32, min_int = 0 : i64} : (tensor<384x512xf32>) -> tensor<384x512xf32>
    %3859 = tosa.fully_connected %3858, %368, %367 : (tensor<384x512xf32>, tensor<128x512xf32>, tensor<128xf32>) -> tensor<384x128xf32>
    %3860 = tosa.reshape %3859 {new_shape = array<i64: 1, 384, 128>} : (tensor<384x128xf32>) -> tensor<1x384x128xf32>
    %3861 = tosa.add %3860, %3855 : (tensor<1x384x128xf32>, tensor<1x384x128xf32>) -> tensor<1x384x128xf32>
    %3862 = tosa.mul %3861, %28 {shift = 0 : i8} : (tensor<1x384x128xf32>, tensor<1x1x128xf32>) -> tensor<1x384x128xf32>
    %3863 = tosa.add %3862, %27 : (tensor<1x384x128xf32>, tensor<1x1x128xf32>) -> tensor<1x384x128xf32>
    %3864 = tosa.reshape %3863 {new_shape = array<i64: 384, 128>} : (tensor<1x384x128xf32>) -> tensor<384x128xf32>
    %3865 = tosa.fully_connected %3864, %366, %365 : (tensor<384x128xf32>, tensor<512x128xf32>, tensor<512xf32>) -> tensor<384x512xf32>
    %3866 = tosa.reshape %3865 {new_shape = array<i64: 1, 384, 512>} : (tensor<384x512xf32>) -> tensor<1x384x512xf32>
    %3867 = tosa.add %3866, %3743 : (tensor<1x384x512xf32>, tensor<1x384x512xf32>) -> tensor<1x384x512xf32>
    %3868 = tosa.mul %3867, %26 {shift = 0 : i8} : (tensor<1x384x512xf32>, tensor<1x1x512xf32>) -> tensor<1x384x512xf32>
    %3869 = tosa.add %3868, %25 : (tensor<1x384x512xf32>, tensor<1x1x512xf32>) -> tensor<1x384x512xf32>
    %3870 = tosa.reshape %3869 {new_shape = array<i64: 384, 512>} : (tensor<1x384x512xf32>) -> tensor<384x512xf32>
    %3871 = tosa.fully_connected %3870, %364, %363 : (tensor<384x512xf32>, tensor<128x512xf32>, tensor<128xf32>) -> tensor<384x128xf32>
    %3872 = tosa.reshape %3869 {new_shape = array<i64: 384, 512>} : (tensor<1x384x512xf32>) -> tensor<384x512xf32>
    %3873 = tosa.fully_connected %3872, %362, %361 : (tensor<384x512xf32>, tensor<128x512xf32>, tensor<128xf32>) -> tensor<384x128xf32>
    %3874 = tosa.reshape %3869 {new_shape = array<i64: 384, 512>} : (tensor<1x384x512xf32>) -> tensor<384x512xf32>
    %3875 = tosa.fully_connected %3874, %360, %359 : (tensor<384x512xf32>, tensor<128x512xf32>, tensor<128xf32>) -> tensor<384x128xf32>
    %3876 = tosa.reshape %3871 {new_shape = array<i64: 1, 384, 128>} : (tensor<384x128xf32>) -> tensor<1x384x128xf32>
    %3877 = tosa.fully_connected %3873, %358, %357 : (tensor<384x128xf32>, tensor<128x128xf32>, tensor<128xf32>) -> tensor<384x128xf32>
    %3878 = tosa.fully_connected %3873, %356, %355 : (tensor<384x128xf32>, tensor<128x128xf32>, tensor<128xf32>) -> tensor<384x128xf32>
    %3879 = tosa.fully_connected %3875, %354, %353 : (tensor<384x128xf32>, tensor<128x128xf32>, tensor<128xf32>) -> tensor<384x128xf32>
    %3880 = tosa.reshape %3877 {new_shape = array<i64: 1, 384, 4, 32>} : (tensor<384x128xf32>) -> tensor<1x384x4x32xf32>
    %3881 = tosa.reshape %3878 {new_shape = array<i64: 1, 384, 4, 32>} : (tensor<384x128xf32>) -> tensor<1x384x4x32xf32>
    %3882 = tosa.reshape %3879 {new_shape = array<i64: 1, 384, 4, 32>} : (tensor<384x128xf32>) -> tensor<1x384x4x32xf32>
    %3883 = tosa.transpose %3880, %1059 : (tensor<1x384x4x32xf32>, tensor<4xi32>) -> tensor<1x4x384x32xf32>
    %3884 = tosa.transpose %3882, %1059 : (tensor<1x384x4x32xf32>, tensor<4xi32>) -> tensor<1x4x384x32xf32>
    %3885 = tosa.transpose %3881, %cst : (tensor<1x384x4x32xf32>, tensor<4xi32>) -> tensor<1x4x32x384xf32>
    %3886 = tosa.reshape %3883 {new_shape = array<i64: 4, 384, 32>} : (tensor<1x4x384x32xf32>) -> tensor<4x384x32xf32>
    %3887 = tosa.slice %3886 {size = array<i64: 1, 384, 32>, start = array<i64: 0, 0, 0>} : (tensor<4x384x32xf32>) -> tensor<1x384x32xf32>
    %3888 = tosa.slice %3886 {size = array<i64: 1, 384, 32>, start = array<i64: 1, 0, 0>} : (tensor<4x384x32xf32>) -> tensor<1x384x32xf32>
    %3889 = tosa.slice %3886 {size = array<i64: 1, 384, 32>, start = array<i64: 2, 0, 0>} : (tensor<4x384x32xf32>) -> tensor<1x384x32xf32>
    %3890 = tosa.slice %3886 {size = array<i64: 1, 384, 32>, start = array<i64: 3, 0, 0>} : (tensor<4x384x32xf32>) -> tensor<1x384x32xf32>
    %3891 = tosa.reshape %3885 {new_shape = array<i64: 4, 32, 384>} : (tensor<1x4x32x384xf32>) -> tensor<4x32x384xf32>
    %3892 = tosa.slice %3891 {size = array<i64: 1, 32, 384>, start = array<i64: 0, 0, 0>} : (tensor<4x32x384xf32>) -> tensor<1x32x384xf32>
    %3893 = tosa.transpose %3892, %1058 : (tensor<1x32x384xf32>, tensor<3xi32>) -> tensor<384x32x1xf32>
    %3894 = tosa.slice %3891 {size = array<i64: 1, 32, 384>, start = array<i64: 1, 0, 0>} : (tensor<4x32x384xf32>) -> tensor<1x32x384xf32>
    %3895 = tosa.transpose %3894, %1058 : (tensor<1x32x384xf32>, tensor<3xi32>) -> tensor<384x32x1xf32>
    %3896 = tosa.slice %3891 {size = array<i64: 1, 32, 384>, start = array<i64: 2, 0, 0>} : (tensor<4x32x384xf32>) -> tensor<1x32x384xf32>
    %3897 = tosa.transpose %3896, %1058 : (tensor<1x32x384xf32>, tensor<3xi32>) -> tensor<384x32x1xf32>
    %3898 = tosa.slice %3891 {size = array<i64: 1, 32, 384>, start = array<i64: 3, 0, 0>} : (tensor<4x32x384xf32>) -> tensor<1x32x384xf32>
    %3899 = tosa.transpose %3898, %1058 : (tensor<1x32x384xf32>, tensor<3xi32>) -> tensor<384x32x1xf32>
    %3900 = tosa.reshape %3893 {new_shape = array<i64: 384, 32>} : (tensor<384x32x1xf32>) -> tensor<384x32xf32>
    %3901 = tosa.reshape %3887 {new_shape = array<i64: 384, 32>} : (tensor<1x384x32xf32>) -> tensor<384x32xf32>
    %3902 = tosa.fully_connected %3901, %3900, %295 : (tensor<384x32xf32>, tensor<384x32xf32>, tensor<384xf32>) -> tensor<384x384xf32>
    %3903 = tosa.reshape %3895 {new_shape = array<i64: 384, 32>} : (tensor<384x32x1xf32>) -> tensor<384x32xf32>
    %3904 = tosa.reshape %3888 {new_shape = array<i64: 384, 32>} : (tensor<1x384x32xf32>) -> tensor<384x32xf32>
    %3905 = tosa.fully_connected %3904, %3903, %295 : (tensor<384x32xf32>, tensor<384x32xf32>, tensor<384xf32>) -> tensor<384x384xf32>
    %3906 = tosa.reshape %3897 {new_shape = array<i64: 384, 32>} : (tensor<384x32x1xf32>) -> tensor<384x32xf32>
    %3907 = tosa.reshape %3889 {new_shape = array<i64: 384, 32>} : (tensor<1x384x32xf32>) -> tensor<384x32xf32>
    %3908 = tosa.fully_connected %3907, %3906, %295 : (tensor<384x32xf32>, tensor<384x32xf32>, tensor<384xf32>) -> tensor<384x384xf32>
    %3909 = tosa.reshape %3899 {new_shape = array<i64: 384, 32>} : (tensor<384x32x1xf32>) -> tensor<384x32xf32>
    %3910 = tosa.reshape %3890 {new_shape = array<i64: 384, 32>} : (tensor<1x384x32xf32>) -> tensor<384x32xf32>
    %3911 = tosa.fully_connected %3910, %3909, %295 : (tensor<384x32xf32>, tensor<384x32xf32>, tensor<384xf32>) -> tensor<384x384xf32>
    %3912 = tosa.concat %3902, %3905, %3908, %3911 {axis = 0 : i32} : (tensor<384x384xf32>, tensor<384x384xf32>, tensor<384x384xf32>, tensor<384x384xf32>) -> tensor<1536x384xf32>
    %3913 = tosa.reshape %3912 {new_shape = array<i64: 4, 384, 384>} : (tensor<1536x384xf32>) -> tensor<4x384x384xf32>
    %3914 = tosa.mul %3913, %289 {shift = 0 : i8} : (tensor<4x384x384xf32>, tensor<1x1x1xf32>) -> tensor<4x384x384xf32>
    %3915 = tosa.reshape %3914 {new_shape = array<i64: 1, 4, 384, 384>} : (tensor<4x384x384xf32>) -> tensor<1x4x384x384xf32>
    %3916 = tosa.add %3915, %1088 : (tensor<1x4x384x384xf32>, tensor<1x1x384x384xf32>) -> tensor<1x4x384x384xf32>
    %3917 = tosa.reduce_max %3916 {axis = 3 : i32} : (tensor<1x4x384x384xf32>) -> tensor<1x4x384x1xf32>
    %3918 = tosa.sub %3916, %3917 : (tensor<1x4x384x384xf32>, tensor<1x4x384x1xf32>) -> tensor<1x4x384x384xf32>
    %3919 = tosa.exp %3918 : (tensor<1x4x384x384xf32>) -> tensor<1x4x384x384xf32>
    %3920 = tosa.reduce_sum %3919 {axis = 3 : i32} : (tensor<1x4x384x384xf32>) -> tensor<1x4x384x1xf32>
    %3921 = tosa.reciprocal %3920 : (tensor<1x4x384x1xf32>) -> tensor<1x4x384x1xf32>
    %3922 = tosa.mul %3919, %3921 {shift = 0 : i8} : (tensor<1x4x384x384xf32>, tensor<1x4x384x1xf32>) -> tensor<1x4x384x384xf32>
    %3923 = tosa.reshape %3922 {new_shape = array<i64: 4, 384, 384>} : (tensor<1x4x384x384xf32>) -> tensor<4x384x384xf32>
    %3924 = tosa.slice %3923 {size = array<i64: 1, 384, 384>, start = array<i64: 0, 0, 0>} : (tensor<4x384x384xf32>) -> tensor<1x384x384xf32>
    %3925 = tosa.slice %3923 {size = array<i64: 1, 384, 384>, start = array<i64: 1, 0, 0>} : (tensor<4x384x384xf32>) -> tensor<1x384x384xf32>
    %3926 = tosa.slice %3923 {size = array<i64: 1, 384, 384>, start = array<i64: 2, 0, 0>} : (tensor<4x384x384xf32>) -> tensor<1x384x384xf32>
    %3927 = tosa.slice %3923 {size = array<i64: 1, 384, 384>, start = array<i64: 3, 0, 0>} : (tensor<4x384x384xf32>) -> tensor<1x384x384xf32>
    %3928 = tosa.reshape %3884 {new_shape = array<i64: 4, 384, 32>} : (tensor<1x4x384x32xf32>) -> tensor<4x384x32xf32>
    %3929 = tosa.slice %3928 {size = array<i64: 1, 384, 32>, start = array<i64: 0, 0, 0>} : (tensor<4x384x32xf32>) -> tensor<1x384x32xf32>
    %3930 = tosa.transpose %3929, %1058 : (tensor<1x384x32xf32>, tensor<3xi32>) -> tensor<32x384x1xf32>
    %3931 = tosa.slice %3928 {size = array<i64: 1, 384, 32>, start = array<i64: 1, 0, 0>} : (tensor<4x384x32xf32>) -> tensor<1x384x32xf32>
    %3932 = tosa.transpose %3931, %1058 : (tensor<1x384x32xf32>, tensor<3xi32>) -> tensor<32x384x1xf32>
    %3933 = tosa.slice %3928 {size = array<i64: 1, 384, 32>, start = array<i64: 2, 0, 0>} : (tensor<4x384x32xf32>) -> tensor<1x384x32xf32>
    %3934 = tosa.transpose %3933, %1058 : (tensor<1x384x32xf32>, tensor<3xi32>) -> tensor<32x384x1xf32>
    %3935 = tosa.slice %3928 {size = array<i64: 1, 384, 32>, start = array<i64: 3, 0, 0>} : (tensor<4x384x32xf32>) -> tensor<1x384x32xf32>
    %3936 = tosa.transpose %3935, %1058 : (tensor<1x384x32xf32>, tensor<3xi32>) -> tensor<32x384x1xf32>
    %3937 = tosa.reshape %3930 {new_shape = array<i64: 32, 384>} : (tensor<32x384x1xf32>) -> tensor<32x384xf32>
    %3938 = tosa.reshape %3924 {new_shape = array<i64: 384, 384>} : (tensor<1x384x384xf32>) -> tensor<384x384xf32>
    %3939 = tosa.fully_connected %3938, %3937, %294 : (tensor<384x384xf32>, tensor<32x384xf32>, tensor<32xf32>) -> tensor<384x32xf32>
    %3940 = tosa.reshape %3932 {new_shape = array<i64: 32, 384>} : (tensor<32x384x1xf32>) -> tensor<32x384xf32>
    %3941 = tosa.reshape %3925 {new_shape = array<i64: 384, 384>} : (tensor<1x384x384xf32>) -> tensor<384x384xf32>
    %3942 = tosa.fully_connected %3941, %3940, %294 : (tensor<384x384xf32>, tensor<32x384xf32>, tensor<32xf32>) -> tensor<384x32xf32>
    %3943 = tosa.reshape %3934 {new_shape = array<i64: 32, 384>} : (tensor<32x384x1xf32>) -> tensor<32x384xf32>
    %3944 = tosa.reshape %3926 {new_shape = array<i64: 384, 384>} : (tensor<1x384x384xf32>) -> tensor<384x384xf32>
    %3945 = tosa.fully_connected %3944, %3943, %294 : (tensor<384x384xf32>, tensor<32x384xf32>, tensor<32xf32>) -> tensor<384x32xf32>
    %3946 = tosa.reshape %3936 {new_shape = array<i64: 32, 384>} : (tensor<32x384x1xf32>) -> tensor<32x384xf32>
    %3947 = tosa.reshape %3927 {new_shape = array<i64: 384, 384>} : (tensor<1x384x384xf32>) -> tensor<384x384xf32>
    %3948 = tosa.fully_connected %3947, %3946, %294 : (tensor<384x384xf32>, tensor<32x384xf32>, tensor<32xf32>) -> tensor<384x32xf32>
    %3949 = tosa.concat %3939, %3942, %3945, %3948 {axis = 0 : i32} : (tensor<384x32xf32>, tensor<384x32xf32>, tensor<384x32xf32>, tensor<384x32xf32>) -> tensor<1536x32xf32>
    %3950 = tosa.reshape %3949 {new_shape = array<i64: 4, 384, 32>} : (tensor<1536x32xf32>) -> tensor<4x384x32xf32>
    %3951 = tosa.transpose %3950, %1057 : (tensor<4x384x32xf32>, tensor<3xi32>) -> tensor<384x4x32xf32>
    %3952 = tosa.reshape %3951 {new_shape = array<i64: 384, 128>} : (tensor<384x4x32xf32>) -> tensor<384x128xf32>
    %3953 = tosa.fully_connected %3952, %352, %351 : (tensor<384x128xf32>, tensor<128x128xf32>, tensor<128xf32>) -> tensor<384x128xf32>
    %3954 = tosa.reshape %3953 {new_shape = array<i64: 1, 384, 128>} : (tensor<384x128xf32>) -> tensor<1x384x128xf32>
    %3955 = tosa.add %3954, %3876 : (tensor<1x384x128xf32>, tensor<1x384x128xf32>) -> tensor<1x384x128xf32>
    %3956 = tosa.mul %3955, %24 {shift = 0 : i8} : (tensor<1x384x128xf32>, tensor<1x1x128xf32>) -> tensor<1x384x128xf32>
    %3957 = tosa.add %3956, %23 : (tensor<1x384x128xf32>, tensor<1x1x128xf32>) -> tensor<1x384x128xf32>
    %3958 = tosa.reshape %3957 {new_shape = array<i64: 384, 128>} : (tensor<1x384x128xf32>) -> tensor<384x128xf32>
    %3959 = tosa.fully_connected %3958, %350, %349 : (tensor<384x128xf32>, tensor<512x128xf32>, tensor<512xf32>) -> tensor<384x512xf32>
    %3960 = tosa.clamp %3959 {max_fp = 3.40282347E+38 : f32, max_int = 2147483647 : i64, min_fp = 0.000000e+00 : f32, min_int = 0 : i64} : (tensor<384x512xf32>) -> tensor<384x512xf32>
    %3961 = tosa.fully_connected %3960, %348, %347 : (tensor<384x512xf32>, tensor<128x512xf32>, tensor<128xf32>) -> tensor<384x128xf32>
    %3962 = tosa.reshape %3961 {new_shape = array<i64: 1, 384, 128>} : (tensor<384x128xf32>) -> tensor<1x384x128xf32>
    %3963 = tosa.add %3962, %3957 : (tensor<1x384x128xf32>, tensor<1x384x128xf32>) -> tensor<1x384x128xf32>
    %3964 = tosa.mul %3963, %22 {shift = 0 : i8} : (tensor<1x384x128xf32>, tensor<1x1x128xf32>) -> tensor<1x384x128xf32>
    %3965 = tosa.add %3964, %21 : (tensor<1x384x128xf32>, tensor<1x1x128xf32>) -> tensor<1x384x128xf32>
    %3966 = tosa.reshape %3965 {new_shape = array<i64: 384, 128>} : (tensor<1x384x128xf32>) -> tensor<384x128xf32>
    %3967 = tosa.fully_connected %3966, %346, %345 : (tensor<384x128xf32>, tensor<512x128xf32>, tensor<512xf32>) -> tensor<384x512xf32>
    %3968 = tosa.clamp %3967 {max_fp = 3.40282347E+38 : f32, max_int = 2147483647 : i64, min_fp = 0.000000e+00 : f32, min_int = 0 : i64} : (tensor<384x512xf32>) -> tensor<384x512xf32>
    %3969 = tosa.fully_connected %3968, %344, %343 : (tensor<384x512xf32>, tensor<128x512xf32>, tensor<128xf32>) -> tensor<384x128xf32>
    %3970 = tosa.reshape %3969 {new_shape = array<i64: 1, 384, 128>} : (tensor<384x128xf32>) -> tensor<1x384x128xf32>
    %3971 = tosa.add %3970, %3965 : (tensor<1x384x128xf32>, tensor<1x384x128xf32>) -> tensor<1x384x128xf32>
    %3972 = tosa.mul %3971, %20 {shift = 0 : i8} : (tensor<1x384x128xf32>, tensor<1x1x128xf32>) -> tensor<1x384x128xf32>
    %3973 = tosa.add %3972, %19 : (tensor<1x384x128xf32>, tensor<1x1x128xf32>) -> tensor<1x384x128xf32>
    %3974 = tosa.reshape %3973 {new_shape = array<i64: 384, 128>} : (tensor<1x384x128xf32>) -> tensor<384x128xf32>
    %3975 = tosa.fully_connected %3974, %342, %341 : (tensor<384x128xf32>, tensor<512x128xf32>, tensor<512xf32>) -> tensor<384x512xf32>
    %3976 = tosa.clamp %3975 {max_fp = 3.40282347E+38 : f32, max_int = 2147483647 : i64, min_fp = 0.000000e+00 : f32, min_int = 0 : i64} : (tensor<384x512xf32>) -> tensor<384x512xf32>
    %3977 = tosa.fully_connected %3976, %340, %339 : (tensor<384x512xf32>, tensor<128x512xf32>, tensor<128xf32>) -> tensor<384x128xf32>
    %3978 = tosa.reshape %3977 {new_shape = array<i64: 1, 384, 128>} : (tensor<384x128xf32>) -> tensor<1x384x128xf32>
    %3979 = tosa.add %3978, %3973 : (tensor<1x384x128xf32>, tensor<1x384x128xf32>) -> tensor<1x384x128xf32>
    %3980 = tosa.mul %3979, %18 {shift = 0 : i8} : (tensor<1x384x128xf32>, tensor<1x1x128xf32>) -> tensor<1x384x128xf32>
    %3981 = tosa.add %3980, %17 : (tensor<1x384x128xf32>, tensor<1x1x128xf32>) -> tensor<1x384x128xf32>
    %3982 = tosa.reshape %3981 {new_shape = array<i64: 384, 128>} : (tensor<1x384x128xf32>) -> tensor<384x128xf32>
    %3983 = tosa.fully_connected %3982, %338, %337 : (tensor<384x128xf32>, tensor<512x128xf32>, tensor<512xf32>) -> tensor<384x512xf32>
    %3984 = tosa.clamp %3983 {max_fp = 3.40282347E+38 : f32, max_int = 2147483647 : i64, min_fp = 0.000000e+00 : f32, min_int = 0 : i64} : (tensor<384x512xf32>) -> tensor<384x512xf32>
    %3985 = tosa.fully_connected %3984, %336, %335 : (tensor<384x512xf32>, tensor<128x512xf32>, tensor<128xf32>) -> tensor<384x128xf32>
    %3986 = tosa.reshape %3985 {new_shape = array<i64: 1, 384, 128>} : (tensor<384x128xf32>) -> tensor<1x384x128xf32>
    %3987 = tosa.add %3986, %3981 : (tensor<1x384x128xf32>, tensor<1x384x128xf32>) -> tensor<1x384x128xf32>
    %3988 = tosa.mul %3987, %16 {shift = 0 : i8} : (tensor<1x384x128xf32>, tensor<1x1x128xf32>) -> tensor<1x384x128xf32>
    %3989 = tosa.add %3988, %15 : (tensor<1x384x128xf32>, tensor<1x1x128xf32>) -> tensor<1x384x128xf32>
    %3990 = tosa.reshape %3989 {new_shape = array<i64: 384, 128>} : (tensor<1x384x128xf32>) -> tensor<384x128xf32>
    %3991 = tosa.fully_connected %3990, %334, %333 : (tensor<384x128xf32>, tensor<512x128xf32>, tensor<512xf32>) -> tensor<384x512xf32>
    %3992 = tosa.reshape %3991 {new_shape = array<i64: 1, 384, 512>} : (tensor<384x512xf32>) -> tensor<1x384x512xf32>
    %3993 = tosa.add %3992, %3869 : (tensor<1x384x512xf32>, tensor<1x384x512xf32>) -> tensor<1x384x512xf32>
    %3994 = tosa.mul %3993, %14 {shift = 0 : i8} : (tensor<1x384x512xf32>, tensor<1x1x512xf32>) -> tensor<1x384x512xf32>
    %3995 = tosa.add %3994, %13 : (tensor<1x384x512xf32>, tensor<1x1x512xf32>) -> tensor<1x384x512xf32>
    %3996 = tosa.reshape %3995 {new_shape = array<i64: 384, 512>} : (tensor<1x384x512xf32>) -> tensor<384x512xf32>
    %3997 = tosa.fully_connected %3996, %332, %331 : (tensor<384x512xf32>, tensor<128x512xf32>, tensor<128xf32>) -> tensor<384x128xf32>
    %3998 = tosa.reshape %3995 {new_shape = array<i64: 384, 512>} : (tensor<1x384x512xf32>) -> tensor<384x512xf32>
    %3999 = tosa.fully_connected %3998, %330, %329 : (tensor<384x512xf32>, tensor<128x512xf32>, tensor<128xf32>) -> tensor<384x128xf32>
    %4000 = tosa.reshape %3995 {new_shape = array<i64: 384, 512>} : (tensor<1x384x512xf32>) -> tensor<384x512xf32>
    %4001 = tosa.fully_connected %4000, %328, %327 : (tensor<384x512xf32>, tensor<128x512xf32>, tensor<128xf32>) -> tensor<384x128xf32>
    %4002 = tosa.reshape %3997 {new_shape = array<i64: 1, 384, 128>} : (tensor<384x128xf32>) -> tensor<1x384x128xf32>
    %4003 = tosa.fully_connected %3999, %326, %325 : (tensor<384x128xf32>, tensor<128x128xf32>, tensor<128xf32>) -> tensor<384x128xf32>
    %4004 = tosa.fully_connected %3999, %324, %323 : (tensor<384x128xf32>, tensor<128x128xf32>, tensor<128xf32>) -> tensor<384x128xf32>
    %4005 = tosa.fully_connected %4001, %322, %321 : (tensor<384x128xf32>, tensor<128x128xf32>, tensor<128xf32>) -> tensor<384x128xf32>
    %4006 = tosa.reshape %4003 {new_shape = array<i64: 1, 384, 4, 32>} : (tensor<384x128xf32>) -> tensor<1x384x4x32xf32>
    %4007 = tosa.reshape %4004 {new_shape = array<i64: 1, 384, 4, 32>} : (tensor<384x128xf32>) -> tensor<1x384x4x32xf32>
    %4008 = tosa.reshape %4005 {new_shape = array<i64: 1, 384, 4, 32>} : (tensor<384x128xf32>) -> tensor<1x384x4x32xf32>
    %4009 = tosa.transpose %4006, %1059 : (tensor<1x384x4x32xf32>, tensor<4xi32>) -> tensor<1x4x384x32xf32>
    %4010 = tosa.transpose %4008, %1059 : (tensor<1x384x4x32xf32>, tensor<4xi32>) -> tensor<1x4x384x32xf32>
    %4011 = tosa.transpose %4007, %cst : (tensor<1x384x4x32xf32>, tensor<4xi32>) -> tensor<1x4x32x384xf32>
    %4012 = tosa.reshape %4009 {new_shape = array<i64: 4, 384, 32>} : (tensor<1x4x384x32xf32>) -> tensor<4x384x32xf32>
    %4013 = tosa.slice %4012 {size = array<i64: 1, 384, 32>, start = array<i64: 0, 0, 0>} : (tensor<4x384x32xf32>) -> tensor<1x384x32xf32>
    %4014 = tosa.slice %4012 {size = array<i64: 1, 384, 32>, start = array<i64: 1, 0, 0>} : (tensor<4x384x32xf32>) -> tensor<1x384x32xf32>
    %4015 = tosa.slice %4012 {size = array<i64: 1, 384, 32>, start = array<i64: 2, 0, 0>} : (tensor<4x384x32xf32>) -> tensor<1x384x32xf32>
    %4016 = tosa.slice %4012 {size = array<i64: 1, 384, 32>, start = array<i64: 3, 0, 0>} : (tensor<4x384x32xf32>) -> tensor<1x384x32xf32>
    %4017 = tosa.reshape %4011 {new_shape = array<i64: 4, 32, 384>} : (tensor<1x4x32x384xf32>) -> tensor<4x32x384xf32>
    %4018 = tosa.slice %4017 {size = array<i64: 1, 32, 384>, start = array<i64: 0, 0, 0>} : (tensor<4x32x384xf32>) -> tensor<1x32x384xf32>
    %4019 = tosa.transpose %4018, %1058 : (tensor<1x32x384xf32>, tensor<3xi32>) -> tensor<384x32x1xf32>
    %4020 = tosa.slice %4017 {size = array<i64: 1, 32, 384>, start = array<i64: 1, 0, 0>} : (tensor<4x32x384xf32>) -> tensor<1x32x384xf32>
    %4021 = tosa.transpose %4020, %1058 : (tensor<1x32x384xf32>, tensor<3xi32>) -> tensor<384x32x1xf32>
    %4022 = tosa.slice %4017 {size = array<i64: 1, 32, 384>, start = array<i64: 2, 0, 0>} : (tensor<4x32x384xf32>) -> tensor<1x32x384xf32>
    %4023 = tosa.transpose %4022, %1058 : (tensor<1x32x384xf32>, tensor<3xi32>) -> tensor<384x32x1xf32>
    %4024 = tosa.slice %4017 {size = array<i64: 1, 32, 384>, start = array<i64: 3, 0, 0>} : (tensor<4x32x384xf32>) -> tensor<1x32x384xf32>
    %4025 = tosa.transpose %4024, %1058 : (tensor<1x32x384xf32>, tensor<3xi32>) -> tensor<384x32x1xf32>
    %4026 = tosa.reshape %4019 {new_shape = array<i64: 384, 32>} : (tensor<384x32x1xf32>) -> tensor<384x32xf32>
    %4027 = tosa.reshape %4013 {new_shape = array<i64: 384, 32>} : (tensor<1x384x32xf32>) -> tensor<384x32xf32>
    %4028 = tosa.fully_connected %4027, %4026, %295 : (tensor<384x32xf32>, tensor<384x32xf32>, tensor<384xf32>) -> tensor<384x384xf32>
    %4029 = tosa.reshape %4021 {new_shape = array<i64: 384, 32>} : (tensor<384x32x1xf32>) -> tensor<384x32xf32>
    %4030 = tosa.reshape %4014 {new_shape = array<i64: 384, 32>} : (tensor<1x384x32xf32>) -> tensor<384x32xf32>
    %4031 = tosa.fully_connected %4030, %4029, %295 : (tensor<384x32xf32>, tensor<384x32xf32>, tensor<384xf32>) -> tensor<384x384xf32>
    %4032 = tosa.reshape %4023 {new_shape = array<i64: 384, 32>} : (tensor<384x32x1xf32>) -> tensor<384x32xf32>
    %4033 = tosa.reshape %4015 {new_shape = array<i64: 384, 32>} : (tensor<1x384x32xf32>) -> tensor<384x32xf32>
    %4034 = tosa.fully_connected %4033, %4032, %295 : (tensor<384x32xf32>, tensor<384x32xf32>, tensor<384xf32>) -> tensor<384x384xf32>
    %4035 = tosa.reshape %4025 {new_shape = array<i64: 384, 32>} : (tensor<384x32x1xf32>) -> tensor<384x32xf32>
    %4036 = tosa.reshape %4016 {new_shape = array<i64: 384, 32>} : (tensor<1x384x32xf32>) -> tensor<384x32xf32>
    %4037 = tosa.fully_connected %4036, %4035, %295 : (tensor<384x32xf32>, tensor<384x32xf32>, tensor<384xf32>) -> tensor<384x384xf32>
    %4038 = tosa.concat %4028, %4031, %4034, %4037 {axis = 0 : i32} : (tensor<384x384xf32>, tensor<384x384xf32>, tensor<384x384xf32>, tensor<384x384xf32>) -> tensor<1536x384xf32>
    %4039 = tosa.reshape %4038 {new_shape = array<i64: 4, 384, 384>} : (tensor<1536x384xf32>) -> tensor<4x384x384xf32>
    %4040 = tosa.mul %4039, %289 {shift = 0 : i8} : (tensor<4x384x384xf32>, tensor<1x1x1xf32>) -> tensor<4x384x384xf32>
    %4041 = tosa.reshape %4040 {new_shape = array<i64: 1, 4, 384, 384>} : (tensor<4x384x384xf32>) -> tensor<1x4x384x384xf32>
    %4042 = tosa.add %4041, %1088 : (tensor<1x4x384x384xf32>, tensor<1x1x384x384xf32>) -> tensor<1x4x384x384xf32>
    %4043 = tosa.reduce_max %4042 {axis = 3 : i32} : (tensor<1x4x384x384xf32>) -> tensor<1x4x384x1xf32>
    %4044 = tosa.sub %4042, %4043 : (tensor<1x4x384x384xf32>, tensor<1x4x384x1xf32>) -> tensor<1x4x384x384xf32>
    %4045 = tosa.exp %4044 : (tensor<1x4x384x384xf32>) -> tensor<1x4x384x384xf32>
    %4046 = tosa.reduce_sum %4045 {axis = 3 : i32} : (tensor<1x4x384x384xf32>) -> tensor<1x4x384x1xf32>
    %4047 = tosa.reciprocal %4046 : (tensor<1x4x384x1xf32>) -> tensor<1x4x384x1xf32>
    %4048 = tosa.mul %4045, %4047 {shift = 0 : i8} : (tensor<1x4x384x384xf32>, tensor<1x4x384x1xf32>) -> tensor<1x4x384x384xf32>
    %4049 = tosa.reshape %4048 {new_shape = array<i64: 4, 384, 384>} : (tensor<1x4x384x384xf32>) -> tensor<4x384x384xf32>
    %4050 = tosa.slice %4049 {size = array<i64: 1, 384, 384>, start = array<i64: 0, 0, 0>} : (tensor<4x384x384xf32>) -> tensor<1x384x384xf32>
    %4051 = tosa.slice %4049 {size = array<i64: 1, 384, 384>, start = array<i64: 1, 0, 0>} : (tensor<4x384x384xf32>) -> tensor<1x384x384xf32>
    %4052 = tosa.slice %4049 {size = array<i64: 1, 384, 384>, start = array<i64: 2, 0, 0>} : (tensor<4x384x384xf32>) -> tensor<1x384x384xf32>
    %4053 = tosa.slice %4049 {size = array<i64: 1, 384, 384>, start = array<i64: 3, 0, 0>} : (tensor<4x384x384xf32>) -> tensor<1x384x384xf32>
    %4054 = tosa.reshape %4010 {new_shape = array<i64: 4, 384, 32>} : (tensor<1x4x384x32xf32>) -> tensor<4x384x32xf32>
    %4055 = tosa.slice %4054 {size = array<i64: 1, 384, 32>, start = array<i64: 0, 0, 0>} : (tensor<4x384x32xf32>) -> tensor<1x384x32xf32>
    %4056 = tosa.transpose %4055, %1058 : (tensor<1x384x32xf32>, tensor<3xi32>) -> tensor<32x384x1xf32>
    %4057 = tosa.slice %4054 {size = array<i64: 1, 384, 32>, start = array<i64: 1, 0, 0>} : (tensor<4x384x32xf32>) -> tensor<1x384x32xf32>
    %4058 = tosa.transpose %4057, %1058 : (tensor<1x384x32xf32>, tensor<3xi32>) -> tensor<32x384x1xf32>
    %4059 = tosa.slice %4054 {size = array<i64: 1, 384, 32>, start = array<i64: 2, 0, 0>} : (tensor<4x384x32xf32>) -> tensor<1x384x32xf32>
    %4060 = tosa.transpose %4059, %1058 : (tensor<1x384x32xf32>, tensor<3xi32>) -> tensor<32x384x1xf32>
    %4061 = tosa.slice %4054 {size = array<i64: 1, 384, 32>, start = array<i64: 3, 0, 0>} : (tensor<4x384x32xf32>) -> tensor<1x384x32xf32>
    %4062 = tosa.transpose %4061, %1058 : (tensor<1x384x32xf32>, tensor<3xi32>) -> tensor<32x384x1xf32>
    %4063 = tosa.reshape %4056 {new_shape = array<i64: 32, 384>} : (tensor<32x384x1xf32>) -> tensor<32x384xf32>
    %4064 = tosa.reshape %4050 {new_shape = array<i64: 384, 384>} : (tensor<1x384x384xf32>) -> tensor<384x384xf32>
    %4065 = tosa.fully_connected %4064, %4063, %294 : (tensor<384x384xf32>, tensor<32x384xf32>, tensor<32xf32>) -> tensor<384x32xf32>
    %4066 = tosa.reshape %4058 {new_shape = array<i64: 32, 384>} : (tensor<32x384x1xf32>) -> tensor<32x384xf32>
    %4067 = tosa.reshape %4051 {new_shape = array<i64: 384, 384>} : (tensor<1x384x384xf32>) -> tensor<384x384xf32>
    %4068 = tosa.fully_connected %4067, %4066, %294 : (tensor<384x384xf32>, tensor<32x384xf32>, tensor<32xf32>) -> tensor<384x32xf32>
    %4069 = tosa.reshape %4060 {new_shape = array<i64: 32, 384>} : (tensor<32x384x1xf32>) -> tensor<32x384xf32>
    %4070 = tosa.reshape %4052 {new_shape = array<i64: 384, 384>} : (tensor<1x384x384xf32>) -> tensor<384x384xf32>
    %4071 = tosa.fully_connected %4070, %4069, %294 : (tensor<384x384xf32>, tensor<32x384xf32>, tensor<32xf32>) -> tensor<384x32xf32>
    %4072 = tosa.reshape %4062 {new_shape = array<i64: 32, 384>} : (tensor<32x384x1xf32>) -> tensor<32x384xf32>
    %4073 = tosa.reshape %4053 {new_shape = array<i64: 384, 384>} : (tensor<1x384x384xf32>) -> tensor<384x384xf32>
    %4074 = tosa.fully_connected %4073, %4072, %294 : (tensor<384x384xf32>, tensor<32x384xf32>, tensor<32xf32>) -> tensor<384x32xf32>
    %4075 = tosa.concat %4065, %4068, %4071, %4074 {axis = 0 : i32} : (tensor<384x32xf32>, tensor<384x32xf32>, tensor<384x32xf32>, tensor<384x32xf32>) -> tensor<1536x32xf32>
    %4076 = tosa.reshape %4075 {new_shape = array<i64: 4, 384, 32>} : (tensor<1536x32xf32>) -> tensor<4x384x32xf32>
    %4077 = tosa.transpose %4076, %1057 : (tensor<4x384x32xf32>, tensor<3xi32>) -> tensor<384x4x32xf32>
    %4078 = tosa.reshape %4077 {new_shape = array<i64: 384, 128>} : (tensor<384x4x32xf32>) -> tensor<384x128xf32>
    %4079 = tosa.fully_connected %4078, %320, %319 : (tensor<384x128xf32>, tensor<128x128xf32>, tensor<128xf32>) -> tensor<384x128xf32>
    %4080 = tosa.reshape %4079 {new_shape = array<i64: 1, 384, 128>} : (tensor<384x128xf32>) -> tensor<1x384x128xf32>
    %4081 = tosa.add %4080, %4002 : (tensor<1x384x128xf32>, tensor<1x384x128xf32>) -> tensor<1x384x128xf32>
    %4082 = tosa.mul %4081, %12 {shift = 0 : i8} : (tensor<1x384x128xf32>, tensor<1x1x128xf32>) -> tensor<1x384x128xf32>
    %4083 = tosa.add %4082, %11 : (tensor<1x384x128xf32>, tensor<1x1x128xf32>) -> tensor<1x384x128xf32>
    %4084 = tosa.reshape %4083 {new_shape = array<i64: 384, 128>} : (tensor<1x384x128xf32>) -> tensor<384x128xf32>
    %4085 = tosa.fully_connected %4084, %318, %317 : (tensor<384x128xf32>, tensor<512x128xf32>, tensor<512xf32>) -> tensor<384x512xf32>
    %4086 = tosa.clamp %4085 {max_fp = 3.40282347E+38 : f32, max_int = 2147483647 : i64, min_fp = 0.000000e+00 : f32, min_int = 0 : i64} : (tensor<384x512xf32>) -> tensor<384x512xf32>
    %4087 = tosa.fully_connected %4086, %316, %315 : (tensor<384x512xf32>, tensor<128x512xf32>, tensor<128xf32>) -> tensor<384x128xf32>
    %4088 = tosa.reshape %4087 {new_shape = array<i64: 1, 384, 128>} : (tensor<384x128xf32>) -> tensor<1x384x128xf32>
    %4089 = tosa.add %4088, %4083 : (tensor<1x384x128xf32>, tensor<1x384x128xf32>) -> tensor<1x384x128xf32>
    %4090 = tosa.mul %4089, %10 {shift = 0 : i8} : (tensor<1x384x128xf32>, tensor<1x1x128xf32>) -> tensor<1x384x128xf32>
    %4091 = tosa.add %4090, %9 : (tensor<1x384x128xf32>, tensor<1x1x128xf32>) -> tensor<1x384x128xf32>
    %4092 = tosa.reshape %4091 {new_shape = array<i64: 384, 128>} : (tensor<1x384x128xf32>) -> tensor<384x128xf32>
    %4093 = tosa.fully_connected %4092, %314, %313 : (tensor<384x128xf32>, tensor<512x128xf32>, tensor<512xf32>) -> tensor<384x512xf32>
    %4094 = tosa.clamp %4093 {max_fp = 3.40282347E+38 : f32, max_int = 2147483647 : i64, min_fp = 0.000000e+00 : f32, min_int = 0 : i64} : (tensor<384x512xf32>) -> tensor<384x512xf32>
    %4095 = tosa.fully_connected %4094, %312, %311 : (tensor<384x512xf32>, tensor<128x512xf32>, tensor<128xf32>) -> tensor<384x128xf32>
    %4096 = tosa.reshape %4095 {new_shape = array<i64: 1, 384, 128>} : (tensor<384x128xf32>) -> tensor<1x384x128xf32>
    %4097 = tosa.add %4096, %4091 : (tensor<1x384x128xf32>, tensor<1x384x128xf32>) -> tensor<1x384x128xf32>
    %4098 = tosa.mul %4097, %8 {shift = 0 : i8} : (tensor<1x384x128xf32>, tensor<1x1x128xf32>) -> tensor<1x384x128xf32>
    %4099 = tosa.add %4098, %7 : (tensor<1x384x128xf32>, tensor<1x1x128xf32>) -> tensor<1x384x128xf32>
    %4100 = tosa.reshape %4099 {new_shape = array<i64: 384, 128>} : (tensor<1x384x128xf32>) -> tensor<384x128xf32>
    %4101 = tosa.fully_connected %4100, %310, %309 : (tensor<384x128xf32>, tensor<512x128xf32>, tensor<512xf32>) -> tensor<384x512xf32>
    %4102 = tosa.clamp %4101 {max_fp = 3.40282347E+38 : f32, max_int = 2147483647 : i64, min_fp = 0.000000e+00 : f32, min_int = 0 : i64} : (tensor<384x512xf32>) -> tensor<384x512xf32>
    %4103 = tosa.fully_connected %4102, %308, %307 : (tensor<384x512xf32>, tensor<128x512xf32>, tensor<128xf32>) -> tensor<384x128xf32>
    %4104 = tosa.reshape %4103 {new_shape = array<i64: 1, 384, 128>} : (tensor<384x128xf32>) -> tensor<1x384x128xf32>
    %4105 = tosa.add %4104, %4099 : (tensor<1x384x128xf32>, tensor<1x384x128xf32>) -> tensor<1x384x128xf32>
    %4106 = tosa.mul %4105, %6 {shift = 0 : i8} : (tensor<1x384x128xf32>, tensor<1x1x128xf32>) -> tensor<1x384x128xf32>
    %4107 = tosa.add %4106, %5 : (tensor<1x384x128xf32>, tensor<1x1x128xf32>) -> tensor<1x384x128xf32>
    %4108 = tosa.reshape %4107 {new_shape = array<i64: 384, 128>} : (tensor<1x384x128xf32>) -> tensor<384x128xf32>
    %4109 = tosa.fully_connected %4108, %306, %305 : (tensor<384x128xf32>, tensor<512x128xf32>, tensor<512xf32>) -> tensor<384x512xf32>
    %4110 = tosa.clamp %4109 {max_fp = 3.40282347E+38 : f32, max_int = 2147483647 : i64, min_fp = 0.000000e+00 : f32, min_int = 0 : i64} : (tensor<384x512xf32>) -> tensor<384x512xf32>
    %4111 = tosa.fully_connected %4110, %304, %303 : (tensor<384x512xf32>, tensor<128x512xf32>, tensor<128xf32>) -> tensor<384x128xf32>
    %4112 = tosa.reshape %4111 {new_shape = array<i64: 1, 384, 128>} : (tensor<384x128xf32>) -> tensor<1x384x128xf32>
    %4113 = tosa.add %4112, %4107 : (tensor<1x384x128xf32>, tensor<1x384x128xf32>) -> tensor<1x384x128xf32>
    %4114 = tosa.mul %4113, %4 {shift = 0 : i8} : (tensor<1x384x128xf32>, tensor<1x1x128xf32>) -> tensor<1x384x128xf32>
    %4115 = tosa.add %4114, %3 : (tensor<1x384x128xf32>, tensor<1x1x128xf32>) -> tensor<1x384x128xf32>
    %4116 = tosa.reshape %4115 {new_shape = array<i64: 384, 128>} : (tensor<1x384x128xf32>) -> tensor<384x128xf32>
    %4117 = tosa.fully_connected %4116, %302, %301 : (tensor<384x128xf32>, tensor<512x128xf32>, tensor<512xf32>) -> tensor<384x512xf32>
    %4118 = tosa.reshape %4117 {new_shape = array<i64: 1, 384, 512>} : (tensor<384x512xf32>) -> tensor<1x384x512xf32>
    %4119 = tosa.add %4118, %3995 : (tensor<1x384x512xf32>, tensor<1x384x512xf32>) -> tensor<1x384x512xf32>
    %4120 = tosa.mul %4119, %2 {shift = 0 : i8} : (tensor<1x384x512xf32>, tensor<1x1x512xf32>) -> tensor<1x384x512xf32>
    %4121 = tosa.add %4120, %1 : (tensor<1x384x512xf32>, tensor<1x1x512xf32>) -> tensor<1x384x512xf32>
    %4122 = tosa.reshape %4121 {new_shape = array<i64: 384, 512>} : (tensor<1x384x512xf32>) -> tensor<384x512xf32>
    %4123 = tosa.fully_connected %4122, %300, %299 : (tensor<384x512xf32>, tensor<2x512xf32>, tensor<2xf32>) -> tensor<384x2xf32>
    %4124 = tosa.transpose %4123, %298 : (tensor<384x2xf32>, tensor<2xi32>) -> tensor<2x384xf32>
    %4125 = tosa.reshape %4124 {new_shape = array<i64: 2, 1, 384>} : (tensor<2x384xf32>) -> tensor<2x1x384xf32>
    %4126 = tosa.slice %4125 {size = array<i64: 1, 1, 384>, start = array<i64: 0, 0, 0>} : (tensor<2x1x384xf32>) -> tensor<1x1x384xf32>
    %4127 = tosa.reshape %4126 {new_shape = array<i64: 1, 384>} : (tensor<1x1x384xf32>) -> tensor<1x384xf32>
    %4128 = tosa.slice %4125 {size = array<i64: 1, 1, 384>, start = array<i64: 1, 0, 0>} : (tensor<2x1x384xf32>) -> tensor<1x1x384xf32>
    %4129 = tosa.reshape %4128 {new_shape = array<i64: 1, 384>} : (tensor<1x1x384xf32>) -> tensor<1x384xf32>
    return %4129, %4127 : tensor<1x384xf32>, tensor<1x384xf32>
  }
}

